notebooks/outputs/temp_B02_fold5_last.pth (torch, 31912 bytes, 18 tensors)

firstconv.0.weight f4 [16, 1, 1, 125]
000000 8f 7b 23 bd 3e c0 2d bd fd a7 ab bd 5d 78 3d 3c
       -0.039912757 -0.042419665 -0.083816506 0.011564341
000010 44 e8 25 bd d2 85 37 bd de d0 96 bd bc 96 96 3d
       -0.04050471 -0.044805355 -0.07364057 0.07352969
000020 d4 ae 89 3d a2 8a b3 bd 44 ef f0 bd 83 a6 ea bc
       0.06722799 -0.087666765 -0.11764386 -0.028643852
000030 48 3e 63 bd 85 9a 9c bd 6f 5a 94 bd 47 61 c4 bd
       -0.055479318 -0.0764666 -0.07243811 -0.09588867
000040 cc 9e 8c bd 08 26 61 bd 10 6d 3d bd eb 50 89 3c
       -0.068662256 -0.05496791 -0.04624659 0.016762218
000050 c7 a9 a4 bd 4c ee 8c bd 7e 7b 3b bd 9b 13 ab bd
       -0.08040195 -0.06881389 -0.04577207 -0.08353349
000060 11 a8 e4 bd cd 49 3a bd b8 c0 83 bd e6 76 70 3c
       -0.111648686 -0.04548054 -0.064332426 0.014676785
000070 b4 4c 42 3d 04 fa 50 bd 7d 78 69 bd 00 0b 5b 3d
       0.04743643 -0.051019683 -0.056999672 0.053477287
000080 5e 6b 61 bd e1 f6 19 bd c6 e8 73 3c e4 28 4b bd
       -0.055034034 -0.037588958 0.0148870405 -0.049599543
000090 08 f4 65 3c ba d3 db 3d 19 4e 42 bd 0c 9f c9 3d
       0.014035232 0.10733743 -0.04743776 0.09844789
0000a0 7d bd d5 3d 4d 0f 86 3d e7 05 46 3d 94 2a 82 bc
       0.10436533 0.06545887 0.048345473 -0.015889443
0000b0 51 bd d0 3d 14 87 48 3c 9f 73 74 bd ac 09 2c 3c
       0.10192359 0.012239236 -0.059680577 0.010500353
0000c0 a4 d7 33 3d 9a c7 c4 3d 18 7c 41 3b b6 85 2f 3a
       0.043906823 0.096083835 0.0029523429 0.00066956447
0000d0 df ac 97 3d 0f 3a 27 bc c5 95 67 3d 18 85 6e bc
       0.074060194 -0.010206713 0.056539316 -0.014558099
0000e0 ff 01 31 bd 1b 2c a9 3d 69 c2 dd b9 4f d2 c4 bc
       -0.043214794 0.082603656 -0.00042297252 -0.024026064
0000f0 c4 1b 24 3d 56 05 b8 bc cd fe a9 bc 56 db 8b bd
       0.040065542 -0.022463482 -0.020751381 -0.068289444
000100 d6 76 d7 bc 42 8b 16 bb b2 d7 90 3d 15 7f da 3c
       -0.026301783 -0.0022971188 0.070723906 0.026671926
000110 b7 45 cb bd 1b 9c ae bd 90 e6 d1 bc 96 3b 19 bd
       -0.099254064 -0.085258685 -0.025622636 -0.03741034
000120 11 99 46 bd 71 c1 92 3c 32 7f d9 bc 75 53 82 bb
       -0.04848582 0.017914506 -0.02654991 -0.003977234
000130 18 c7 6c bd 9f 31 34 3d 79 82 f6 3c 3f 85 5b 3d
       -0.057807058 0.043992635 0.030091511 0.05359387
000140 4c ae 2c bd 19 3c 83 3d 51 04 78 3d f3 d2 36 bd
       -0.04215841 0.06407947 0.06055099 -0.04463477
000150 17 1e 74 3d 29 9b 72 3d 90 8c 64 bc a8 d5 54 bd
       0.05959901 0.059230004 -0.013949528 -0.05196157
000160 83 4b 2d bd d8 51 9c 3d 55 a9 f9 3c 8c 99 5f 3d
       -0.04230834 0.07632798 0.030476252 0.054589793
000170 a2 ae 41 3d d5 13 65 3d b7 d4 8e 3d 15 b8 82 3c
       0.047285683 0.055927116 0.06974166 0.015956918
000180 04 d9 1c 3d 66 bd 6f bd ab 7c 7c 3d 05 3a 4c bd
       0.0382929 -0.058530234 0.06164233 -0.04986002
000190 0c 86 65 bd 2d 17 b4 bc a5 d5 39 bd b1 4d f5 bc
       -0.05603604 -0.021983707 -0.045369763 -0.029944273
0001a0 a2 ac 90 bd 1e 72 51 bd 21 fd 84 bd 12 95 2f bd
       -0.07064177 -0.05113422 -0.06493593 -0.042866774
0001b0 ec 5b b5 bc f3 8d e7 3a 5b 3b 4f bd 55 ed 39 3d
       -0.022138558 0.0017666206 -0.050593715 0.045392353
0001c0 88 df a5 3d 93 c2 3c 3d ca 15 3e 3d 15 65 08 3d
       0.08099276 0.046083998 0.0464075 0.033299524
0001d0 8f b1 63 3d 50 ca ec bc 9c ba 52 bd bf b9 48 3d
       0.055589255 -0.028905064 -0.051447496 0.049005266
0001e0 8a df 1c 3c 60 87 ff bc aa 95 2f 3d 3f 07 a8 bd
       0.00957478 -0.031192482 0.04286734 -0.08204507
0001f0 6c be c6 3c bd 30 88 bb 09 1c d7 3d 62 d1 1b 3d
       0.024260722 -0.0041562007 0.10503394 0.03804148
000200 8e 52 74 bd 49 ce 21 3d a1 dd 8d bd 3c b7 ef 3b
       -0.059649043 0.03950337 -0.06927038 0.0073155444
000210 21 b9 a3 bc 56 9a 42 bd bc 60 29 39 cb fe 8a 3d
       -0.019985737 -0.047510467 0.00016153132 0.06786879
000220 87 aa 15 bd db 95 26 bd 60 24 b1 3d 81 49 8e 3d
       -0.03653958 -0.040670257 0.08649516 0.069476135
000230 81 60 b0 3c de 95 67 bd 8a 5d 91 3c 6f 0e 6b 3d
       0.021530392 -0.05653941 0.017744798 0.05738681
000240 3e a7 98 3d d5 6b 98 3c 83 3e 29 3d c7 be 62 3d
       0.07453774 0.018606106 0.04131938 0.05535772
000250 e5 86 e2 bb 36 c6 95 bd 0d c0 78 bc be cc 9d bd
       -0.0069130533 -0.07313196 -0.015182507 -0.07705067
000260 5d 8d 6c 3c b0 ad 19 3d 75 8f a3 bd 17 5d 2c bc
       0.0144380005 0.037519157 -0.07986347 -0.010520241
000270 10 2d cf ba 71 88 94 bd 64 34 66 bd c9 59 8a 3c
       -0.0015806276 -0.07252587 -0.056202307 0.016888516
000280 a4 4a 6f bd 37 f9 7d 3d 4e e1 90 bc bb c8 89 bd
       -0.058420792 0.062005248 -0.017685559 -0.067277394
000290 8e b5 48 3d 22 cd 73 bc 18 91 eb 3c 2d c3 b9 3c
       0.04900127 -0.01488045 0.02875571 0.022676075
0002a0 a0 c2 3a 3d c6 c0 4c bd f5 de 5a bd 95 2d 33 3d
       0.045595765 -0.04998853 -0.053435285 0.043744642
0002b0 82 49 b8 bd ee f9 9d 3d a4 f1 c9 bd fe f8 a0 bd
       -0.089983955 0.07713686 -0.098605424 -0.078599915
0002c0 db e7 50 bc c0 e5 81 bd 09 87 33 3d 95 80 40 bc
       -0.012750591 -0.063426495 0.04382995 -0.011749406
0002d0 77 c0 83 bd 58 b4 5f 3d 2a a0 19 bd 69 08 28 bc
       -0.06433194 0.05461535 -0.03750626 -0.010255911
0002e0 60 f1 44 3d b4 5d 47 bc c3 15 56 bd 87 c1 4e 3d
       0.048081756 -0.012168337 -0.052266847 0.05047753
0002f0 6a 6d 5b bd 46 2b 94 3d 7f 16 d0 3c aa ee 0f bd
       -0.053571142 0.07234816 0.025401352 -0.035139717
000300 0e ae 2b bd 34 98 86 3d fa 1c 52 3c 89 7a b3 3b
       -0.04191404 0.06571999 0.012824291 0.005477254
000310 1e da 02 3d 2f 72 a4 bc 6e 11 2a 3b 28 cd 17 3c
       0.031946294 -0.020073978 0.002595033 0.009265222
000320 37 23 3e bd 7b 9f 7c bd 6f 31 aa 3d 95 e3 ad 3a
       -0.046420302 -0.06167553 0.0831021 0.0013266677
000330 fe da b5 bd a5 0c 47 bc 27 28 3c bd 89 49 44 3d
       -0.0887966 -0.012149011 -0.04593673 0.04792169
000340 8e d4 38 bd 4a 3d 91 bd ce 70 8e bc 55 85 ca 3c
       -0.045124583 -0.07091768 -0.017387774 0.02472178
000350 bb 09 9f bd 1c 0d 7b bc 9e b5 66 bd 5c a1 80 bd
       -0.07765528 -0.01532295 -0.056325547 -0.06280777
000360 e3 0c 42 bd 60 bc 96 bd 9a 2b 0e bd 79 4a 1a bc
       -0.04737557 -0.073601484 -0.03470955 -0.00941717
000370 b7 ba 26 bc ea 04 83 bd a4 27 c2 3c 22 9d 82 bd
       -0.010176352 -0.06397422 0.023700543 -0.06377627
000380 17 c0 92 3d f7 1a 8a 3d d3 41 66 3d 7c 81 e3 bc
       0.071655445 0.067434244 0.05621512 -0.027771704
000390 70 cc 68 3d 3d 27 8d 3d c9 e5 81 3d 06 4e 57 3d
       0.05683559 0.0689225 0.06342656 0.052564643
0003a0 b2 5d 60 3d d3 3c 36 3d 37 36 93 bd a8 85 a7 bd
       0.054776855 0.0444916 -0.07188075 -0.0817979
0003b0 e2 16 66 bc 15 fb 6a bd 00 41 b7 bd 3e f2 b3 3c
       -0.014043542 -0.057368357 -0.08947945 0.021966096
0003c0 3a 49 92 bd ad 4b 82 3d 2e 19 0c bd d6 7d 67 3d
       -0.07142873 0.0636209 -0.0342037 0.05651649
0003d0 2e 79 be bd 12 71 32 3d 4d 3f 0c 3d 52 22 e9 3c
       -0.09300457 0.043564864 0.034240056 0.028458748
0003e0 c4 71 76 3c a1 fd 37 3c 99 d6 77 bd b2 55 44 3c
       0.015041772 0.011229903 -0.06050739 0.011983322
0003f0 98 8c 8a 3d 4f a6 92 3d e1 69 95 3d 9c 97 a4 3c
       0.067650974 0.07160627 0.072955854 0.020091824

firstconv.1.weight f4 [16]
000000 af 55 83 3f 95 8a 7d 3f 0a 0c 7e 3f 42 cf 7c 3f
       1.0260524 0.99039584 0.9923712 0.9875375
000010 08 89 80 3f a0 69 84 3f 4b 07 78 3f e1 82 84 3f
       1.0041819 1.0344734 0.9688613 1.0352441
000020 69 3f 7e 3f 1b a5 79 3f ae 09 80 3f 63 13 83 3f
       0.99315506 0.97517556 1.0002954 1.0240291
000030 32 05 84 3f a7 a0 85 3f 42 81 7b 3f 1d b6 7d 3f
       1.0314085 1.0439652 0.98244107 0.9910601

firstconv.1.bias f4 [16]
000000 9b 84 17 bb 18 26 0e 3a 29 a6 cc ba c4 bf c9 bb
       -0.002311981 0.00054225465 -0.0015613484 -0.0061568934
000010 5e 25 e5 bb 20 38 fb 3a 9a 2e b3 ba 90 f2 12 bb
       -0.00699298 0.0019166507 -0.0013670505 -0.002242241
000020 4d c7 b1 bb 98 a0 da 3a ec 5c f2 b9 28 63 3a ba
       -0.00542537 0.0016679941 -0.0004622707 -0.00071101123
000030 30 65 02 bc d5 c1 92 3a 1d 36 eb ba 1a 23 04 ba
       -0.007958695 0.0011196682 -0.0017945204 -0.0005040631

firstconv.1.running_mean f4 [16]
000000 79 6d 18 31 0a 52 ec 2f fc ff 9c af 9f 64 2d 30
       2.218114e-09 4.2986442e-10 -2.8558123e-10 6.3080025e-10
000010 b0 e1 ac 30 27 5d a6 30 e4 82 81 b0 71 eb 9c af
       1.2578791e-09 1.2104565e-09 -9.423187e-10 -2.8543526e-10
000020 e4 52 4c 30 04 50 bd af e6 91 c3 2f 15 5f e6 b0
       7.433256e-10 -3.4435754e-10 3.557396e-10 -1.6761726e-09
000030 1f 21 aa af 2c cf ab b0 e8 a6 3f 2f b4 c4 bc 30
       -3.0946354e-10 -1.2500769e-09 1.7430646e-10 1.3734707e-09

firstconv.1.running_var f4 [16]
000000 d2 67 a9 2c 27 db 0c 2c 21 28 06 2c 8c 9d db 2b
       4.8147953e-12 2.001685e-12 1.9064821e-12 1.5604614e-12
000010 22 70 e9 2b a1 e3 89 2c d9 ce c5 2b 93 11 a4 2c
       1.6586769e-12 3.919046e-12 1.4055104e-12 4.6631115e-12
000020 63 ee f5 2b 68 8e 94 2b 2c 4e d9 2b 12 36 1c 2c
       1.7474463e-12 1.0555558e-12 1.5440474e-12 2.2198948e-12
000030 c2 9b ed 2b 8b 9c 88 2c b0 c8 7d 2b 54 59 bd 2b
       1.6883094e-12 3.8827322e-12 9.0162166e-13 1.3454051e-12

depthwiseConv.0.weight f4 [32, 1, 3, 1]
000000 c7 b4 c3 3d 14 0a b9 be 01 80 0f 3e 66 c8 b6 be
       0.09555965 -0.36140501 0.14013673 -0.35699767
000010 d0 4f bf bd 96 a2 16 3f c9 c7 c7 3d 5f d2 61 3e
       -0.09341395 0.58841836 0.09754903 0.22052906
000020 82 46 b3 bd 27 80 8d 3e bd f5 88 3d 40 74 30 be
       -0.08753683 0.27636835 0.06687496 -0.17231846
000030 3b 37 01 3f 70 ca f6 3e 99 a9 b8 be 4b b9 d7 be
       0.504749 0.48201323 -0.36066893 -0.42133555
000040 9b cf 76 be 26 02 17 be ec 6e 4a be 97 cf a5 be
       -0.24102633 -0.14746913 -0.19768876 -0.3238494
000050 6e 14 bb be 37 4c 7a 3e f4 e0 5f 3e f0 0b a4 be
       -0.36539024 0.24443136 0.21863157 -0.32040358
000060 26 c7 73 3e b0 18 9d 3e 42 25 48 3d 50 37 aa be
       0.23806438 0.30682898 0.048863657 -0.33245325
000070 2f 7e e3 be e0 63 3e 3d 66 4d 7b 3e 52 6a da be
       -0.44432208 0.046481967 0.24541244 -0.4265924
000080 d1 71 0c be 1e bd 8c be 5b 8a 6c 3e d3 dd c2 3e
       -0.13715293 -0.27488035 0.23099653 0.38059863
000090 af 1f 0d 3f 0d cc cf 3e 8f ce 65 3e 37 2f 09 bf
       0.5512647 0.40585366 0.22442077 -0.5358767
0000a0 f4 78 84 be f4 dc 10 be f9 70 33 3e 2a 4c 2a 3e
       -0.2587353 -0.14146787 0.17523564 0.16630617
0000b0 32 21 b4 be b5 1e 55 be 52 21 16 3e 3d f4 c2 be
       -0.35181576 -0.20812495 0.14661148 -0.38076964
0000c0 d3 48 a1 be f7 7e 03 bf 5c 21 a4 3d 42 a9 25 be
       -0.31500873 -0.5136561 0.08014175 -0.16177848
0000d0 bc d8 0d 3f 30 a9 c9 3e 97 a3 fc be 30 47 4b be
       0.55408835 0.39386892 -0.4934356 -0.19851375
0000e0 e5 4f 01 bf a9 71 9f be 14 ef 49 3e c3 78 0d bf
       -0.50512534 -0.31141403 0.19720107 -0.5526239
0000f0 b7 f8 3f 3e ab 9d d6 3e bc c6 0b be 1e 33 b9 3e
       0.18747221 0.41917166 -0.1365003 0.36171812
000100 66 1a 0c 3f c5 96 57 be ab bb d1 be 0a 92 ee be
       0.5472778 -0.21053608 -0.40963492 -0.46595794
000110 61 97 02 3f 15 f2 d8 3e e3 b8 7c 3e 56 86 17 3e
       0.51012236 0.42372194 0.24679904 0.14797339
000120 3d 91 ab 3d 26 fa 18 3f ac ee 26 be 23 87 1c be
       0.083773114 0.59756696 -0.16301984 -0.15285926
000130 21 69 db bc 3f 19 b2 3e a1 60 75 be 5c 13 bf be
       -0.026783528 0.34784886 -0.23962642 -0.37319458
000140 15 29 af be 86 b8 c0 bd 91 b4 12 3f bb e8 5f be
       -0.3421103 -0.09410195 0.5730677 -0.21866123
000150 05 3a 82 3e c1 34 c3 be 0d 97 7e be 62 f2 07 3f
       0.2543489 -0.38126186 -0.24862309 0.5310422
000160 c0 a1 a3 be 40 7c 08 3f f7 a8 ed be 0f 60 50 3b
       -0.31959343 0.5331459 -0.46417972 0.0031795537
000170 48 6d c9 be cb da d3 3e 3b bf 93 bc ce d9 25 be
       -0.39341187 0.41377863 -0.018035522 -0.16196367

depthwiseConv.1.weight f4 [32]
000000 4a 71 7b 3f ba 0a 84 3f 2d ed 7d 3f 51 d9 7b 3f
       0.9821974 1.0315773 0.99190027 0.98378474
000010 d5 02 82 3f f7 e4 7a 3f 6d 7c 79 3f d8 83 81 3f
       1.0157114 0.9800562 0.97455484 1.011836
000020 00 f1 80 3f ba 75 7f 3f 4b 02 83 3f af 0a 82 3f
       1.0073547 0.9978901 1.0235075 1.015951
000030 76 da 78 3f 5e d1 79 3f 95 57 8a 3f 30 dc 7b 3f
       0.97208345 0.97585094 1.0807978 0.98382854
000040 b2 e1 80 3f 16 2d 7b 3f 6a 39 79 3f 75 9e 7d 3f
       1.0068877 0.9811567 0.9735323 0.9906991
000050 a0 12 7f 3f 22 46 7f 3f 3e 6d 87 3f 05 90 79 3f
       0.99637794 0.9971639 1.0580213 0.9748538
000060 c6 b5 83 3f 10 b4 80 3f d6 81 83 3f 70 d7 83 3f
       1.0289848 1.0054951 1.0273998 1.0300121
000070 4b 0f 7e 3f 92 3e 7a 3f 5e c8 7b 3f 5b cf 81 3f
       0.99242085 0.97751725 0.9835261 1.0141405

depthwiseConv.1.bias f4 [32]
000000 a8 c5 01 bc 7f ea 74 bc 4f 95 50 bb bd a9 e4 bb
       -0.00792066 -0.014948486 -0.0031827276 -0.006978242
000010 5f d8 56 bb 31 99 09 bc b6 4c 1d 3b ce 93 30 3b
       -0.0032782776 -0.00839834 0.0024002022 0.0026943567
000020 6f c1 86 39 84 a4 8d 3a b1 6d 47 bb bd db e6 ba
       0.0002570259 0.0010806476 -0.0030430371 -0.0017613095
000030 aa a2 b9 bb 81 25 91 bc 47 9d 68 bc d9 51 1e bc
       -0.005665143 -0.017718079 -0.014197654 -0.009663069
000040 37 09 72 3c ad 57 5a 3c 4e 23 90 ba 3a ea b4 ba
       0.014772705 0.013326568 -0.001099685 -0.0013802715
000050 f5 f7 3f 3c a6 ea 53 3a 9d 88 b0 3a d0 99 fa bb
       0.011716832 0.00080839766 0.0013468448 -0.0076477304
000060 1e ed 1f bc ff e3 a4 3a b4 d6 1e bc 67 9a 36 bb
       -0.009761123 0.0012580155 -0.009694744 -0.0027863027
000070 b8 b7 0d 3b c2 04 97 bb bc 53 18 bc d1 7b 21 bb
       0.0021624397 -0.0046087215 -0.009297308 -0.002464045

depthwiseConv.1.running_mean f4 [32]
000000 7a c9 9c 39 a7 17 ac b9 95 6c 05 39 ae d9 c5 38
       0.0002990475 -0.0003282402 0.00012724318 9.434238e-05
000010 15 0c 82 ba 37 2d a8 3a 86 e7 b4 3b 9c 0a 69 ba
       -0.0009921814 0.0012830858 0.005520764 -0.00088898255
000020 e6 ef 87 bb 79 2a a7 3b 2c 0a 20 ba 95 46 29 3a
       -0.004148471 0.0051014987 -0.00061050314 0.0006457356
000030 95 b4 d9 ba 25 7d ac 3a 49 ae c0 37 34 85 81 3a
       -0.0016609604 0.0013159855 2.2969341e-05 0.0009881617
000040 76 8c 85 3b cd 42 8c bb 5c 2d 05 bb 18 65 94 ba
       0.004075582 -0.004280424 -0.0020321226 -0.0011321632
000050 fa 9c 5e b9 22 53 a5 b9 34 a6 89 39 37 f9 19 ba
       -0.00021230048 -0.0003153319 0.00026254507 -0.0005873623
000060 2f cc 86 bb 1b e3 ae ba 34 af 8d ba 24 6d 9a 39
       -0.004113696 -0.0013342829 -0.0010809661 0.00029454485
000070 63 b5 30 3a 48 38 af ba 12 90 d6 39 dc 9b ea b8
       0.0006740896 -0.0013368214 0.00040924601 -0.000111870206

depthwiseConv.1.running_var f4 [32]
000000 58 2e 86 32 44 5d 66 33 2f d3 3f 32 1e 47 70 32
       1.5620728e-08 5.3635873e-08 1.1165681e-08 1.3986009e-08
000010 52 5b de 33 e3 81 f7 33 82 4d c1 33 f9 f1 74 32
       1.0354292e-07 1.152546e-07 9.0013614e-08 1.42576875e-08
000020 80 fb 5b 33 1c 6f b3 33 d1 f4 fc 32 64 eb 15 33
       5.121865e-08 8.355548e-08 2.944799e-08 3.4905852e-08
000030 e0 45 2d 34 37 cd e9 33 87 63 d7 32 fb fe ef 33
       1.6137301e-07 1.08872364e-07 2.5074554e-08 1.11756854e-07
000040 12 26 c0 33 5d ff 91 33 d2 dc 05 34 f8 2f 56 33
       8.947622e-08 6.798539e-08 1.2466924e-07 4.9869385e-08
000050 12 57 16 33 d8 6b ad 33 5f fa a8 33 95 3a 19 34
       3.5003787e-08 8.075557e-08 7.868652e-08 1.4270547e-07
000060 cd a8 44 33 f1 eb 06 32 88 88 9f 34 bf 4b 55 33
       4.578833e-08 7.853473e-09 2.9715397e-07 4.9661818e-08
000070 38 11 1a 32 53 1e 84 33 a4 b9 cc 33 0b 97 97 32
       8.967895e-09 6.152245e-08 9.533258e-08 1.76474e-08

separableConv.0.weight f4 [32, 1, 1, 16]
000000 42 1a 41 be 81 1f 16 3e 84 a9 10 be f3 15 4a 3e
       -0.18857673 0.14660455 -0.14127165 0.19734935
000010 3d 20 24 3e e6 9b 3e be ac 85 5d be ff 39 13 be
       0.16027923 -0.18614158 -0.21633023 -0.14377593
000020 16 dc 38 be aa a4 0c bc b7 78 3b 3b b5 cd d0 bc
       -0.18052706 -0.008584181 0.0028605887 -0.025488714
000030 85 17 2d 3e 55 1b 10 be 46 d7 ce 3d ab 16 04 be
       0.16903503 -0.14072926 0.10099654 -0.12899272
000040 25 c7 4b be 72 7d 25 be 01 87 2a be 56 36 3c 3e
       -0.19900186 -0.16161135 -0.16653062 0.18380103
000050 60 e9 d8 3d 5d be 46 3e 82 f0 31 be 74 7d 0a 3e
       0.10591388 0.19408555 -0.17376903 0.13524419
000060 9f a3 08 3e e5 ce 50 bd 87 53 6a bc 61 10 81 3d
       0.13343666 -0.05097856 -0.014302141 0.06301952
000070 e8 91 3f bd b1 64 d3 bd 2f 47 71 be 61 7e 74 be
       -0.046770006 -0.1032194 -0.2356231 -0.23876335
000080 09 ed 35 3e 00 b5 28 3e e5 38 35 3e 4d 5b 8b 3d
       0.17766203 0.16475296 0.17697485 0.068045236
000090 7f 7b 7d 3c 14 e2 c3 bd 19 40 1c be b0 0f 8a bd
       0.015471338 -0.09564605 -0.15258826 -0.067412734
0000a0 98 50 b7 3d e8 52 0e 3e cf b9 0d 3e b3 d0 0f bd
       0.08950919 0.13898814 0.13840412 -0.03511114
0000b0 04 34 88 bb dc f8 55 be e1 22 08 3e 8f 4b 38 be
       -0.0041565914 -0.20895714 0.13294555 -0.17997573
0000c0 a9 45 19 be db 36 31 be 34 a7 2d 3b 99 a4 04 bc
       -0.1496798 -0.17306082 0.0026497366 -0.008095884
0000d0 e4 e2 5f bc ea d9 2b be a3 88 0c be 78 32 1a be
       -0.013664935 -0.16782346 -0.13723998 -0.15058315
0000e0 91 ad 2a be dc a2 32 be 03 6c 2e 3d 00 96 85 3c
       -0.16667773 -0.17444938 0.042583477 0.016306877
0000f0 92 e2 0b 3e 0a b2 04 3d 4f bb 66 be 07 4b e6 3d
       0.13660648 0.032396354 -0.2253239 0.11244779
000100 45 d0 e8 bb fe a5 83 be a9 d8 15 be da d5 4c 3d
       -0.007104906 -0.2571258 -0.1463343 0.050008632
000110 19 47 77 be f1 7c 70 3e 9a c9 3a be 55 7c af bc
       -0.24148215 0.23485161 -0.18240967 -0.02142159
000120 dd ed df bd 87 e9 cf bd ba 57 ba 3d f8 53 32 be
       -0.10934041 -0.10151964 0.09098764 -0.17414844
000130 da 4b 54 3e a1 77 ac bd 43 f4 c3 bd b8 39 5c be
       0.2073206 -0.08421255 -0.095680736 -0.21506393
000140 2e 03 03 be cd 9b 14 be 22 ac b3 bd d9 b7 2d 3c
       -0.12794182 -0.14512558 -0.08773066 0.010602915
000150 0c 81 e4 bd 1c f5 ae bd b7 35 2b 3e 15 ce 98 3d
       -0.11157426 -0.08542845 0.1671971 0.07461182
000160 86 be b7 3d ab ea f0 bd 42 ab 4f be 35 8d 6c be
       0.08971886 -0.11763509 -0.20280173 -0.23100741
000170 1e 79 5a be 6d bb 25 3e 3d 53 e3 bd 8e 91 5f be
       -0.21335265 0.16184779 -0.11099861 -0.21832868
000180 2e eb 98 bc 3b 39 35 bd 75 49 00 3e b8 82 45 3e
       -0.01866683 -0.044244032 0.12528022 0.19288146
000190 7f 19 77 be ed 29 11 3e f7 8a 61 be 7f de f1 bd
       -0.2413082 0.1417615 -0.22025667 -0.11810016
0001a0 21 12 e2 bd 41 aa 9d 3c af 4b 43 3e cb 95 9a 3d
       -0.11038614 0.019246222 0.1907184 0.07548102
0001b0 3e 4c 49 3e 56 f1 29 bd 27 54 22 bd 57 17 d5 bd
       0.1965799 -0.04148992 -0.039631035 -0.10404842
0001c0 31 c8 54 3d 7f 73 d6 bd 83 74 48 be e6 ea dc bd
       0.05194873 -0.10471248 -0.19575696 -0.10786991
0001d0 bf 90 87 bd 47 bf 2c 3e 7a b1 10 be 0b 33 d9 3d
       -0.06619405 0.16869842 -0.14130202 0.10605439
0001e0 93 eb 2c be c7 04 28 be 96 d1 0d 3e 37 92 e6 3d
       -0.1688674 -0.16408072 0.13849482 0.11258357
0001f0 35 35 3e 3e d8 5c 8c 3d 7b b1 74 3e f9 6b bb 3c
       0.18574984 0.06853646 0.23895828 0.022878634
000200 2a 1b 48 3e 81 27 1b 3e e5 a2 7a 3e e0 a4 2c be
       0.19541612 0.15151788 0.24476202 -0.1685977
000210 b5 5e 9d bd 31 75 06 be df a5 82 be f9 7a 1b 3e
       -0.076840796 -0.13130642 -0.25517175 0.15183629
000220 96 e1 82 3b 23 e8 7f 3e f8 47 21 be af a4 6d be
       0.003994177 0.24990897 -0.1575011 -0.23207353
000230 f7 37 8d be 2b 29 3f 3e 6f 9b 45 be 65 51 e6 bd
       -0.2758176 0.18668048 -0.19297574 -0.112459935
000240 7e bd 8c bc 76 f2 46 be 16 3c 75 3e 38 fd f0 bd
       -0.0171802 -0.19428429 0.23948702 -0.11767048
000250 28 2d e4 3c 1b bd 2c be e5 43 82 3e 40 70 37 bc
       0.027853563 -0.16869013 0.25442424 -0.011196196
000260 64 d0 9e 3c 68 93 36 3e 51 cc 7f be e8 c4 59 3e
       0.019386478 0.17829669 -0.24980284 0.2126652
000270 1b 92 73 3e ea 5d 6f 3e 1c c9 22 3e e7 67 2a 3e
       0.23786204 0.23375669 0.1589703 0.16641198
000280 af ba f7 bd 94 81 b8 3d 0b 44 a5 bd 11 0d e8 3c
       -0.12096154 0.0900909 -0.08069619 0.028326543
000290 1c f0 78 3d 1a 08 8f 3d 30 d7 42 3d aa 1e 64 3d
       0.06077586 0.06983967 0.0475685 0.055693306
0002a0 21 a7 81 be 08 2f 80 be 87 84 95 bc 97 31 9f 3c
       -0.25322822 -0.25035882 -0.01825167 0.019432826
0002b0 dc 46 3d 3e 99 7b 97 3b c1 8e fe bd 45 bc 11 bd
       0.18484062 0.0046228883 -0.12429572 -0.03557994
0002c0 b1 71 1e be a1 fa 93 bd 88 81 ea 3c f3 69 c1 bd
       -0.15473057 -0.07225538 0.028626218 -0.09444036
0002d0 ac a3 61 3e 01 70 6c 3e 43 88 a8 bd d1 81 b5 bd
       0.22035092 0.23089601 -0.08229115 -0.08862651
0002e0 95 72 92 bd 84 dc 71 be 12 de 7c 3e 7e b0 b3 3d
       -0.07150761 -0.23619276 0.24694088 0.087738976
0002f0 88 83 5c 3e 8f 23 54 3d 44 6c a1 bb de 5d aa bd
       0.2153455 0.051791724 -0.0049262363 -0.08318685
000300 31 db 7b 3e 47 5a 6a be b4 20 b7 bd 73 89 61 3e
       0.24595334 -0.22886 -0.089417845 0.22025089
000310 d1 10 38 3e f5 e9 55 3e 23 fc f0 bc dc 02 19 3e
       0.17975165 0.20890029 -0.029417103 0.14942497
000320 10 1f 6c bd 9c f8 c2 bd 8c dc 52 be 7e 9f 0b bc
       -0.05764681 -0.09520075 -0.20591944 -0.008521913
000330 ff 11 39 3e 7a b9 d0 bd e1 b3 a7 3d 6b 98 33 be
       0.18073271 -0.10191627 0.08188606 -0.17538612
000340 64 e7 80 bd 78 0f 85 3c 71 34 7c 3e c4 7f cd bd
       -0.06294134 0.016242728 0.2462938 -0.10034135
000350 47 fa 20 3e 60 e0 c6 ba 75 93 56 be 7e e6 a7 bd
       0.15720473 -0.001517307 -0.20954688 -0.0819826
000360 45 db 47 3e 67 35 af bd d1 98 7f 3d 55 f5 f6 3d
       0.19517238 -0.085551076 0.062401596 0.12058512
000370 d6 fb d5 bd 7a 80 71 be 36 6d 9a 3d 1d 5c 52 3e
       -0.104484245 -0.23584166 0.075403616 0.20542951
000380 04 b8 3d 3e df d1 15 be 61 5a 48 3d 81 d2 81 be
       0.18527228 -0.1463084 0.048914317 -0.25355914
000390 39 1f 68 3d 9a 74 59 be 7d a3 fe 3d a9 83 0e 3d
       0.0566704 -0.21235886 0.12433527 0.03479353
0003a0 c1 de 89 bd 02 c1 8c 3e 8c aa 27 3e e8 32 1d 3e
       -0.0673194 0.27491003 0.16373652 0.1535145
0003b0 3b 76 0a be 2b df 1c be 01 1b 4f be aa eb 49 bd
       -0.13521664 -0.15319507 -0.20225145 -0.049297012
0003c0 bb a7 22 be f5 89 80 3d 46 a1 16 be f9 32 84 bd
       -0.15884297 0.06276313 -0.14709958 -0.06455035
0003d0 50 07 5c 3e fe 3e 03 bd 23 fb 45 be 43 4c 53 bd
       0.21487164 -0.032042496 -0.19334082 -0.0515864
0003e0 b4 9c 59 be 02 e3 ad 3d 6e cf 34 be ac 1d e1 3d
       -0.21251184 0.08490564 -0.17657253 0.109919876
0003f0 40 15 74 bd 93 3f 5d 3d 1f a8 15 3d b5 d1 70 3e
       -0.059590578 0.054015707 0.036537286 0.23517497

separableConv.1.weight f4 [32, 32, 1, 1]
000000 e1 9b 06 be b5 2d 46 3e 9e 39 16 be 50 29 83 bc
       -0.131454 0.19353373 -0.14670417 -0.01601091
000010 61 36 f4 3d 3e b6 94 bd 7b 3d 16 3e f6 27 24 3e
       0.119244345 -0.072613224 0.1467189 0.16030869
000020 f3 29 f6 bc 16 ec d0 3d 00 4b 5b bd 36 94 ad 3d
       -0.0300493 0.1020128 -0.053538322 0.084755346
000030 64 6d 2e be dc 08 a5 bc fb 83 d0 bd eb b2 cc bd
       -0.17033917 -0.020145826 -0.10181423 -0.099950634
000040 65 62 a5 bd de e5 f5 3d f2 f5 13 3e 01 b4 3e 3c
       -0.08075408 0.12006734 0.1444929 0.011639596
000050 c6 fd e8 3d b1 c2 0e be 91 0f 18 bc e4 03 1f bd
       0.113765284 -0.13941456 -0.009281055 -0.03882207
000060 40 62 2b 3d 5f 61 af bd 30 34 5e 3d 51 ad 47 bd
       0.041841745 -0.08563494 0.05424899 -0.04874927
000070 0d de dc bd 62 b9 da 3c 91 56 a4 bd 1d ac 5b bd
       -0.1078454 0.026699726 -0.08024324 -0.053630937
000080 16 f3 ce bd c1 0b e4 bd 66 96 0e 3e 6e f1 81 bd
       -0.10104959 -0.111350544 0.1392456 -0.06344877
000090 69 62 b2 ba c7 0c 31 be dd 32 95 bd 34 24 05 be
       -0.0013609651 -0.1729003 -0.07285092 -0.13002092
0000a0 8b 71 c8 3c ec df 7a 3d bd ec 1c 3e af 24 e1 bd
       0.024468204 0.061248705 0.15324683 -0.10993325
0000b0 03 05 d7 bc 81 5e c8 3d 38 0e 3f 3c 21 77 21 be
       -0.026247507 0.0978365 0.011661105 -0.157681
0000c0 5b 34 81 bc bb f8 ce bc de 42 fc bc ff 17 b6 bd
       -0.015772035 -0.025265088 -0.030793604 -0.08891296
0000d0 52 d8 29 3e f9 73 06 3e 56 54 f6 bd 5c a9 2b bc
       0.16586426 0.13130178 -0.120278046 -0.01047739
0000e0 b2 f4 69 bd 75 88 ab bd 88 83 24 bc a7 c7 92 3c
       -0.057118125 -0.083756365 -0.010041125 0.017917467
0000f0 fa 7c 17 3e 9c 76 ff bd 82 f0 12 bd 95 ff 19 be
       0.14793769 -0.12473795 -0.035873897 -0.15038903
000100 05 e2 c4 bd 5b 05 b2 bd 4c 2c d0 3d db a9 d7 3d
       -0.09613422 -0.08692428 0.10164699 0.10530444
000110 76 52 0a be 01 5a af 3b 48 48 87 bd 2d d7 10 bc
       -0.13508019 0.0053513055 -0.066055834 -0.008840364
000120 74 6c f1 bd f9 2c f2 bc 43 01 a7 bc 92 e2 f9 bd
       -0.11788264 -0.02956246 -0.020386344 -0.12201418
000130 19 cc 37 3e 01 22 9b bd ed 2c 14 be 5c c9 38 3d
       0.17948951 -0.07574845 -0.14470263 0.045113906
000140 c4 ab 0a 3e d9 af 5b 3c 54 ac b4 3d 3d 9a 91 3c
       0.13542086 0.013408625 0.088219315 0.017773742
000150 ff d8 fc 3d 57 f9 54 3d 4a be 0c 3c 40 77 2e bb
       0.12346076 0.0519956 0.00859029 -0.0026621372
000160 bc eb 47 be 89 28 1a 3d 85 61 2b bd 27 bb 3c 3c
       -0.1952352 0.037636314 -0.04184105 0.01151923
000170 04 41 9f 3d 36 8b 08 3d 7f 6a 22 bd c6 b8 66 3d
       0.077760726 0.033335887 -0.039652344 0.056328557
000180 48 c1 07 bd 93 d9 7b 3d 3c aa a8 bd cd 50 e0 bd
       -0.03314331 0.06148679 -0.08235595 -0.109529115
000190 ab 2a 70 3d c7 58 0f be 71 62 0c 3e 50 45 9c bd
       0.05863444 -0.1399871 0.13709427 -0.07630408
0001a0 d6 58 99 bc 3d 43 08 be ed 62 1f be 68 72 b0 bd
       -0.018719118 -0.133069 -0.15565081 -0.08615571
0001b0 35 19 d3 3d 71 da ff 3d 9d 3e 0f 3e a5 b9 be bd
       0.10307542 0.12492836 0.13988729 -0.09312753
0001c0 72 d6 47 be 07 cb 17 be b9 76 b9 3d f7 43 12 3e
       -0.19515398 -0.14823543 0.09055848 0.14283739
0001d0 40 2c 40 3e 1e 05 1e be e4 7b bb bc 6a 6a 82 3d
       0.1876688 -0.1543164 -0.022886224 0.06367953
0001e0 18 21 cf bd f3 95 2c be e5 d1 0c be ff f1 9f 3d
       -0.10113734 -0.16854076 -0.13751943 0.07809829
0001f0 8a 61 85 3c 78 1c 02 be cf ce 21 be 13 ee 1a be
       0.016281862 -0.12706172 -0.15801547 -0.1512988
000200 cf 35 44 bd 6c 62 d9 bd 53 a9 e8 3d 96 2b 46 bc
       -0.04790288 -0.106144756 0.11360421 -0.012095353
000210 71 48 5f bc 3a 6d fc 3d 75 38 27 be 3b 04 5e 3c
       -0.013628111 0.12325521 -0.1633013 0.013550813
000220 42 e0 a1 3d b0 e1 1a 3e 05 61 e2 bd 6f 79 2e 3d
       0.07904102 0.15125155 -0.11053661 0.042596277
000230 cc aa eb bd cc 1a 21 3e de f6 3c 3e 58 81 bf 3c
       -0.11507186 0.15732878 0.18453547 0.023377106
000240 76 8a f7 3d aa c9 77 3d 1d 0e f1 bc 63 76 05 3e
       0.12086956 0.060495056 -0.029425675 0.13033442
000250 2f 66 ae 3d c6 39 b2 bb 69 63 70 bd 5a c6 e3 bd
       0.08515584 -0.005439016 -0.058688555 -0.11121817
000260 33 75 cb bd 0f 3b a4 bd de 4c 52 3d 3d b8 c6 3d
       -0.09934463 -0.08019077 0.051342838 0.097031094
000270 78 79 19 be d6 85 a5 bd c6 2a 20 bc 74 82 7b 3d
       -0.14987743 -0.08082168 -0.009775823 0.061403707
000280 75 ee a5 bd 03 86 05 3e 9a 15 c0 bd 30 c2 d0 3d
       -0.08102123 0.13039403 -0.0937912 0.10193288
000290 4b 55 90 bd 50 f5 a1 bc 7f df 80 3d 70 d1 ae bd
       -0.07047518 -0.019770294 0.062926285 -0.08536041
0002a0 1c d1 48 3e 05 28 54 bc 41 85 74 3d 99 b6 f7 3c
       0.19611019 -0.0129489945 0.059697393 0.030238437
0002b0 5b 29 34 3d 28 c2 22 3d c9 ea 44 bc a0 f6 c6 3d
       0.043984752 0.039735943 -0.012018868 0.09715009
0002c0 20 9c ab 3d a9 41 8b 3d 26 18 06 be 9c 83 0c be
       0.08379388 0.06799633 -0.1309515 -0.1372208
0002d0 91 f4 12 3d ad e8 6d bd 63 c9 e0 3c b9 af ea 3d
       0.035877768 -0.058083225 0.027439779 0.11459298
0002e0 70 52 e6 3d 85 86 09 bc f6 d0 3a be 31 d1 02 be
       0.112461925 -0.008393888 -0.18243775 -0.12775113
0002f0 46 a2 ac bd 03 69 9b 3c 72 5a 10 be d7 1b c0 3d
       -0.08429389 0.018970972 -0.14097002 0.0938031
000300 1b ca 16 be fd a5 68 bd 02 5f ad 3d 61 34 4a 3d
       -0.14725535 -0.056798924 0.08465387 0.04936636
000310 7d 54 8d 3d 30 32 ac bd 60 33 3c bd b5 e8 53 3d
       0.069008805 -0.0840801 -0.045947433 0.0517356
000320 42 aa 25 3b 73 f7 2d be 78 1f 94 3d 13 1c f8 3c
       0.0025278484 -0.16988926 0.07232565 0.030286824
000330 1f 70 0d 3e 0b a2 27 3e 84 53 9a bd 77 a7 1d be
       0.13812302 0.16370408 -0.075354606 -0.15395914
000340 0b 64 a3 bd 50 03 a6 3d 5f f1 b1 3d 87 7d c6 3c
       -0.07978066 0.081061006 0.08688616 0.024229778
000350 03 94 c8 bd 11 c4 a7 bd 9a 11 b3 bd 3b ba 25 3d
       -0.09793856 -0.081916936 -0.087435916 0.040460806
000360 aa 43 fd bd 40 b6 00 be a0 1e 08 be 37 c9 a9 3d
       -0.123664215 -0.12569523 -0.13292933 0.08290332
000370 5c ba 1d bd 0c b2 fe 3c ac b3 09 3c 84 38 37 3d
       -0.038507804 0.031090759 0.0084046535 0.044731632
000380 63 4d 12 be 1b 0a 02 3e b3 ab 90 3d e7 12 18 bd
       -0.14287333 0.12699167 0.07063999 -0.0371274
000390 5a 3e b1 bd 8c b7 a2 3d c2 87 03 be 6e e1 d0 bd
       -0.08654471 0.07945165 -0.12844756 -0.10199247
0003a0 4a 41 30 be c1 0f b6 bd 2a 20 1b be 39 df 71 bd
       -0.17212406 -0.088897236 -0.15148988 -0.059050772
0003b0 a3 71 0b be c4 28 8f 3d 87 30 c6 bb 57 cf 92 3d
       -0.13617568 0.06990197 -0.0060482654 0.07168453
0003c0 32 69 39 3e 20 3c e6 3d 70 13 eb 3d 57 96 ef bd
       0.18106535 0.11241937 0.11478317 -0.11698597
0003d0 6d 98 29 3e e1 75 93 3c 31 93 45 3e a8 5c e3 bc
       0.16562052 0.018000545 0.1929443 -0.027754143
0003e0 37 80 0f 3e 83 fc 00 3e 7c 1e 54 bd 60 b3 c9 3d
       0.14013754 0.12596326 -0.051786885 0.09848666
0003f0 f0 7b bf 3c f2 38 73 3d 10 46 34 be d4 19 32 be
       0.023374528 0.05938048 -0.17604852 -0.17392665

separableConv.2.weight f4 [32]
000000 a9 b3 82 3f 9e 54 82 3f da e3 7d 3f 8f f1 7d 3f
       1.0211078 1.0182073 0.991758 0.99196714
000010 66 e8 84 3f dc 24 83 3f f7 f5 83 3f e8 6c 7f 3f
       1.0383422 1.0245624 1.0309438 0.9977555
000020 de 4c 82 3f 0e ed 81 3f 52 f1 80 3f ac 29 81 3f
       1.0179708 1.0150468 1.0073645 1.0090842
000030 98 88 7f 3f 50 bd 7f 3f 38 dd 82 3f d6 b0 84 3f
       0.998178 0.9989824 1.0223761 1.0366466
000040 5d d4 80 3f 13 67 81 3f b8 f7 80 3f 87 d5 80 3f
       1.0064808 1.0109581 1.0075598 1.0065163
000050 73 44 82 3f df 98 80 3f 24 af 83 3f b2 10 81 3f
       1.0177139 1.0046653 1.0287824 1.008322
000060 88 2f 82 3f cc ba 81 3f 6e 04 84 3f f2 f9 81 3f
       1.0170755 1.0135131 1.0313852 1.0154402
000070 fe af 81 3f f2 22 84 3f 88 94 7e 3f 38 1a 83 3f
       1.0131834 1.0323164 0.9944539 1.0242376

separableConv.2.bias f4 [32]
000000 7b dd 91 bc 1f 20 99 bc 45 b5 ad bc 04 6a ad 3b
       -0.017805805 -0.018692074 -0.0212046 0.005292179
000010 58 11 8e bc a5 0e d5 bc 92 53 85 bc 3b 9d a2 3b
       -0.017342255 -0.02600796 -0.016275201 0.004962591
000020 4c 85 b2 bc 4f c4 ae bc 69 4f 4e bb f3 0d 7e bb
       -0.021792077 -0.021333842 -0.0031480438 -0.0038765639
000030 94 97 08 bc e3 44 6a bb 3a 94 85 bc c2 b5 b7 bc
       -0.00833692 -0.0035746626 -0.016306031 -0.022425536
000040 1c 75 74 bc 11 40 04 bb 33 30 8e 3b 6d a1 8d bc
       -0.014920499 -0.0020179788 0.004339242 -0.017288888
000050 f9 85 13 3c 47 e7 9e bb 36 01 b3 bc 70 8d b8 bc
       0.00900411 -0.0048493478 -0.021851163 -0.02252838
000060 bb 06 e2 3a 42 fc 8d bc 01 1b 7e bc 6e 35 27 bc
       0.0017244437 -0.0173322 -0.015509368 -0.01020561
000070 fa 25 93 bc 0c de d1 bb 80 ee 90 bc 7a 19 1f bd
       -0.017962445 -0.006404644 -0.01769185 -0.038842656

separableConv.2.running_mean f4 [32]
000000 07 63 c4 39 fa e9 1a bb cd 32 ab 3a 1d 09 81 ba
       0.00037457814 -0.0023637996 0.0013061404 -0.0009844635
000010 fe 53 ab 3a a6 32 7a 3a a7 c7 1e bb 2f 8a f0 38
       0.0013071296 0.00095442904 -0.0024227889 0.000114698305
000020 a5 24 7b 3a a5 22 66 bb 48 7a 30 ba 7d bc 7a ba
       0.00095803506 -0.0035115865 -0.00067320885 -0.000956483
000030 22 20 ea 3a 34 33 18 3b 46 91 e9 ba c0 15 ce 3a
       0.001786236 0.0023223879 -0.0017819784 0.0015723035
000040 9e 4a ac b8 43 38 f1 ba a7 00 81 b9 67 31 8e 38
       -8.215498e-05 -0.0018403608 -0.00024605283 6.7802896e-05
000050 ab 3c 6f ba c8 77 e2 b9 6b 06 9b ba 2d 19 02 3b
       -0.00091261667 -0.00043195323 -0.0011827474 0.0019851432
000060 bd 14 dc 3a 9e 5e 3e 37 7e 92 4e ba 7c d4 7f 3b
       0.0016790848 1.1346912e-05 -0.00078801054 0.0039036563
000070 f9 e5 39 39 50 1a b3 b9 18 0c fa ba e7 3b 48 ba
       0.00017728646 -0.00034161145 -0.001907709 -0.00076383207

separableConv.2.running_var f4 [32]
000000 10 bc e1 3a a1 a3 84 3a e5 2b 9c 3a e9 98 0a 3b
       0.0017222185 0.0010119566 0.0011914937 0.002114827
000010 79 73 a0 3a 90 40 ea 3a bd 63 d3 3a e1 7f 00 3b
       0.0012241445 0.0017872024 0.0016127747 0.0019607472
000020 aa 50 c9 3a 9c bc 04 3b 21 c1 f7 3a d6 b8 99 3a
       0.0015359123 0.0020254022 0.0018902161 0.0011728059
000030 d3 30 03 3b f2 69 b5 3a 6a 46 1a 3b fa 3c 04 3b
       0.0020018115 0.0013840778 0.0023540505 0.0020177946
000040 b3 3f 30 3b bc 90 24 3b 88 ae be 3a 54 c6 af 3a
       0.0026893436 0.0025110682 0.0014547864 0.0013410547
000050 02 bd 25 3b 02 32 d5 3a 35 2a d1 3a 06 79 db 3a
       0.002528966 0.0016265514 0.0015958013 0.0016744442
000060 d2 d4 c5 3a 27 30 ce 3a 0e 8d a5 3a 7d 6d e0 3a
       0.0015093333 0.0015730903 0.0012630539 0.0017122474
000070 cf 3c b5 3a d6 3f c1 3a 7d 93 09 3b a8 c6 1e 3b
       0.0013827326 0.0014743756 0.002099245 0.0024227295

classify.weight f4 [2, 992]
000000 30 95 22 3c 32 0c b1 3b 53 e8 83 bc ab be 0c 3d
       0.009923264 0.005403065 -0.016101992 0.034361523
000010 23 59 d1 bc 75 6c 44 3d 8a 60 46 bd 7c e1 b2 3c
       -0.025555199 0.047954995 -0.04843191 0.021836035
000020 8c c4 8c bb b7 5a 33 3d c3 c5 71 bd ec 13 28 bc
       -0.004295891 0.043787684 -0.05902649 -0.010258656
000030 51 7b 1c 3c 07 3f 1a 3c ef 52 79 3c 47 9d c7 bc
       0.009550885 0.009414441 0.015217527 -0.024366988
000040 a5 ef 21 bc ef df e8 3c ef 59 81 3c 12 c2 b3 bc
       -0.009883796 0.028427092 0.015789954 -0.021943126
000050 00 50 b4 bc c5 c2 12 bc 48 86 f8 3c 52 20 5a bc
       -0.022010803 -0.0089575695 0.030337468 -0.01331337
000060 a1 dd d9 ba 35 2e 37 3d 6c 77 00 bd f6 d5 06 3c
       -0.0016621837 0.0447218 -0.03136389 0.008229723
000070 6c d5 36 3c 90 2d 6c 3c fe 41 04 bd dd b9 20 3d
       0.011159282 0.01441516 -0.032289498 0.039239753
000080 d8 77 f0 bc 3e 40 2c 3d 10 71 56 39 bd 9c 68 3c
       -0.029354021 0.042053454 0.0002045075 0.014197526
000090 37 dd 45 3a 8c e8 a7 3a c7 be b4 3b 28 06 2d 3b
       0.0007547917 0.0012810393 0.0055159065 0.0026401374
0000a0 ec 4e e3 bc 4d 41 29 3b c7 36 05 bd ad c3 96 3a
       -0.027747594 0.0025826276 -0.032522943 0.0011502408
0000b0 38 44 96 3c 76 44 dd 3b 27 43 c6 3c 71 c1 b3 bb
       0.018343076 0.006752546 0.024201943 -0.0054857065
0000c0 ff ce ce 3c 84 65 b5 bc db b5 4a bd 36 01 fb bc
       0.025245188 -0.022143133 -0.049489837 -0.030640226
0000d0 63 e5 6c bc 1a dd b0 bc 92 da e5 3c e3 e4 0d bd
       -0.014458987 -0.021589804 0.028058324 -0.03464211
0000e0 46 29 1d bd 8c 3b 88 3b 6c b7 8f bc b6 25 ef bc
       -0.03836944 0.004157489 -0.017543517 -0.029192787
0000f0 d2 93 87 bc 77 1b 44 3c 09 0c 64 3d 4f 1b f4 bc
       -0.016549978 0.011969439 0.05567554 -0.029798178
000100 eb 56 32 3c fc d9 8e bc 0b b0 4d bc 58 f0 66 3c
       0.010884981 -0.017437927 -0.012554179 0.014095388
000110 71 fd 2a 3d a3 d7 cc 3b c1 be 3f bc 29 35 db 3b
       0.041745607 0.006251292 -0.011703194 0.006689687
000120 e2 2e 50 3b 56 a1 e9 bb 2f ef aa bc 1b 81 59 ba
       0.0031766226 -0.0071298284 -0.020866005 -0.0008297131
000130 65 ef aa 3c b0 41 a0 bc 13 40 69 bc 5d d8 59 bc
       0.020866105 -0.019562572 -0.014236468 -0.013296214
000140 a5 a4 18 bb 0e c1 26 bc ed 5a 68 bb 30 0f 9d bc
       -0.0023291495 -0.010177864 -0.0035454587 -0.019172281
000150 09 a4 71 3a 22 b5 20 bb 1a 22 66 3c 77 37 56 ba
       0.00092178636 -0.0024522026 0.014046216 -0.0008171717
000160 e8 8e 14 bd 09 97 82 bc 88 c4 08 bc a1 7d cd 3c
       -0.0362691 -0.01594116 -0.008347638 0.025084319
000170 b0 f3 ab 3c 89 e7 13 3d 93 ff a9 3c ff 30 d3 3a
       0.020990223 0.03610948 0.02075175 0.0016112624
000180 d9 45 a0 3c 5a d5 10 3c 8d 55 40 3b a5 86 62 b9
       0.019564556 0.0088399295 0.0029347867 -0.00021603199
000190 11 48 47 3b 87 96 32 bc 5d 6a 0d 3d 5d a9 41 3c
       0.0030407945 -0.010900146 0.034525264 0.0118201645
0001a0 a0 e6 8a bc b5 33 b4 3c c5 ee 0d bd 61 ab 42 bb
       -0.016955674 0.021997312 -0.034651536 -0.00297042
0001b0 09 78 e5 3b 23 57 20 ba 47 4b 92 3b 89 10 76 3c
       0.0070028347 -0.00061165 0.00446454 0.015018591
0001c0 ee 13 c3 ba 77 82 35 3c b1 68 15 3c 52 d0 49 bc
       -0.0014883259 0.0110784685 0.009119199 -0.012317734
0001d0 c2 9b 8d bc 8f a5 5d bc 91 94 98 bc 8c b8 7b bc
       -0.017286185 -0.013528242 -0.01862553 -0.015363824
0001e0 e1 ce ca 3b 84 45 a8 3b 3b bd 9a 3c 1f ed a4 3c
       0.0061892127 0.00513524 0.01888906 0.0201326
0001f0 b1 c2 81 bc 21 17 4b 3c f4 79 06 3c 3f e9 80 bc
       -0.015839906 0.012395651 0.008207787 -0.01573622
000200 8b e9 4b 3d 9a 47 3f bc ed f6 f2 3b 9f ab 5c bb
       0.04978327 -0.011674786 0.0074146898 -0.003367163
000210 49 31 f4 3b 06 01 d3 3c a1 cc bd bb 8a 20 68 bd
       0.0074521643 0.025757324 -0.005792216 -0.056671657
000220 27 62 0e 3b 6e 72 47 bc 3e 46 67 b8 45 37 26 3d
       0.0021725984 -0.012173278 -5.514011e-05 0.040580053
000230 e0 8d fd 3b da 2a 92 bc 41 db 97 3c f8 bb 31 bd
       0.00773786 -0.017842699 0.018537166 -0.04339215
000240 20 cd 83 3c 91 64 44 3d 77 2e 14 3c 57 02 78 bc
       0.016089022 0.04794747 0.009044281 -0.015137277
000250 be 58 bf bc 02 8e fe 3c d0 15 02 bd 64 be 71 3a
       -0.023357745 0.031073574 -0.031759083 0.0009221791
000260 c5 55 ae 3c 64 66 39 3c ca 13 9b 3b 05 a8 a2 bc
       0.021281132 0.011315916 0.0047325836 -0.019855509
000270 63 01 59 bc 3d 2d ac 3c ac a4 3d 3c 86 b3 09 bc
       -0.0132449595 0.021017665 0.011574905 -0.008404618
000280 41 f9 3d 3c 24 c8 be 3b 82 c2 10 3c 18 50 e3 bb
       0.011595071 0.0058221985 0.008835437 -0.006937038
000290 c7 6a 13 3c d4 54 a1 bc 84 bb 99 3c d8 ab 74 3c
       0.008997626 -0.01969377 0.018766172 0.014933549
0002a0 56 2b 91 bc ca 4b 87 bc db ba 34 3c c5 e7 88 3c
       -0.01772086 -0.016515631 0.011030878 0.016712079
0002b0 05 a7 35 bc a6 45 6f bc 5f 66 2b bc 99 42 2c 3b
       -0.011087184 -0.014604008 -0.010461419 0.0026284812
0002c0 b9 d6 e6 bb 76 5a df 3c 10 98 db 3b 6e e9 be bc
       -0.00704464 0.027264815 0.006701477 -0.023304667
0002d0 62 16 0c bd ea ad e0 bc 9f 25 1c bd 3c c9 ca 3c
       -0.034201033 -0.027426679 -0.038121816 0.02475416
0002e0 d7 06 0d 3d ce 1e 9c bc 6a c9 7a 3d 56 cb 91 bc
       0.03443035 -0.019057658 0.06122724 -0.017797153
0002f0 37 3a b5 ba ba 70 d6 3c 22 d1 dc 3c 8e 45 8c 3b
       -0.0013826553 0.0261768 0.026955191 0.0042807525
000300 09 e7 03 bc bf 28 53 bc 50 3f c8 bc 61 6b ce 3c
       -0.008050689 -0.012888133 -0.024444252 0.025197687
000310 14 a2 b5 b9 da ae 83 3b 70 90 b4 bc de cf 21 bd
       -0.00034643768 0.0040186467 -0.02204153 -0.03950488
000320 41 46 c0 bc 49 e6 d2 3a c3 c5 0d bd 3b 71 21 3c
       -0.023471 0.0016090359 -0.03461243 0.009853656
000330 90 1b 6d bb 8f c4 66 3c 81 d7 1a bd c1 8d 9b bc
       -0.0036179759 0.014084949 -0.037803177 -0.018988492
000340 7e 0c 31 bc 17 06 20 3d 36 7b 01 bd 28 ed 8e bc
       -0.010806201 0.039068308 -0.031611644 -0.01744707
000350 ee c6 86 bc 6e b7 91 3c 45 c7 d6 bc b2 12 4f 3b
       -0.016452279 0.017787661 -0.026218066 0.0031596837
000360 2e 7e f0 bb 1a da 02 bb ac 2d 6e 3c c6 06 00 3b
       -0.0073392605 -0.0019966424 0.014537256 0.0019535287
000370 de 3c fc 3a 5c 1b 0f 3c 0f e8 d1 3c 14 91 fa 3c
       0.0019244214 0.00873455 0.02562335 0.030586757
000380 a8 60 15 3d d0 4c 1e 3c 97 42 1b 3c 60 83 25 bd
       0.03646913 0.009661868 0.0094763255 -0.040408492
000390 b5 84 82 bc d4 ef f7 3c ed 9f 47 3a b4 10 ca 3c
       -0.01593242 0.030265726 0.00076150784 0.024666168
0003a0 dc bd c2 bc 73 9f ed bc 4d 3b 90 3c 67 08 f5 bb
       -0.023772173 -0.029006695 0.017606402 -0.0074778083
0003b0 92 79 c9 bc 8d da 0e bc 23 bf 99 3c 9b 9c 80 bb
       -0.024594102 -0.008719099 0.018767899 -0.003924919
0003c0 c4 6e a1 3c 1a b1 86 ba 19 56 f5 bc 8f c7 ff bc
       0.019706137 -0.0010276169 -0.029948281 -0.031223087
0003d0 2b 6f e3 bb e1 10 c0 3c 64 14 a6 ba bb a1 d0 3b
       -0.0069407425 0.023445548 -0.0012670872 0.006366936
0003e0 0d 2a 93 3b 2f 36 03 bc 78 0a c6 bb b9 b6 69 3c
       0.004491097 -0.008008524 -0.0060437284 0.014264756
0003f0 0b 7f 40 bc 64 b8 01 3d c2 e1 6c bc 1c 4a a4 3c
       -0.011749039 0.03166999 -0.014458122 0.02005487

classify.bias f4 [2]
000000 58 e8 9a 3b cc 31 41 bd
       0.0047274046 -0.04716663
