notebooks/outputs/temp_B05_fold4_last.pth (torch, 31912 bytes, 18 tensors)

firstconv.0.weight f4 [16, 1, 1, 125]
00000000: 7893 87bd 0454 dfbd 6cae 28bd a19d 563c
00000010: 2628 0cbd 6fda 6fb8 0301 fb3c 9dda 7bbd
00000020: d65d 20bd 6534 9cbd ba1a 1fbd c09e 8abc
00000030: c76b 6abd 1e68 ab3d b876 283c 68c3 b83c
00000040: b5c3 78bd 2c58 91bd 88a9 8ebc e330 4cbd
00000050: f164 083d af00 62bd 6842 07bc e62f 373d
00000060: fac4 113d 245c e0bc 1ceb 143d 92b9 513d
00000070: 95ae 2a3c c8dd a7bd 3104 b63c 4188 8f3d
00000080: aa51 0abd a77a 0b3d 9327 953c c1f7 bdbc
00000090: dbe8 f4bc c672 9f3d fc55 413c e073 a7bd
000000a0: 92ae 3b3d 97bf 86bd 0cca 8d3d 7601 9dbd
000000b0: f98a a2bd 1c8e c6bd a6be 9a3d 2bcb 46bd
000000c0: c373 6ebd 0d34 50bd 97ec a43d 872e 54bd
000000d0: 0666 98bd 9a99 4a3d d4f7 553c 7149 3a3b
000000e0: 2f9b 2d3d 135e 143d f503 aabc 9cdd 853c
000000f0: 32be 183a c904 623d af51 02bd 2751 913c
00000100: 01a9 213d 7581 963d f46a e8bc fd94 aa3c
00000110: 4401 94bd 072c 85bc 4faa 8bbd a74b 9c3d
00000120: b5d5 bfbc f4f1 34bd c931 b7bc 36a0 ebba
00000130: e548 9e3d f31f 993d 70dd 91bd 8f2c cbbc
00000140: 8d11 06bd d6d5 c3bd 70e8 353d 455a a8bc
00000150: 1344 a0bd 334d 9abd c881 29bd e335 aabd
00000160: 181c 3dbd 6add 413d 0d61 113d 4783 18bd
00000170: 5fe2 8bbd bb1c 4e3d f451 aebd d158 853d
00000180: 800c f5bc 932b 6cbd bffd 83bd ef0e 53bd
00000190: b30e fabc b415 4e3c 6e34 a6bd 6e34 95ba
000001a0: 0dcd 313d 507e ba3b db2d a9bd 150c 963c
000001b0: 66e4 04bd ed4c a3bd c6b9 55bc b1fe 82bc
000001c0: 4af4 febc 0ccf fc3c 7201 a8bd 5914 963d
000001d0: e941 a0bd ee12 a1bc 0f9f 9c3d 0c72 bb3c
000001e0: f014 eabc be4a babc 479b a53d a6b3 05bb
000001f0: 309e 593d c952 7d3d 9419 953c 9fad 97bd
00000200: 730a 1d3d eb0b 543d 52a2 c4bc 8e99 e3bc
00000210: b327 b93c 2382 5fbd 0412 f63c a5f1 d03d
00000220: 9e98 353d f22f 693d fd29 15bd 1db8 a53d
00000230: 3b54 543d b9ba 28bd 96d2 f2bc ef98 c3bd
00000240: 8940 d73c 9f37 89bd 0f63 c8bd 130b c03c
00000250: 5793 c0bd 7a39 f03c fcd8 54bd c8e8 9a3d
00000260: 11e4 56bd 0d3f ae3d 6e31 52bd 79a7 c8bc
00000270: 7d57 77ba 8026 bc3c 2ded 873d 9ee4 56bd
00000280: 1c6e bcbb 5804 3d3d dfad aabd fcd1 a9bb
00000290: b88b 8bbd 61d3 7bbd 0298 59bd bf64 213c
000002a0: 03cd a6bd 804b e4bd c28b d0bd e923 953c
000002b0: 996b 9abd d12e 593c 97dc 9b3c 8433 57bd
000002c0: 8c9d 923c 5d3d a53b 2100 a4bd 98ea a7bd
000002d0: 770d 973d f32e 483d bbfb b43d c847 09bd
000002e0: a795 603c a266 b83c 4899 8c3d 2c66 30bd
000002f0: 317f 373d 6b37 e3bc c95b f33c f3dc 5a3d
00000300: 00ea 7c3d a380 e0bc f0cc b8bd 7373 7abc
00000310: 647b c23c b59c b5bd 8bd5 403d ca10 443b
00000320: f293 fdbc 40b4 65bc 8b7f c63d 0f2c e83c
00000330: b00a d53d 90ce 88bd 9f20 a4bc 7aa1 da3a
00000340: bf22 2f3b b27a 873d b734 6fbc c95b 163d
00000350: 7098 1abc fbb8 07bd 0d90 b1bd 6d54 1f3d
00000360: 30a5 c53c 62e8 c7bd 1c38 f0bd 0323 84bd
00000370: 125d 4fbd 390b 793d ee9f bbbd 541b 903c
00000380: 9afc 9cbd e795 90bd 3428 2fbd fb48 1ebd
00000390: 74e1 2abc 82a3 51bd e39c 523d 5c9e 88bd
000003a0: e019 e23c 8704 8c3d d116 943d ba1d 243d
000003b0: 010e 5fbd 6115 7abb 26b0 c7bd 4f21 b9bc
000003c0: 79c5 513d 1ef3 1c3d 4549 62bd 8ab1 3bbd
000003d0: b90b 623c ebdf e63b 0c37 1bbd 5d8c ba3d
000003e0: ea97 c13b ebe3 433d ca28 8cbd 7c64 853c
000003f0: 4feb f43c 9807 563c 8b1b fbba 0626 573d
-0.06619924 -0.109046966 -0.041181967 0.013099105 -0.034217976 -5.7185473e-05 0.03064013 -0.061487783
-0.03915199 -0.07627181 -0.038843848 -0.016921401 -0.05723169 0.08369468 0.010282211 0.022554114
-0.060733516 -0.070968956 -0.017414823 -0.04985131 0.03329939 -0.055176433 -0.008255579 0.044723414
0.035588242 -0.027387686 0.03635703 0.051202364 0.0104176 -0.08196598 0.022218795 0.0700841
-0.033769287 0.034052517 0.018207347 -0.023189427 -0.02989619 0.07785563 0.011800285 -0.08176398
0.04582078 -0.065795116 0.06923303 -0.07666294 -0.07936663 -0.09695074 0.075558946 -0.0485336
-0.058215868 -0.05083089 0.080529384 -0.051802184 -0.074413344 0.049462892 0.013059575 0.0028425122
0.042384323 0.03622253 -0.02075384 0.016341023 0.0005826681 0.055180345 -0.03181618 0.017738892
0.039467815 0.07348911 -0.028371312 0.020822996 -0.07226804 -0.016256345 -0.06819593 0.07631617
-0.023417333 -0.044176057 -0.022362607 -0.0017976824 0.07728747 0.07476797 -0.07122314 -0.02480152
-0.03273158 -0.0956227 0.044411123 -0.020550856 -0.07825484 -0.07534256 -0.041383535 -0.08311059
-0.04616937 0.047330298 0.035492945 -0.03723457 -0.06830286 0.05032037 -0.08511725 0.06511081
-0.029913187 -0.057658743 -0.064448826 -0.051527914 -0.030524587 0.012578417 -0.08115469 -0.0011383423
0.043408442 0.005691327 -0.08260699 0.018316308 -0.03244438 -0.07973657 -0.01304478 -0.015990587
-0.031122345 0.030860446 -0.08203401 0.073281 -0.07825071 -0.019662347 0.076475255 0.02288153
-0.028574437 -0.022740718 0.080862574 -0.0020401268 0.053129375 0.06184653 0.018200673 -0.074061625
0.038340043 0.05176918 -0.024003182 -0.027783182 0.022601938 -0.054567467 0.030037887 0.1020234
0.044335 0.05693049 -0.036416996 0.080917574 0.05183814 -0.041193698 -0.02964143 -0.09550654
0.02627589 -0.06700062 -0.09784519 0.02344278 -0.09403103 0.029324282 -0.051964745 0.07563931
-0.052463595 0.0850812 -0.05131667 -0.02449392 -0.0009435339 0.022967577 0.066370346 -0.05246412
-0.0057504307 0.04614672 -0.083339445 -0.005182503 -0.068137586 -0.061480884 -0.05312348 0.00985068
-0.08144572 -0.11147213 -0.10182907 0.0182056 -0.07540054 0.013255791 0.019026084 -0.052539364
0.01789739 0.0050427155 -0.08007837 -0.08199042 0.07375615 0.0488729 0.08837076 -0.03351572
0.013707555 0.022509877 0.068651736 -0.04306619 0.044799034 -0.027736386 0.029706853 0.05343337
0.061746597 -0.027405089 -0.09023464 -0.015286314 0.023740478 -0.0886778 0.04707865 0.0029917234
-0.030954335 -0.014020026 0.09692296 0.028341321 0.10402429 -0.06680024 -0.020035086 0.0016680204
0.002672359 0.06615199 -0.014599971 0.036708627 -0.009435758 -0.033135395 -0.08670054 0.038898874
0.02412662 -0.097611204 -0.11729452 -0.064519905 -0.05062587 0.06080172 -0.091613635 0.017591156
-0.076653674 -0.070598416 -0.04276295 -0.03864382 -0.010429729 -0.051181324 0.05141915 -0.0667083
0.027600229 0.06836801 0.072309144 0.040067412 -0.054456715 -0.0038159715 -0.097503945 -0.02259889
0.051213715 0.038317792 -0.055245657 -0.04582361 0.01379674 0.007045736 -0.037894294 0.091088034
0.005908002 0.04782478 -0.068437174 0.016283266 0.02989736 0.013063334 -0.0019157989 0.052526496

firstconv.1.weight f4 [16]
00000000: 7431 803f 5d1d 833f ae35 823f 4fd7 7c3f
00000010: f46f 803f 6303 803f 420c 7f3f f2e1 7d3f
00000020: 0f38 7c3f 179b 833f 5e23 7c3f 1c92 833f
00000030: 8889 7d3f 5350 7d3f 972e 7d3f dd0c 803f
1.0015092 1.0243336 1.0172632 0.98766035 1.0034165 1.0001034 0.9962808 0.9917289
0.9852304 1.0281705 0.98491466 1.0278964 0.9903798 0.9895069 0.98899215 1.0003926

firstconv.1.bias f4 [16]
00000000: e058 4dbb e890 42bb 15c1 e239 7c93 593a
00000010: f948 d93a 4c31 2f3c d939 79ba 92a9 7039
00000020: a7fb debb c40b 863b 8dfc 133c 1918 523a
00000030: a72d 06bb 69f8 913a a5c7 19bc a071 223c
-0.0031333491 -0.0029688422 0.00043249936 0.000829987 0.0016577534 0.010692906 -0.0009507216 0.00022951353
-0.0068049016 0.004090758 0.009032381 0.0008014455 -0.0020473988 0.0011136654 -0.009385978 0.009914786

firstconv.1.running_mean f4 [16]
00000000: 4ed4 ed30 2ad1 0631 eaba 90ad 038c 8eaf
00000010: ff40 c92f f757 81b0 24bb 5430 82c9 a6af
00000020: c743 30b0 f17a dfaf d5c9 1330 b33f 1d30
00000030: 8e1c 03af 46f1 4c2f a052 92b0 9c5e ae2f
1.730436e-09 1.9618462e-09 -1.6453911e-11 -2.5929134e-10 3.660787e-10 -9.410986e-10 7.7391094e-10 -3.0338404e-10
-6.4124744e-10 -4.065082e-10 5.376511e-10 5.720679e-10 -1.1924525e-10 1.863941e-10 -1.0646382e-09 3.171764e-10

firstconv.1.running_var f4 [16]
00000000: e771 1b2c bf9f d62c 5d58 bf2c 8751 352c
00000010: aa75 842c 52b5 fa2b 4b6a 292c b82f 522c
00000020: f972 f82b 219b 7d2c b795 e12b bb81 a52c
00000030: 84c4 342c d8a3 252c 1ef5 e42b f017 4b2c
2.2090053e-12 6.099981e-12 5.438357e-12 2.5766904e-12 3.764729e-12 1.7813895e-12 2.407535e-12 2.9869284e-12
1.7653371e-12 3.6039576e-12 1.6028766e-12 4.703985e-12 2.5688627e-12 2.3538862e-12 1.6268408e-12 2.8861323e-12

depthwiseConv.0.weight f4 [32, 1, 3, 1]
00000000: c0e1 0b3f 564e 7e3c f2c1 c5be 9245 0b3f
00000010: e384 30be 2877 4b3e cb33 0d3f b9cb 90be
00000020: 299f d83d aaa9 ca3e bda9 12bf dd99 01bf
00000030: 9492 c3be 8987 113e 6e59 7d3c 90e4 b33e
00000040: 40b5 6e3e af59 ccbe fad8 aabe 0910 e13e
00000050: 6490 b9be 1420 37be aec1 cd3d f509 a43d
00000060: c5f5 d3bd 7686 553d 416b 753e ac79 dbbe
00000070: d6ae 103f 7ddb 92be 77b5 19be 6ed1 8cbe
00000080: f9e2 ecbe c537 c33e d505 febe c432 8d3e
00000090: 4389 1dbd 7354 043f f938 e23d f835 063f
000000a0: 02a2 04be 264a 023f 8ac7 d0be e7db 033f
000000b0: cab1 85bd 4429 1a3e 8597 b1bd 8227 df3e
000000c0: 291d b5be 0446 283e 0378 8f3e 9d3c c73e
000000d0: 9117 853d 7fb7 d53e 038d eb3e 70f9 68be
000000e0: 5a4b dc3e 70fa b9be 88c0 d6be 31dc 133f
000000f0: 8a42 dd3e 3bb5 883e 6fb3 073f 942f 8c3e
00000100: 0d23 8cbe cb47 c23e ae56 a5bd 4afd 58be
00000110: 7b1d 4c3e 208e 1fbe b66e de3e 3ce6 6fbd
00000120: d521 ca3e 1ff9 5abd 76d4 423d 8ec6 693e
00000130: 7b3b e9be 94df c2be 91d3 c2be e873 f33e
00000140: d8c8 45be c656 a4be ef60 423e d399 9d3e
00000150: df18 f5be c5d9 9bbe ff80 7fbe 6ef8 88ba
00000160: 4127 2ebe b731 b7be 22d2 10bf 1614 113f
00000170: 012e 6fbe 175d 753e 3ab0 f6be 3de6 37be
0.5464134 0.015521606 -0.3862453 0.5440303 -0.17238192 0.19869673 0.55157155 -0.28280428
0.105772324 0.39582568 -0.5729025 -0.506254 -0.38197768 0.14211859 0.015463216 0.35135317
0.23311329 -0.39912173 -0.33368665 0.43957546 -0.36242974 -0.1788333 0.10046707 0.08009712
-0.10349611 0.052130185 0.23966695 -0.42866266 0.5651678 -0.2868308 -0.1501063 -0.27503532
-0.46266916 0.38128486 -0.49613824 0.27577794 -0.03846098 0.5169136 0.11046023 0.524261
-0.12952426 0.5089439 -0.40777236 0.5150742 -0.06528051 0.15054804 -0.08671478 0.4358483
-0.3537381 0.16432959 0.2802125 0.38913432 0.064986356 0.4174156 0.4600602 -0.22751403
0.4302624 -0.3632388 -0.41943765 0.5775786 0.43214828 0.26700768 0.5300817 0.2738005
-0.27370492 0.379454 -0.080731735 -0.21190372 0.19933121 -0.1558156 0.4344384 -0.058569178
0.39478937 -0.053460237 0.0475659 0.22829649 -0.45553192 -0.38061202 -0.38052037 0.47549367
-0.19314897 -0.32097453 0.1898229 0.3078142 -0.47870538 -0.30439582 -0.24951552 -0.0010450014
-0.17007162 -0.35780117 -0.5657064 0.56671274 -0.23357393 0.23961292 -0.48181325 -0.17958923

depthwiseConv.1.weight f4 [32]
00000000: 73f9 823f 02d7 7c3f 5b1f 813f 1f42 833f
00000010: a4ae 823f 9446 803f f1e8 7d3f bd58 7a3f
00000020: a62f 813f db57 7f3f 9033 7f3f 0d49 803f
00000030: d3ae 813f e874 7c3f 3d7a 7f3f 9f12 7d3f
00000040: 46fe 773f e7de 7c3f 1a80 803f 4ee2 833f
00000050: 090f 7c3f 10c1 7d3f bc17 813f 678a 833f
00000060: 4aa9 7d3f 4ccd 7e3f 4c05 803f 0b43 773f
00000070: 6b94 7e3f fa82 7c3f eec1 7f3f f245 7f3f
1.0232376 0.98765576 1.0087694 1.0254554 1.0209546 1.0021539 0.99183565 0.97791654
1.0092666 0.9974343 0.99688053 1.0022293 1.0131477 0.98615885 0.99795896 0.9885654
0.96872365 0.9877762 1.0039093 1.0303438 0.9846044 0.99122715 1.0085368 1.0276612
0.9908644 0.9953201 1.0001616 0.96586674 0.9944522 0.98637354 0.9990529 0.99716103

depthwiseConv.1.bias f4 [32]
00000000: c5f6 c3ba 2c6c 05bc 0d3a c63b a234 a2bb
00000010: eaca e7ba 7f9e 87bc cd22 993b 65b2 8b3b
00000020: cce3 98bb 36ba 493c 8abc 5eb9 d404 453b
00000030: 42c8 a437 e014 f9bb f665 923b d9b8 333a
00000040: 1b89 853b cf38 15ba a911 f0ba 363a 1cbb
00000050: ea37 deba 3ed6 0cbb a19e b8bb c856 013a
00000060: d554 b2ba 22f2 daba a74f f33b d7c2 203b
00000070: b3f8 74bb 6a57 be39 5100 8b3a 33e9 a2bb
-0.0014950862 -0.008143466 0.0060494007 -0.004950122 -0.0017684374 -0.016555069 0.004673338 0.0042632096
-0.0046658274 0.012312463 -0.00021241806 0.0030062692 1.9643576e-05 -0.0076013654 0.004467721 0.00068558526
0.004075182 -0.0005692364 -0.001831581 -0.0023838407 -0.001695392 -0.0021490003 -0.0056341444 0.0004933891
-0.0013605604 -0.0016704241 0.007425267 0.0024530196 -0.0037379682 0.00036304753 0.0010604953 -0.004971647

depthwiseConv.1.running_mean f4 [32]
00000000: a252 10ba bf34 eaba 2cda 91ba 9924 053b
00000010: 198b cab8 cb0c a738 7519 62b9 1d70 b735
00000020: d320 a439 831e 83b9 4be8 1bbc e80f e23a
00000030: 9059 15ba 8e25 65ba 0017 2537 96b0 f338
00000040: 0b56 21ba eb9c c1bb 4688 313b c901 5cba
00000050: 112d 363c 820f 613b 3072 9cb8 0aa5 3839
00000060: 381e 51ba 3e6b a33a 7d63 e3b8 2eab 4c39
00000070: 4566 1f3c b046 a33b 354a 17bb 2b1b 89bb
-0.00055054773 -0.0017868503 -0.0011127642 0.0020316003 -9.6580196e-05 7.9655634e-05 -0.00021562523 1.3667192e-06
0.00031304974 -0.00025009 -0.009515832 0.0017247172 -0.0005697245 -0.0008741253 9.8401215e-06 0.00011620035
-0.0006154484 -0.0059085987 0.0027089282 -0.00083926 0.011119143 0.0034341519 -7.459929e-05 0.00017609089
-0.000797722 0.0012467874 -0.000108427346 0.00019518725 0.009728973 0.004982792 -0.0023085002 -0.004184147

depthwiseConv.1.running_var f4 [32]
00000000: 50d8 2733 2bbb be33 58b2 2234 78f2 8134
00000010: 2229 7333 6a14 ae33 0382 7033 ecb9 5131
00000020: ba48 7532 9d4a a433 93ab f433 1baf 0533
00000030: 2ddc 8d33 014b 5434 db38 fb32 53d1 a933
00000040: 82ea ed31 49d9 fd33 75fb 5334 807a cf33
00000050: 7fab 4634 2a3f 2133 dc04 9b32 5786 1d33
00000060: 54f2 4133 03d9 9833 edbb 0b33 69a9 7e32
00000070: 5fb8 1534 f0db 1333 b3eb a733 8371 3b33
3.9079453e-08 8.88161e-08 1.5152307e-07 2.4204542e-07 5.6615256e-08 8.10622e-08 5.59976e-08 3.0519187e-09
1.4277413e-08 7.650417e-08 1.13933446e-07 3.1125733e-08 6.605874e-08 1.9771325e-07 2.92461e-08 7.9077516e-08
6.9242683e-09 1.18207545e-07 1.9742386e-07 9.661471e-08 1.8502577e-07 3.754318e-08 1.8046585e-08 3.6676592e-08
4.515671e-08 7.117526e-08 3.2534377e-08 1.4823265e-08 1.394378e-07 3.4426137e-08 7.819417e-08 4.364257e-08

separableConv.0.weight f4 [32, 1, 1, 16]
00000000: 7df0 0ebe 4fd9 84be 715a 3e3e 5434 31bd
00000010: 9fd7 9abd 0f1b 60be 18aa 02bd 1e3a 5dbe
00000020: 8061 7a3d 27e5 3d3e 9518 cf3d 15fa 253d
00000030: 3d4c 883d 7d51 05be bc33 963d 49c5 2c3e
00000040: bb3a 4abe a395 5e3d f223 a9bd 8543 1abe
00000050: 9f8c b13d d2f0 b4bd abce 0b3e 7529 b4bc
00000060: 3615 49be 7400 563e cef4 b13d af2a 643e
00000070: 58b7 10bd e610 66be 2484 3dbe a6b5 19be
00000080: e9ed 9b3c 0242 39be 5e54 a13c 3f3c 643e
00000090: 0217 bf3d f5e4 0f3e d48d fdbd 685c 00be
000000a0: fe21 713e 55cd 89bd cef9 79bd 9821 23be
000000b0: 8076 313e 637d a2bd 4c52 0cbe fa4e 343e
000000c0: 09b1 313d 0519 893d 3b5c 8e3d d96e 69be
000000d0: e6d7 37be 177e 923c 8db0 75be 998f 8c3d
000000e0: e1ed 8dbc 59b8 e9bd 2640 193c 5da8 7a3e
000000f0: b755 18bd 1664 f4bd 79db 9b3d 7ab2 7ebe
00000100: d275 b03d fc85 58be 7569 583c 1f0d 223e
00000110: b169 113e 1a08 803e 572d 5bbe 88a4 5c3e
00000120: a714 c7bd 9472 5b3e 8a1c c73d 9e45 bb3d
00000130: e03d 683e bf04 e13d afc9 303e bfa9 603e
00000140: e74e 253d adc7 dcbc 5f77 4d3e 7e57 39be
00000150: bc87 4f3e 08e9 29be 8868 91bc 9544 36be
00000160: e741 bdbb 3318 fd3d 4680 5b3e 298c 0e3e
00000170: 5386 5bbd c5e4 60be 5cce 033e 6b28 07bc
00000180: c723 043e 3fe5 673e 5375 cbbd 65de ca3d
00000190: 70f2 ba3d 0db0 0fbe 6dee 123e 7fe3 2abe
000001a0: 9d05 83be 71d4 3f3e 840e 773e b51c 3ebe
000001b0: e343 03be b1e8 ef3d 1a63 653e 175d 38be
000001c0: 932a f23d b049 b9bd 0a19 223e 42df 963d
000001d0: f607 36be 7af4 143e a608 6abd 7570 6a3e
000001e0: c279 e83d 26cd 04bd 1b28 42be 30ae 6f3e
000001f0: adab c5bd 1ec7 6a3e 7429 7b3d bcb1 953d
00000200: 2584 723e 0323 e03c bcb6 0abd bee1 3ebe
00000210: c1bb 0d3e e0bb 2ebe b023 8abd 7f25 223e
00000220: 9e5e 693c d0b3 353d 20dd 46be 2ed5 4dbe
00000230: ee02 733e 7257 083d 1be1 cc3d 6acf 23bd
00000240: c9ce 6d3e 85b2 72be aeb8 843d 88ae e9bd
00000250: adf2 0d3e a14d 463e b582 b73d 2115 c1bd
00000260: 4c16 623e 6d04 973d bd69 473e 6c5d 5bbe
00000270: e361 0fbe 07de 2e3e 871e 31be 561f 36be
00000280: 1220 653e 51df 70be b23d 513e b311 7abd
00000290: 5d14 01be d25a 71be c0c1 493e fdfe 1e3e
000002a0: e9d1 573e b866 183e f4e3 83bd 42b8 e33d
000002b0: 44f2 323d 87ec 1b3e 8712 d03d fc8b 53bd
000002c0: a34b 45be d07c 49be 885b dc3d 452e 2bbe
000002d0: f8fd 823e 223c ae3d a01c d13c 40d5 4bbe
000002e0: d69d 0fbe cde7 86ba 93be 04be ceee 3abe
000002f0: dc07 43be 1a61 0bbe 553d 56be 04e9 e4bd
00000300: de81 aa3d ca09 1ebe e1bb a7bd ef62 ed3b
00000310: f20a 623e a1ad ecbc 4550 acbd cbc7 59be
00000320: 92de 10bb 2cb3 3b3d 73b2 7e3c 4507 55be
00000330: d260 30be 980d 42be b424 b1bd d3f2 bcbd
00000340: e8ef fcbd 3cc0 eebd 00fc fbbd 89fc 263e
00000350: 736b 8cbd c557 babd 2395 103e ef27 81bd
00000360: 5009 1e3e 7d19 233e 3670 bd3d caed 453e
00000370: 3274 48bd 309f 4e3e 9b80 9b3d 2986 713e
00000380: 5d27 39bb ca4f 9abd 78b0 afbd faac 70bd
00000390: a32e 2abe bdaa ec3c 0c43 3a3e a68f 313e
000003a0: b02d 113e 2394 023d 6638 693e 7e0f 603d
000003b0: a9e8 053c 511e dabd b4b8 2abd d8b3 28be
000003c0: 8b63 54be cffc 033d e8c9 52be a0ba e3bd
000003d0: 0e74 323e 16bd 1e3d 8c25 0d3e 0ed0 48be
000003e0: 3c96 673e 5900 48bd 296f 84be 49cd 29be
000003f0: b8e4 5bbe cac5 4dbe 5525 b9bd 6a36 2bbd
-0.13958926 -0.25947043 0.18589188 -0.043262795 -0.07560658 -0.21885322 -0.031900495 -0.21604201
0.06112814 0.18544446 0.101121105 0.0405217 0.06655166 -0.13019367 0.07334086 0.16872133
-0.19748966 0.054341923 -0.08258809 -0.15064819 0.086693995 -0.08834995 0.13653056 -0.021992425
-0.19636998 0.2089861 0.08689271 0.22281907 -0.0353311 -0.22467384 -0.18507439 -0.150107
0.019034343 -0.18091586 0.01969355 0.22288607 0.0933056 0.14052184 -0.12380567 -0.1253525
0.23548123 -0.06728617 -0.061029248 -0.15930784 0.1733036 -0.07934072 -0.13703269 0.17608252
0.043381725 0.06694225 0.06951185 -0.22796191 -0.17953452 0.01788239 -0.2399313 0.068633266
-0.017325344 -0.11412115 0.009353673 0.24478288 -0.03719112 -0.119331524 0.076102205 -0.24872771
0.086162224 -0.21144861 0.013208737 0.15825318 0.14200474 0.2500618 -0.21404015 0.21547139
-0.09720736 0.21430427 0.0972224 0.09144138 0.22679853 0.10987233 0.17264436 0.21939753
0.04035845 -0.026950682 0.20065068 -0.18099782 0.20266622 -0.165928 -0.01775004 -0.177996
-0.0057756784 0.12358131 0.21435651 0.13920654 -0.0535949 -0.21962269 0.12871689 -0.0082493825
0.12904273 0.22646044 -0.09934487 0.099057 0.091282725 -0.14032002 0.14348765 -0.16688345
-0.2559022 0.18733384 0.24126631 -0.18565638 -0.12818865 0.11714304 0.22401085 -0.18004261
0.11824527 -0.09047258 0.15829864 0.07366802 -0.17776474 0.14546385 -0.057137154 0.22894461
0.113513485 -0.032422207 -0.18960612 0.23406291 -0.09651885 0.2292752 0.06131883 0.07309291
0.23683222 0.027360445 -0.033865675 -0.18640801 0.13841154 -0.17063856 -0.06745088 0.15834616
0.01424375 0.044360936 -0.1942029 -0.20100853 0.23731586 0.03328652 0.10003873 -0.039992727
0.23223414 -0.23700912 0.06480537 -0.11410242 0.13862105 0.1936555 0.08960477 -0.09427858
0.22078818 0.07373891 0.1947393 -0.21422356 -0.14002185 0.17076884 -0.17296802 -0.17785391
0.22375515 -0.23522688 0.20433691 -0.061052036 -0.12605424 -0.23569801 0.19702816 0.15526958
0.21076168 0.14882934 -0.06439963 0.11119129 0.043688074 0.15226947 0.10159784 -0.05164717
-0.19267134 -0.19676518 0.10759646 -0.16716869 0.25584388 0.08507563 0.025526345 -0.19905567
-0.14025053 -0.0010292471 -0.12963323 -0.1825516 -0.19045967 -0.1361126 -0.20921834 -0.11177257
0.083255515 -0.15433422 -0.08190132 0.00724446 0.22074488 -0.028891386 -0.08413748 -0.21267621
-0.0022105318 0.04582517 0.015545475 -0.20803554 -0.17224434 -0.18950498 -0.08649579 -0.092260025
-0.12350446 -0.116577595 -0.123039246 0.16307272 -0.06856432 -0.09098772 0.14119391 -0.06306445
0.1543324 0.15927692 0.09249918 0.1932899 -0.048938937 0.20177913 0.07592889 0.23586334
-0.0028252222 -0.0753475 -0.085785806 -0.058758713 -0.16619353 0.028890008 0.18189639 0.17339954
0.14177585 0.031879555 0.2277542 0.054702275 0.008173146 -0.10650314 -0.041680053 -0.16474855
-0.20741098 0.03222352 -0.20584834 -0.1111958 0.17427084 0.038754545 0.13783854 -0.19610617
0.22615904 -0.048828457 -0.25866058 -0.16582216 -0.21473968 -0.20094982 -0.09040324 -0.04179994

separableConv.1.weight f4 [32, 32, 1, 1]
00000000: b91f 16be 9717 043d 5f25 023e ee57 213c
00000010: 1bc8 36be 32f1 eebc fb0e d33d 45d5 283d
00000020: f9b8 1a3e 7e9e 163e b5fd 99bd 590f dbbc
00000030: c94d 033d 1151 413d 18ec f33d fd9b d13d
00000040: 4496 06bc f341 6dbd 7bc4 db3d 14b8 2c3e
00000050: 0204 d13d b0ca 1b3d 13c5 c53d 9822 87bd
00000060: fd06 88bd 0689 0abe 7bcf cfbd 7685 f5bb
00000070: 734a 3ebc 1165 2cbd 8c40 ec3d 37bd a6bd
00000080: 0a9e c93d d2c7 0e3d a6ae 98bb 34e6 293d
00000090: e7c4 17bd 8f23 073e ed90 06bd b4dd 113e
000000a0: 8b44 60bc c543 333d f498 3fbd e0f4 593d
000000b0: eb80 02be 3b75 40bc 888c 07bd 73af d83d
000000c0: 84b0 f4bc a32e ba3d 7968 d6bb 388b d13d
000000d0: 621d 8d3d 519e 1b3d 3ff1 d13d 4a8c 883d
000000e0: 310b b5bd 412c bcbd e0fa 27bd 35b0 463c
000000f0: c95d aabc 9c4f 053e 9294 d73d e725 353e
00000100: 27b2 92bd 86c8 f8bd 2b45 203e a97d 343e
00000110: 1357 983b cfa8 42bd 57be d23d 966a 703d
00000120: f47d 29be 4438 00be 40e6 ea3d c155 6b3d
00000130: 21c0 e5ba 935b 753d b286 16be 56c4 59bc
00000140: a714 fabd 6c4f ef3b 9ec5 4abd a7c9 3b3e
00000150: 3715 ff3d 7086 59bd 2b4e babd 083b 22bd
00000160: 7350 71ba f032 213d 823a 1a3e 410b 363c
00000170: eb73 963d 4824 e4bd b631 333e dd52 0b3d
00000180: acc5 033e c22b 8c3d 0016 063e f80a 0c3d
00000190: 8bcc 7fbd be6e 76bd cd23 133e dd9f 6c3b
000001a0: cf63 c73d 7932 013d 27d2 73bd 0ccc 7c39
000001b0: e029 f23d 9878 913c 7121 33bc 7eab 0ebe
000001c0: 24cd b63d 9ba8 b03d 2470 0c3e 7e54 c63d
000001d0: 7af1 563d af6e 0cbe 7bdb 9cbd 42f7 0dbe
000001e0: 06d0 6b3d 9122 f53a c7ff 193e d392 b13c
000001f0: 4204 ed3c 4684 20bd 6dbe 023e a7f0 9abd
00000200: 6010 99bd 64af 28be 752a febd b991 883c
00000210: d39e 323e 9a76 b2bd b2ae e4bd 985d a9bd
00000220: 03af 873b c318 363d f6dc 0cbe 7dde 29be
00000230: 9a86 4ebc 4cb2 fabd 3ceb c8bd a097 00be
00000240: 63e0 503d 7f55 aa3d b146 243e d041 76bd
00000250: 0409 84bd 24ef 97bb c678 10be 25ec 77bd
00000260: ccc9 b2bc c8d6 06be b8e8 bcbd f82d 91bd
00000270: 3771 11bc 2a65 23be 1364 ba3b 967f 76bd
00000280: 94a5 85bd 07a8 a83d 55ea 253c 31f0 b43d
00000290: 8679 1e3e c97b 233e be7d dbbd 977b 33be
000002a0: c740 dd3d 3590 163e 7393 f73d dfb2 0abc
000002b0: 8353 f23d 97cf c03d 6593 a53d 12a2 24bd
000002c0: 5225 0b3e a998 b5bd e2c8 e6bd d23e 963d
000002d0: 773d 5dbd a131 36bd e8d7 08be 4cbd 4f3b
000002e0: 2ec1 18be 2ebf 683d 4f14 653d e472 94bd
000002f0: 8e28 30bd 4866 b5bd 4655 943c 6beb 11bc
00000300: 2758 07bd d432 9abc ae6b e3bc 63d5 fabd
00000310: 9f43 0dbe f6b0 bebd d994 fc3d b2fe d6bd
00000320: 50ea 8abd af71 26be dc7e 4a3b 5a76 823d
00000330: f0cf b13d e3f5 173d 28d5 c33c d594 123e
00000340: cc13 edbd b8d0 0c3d 8156 d0bd 9ad6 e9bd
00000350: dec5 16be 6b3b bb3d 40c1 2e3b 3a25 2abe
00000360: 10c2 8e3d 1527 0fbe af8a 10bd d5aa 06bb
00000370: 25ee 7cbd a2c6 c9bd d5fb 28be 40ef aebd
00000380: b54c 163d 60f5 83bb bf7f 80bd 8e38 72bd
00000390: 90a3 6ebd a3b7 c23d e2bb a83d fc83 cf3d
000003a0: cf81 e6bd 75bd a43d 49c3 87bd ba86 853d
000003b0: f934 783d 8e81 e7bd e44a ee3d 0bc2 043e
000003c0: 6686 f83d bef2 a4bd c36a fc3b a9cf f2bd
000003d0: 1e98 eabd d492 3fbd 18d7 33be 77ce 95bd
000003e0: 4fb2 53bc 9410 6b3d 2696 023e 8591 febc
000003f0: c9ab 913b bdd7 27be 1d0d 9f3d 4368 d03d
-0.14660539 0.03224906 0.12709568 0.009847624 -0.17849772 -0.029167745 0.10305592 0.041219015
0.15109624 0.14708897 -0.07519094 -0.026740717 0.032056604 0.04719645 0.11910266 0.102348305
-0.008214537 -0.057924222 0.10730835 0.16867095 0.102058426 0.038035095 0.096567295 -0.06598395
-0.06641958 -0.13528833 -0.10146996 -0.0074927164 -0.01161443 -0.042088572 0.11535749 -0.081415586
0.09844597 0.034858532 -0.0046594916 0.041479304 -0.037053015 0.13197158 -0.032853056 0.1424473
-0.013688217 0.043765802 -0.046776727 0.053212047 -0.12744491 -0.0117467 -0.033093005 0.10580339
-0.029869325 0.090909265 -0.006543216 0.10231632 0.0689037 0.03799278 0.10251092 0.06667383
-0.08840025 -0.09188128 -0.041010737 0.012126972 -0.020796673 0.1301865 0.105263844 0.1769024
-0.07162886 -0.12147622 0.15651385 0.1762606 0.004649052 -0.04752427 0.10290211 0.0586954
-0.16551954 -0.12521464 0.11469698 0.05745483 -0.0017528572 0.059901785 -0.1469982 -0.013291439
-0.1221097 0.007303169 -0.04950487 0.18338643 0.12455218 -0.053106725 -0.090969406 -0.039607078
-0.0009205408 0.03935522 0.15061381 0.011111082 0.07346328 -0.111397326 0.17499432 0.03401457
0.12868375 0.06844284 0.1309433 0.034190148 -0.062450927 -0.060164206 0.14369126 0.0036106028
0.09735834 0.031542275 -0.05952659 0.00024108606 0.11824393 0.017757699 -0.010933266 -0.13932607
0.08925846 0.08625909 0.13714653 0.09684084 0.052476384 -0.13714097 -0.0765905 -0.13863853
0.057571433 0.0018702318 0.15038978 0.021676457 0.028932694 -0.039188646 0.12767954 -0.07565432
-0.074738264 -0.16473156 -0.12410442 0.016671048 0.17443399 -0.08714028 -0.11166133 -0.08269805
0.004140736 0.04445721 -0.13756165 -0.16588779 -0.012605334 -0.12241039 -0.098104924 -0.1255784
0.05099524 0.08317088 0.16042592 -0.060121357 -0.06447032 -0.004636662 -0.14108571 -0.06052794
-0.02182474 -0.1316787 -0.09224075 -0.07088846 -0.00887709 -0.1595656 0.0056881993 -0.06018027
-0.06525722 0.08235174 0.01012667 0.088348754 0.15476045 0.15965189 -0.10717343 -0.17527615
0.10803371 0.14703448 0.120886706 -0.008465498 0.11832335 0.094145946 0.08084754 -0.040193625
0.13588455 -0.08867008 -0.11268784 0.07336201 -0.054013696 -0.044480924 -0.13363612 0.0031698523
-0.14917442 0.05682295 0.05592757 -0.07248476 -0.043007426 -0.08857399 0.018107068 -0.008906226
-0.033043053 -0.018823065 -0.027761307 -0.122477315 -0.13795327 -0.09311096 0.12333078 -0.10497798
-0.06782973 -0.16254304 0.0030898368 0.0637023 0.08682239 0.03709973 0.023905352 0.14314587
-0.115760416 0.034378737 -0.10172749 -0.11417885 -0.14723918 0.091421925 0.002666548 -0.16615763
0.06970608 -0.13979752 -0.03528851 -0.0020548601 -0.06175055 -0.09852339 -0.16502316 -0.08541727
0.036694247 -0.0040270537 -0.06274366 -0.059135966 -0.058261454 0.09507682 0.08238961 0.10132596
-0.11255228 0.080439486 -0.066290446 0.06519838 0.060597394 -0.113040075 0.11635378 0.12964647
0.121350095 -0.08054112 0.0077031567 -0.11856014 -0.11454795 -0.046770886 -0.1756252 -0.07314771
-0.01292093 0.057388857 0.1275259 -0.031075248 0.004445527 -0.16390891 0.07766173 0.10176136

separableConv.2.weight f4 [32]
00000000: 4818 823f f530 803f 798b 803f 9616 823f
00000010: f209 823f b9ce 7d3f 1ce5 823f 510f 813f
00000020: 1922 823f 2a27 823f 245b 7f3f 4696 7e3f
00000030: 794f 803f 4fda 7f3f 418b 7e3f 4310 803f
00000040: 2e94 813f 6002 823f 5acb 7e3f 97e3 803f
00000050: 55eb 7f3f 1763 823f 0129 803f fbdd 803f
00000060: 75de 7b3f a258 7e3f ad0b 823f f7ad 803f
00000070: b2ae 813f 86c7 803f 8cc3 823f 41e5 7e3f
1.016366 1.001494 1.0042564 1.0163143 1.0159285 0.9914356 1.0226169 1.0082799
1.0166656 1.0168202 0.99748445 0.9944805 1.0024253 0.9994249 0.99431235 1.0004963
1.0123346 1.0156975 0.9952904 1.0069455 0.99968463 1.018649 1.0012513 1.0067743
0.9838632 0.9935399 1.0159813 1.005309 1.0131438 1.006089 1.0215926 0.99568564

separableConv.2.bias f4 [32]
00000000: bafa 0c3c 9cb8 8abc c406 39bb f6c7 63bc
00000010: 1811 1c3c e4a3 b4bb a0fd 5b3b 8897 183a
00000020: 9613 a3bb 5e66 fb3a b315 a0bc 91c3 63bc
00000030: 9d4e 19bc 55f5 013c 943c f8bb 8088 11bc
00000040: 9bc0 35bc def1 95bc 9487 eebb 6e34 4bbc
00000050: bde1 2fbc 1b58 c5bb 42f6 67bb cb35 243b
00000060: 42c0 08bc adc9 193c 3420 10bc 3c66 85bc
00000070: 5da7 e5bb 6694 fd3b c09f 46bc 86a4 2cba
0.0086047 -0.016933732 -0.0028232792 -0.013902655 0.00952556 -0.0055127013 0.003356792 0.000582092
-0.0049767 0.0019180288 -0.019541597 -0.013901607 -0.009357122 0.007932027 -0.007575581 -0.008882642
-0.011093284 -0.018303808 -0.0072793458 -0.012402637 -0.010734973 -0.006022466 -0.0035394584 0.0025056477
-0.008346619 0.009386462 -0.00879674 -0.0162841 -0.0070084766 0.0077386377 -0.012123048 -0.0006585795

separableConv.2.running_mean f4 [32]
00000000: 58ac 04ba aa5c beb8 0fad 1539 5fb2 8f3a
00000010: 81ea 5939 a142 50ba e287 8aba a8ef 193a
00000020: 9226 07bb 435f 053b 20d9 8eba f48c 2bb9
00000030: 6ac0 d8ba 5491 be39 888a 93ba 1945 a937
00000040: cc52 3ab9 d453 8f3a 226f 5e3b 2d3c a13a
00000050: e687 5aba 447e 35ba ca7a 883a 034a c23a
00000060: 2615 13ba 7eed 8a3a cedb 37b9 eae7 14ba
00000070: f820 c7ba 1f3c 9e37 56cd 20ba 28fb c0ba
-0.00050610816 -9.077166e-05 0.00014274217 0.0010963193 0.00020782092 -0.0007944499 -0.0010569061 0.00058721984
-0.0020622355 0.002035097 -0.0010898449 -0.0001636034 -0.0016536836 0.00036347902 -0.0011256495 2.0178546e-05
-0.00017769187 0.0010935017 0.0033940752 0.0012301259 -0.00083362905 -0.0006923417 0.001041257 0.0014823083
-0.00056107563 0.0010599343 -0.00017534124 -0.000568031 -0.001519232 1.8863064e-05 -0.0006134113 -0.0014723288

separableConv.2.running_var f4 [32]
00000000: ed74 bd3a ede5 403a 96a5 cc3a 433c a13a
00000010: c2ad d33a 2337 a53a 6d06 d63a 5c94 923a
00000020: c84f f73a aa42 ed3a bf3d 003b 1a6e 9d3a
00000030: 909f ad3a d9b5 c83a ec9c de3a ae1b bb3a
00000040: 4d54 cf3a d8b5 1a3b b538 e83a 6e5e d53a
00000050: 1db2 fd3a 9494 913a 2976 c73a 7c5b dc3a
00000060: b20e e03a 788c 9b3a bf63 1d3b c72a 1f3b
00000070: 55f7 0e3b 25f5 e33a 2751 043b cdd4 9e3a
0.0014454402 0.00073584804 0.0015613313 0.0012301285 0.0016149806 0.0012604933 0.0016328819 0.001118313
0.0018868381 0.0018101532 0.0019568054 0.0012010962 0.0013246406 0.0015312984 0.0016984022 0.0014275217
0.001581797 0.0023606922 0.0017717095 0.0016278753 0.001935545 0.0011106902 0.001521771 0.0016811932
0.0017094223 0.0011867424 0.0024015752 0.0024286972 0.0021814902 0.0017391784 0.0020189972 0.0012117863

classify.weight f4 [2, 992]
00000000: 07b7 743b a543 da3c 2774 71bb 0601 b4bc
00000010: 116a 5d3b 06d9 5fbd ec7b 433c 69f1 70bb
00000020: 91a6 65bc 8baa e4bc a293 f73a ce6d 0abc
00000030: c926 1f3c 2095 9d3c 08f4 f7bc 766e b43c
00000040: d3fd 61ba 4198 303c aa35 7cbc 4651 173b
00000050: ab35 dcbc bc35 bf3b d4d4 0cbd 728c 97bc
00000060: 4880 a93c cb1b 42bd 74e7 d13c dfb4 d1bc
00000070: f030 8f39 2c32 8d3c 23f3 f33b 678c cdbc
00000080: 4f83 853a 942b f23b 355b a7bc 2e18 3a3c
00000090: 4cf8 eabc ba3b 343d 9431 25bc fae4 b0bb
000000a0: 5a93 48bc c4f4 87bc 2de1 0c3c e168 84bc
000000b0: 020c c7bc 55c0 fa3c d1ab 0b3d 2aea 35bc
000000c0: b837 44bc 484b f5bc 8a49 e63a 820e 7bbc
000000d0: 5988 f03c a638 b83c 3baa cb3c 89ad 8fbc
000000e0: 7193 dc3c 757f b5ba 9b20 4d3c 936d d33a
000000f0: 6d63 5c3c f9a1 41bc 77b7 ebb9 55df 9c3c
00000100: 9ebd 8a3c 463e a23b 28ff b73c d7e6 91bc
00000110: 0f32 22bc b3ed e63b e14e 14bd f70a b3bc
00000120: 3043 56bc 60ef 70bb dab6 b73c 2da4 573c
00000130: 7467 92bc 7b6e 973c 08f8 dc3b aaed 06b8
00000140: 09e7 6ebb 8128 86bc 9821 3dbc bcf4 19bc
00000150: c9fc 7cbc 2ac8 543c f6b0 a4bc a77b 99bb
00000160: a935 80bc e993 c33c 6610 e33b 4f6c 13bc
00000170: d23b e03c 45e3 ccbc a0b9 233d 99ea 2fbd
00000180: 7484 dc3c 74f6 a03c 7ad1 3fbc bd5e eb3c
00000190: d13b bfba a6d8 0dbd b2c3 2f3d a4f8 9f3c
000001a0: 6220 5dbc c521 89bb a6ed 5d3b 5a03 5bbc
000001b0: 8cc2 963c db42 b23c 8f9c d73c c226 bbbb
000001c0: 56f4 6f3c 77f3 86bc 63e6 ec3a 60b6 963c
000001d0: 23cf af3b 85dc a4bc f3be 47bd 76ce b23c
000001e0: fee8 44bc e9db 3f3c c6ef adbc bc07 323d
000001f0: ebb7 75bc 089f d23b 0d44 883c ea1d fa3c
00000200: 2c76 0cbb 07aa 86bc f1a7 58bd 40e4 133d
00000210: 5057 adbc 8609 633c ddd5 85bb e11b 9fba
00000220: 81b7 873c 6bb9 0d3d 7320 17bd e21e 78bc
00000230: 1154 d73b 2170 b1bc 3cda f33c 70aa 0e3b
00000240: bb32 93bc a706 d5bc 15b0 4b3c 4ceb 37bd
00000250: 0c31 863b f6b3 403d c263 96bc cd39 453c
00000260: b7ed 493d e4ab 99bb 660c 81bb 980f 383c
00000270: 1d59 86bc 2945 24bd f126 42bc e987 9f3b
00000280: 3ef6 153c 4d4b 9c3c 65d1 4f3b 2660 fd3a
00000290: 7f10 81bc 6d31 c1bc e1ff e03c 5b73 333c
000002a0: 8985 fa3c 38ae a0bb 7a79 2a3c 00d9 1fbd
000002b0: 3f33 d23c 2824 aabc 87e0 e9bb 0463 b53c
000002c0: f379 2ebc 3c35 95bc 2bb7 8f3b 0001 f23b
000002d0: d78b 653b d3ec 513c 8d6b d5bb 3e29 d03b
000002e0: 2bce 303c 42f3 5e3c 4c6b 973d e2d1 6cbc
000002f0: cbe2 673c 9cad 9abc a2bd 99bc f3a0 003d
00000300: a981 173b 14a2 19bd 14e9 42bb ed6f a7bc
00000310: d918 2fbc 4963 823b 63f0 c1bc 4e96 b63c
00000320: f210 90bc c16a 04bc 1a2b aebc 088d 70bc
00000330: a7f8 03bc 7010 22b9 f7a2 2dbc 94af 7dbc
00000340: aba8 be3b 75fa 20bd 8c48 39bb 08ae 9e3b
00000350: 862a 923b a08c 913c bcda e0bc ea8d d73b
00000360: c5d8 09bd 5799 883c 4218 1c3c 93da 24bd
00000370: ec73 393d c75a 20bd ccb8 1d3b 7ae5 a43c
00000380: 48f2 bfbb f660 0f3c ddb1 fb3b 7a54 fe3b
00000390: 109f 9b3c 2acd 7c3a b608 8bbc 84fe 8d3c
000003a0: cfe5 213c fd6f 143c 3828 22bc 8cc7 c4bb
000003b0: d670 7cbc c190 d8bc 6c52 87bc b441 473d
000003c0: 2ca4 493b 293c 0b3c d5ba 4b3c 69d2 20bc
000003d0: 9f8b 09bd 9540 9e3c f707 943c 89f9 833b
000003e0: d1ff d9bb 3825 5e3c 3583 ac3c 5b80 f5bc
000003f0: 9143 173c 1e90 3cbc 2fa7 ab3c ae92 d33c
0.0037340538 0.026643584 -0.0036842914 -0.021973144 0.0033785144 -0.05465033 0.011931401 -0.0036764985
-0.014016763 -0.027913352 0.0018888602 -0.008449031 0.009713837 0.019236147 -0.03026773 0.022025328
-0.00086208916 0.010778488 -0.015393654 0.0023089214 -0.02688106 0.005835263 -0.034382656 -0.018499587
0.020691052 -0.047389787 0.02562306 -0.025598941 0.00027311547 0.017235838 0.0074447556 -0.025091363
0.0010186228 0.007390449 -0.020429233 0.011358304 -0.02868285 0.044002272 -0.010082621 -0.00539839
-0.012242163 -0.016596206 0.008598608 -0.016163291 -0.024297718 0.03060929 0.034099404 -0.011103192
-0.011976175 -0.029943123 0.0017569524 -0.015323283 0.02936189 0.02248795 0.024861446 -0.017538803
0.026925774 -0.0013847189 0.012519981 0.0016130678 0.013451439 -0.011818402 -0.00044959385 0.019149462
0.01693612 0.004951271 0.022460535 -0.017810268 -0.00989963 0.007047379 -0.036208037 -0.021855814
-0.013077542 -0.0036763772 0.022426058 0.013161701 -0.017871596 0.018485298 0.006743435 -3.216943e-05
-0.0036453626 -0.016376736 -0.011543654 -0.009396728 -0.015441128 0.012987176 -0.020103913 -0.00468393
-0.015650587 0.02387424 0.006929445 -0.008997991 0.027372275 -0.025010714 0.039971948 -0.04294834
0.026918627 0.019648768 -0.011707658 0.028731698 -0.001458997 -0.03463044 0.04291124 0.01952774
-0.01349649 -0.004184934 0.0033863573 -0.013367498 0.018403314 0.021760395 0.02631977 -0.0057114074
0.014645657 -0.016473515 0.0018074032 0.01839751 0.005365269 -0.020124683 -0.048766088 0.021826964
-0.01201844 0.0117101455 -0.021232497 0.043464407 -0.014997463 0.0064276494 0.016634012 0.030531842
-0.002143274 -0.016438497 -0.052894536 0.036106348 -0.021159798 0.013857251 -0.0040843324 -0.0012139046
0.016566994 0.034600656 -0.03689618 -0.015144082 0.006571301 -0.021659913 0.029767148 0.002176907
-0.017968526 -0.026004149 0.012432118 -0.04490213 0.0040952023 0.047046624 -0.018358115 0.012037707
0.04929897 -0.0046896804 -0.0039382456 0.011234187 -0.016399914 -0.04010502 -0.011850105 0.0048684967
0.009152947 0.019078875 0.0031710502 0.0019331023 -0.015754936 -0.023583138 0.027465763 0.010952796
0.030581253 -0.004903581 0.010404939 -0.039025307 0.025659202 -0.020769194 -0.0071373614 0.02214194
-0.010649192 -0.01821386 0.004385849 0.007385373 0.0035025978 0.012812811 -0.006513065 0.0063525727
0.010791342 0.013607802 0.07393512 -0.014454337 0.014153193 -0.018881612 -0.018767182 0.031403493
0.0023118055 -0.037508085 -0.0029740976 -0.020439113 -0.0106870765 0.003979121 -0.023674196 0.022288468
-0.017586205 -0.008082093 -0.021260787 -0.014682062 -0.008054889 -0.00015455647 -0.010597936 -0.015483756
0.0058184466 -0.039301354 -0.0028272 0.0048425235 0.0044606356 0.01776725 -0.02744805 0.006578197
-0.033653993 0.01667468 0.009527268 -0.04024751 0.045276567 -0.039149072 0.0024066446 0.020128954
-0.0058577396 0.008751145 0.007681115 0.0077615352 0.018996745 0.0009643609 -0.016971927 0.017333277
0.009881451 0.009059903 -0.009897284 -0.006005233 -0.015407762 -0.026436212 -0.016518794 0.048646644
0.003076802 0.00849823 0.012434681 -0.009815791 -0.03358042 0.019317904 0.018070204 0.0040275496
-0.00665281 0.013558678 0.021058658 -0.029968431 0.009232418 -0.01150897 0.020953743 0.025826778

classify.bias f4 [2]
00000000: 4475 36bc 616f 333c
-0.011136357 0.010951848
