notebooks/outputs/temp_independent_test_B08_last.pth (torch, 13137 bytes, 18 tensors)

conv_temporal.weight f4 [8, 1, 1, 64]
000000 0c 44 44 bd ca 16 19 bd 2e 6e 96 3d bd e0 30 3c
       -0.047916457 -0.03737525 0.07345234 0.010795769
000010 a8 38 df bd 1e fe a2 3d cb cb f4 bb 6b 07 aa bd
       -0.10899478 0.07958625 -0.007470583 -0.08302196
000020 b2 d6 d4 3d 39 1f 24 3d 4d 36 8a 3b ed 6e ce 3d
       0.103925124 0.04006884 0.004217899 0.10079751
000030 ca 3f 62 bd 35 65 4e 3d 77 41 04 bd 4c 97 2f bd
       -0.055236615 0.050389487 -0.032288995 -0.042868897
000040 35 84 a3 3d 35 db 91 3d 8a 68 69 bc 7e d3 98 bd
       0.07984201 0.071218885 -0.014246115 -0.07462214
000050 65 df 8c 3d e1 ab 66 bd d4 65 05 be 96 dd cd bd
       0.068785466 -0.05631626 -0.13027126 -0.1005203
000060 42 46 8d 3d b7 a4 03 bd 70 84 9f bd 0a c1 93 bd
       0.06898166 -0.032139506 -0.07788932 -0.07214554
000070 78 29 14 bd 98 63 03 be 0f fd bc bd f6 5b eb bd
       -0.03617236 -0.12830961 -0.092279546 -0.114921495
000080 0d 29 9a bd 41 48 4a 3d 9b 96 be 3d 9b 7f a6 bd
       -0.07527361 0.049385313 0.093060695 -0.081298076
000090 21 86 a5 3d fc 2a ec 3d 65 56 97 bd 07 0c be 3d
       0.08082224 0.11531636 -0.07389525 0.09279638
0000a0 a6 ba e5 bd 65 38 65 3d f9 52 99 bd cb ba 2e bb
       -0.11217241 0.055961985 -0.07486529 -0.002666163
0000b0 25 0f 03 3c 97 f4 84 3d 2f a9 20 3d d5 bb 10 3d
       0.007999216 0.06491964 0.039223846 0.03533538
0000c0 35 4b be 3d 02 c3 9e 3d d8 a8 de 3d 8f 6c c6 3c
       0.09291688 0.077520385 0.10872048 0.024221687
0000d0 98 50 ed 3d 61 35 04 3e d5 43 9c bd 39 3e 0c 3b
       0.11587638 0.12910987 -0.076301254 0.0021399392
0000e0 3f fd 5b bd 03 95 f6 3d c1 c9 f8 3d b0 93 13 bc
       -0.05370831 0.120401405 0.121478565 -0.009007379
0000f0 6e 4d 75 bd f4 3d e6 3c e4 f2 b6 3d f9 79 e0 3c
       -0.059888296 0.028105713 0.089330465 0.027401911
000100 fd c7 ec bc 55 03 88 bd 02 69 e5 bd 46 be 23 bd
       -0.028903956 -0.066412605 -0.11201669 -0.03997638
000110 31 f5 cc 3d 19 a5 86 bd 5d 17 66 bc fa 53 fc bd
       0.10007704 -0.06574459 -0.014043656 -0.12320705
000120 c9 9f 06 be cd 8d 5e 3d 94 47 fa 3c 9a 0f 86 3c
       -0.1314689 0.05433445 0.03055171 0.016364861
000130 4a 05 f0 bc 3b 9c 97 3d 8b b7 fa 3d cc 27 8a bc
       -0.029299397 0.074028455 0.12242039 -0.01686468
000140 cb e1 07 3d 7f ff cf 3a 9d 33 03 bb bb c3 3e bd
       0.033174317 0.001586899 -0.0020019778 -0.046573382
000150 41 07 a6 bd 0a 50 87 3d fc e9 e1 bd bb d6 5b 3d
       -0.08106852 0.06607063 -0.11030957 0.05367158
000160 e0 12 6d bd 0e 83 91 bc f5 44 e0 3c 8b 46 da 3c
       -0.05787933 -0.017762687 0.027376631 0.026644966
000170 47 3a 83 bd c6 ea 8d bd ec f8 47 3d 67 9f 54 bd
       -0.064076 -0.06929545 0.048821375 -0.05190983
000180 a2 c3 d3 bc 89 be 9a 3d fe e3 63 bd 12 36 92 bd
       -0.025850121 0.07555873 -0.055637352 -0.07139219
000190 60 46 ab 3d b0 5b bd bd b6 e9 f2 3d b2 bf ce bd
       0.08363032 -0.09246004 0.11860983 -0.10095157
0001a0 cc 3a da 3c 1c 54 8c bd ca 2a 2c bc 31 ab a4 bd
       0.026639365 -0.0685198 -0.010508249 -0.08040465
0001b0 fd fd c2 3d c2 dc bc 3d 15 b0 5a bd e1 4c 87 bd
       0.09521101 0.09221794 -0.05339058 -0.0660646
0001c0 0a b7 7d bd 00 a4 f2 bc c6 d0 ab 3d 9a 51 cb bc
       -0.061942138 -0.029619217 0.0838943 -0.024819184
0001d0 00 8c 1d 3c be 9e a2 3d 30 05 c0 3b 30 21 c5 3d
       0.009615898 0.07940434 0.0058599934 0.09625471
0001e0 65 39 9d bd e2 90 cf 3d 46 af a7 3d 11 e6 e0 3d
       -0.07676963 0.10135056 0.08187728 0.10981382
0001f0 95 36 fd 3c f9 0d b3 bc dd 81 15 bd 71 36 48 bd
       0.030909816 -0.021857249 -0.0365008 -0.048880044
000200 7b 84 b6 bc 21 fc 00 3d 5b 60 d3 3d 14 5a f7 bd
       -0.022279968 0.03149045 0.10321113 -0.12077728
000210 20 d6 00 3e 78 61 db bd ad 61 2a 3c b1 5e 67 bd
       0.12581682 -0.1071195 0.010399264 -0.05648679
000220 8e d3 cb 3d 0f 47 2d bb 05 10 9d bd a9 9d a6 3d
       0.0995246 -0.002644006 -0.07669071 0.0813554
000230 02 2e f9 3d 66 4e d5 ba ea bb 63 bd 2c 75 55 bd
       0.121669784 -0.0016273975 -0.05559913 -0.052113697
000240 03 04 12 3d 4e a9 a8 bc 07 a6 93 3c a8 32 e9 3d
       0.035648357 -0.020588543 0.018023504 0.11386615
000250 5b 0b fb 3d 58 0f 16 bd f2 6f 18 bd b6 fc 69 3d
       0.12258025 -0.036635727 -0.037216134 0.05712577
000260 4b a3 dd 3b c6 b3 00 3e 62 e1 df bc cc fb 75 bd
       0.006763851 0.12568578 -0.02732915 -0.060054585
000270 37 a8 e6 bc 76 8f f9 bd 3d 50 8c 3d aa 35 cd bd
       -0.028156383 -0.12185566 0.06851242 -0.10020001
000280 cf 48 1c bd 53 61 01 be ce cb 45 bd 0f 03 05 bd
       -0.038155373 -0.12634782 -0.048290066 -0.03247362
000290 45 2b a1 3c e5 c7 c3 bd fa dc 5a bc 0e 4a 35 bd
       0.019673953 -0.09559611 -0.013358349 -0.044260077
0002a0 7b 9e 94 ba 60 85 b5 3d f1 37 b2 3d b9 d0 84 bd
       -0.0011338735 0.0886333 0.08702076 -0.06485123
0002b0 97 e6 d9 bd 56 4e 75 bd 5d 11 01 be ff 9e b6 bd
       -0.10639685 -0.05988916 -0.1260428 -0.08917045
0002c0 29 f6 bd bd 96 50 19 be dc 1b 4e bd 52 cf 2a 3d
       -0.09275467 -0.14972147 -0.050319538 0.041701622
0002d0 4b cd dd bd fa 00 37 3d 69 c7 f1 bd 91 78 d3 bd
       -0.10830172 0.044678666 -0.118056126 -0.103257306
0002e0 67 b0 a8 3d e4 7a c2 3d 41 b2 ff 3c 21 e2 ce 3d
       0.08236771 0.09496096 0.031212928 0.101017244
0002f0 f9 af 39 3c e1 70 ac bb 82 d2 3f 3d 6a 26 40 bc
       0.011333459 -0.0052624797 0.046831615 -0.011727909
000300 6d cf 1d bd ee 83 0f bd 83 b3 55 bd 73 3c 01 bb
       -0.038527895 -0.035037927 -0.05217315 -0.0019719868
000310 8d 0c 01 3b 68 d8 b9 3d 02 6a cb bd b7 c4 52 3b
       0.0019691319 0.09074479 -0.09932329 0.0032160708
000320 ea ec 3e bd 2d 56 eb 3d 6c d6 45 bd d8 7b 7a bd
       -0.046612658 0.11491046 -0.04830019 -0.061153263
000330 c5 6d 40 3d 5f 69 35 bc 32 3c 4c 3d a8 02 c9 3d
       0.046979684 -0.011072486 0.049862094 0.0981496
000340 2f d5 02 3d 23 2a 67 bd 46 a7 0a 3e 45 08 02 3e
       0.03194159 -0.05643667 0.13540372 0.12698467
000350 f8 6e b9 bd ad 70 81 bd 69 29 0f bd 51 18 3c bd
       -0.09054369 -0.06320319 -0.0349516 -0.045921627
000360 a6 70 bd bc 1e 44 d9 3d bd 47 90 3d 3f 21 ba bd
       -0.023125004 0.106086954 0.07044933 -0.090883724
000370 43 28 97 bd be d4 e1 ba b7 49 d7 3d d1 6f cc bd
       -0.07380726 -0.001722954 0.10512107 -0.09982265
000380 a4 e1 1d bd d5 09 fc 3d 65 bc e5 bd af d6 35 3d
       -0.038545266 0.12306563 -0.11217574 0.04439419
000390 f8 2e 87 3d 68 be 8a 3b 89 d5 0f 3d 26 77 5d 3d
       0.066007555 0.004234124 0.035115752 0.054068707
0003a0 55 f9 e3 3d e9 93 c9 bc f1 e2 ca bc 8c 5f ed bd
       0.11131541 -0.024606662 -0.024766417 -0.1159049
0003b0 cd c9 06 bd 56 50 d4 3d 6e 1e fc bc 23 a3 0a be
       -0.032907296 0.10366885 -0.030776229 -0.13538794
0003c0 01 35 02 be b2 a8 8b bd 26 06 5e bc 99 4e fe bd
       -0.12715532 -0.068192855 -0.013551271 -0.12417335
0003d0 97 d6 be bc 0f 99 e5 bd 0b 21 90 bd ca b9 99 3d
       -0.023295684 -0.11210834 -0.070375524 0.075061396
0003e0 32 c0 a2 bd 3d 9f c6 3d b7 d0 af 3d d1 a3 a8 3d
       -0.079468146 0.09698341 0.08584731 0.082343705
0003f0 c0 4b 39 bd 3e c2 9e bd dc 2d 96 3c 70 13 c2 3d
       -0.045238256 -0.077518925 0.018332414 0.09476364

bn1.weight f4 [8]
000000 c5 38 6c 3f e8 38 6c 3f 98 39 6c 3f 22 39 6c 3f
       0.92274123 0.9227433 0.9227538 0.9227468
000010 45 39 6c 3f 05 3a 6c 3f 14 39 6c 3f 20 3a 6c 3f
       0.92274886 0.9227603 0.92274594 0.9227619

bn1.bias f4 [8]
000000 d9 ad 02 b7 76 ab 3b b6 fc 74 68 36 38 b9 34 b3
       -7.789081e-06 -2.7964975e-06 3.4638788e-06 -4.207797e-08
000010 54 11 31 35 80 78 fc 35 e0 2c c2 36 a9 86 ba b7
       6.5962854e-07 1.8810533e-06 5.7868747e-06 -2.2235634e-05

bn1.running_mean f4 [8]
000000 d3 be 89 36 4c ee ed b9 47 ef 05 3a 4c 75 ad 38
       4.105133e-06 -0.00045381708 0.00051092025 8.271131e-05
000010 d5 ec c9 39 f4 6f 09 39 35 9f 5c ba 95 df 58 b9
       0.0003851416 0.00013107044 -0.00084160577 -0.00020682656

bn1.running_var f4 [8]
000000 df 85 3a 3f 9c 0a 8d 3e df 57 23 3f 5f 81 07 3f
       0.7286052 0.27547157 0.63805956 0.5293178
000010 db 04 d3 3e 4d 42 00 3f 0c 26 00 3f d8 f4 6a 3e
       0.41214642 0.50101167 0.50058055 0.22944963

conv_spatial.weight f4 [16, 1, 3, 1]
000000 0d 55 a8 be 79 52 71 be 06 df 5a bd ba 66 89 be
       -0.3287739 -0.23566617 -0.053435348 -0.26836187
000010 f8 ae a6 3d c1 e2 e8 3e 48 30 04 bf 37 89 76 3e
       0.081388414 0.454855 -0.5163617 0.24075781
000020 9c 48 13 3e 21 d4 e0 3e 15 02 6f 3e a6 44 8b 3e
       0.14383167 0.43911842 0.23340638 0.27200812
000030 af d8 05 3d 9f 66 2f 3e 28 9a 90 be a7 3e 97 be
       0.03267735 0.1712899 -0.28242612 -0.29539987
000040 75 c3 66 bd d1 21 99 3e 02 5c 48 be 98 0d ad 3e
       -0.056338746 0.29908612 -0.19566348 0.33799434
000050 39 2d 8d be 64 fb b6 be 17 8d 94 be c3 da 9b be
       -0.27573565 -0.3573867 -0.29013893 -0.3044034
000060 9e 71 08 bf 8e e3 b5 3e 58 ea 0c bf a8 b0 45 3d
       -0.53298366 0.35525173 -0.5504508 0.048264176
000070 c6 3d 6a 3e 42 88 10 3f a1 8b 06 bf 74 66 0d be
       0.22875127 0.5645791 -0.52556807 -0.13808614
000080 0b d5 05 bf c1 9d 95 3e 15 62 05 3f 15 12 f0 be
       -0.522782 0.2922192 0.52102786 -0.46888795
000090 d2 b1 8d 3d f7 6f bf 3d 0e 53 0f 3f 32 7c 5c 3d
       0.06918682 0.093475275 0.55986106 0.05382938
0000a0 0a 4f 87 3e eb 48 9c 3d 85 82 ee 3e 40 2f c1 be
       0.2642749 0.076310955 0.46583953 -0.3773136
0000b0 40 73 05 3f 89 05 bc 3d f7 ee b2 3e f7 66 14 3e
       0.5212898 0.09180743 0.3494794 0.14492403

bn2.weight f4 [16]
000000 14 6b 79 3f 0a c6 82 3f 9a 83 81 3f 41 e1 81 3f
       0.97429013 1.0216687 1.0118287 1.0146867
000010 1a eb 79 3f ee ac 86 3f 4e f5 82 3f 27 55 80 3f
       0.9762436 1.0521524 1.0231111 1.0025986
000020 c5 83 7f 3f 37 e7 80 3f 1d ff 78 3f 43 90 77 3f
       0.9981044 1.0070561 0.9726427 0.967045
000030 a7 69 85 3f 8f 13 79 3f 1c b0 73 3f 1c 64 79 3f
       1.0422868 0.9729547 0.95190597 0.9741838

bn2.bias f4 [16]
000000 2e 01 bb 39 e3 91 84 bc 89 da 80 bc b3 e7 9a bc
       0.00035668298 -0.016182845 -0.015729206 -0.01890931
000010 ed a5 8e bb c8 74 50 bb 82 10 de 3b bd 3c 05 bc
       -0.004353276 -0.0031807888 0.00677687 -0.008132157
000020 9f a8 76 bb 3a 38 3e bc 9e 1a 0a 3c 25 14 a5 bb
       -0.0037637127 -0.011610085 0.008429198 -0.005037802
000030 c1 ac 65 3c c9 d4 89 bb bf 80 78 bc 3f 52 60 3c
       0.0140182385 -0.004206274 -0.015167414 0.013691484

bn2.running_mean f4 [16]
000000 9e 61 86 b7 4f f8 5b b8 b1 80 be b8 4a 7a a2 37
       -1.6019501e-05 -5.2444924e-05 -9.083877e-05 1.936885e-05
000010 29 e9 3e b7 1a 37 02 38 bd 73 03 b8 ec 0f 74 b5
       -1.1379169e-05 3.1045733e-05 -3.1340624e-05 -9.092025e-07
000020 ef ea 35 38 46 58 b2 38 a2 aa e4 37 df 68 93 36
       4.337256e-05 8.5041436e-05 2.7259175e-05 4.39315e-06
000030 8a 7b b4 b8 95 04 39 37 89 c0 0b b8 72 05 8e 36
       -8.60608e-05 1.1027926e-05 -3.3319495e-05 4.2325637e-06

bn2.running_var f4 [16]
000000 c4 b0 91 3e a3 88 c7 3d d1 1c b2 3d 8f 59 17 3f
       0.28455174 0.09742858 0.086969025 0.5912103
000010 7e 4d 0d 3d 90 be 2f 3d 8f bf ba 3d 6a 64 1b 3f
       0.03449773 0.042906344 0.09118568 0.60700095
000020 a4 e3 0d 3f 91 8a 01 3f cb 29 84 3f ba 07 4d 3e
       0.5542548 0.5060206 1.0325254 0.20022479
000030 de be c9 3e e0 71 d4 3d ab aa e8 3e 39 c6 64 3e
       0.39403433 0.103732824 0.4544271 0.22341241

conv_separable_depth.weight f4 [16, 1, 1, 16]
000000 85 81 d3 bd 05 1c 81 3e 2f 7d 84 3e 6c e0 19 be
       -0.10327438 0.2521669 0.25876758 -0.15027016
000010 fb a1 90 bd 30 40 6f 3e cb 21 63 be cb 9d 74 3e
       -0.07062145 0.2336433 -0.2218086 0.23888318
000020 40 c5 ee bd 7a 2f 04 be 2c 9b 2a be d5 bb 9c bd
       -0.11658716 -0.12908736 -0.16660756 -0.076530136
000030 86 05 b1 bd f8 ff f5 bc 89 51 61 be 22 b1 9e 3d
       -0.08643632 -0.030029282 -0.2200376 0.07748629
000040 ea bb 55 3e f1 4e 2a 3e e7 3d a6 bd 9b 87 82 be
       0.20872465 0.16631676 -0.08117276 -0.25494084
000050 18 df 0d be fa f7 80 bc 27 6c a3 3d 11 9c 2c be
       -0.13854635 -0.015743244 0.07979613 -0.1685641
000060 75 2f 97 bd 20 78 fd 3d a4 7c 7f be 39 e5 78 bd
       -0.073820986 0.12376428 -0.2494989 -0.06076548
000070 85 6b bf 3d 5e f2 17 bd eb 10 5f be c8 aa 09 3e
       0.093466796 -0.037096374 -0.21783797 0.13444054
000080 7c 46 e3 3d ee 2a 5a 3e a6 c1 b1 bd 8c f5 39 3e
       0.11097428 0.21305439 -0.08679514 0.18160075
000090 b8 47 22 3d 45 ab 51 be 47 6b 6c be 06 78 73 be
       0.039619178 -0.2047549 -0.23087798 -0.23776254
0000a0 7a 36 6e be 20 0e 60 be 19 ea fa 3d 0d 51 8b 3c
       -0.23262969 -0.21880388 0.12251682 0.017006421
0000b0 f1 75 c7 3c 9f 91 e2 3c 91 92 6a 3d 1c da 6d bc
       0.024348231 0.027657328 0.057268683 -0.014517333
0000c0 ea e6 62 be 41 d4 74 bd b5 e2 99 bd 0d c6 1e bd
       -0.22158399 -0.059772734 -0.07513944 -0.038763095
0000d0 dd 2a 20 3d 5e 42 f7 bd f6 aa 82 3d 69 e9 48 3e
       0.039103378 -0.120732054 0.063802645 0.19620289
0000e0 be d5 e6 3d 37 85 72 be 06 64 da bb 04 b0 ea bd
       0.11271237 -0.2368363 -0.0066647558 -0.114593536
0000f0 52 e5 03 be b4 b9 63 be f6 72 40 bd a0 d3 7e 3c
       -0.12880448 -0.22238809 -0.046984635 0.015553385
000100 f0 1e ad bc 5a 62 2d be dc f9 a7 3c 13 06 14 be
       -0.021132916 -0.1693205 0.020504884 -0.14455442
000110 ec f8 8b 3d dc ca ba bd 8e 82 79 3d f3 ca 41 3e
       0.068345875 -0.091207236 0.060915522 0.18925075
000120 a4 6c 1f be e6 44 70 3e 4c da 3e be de 05 68 3e
       -0.15568787 0.23463783 -0.18637961 0.22658488
000130 c3 9f 18 be 72 95 76 be 1b 93 ea bd b8 8e 22 be
       -0.14904694 -0.24080446 -0.114538394 -0.15874755
000140 a4 5b 57 3e bc 21 54 bd 02 a9 8a be d1 f5 82 be
       0.21031052 -0.051789984 -0.27082068 -0.25578168
000150 6c 49 cb bd 6c 9b b4 3d e2 0a fc bd 4f 5e a8 3c
       -0.099261135 0.08818707 -0.12306763 0.020552782
000160 c4 0e 17 be 4a 77 48 3e 5e f7 44 3e 5c 1f 67 be
       -0.14751726 0.19576755 0.19234988 -0.22570556
000170 78 2d cc bd 5c 1a 4b 3e a3 d6 77 be a4 77 48 be
       -0.0996961 0.19834274 -0.24202971 -0.1957689
000180 e3 ed b0 bd 55 14 7d bd dc f8 14 3d 95 a0 06 bc
       -0.08639123 -0.06178697 0.036370143 -0.008216997
000190 04 01 63 3e 12 73 f5 3d 8a ee 3d be a9 34 7c bd
       0.22168356 0.119848385 -0.18548027 -0.06157366
0001a0 40 c9 35 be fc 26 7f bd c5 18 b3 3c c6 9b 9b 3d
       -0.17752552 -0.062293038 0.021862397 0.07598071
0001b0 73 3f 6c be e5 be 20 be 5a 38 60 be 99 24 37 3e
       -0.23071079 -0.1569782 -0.21896496 0.17885055
0001c0 73 44 32 3e fb 60 26 bd 57 bf 6f be 32 da 08 3c
       0.17408924 -0.04061983 -0.23412834 0.008352803
0001d0 46 c8 96 bc c1 b6 bf bd 4e de 27 3d 4d 5c c0 bd
       -0.018406045 -0.093610294 0.04098349 -0.09392605
0001e0 c4 ee 1a 3d da cf 84 3e 5d 09 b0 3d ff d8 52 3e
       0.03782536 0.25939828 0.08595536 0.2059059
0001f0 a3 7f a9 3d 40 35 d9 3c f6 38 48 3e f2 4c de bd
       0.08276298 0.02651465 0.19552979 -0.1085452
000200 93 8f 3d be 2a 6f 0b 3e ba 55 85 bd 49 6f 59 3e
       -0.185118 0.13616624 -0.06510492 0.21233858
000210 d3 9c 4f 3e ce 2c ca bd 2e 25 2d 3e ae 3a 06 be
       0.20274667 -0.09871827 0.16908714 -0.13108322
000220 78 36 dd bd 20 a5 50 3d c9 8f 74 3e 9c 88 04 be
       -0.10801405 0.050938725 0.23882975 -0.12942737
000230 08 76 0f be f9 b6 ee 3d 15 6c a0 3c aa f9 a6 3d
       -0.14009869 0.11655993 0.019582788 0.081530884
000240 3c 7e 8a bd e5 32 03 3c c3 dd 69 3e 12 96 26 be
       -0.067623585 0.00800774 0.22838502 -0.16268185
000250 cb 5d 54 3d b4 a2 dc bd 42 7b ec bd 20 26 ab bc
       0.05184726 -0.10773221 -0.11546947 -0.020892203
000260 66 9e ae bd c2 a5 22 3e f0 76 5e be b7 cf 97 3c
       -0.08526306 0.15883544 -0.21725059 0.018531663
000270 00 2f 52 be 3b 1b 3f 3e c7 b4 7e be cd c1 4a 3c
       -0.20525742 0.18662731 -0.24873649 0.012375307
000280 4f 89 68 be 50 6c 6a 3d 5c 52 48 be 2c 14 dc bd
       -0.22708629 0.0572322 -0.19562668 -0.10746035
000290 5a 99 3d 3e 38 ab 3b be 67 7f 80 bc 01 2e 16 be
       0.1851553 -0.18327034 -0.01568575 -0.14665987
0002a0 57 29 c0 3d 75 4b 24 bc b1 af 39 be 5d c4 4c 3e
       0.09382885 -0.010027756 -0.18133427 0.19996782
0002b0 f2 c2 4f be da ed a4 bd 79 89 0e be 59 f6 3c 3e
       -0.2028921 -0.08053179 -0.13919629 0.18453349
0002c0 a3 b1 02 bd a4 23 d0 bc 0d ec a7 bd be e8 62 be
       -0.03190769 -0.02540762 -0.0819932 -0.22159097
0002d0 2e 87 1f 3d bc 4d 65 be ac cf a4 3b cb b9 00 be
       0.038947277 -0.22392935 0.005029639 -0.12570874
0002e0 6b 0b 45 be 21 b7 29 3e d4 9a 62 be 13 da e5 3c
       -0.19242637 0.16573764 -0.22129375 0.028058087
0002f0 22 b4 0e be 95 e5 e3 bd 1c 9c 43 be cf 77 3c 3e
       -0.13935903 -0.11127774 -0.1910252 0.18405078
000300 94 5b 85 3e c0 6f 56 3e 1a 99 29 be f9 80 f9 3d
       0.2604643 0.20941067 -0.1656231 0.12182803
000310 4b dd 24 3c d7 9f 12 be 62 3a 90 3e 0a 64 66 bd
       0.010062526 -0.14318787 0.28169543 -0.05624775
000320 bf 40 4c be 31 84 66 bd 90 05 0b be 29 e7 2f 3e
       -0.19946574 -0.05627841 -0.1357634 0.17178024
000330 27 36 41 3e 92 ef 51 3c 47 e1 96 bd 80 81 7c 3e
       0.18868314 0.012813466 -0.07367187 0.24658775
000340 c3 c0 4c be d8 00 17 be 1f 40 cf bd e2 7d df 3d
       -0.19995408 -0.14746416 -0.10119652 0.10912682
000350 00 51 6b 3d dd 74 f8 bd cc 43 1b 3e 13 76 c9 3d
       0.057450294 -0.12131665 0.15162581 0.09836974
000360 50 74 be 3d 9d 80 d9 3d 82 46 b5 bd 8c 2b d5 bd
       0.092995286 0.10620234 -0.08851339 -0.104086965
000370 c3 16 19 be ba 38 c0 bd c9 0b d5 3d 25 13 6c 3e
       -0.14950089 -0.0938582 0.104026385 0.23054178
000380 de 2e e7 bd c4 bf e8 3d c3 b9 4e be 1a 25 25 be
       -0.11288236 0.113647014 -0.2018805 -0.16127434
000390 76 a3 06 3d 3c bb ab 3b de a5 08 3e 19 f7 01 be
       0.032870732 0.005240826 0.13344523 -0.12691917
0003a0 84 cd b4 bd 42 9c 58 3e 51 51 2f be d9 8e 5a 3e
       -0.088282615 0.21153358 -0.17120863 0.21343555
0003b0 dc aa 2e bd 86 48 03 be ff bd 88 bd 78 56 60 bc
       -0.042643413 -0.12820634 -0.06676864 -0.013692491
0003c0 75 e6 33 be 9e f9 a9 bd 62 54 9d bd 69 d7 a9 bd
       -0.17568381 -0.08299564 -0.0768211 -0.08293039
0003d0 e5 64 4a be 63 19 42 be 17 f2 c5 bd fa 20 25 be
       -0.1976505 -0.18954997 -0.096653156 -0.16125861
0003e0 3c a0 46 bd 83 72 5f be 07 d7 88 3b 69 4e 7d bd
       -0.048492655 -0.21821027 0.004176024 -0.061842356
0003f0 1f b8 32 3e 12 24 43 3c 0f e2 7c 3e 61 dd 9b bd
       0.17453049 0.011910455 0.2469561 -0.07610584

conv_separable_point.weight f4 [16, 16, 1, 1]
000000 61 af 81 3d 47 03 be 3c 76 93 20 be ee 4c e6 3c
       0.06332279 0.023194922 -0.15681252 0.028112855
000010 1b 00 3c 3e 70 c3 2a 3e e5 04 16 be 1f f5 5e bd
       0.18359415 0.16676116 -0.14650305 -0.054432984
000020 2c 6a 66 be c5 3a ca 3d 0d ac 83 3e 34 99 39 bd
       -0.22501439 0.09874491 0.25717202 -0.04531212
000030 d2 18 62 be 28 c0 43 be 34 4f 39 be 9e 2e c0 3c
       -0.2207978 -0.1911627 -0.1809662 0.023459729
000040 64 98 33 be 69 c2 af bd b5 94 7a 3e 2a 75 8c 3e
       -0.17538601 -0.08582003 0.2447079 0.2743314
000050 46 82 b3 bd e3 09 75 3e fb 2b 36 3d 03 a5 87 be
       -0.08765082 0.23929553 0.044475537 -0.2649308
000060 a6 3b df 3d 3b 3c c0 3d d7 8b 46 be 68 42 22 bd
       0.10900049 0.09386488 -0.19389282 -0.03961411
000070 0f c5 16 be db 1d 65 bd 5b cd 51 3e 2e e4 d4 bc
       -0.1472361 -0.055936676 0.20488493 -0.02598771
000080 59 4d 86 3d 36 53 41 3e 56 0e 1f bb 9e 71 6d 3c
       0.06557722 0.18879399 -0.002427002 0.0144924205
000090 66 ae 15 be 86 b1 69 bd 39 9f 39 3e 9a 3c bb 3a
       -0.14617309 -0.057054065 0.18127145 0.0014285028
0000a0 06 1d 18 3e 4d bc 0c 3d c3 10 f8 3d 9b fa 34 3e
       0.14854822 0.034359265 0.12112572 0.17673723
0000b0 e2 93 87 3e 2c 60 b3 bd 2f 47 5e be bc df eb 3d
       0.26480013 -0.08758578 -0.21706842 0.11517283
0000c0 78 a7 24 3d 8a 0e 81 3d ce 7c 70 bc 7b 57 34 3e
       0.040198773 0.06301601 -0.014678193 0.17611496
0000d0 95 ff f6 bd db 22 b6 3d 5d 70 1d 3e d2 8f a6 bd
       -0.12060467 0.08893367 0.15374894 -0.081329
0000e0 1a 0e bf 3d fe 64 3b 3e 77 90 a9 bb e5 7e b2 3c
       0.093288615 0.18300244 -0.0051746923 0.021789024
0000f0 e1 bb 6f 3e 66 7e 49 bd 57 6b 28 bc a1 dc 75 bd
       0.23411514 -0.04919281 -0.010279498 -0.06002486
000100 ff 1c 20 be a2 84 5a 3e 69 84 70 3e 88 4a 4b 3d
       -0.15636061 0.21339658 0.2348801 0.049631625
000110 98 24 62 be d4 27 ce bd e9 ce 2e 3e 70 01 2b bd
       -0.22084272 -0.1006619 0.17071117 -0.041749418
000120 29 06 93 3d 97 53 6c 3e 6d 50 5a 3e 04 53 ef bd
       0.07178909 0.23078762 0.21319743 -0.11685756
000130 0f 8b b7 bd e9 26 1e bd a7 37 2b bc 0a 69 4c be
       -0.0896207 -0.038611326 -0.01045028 -0.19961944
000140 f4 9a 43 3c c3 29 35 3d 47 49 3b 3e 20 47 27 3e
       0.011938799 0.04422928 0.18289672 0.16335726
000150 be 15 24 be 49 64 0e 3d 10 a4 5e 3e 57 13 03 be
       -0.16023919 0.034763608 0.21742272 -0.12800346
000160 a4 5b 84 3d 73 14 6a 3e 68 1d 0a 3e ad a8 86 3e
       0.064627916 0.22859363 0.1348778 0.26300564
000170 92 1d c8 bd 13 f2 4e 3e 68 e7 0c 3e 71 8f 80 bd
       -0.09771265 0.20209531 0.1376015 -0.06277359
000180 3a 68 e8 bd 87 69 82 be bd e5 db bd 9f 18 d0 3d
       -0.11348005 -0.25471136 -0.107371785 0.10160946
000190 a0 c0 c8 bd 9e 52 8b 3c e7 13 63 be 2c b9 be bd
       -0.09802365 0.017007168 -0.22175561 -0.093126625
0001a0 d5 19 ec 3d c5 c8 55 3e 4e 81 42 3d 37 81 9c bb
       0.115283646 0.20877369 0.047486596 -0.004776146
0001b0 95 a6 72 be 95 e9 1a 3e 1f 94 14 3e 27 2b 17 3e
       -0.23696359 0.15128167 0.14509629 0.14762555
0001c0 a7 30 62 be b2 03 f6 bd c7 91 f2 3d 91 50 3f be
       -0.22088872 -0.120124236 0.11844211 -0.18683077
0001d0 f4 47 43 3e 54 dc 48 be 1e fa 91 3d 14 6e 24 3e
       0.19070417 -0.19615299 0.07127784 0.16057616
0001e0 eb 2e fc 3d 50 c6 d0 bd c8 e7 1a 3e f8 16 96 3d
       0.123136364 -0.10194075 0.1512748 0.073286
0001f0 cf a7 30 be 86 da 8f bb 85 21 7b bd 01 90 26 3d
       -0.17251514 -0.0043900637 -0.061311264 0.040664677
000200 4c ed 58 bb 5a f3 6d 3d f0 d5 f4 bb 87 0b ea bd
       -0.0033100424 0.058093406 -0.0074717924 -0.1142798
000210 d4 d1 07 3d 36 ed 77 3d 50 98 50 3e b0 ce 26 bd
       0.033159092 0.060528956 0.20370603 -0.040724456
000220 36 70 96 3c 6d ab 1b 3e 41 8e 00 be d3 24 ab bd
       0.018364053 0.15202112 -0.12554266 -0.08356633
000230 ee 2e 11 bc 37 9f 52 3e c4 7f 10 be 32 ba 0f be
       -0.008861287 0.20568548 -0.14111239 -0.14035872
000240 e3 9e 00 3d d2 7b 11 be 87 ba cd bd 59 a3 80 be
       0.031401526 -0.1420739 -0.10045343 -0.25124624
000250 6d b1 89 be 69 d2 57 3e dc 2d 24 be ed 73 54 3e
       -0.26893178 0.21076359 -0.16033119 0.20747347
000260 db 1a 6c 3d fd 83 ae 3d 46 81 76 3c 98 90 50 3e
       0.0576428 0.085212685 0.01504547 0.20367658
000270 d7 0c 29 be c7 77 95 bd cf da 46 be 44 43 fa bd
       -0.16508804 -0.07298236 -0.19419406 -0.12219861
000280 70 a1 06 be f9 77 0e be 7a 53 43 3e f8 d0 fe bd
       -0.13147521 -0.13912953 0.19074813 -0.124422014
000290 f9 84 2f bd 23 4f ca bc 52 45 b3 3b e6 78 99 3c
       -0.042851422 -0.024695938 0.00547091 0.018734407
0002a0 e5 63 2b be 31 29 24 bd e1 e1 2d bd 96 06 8b bd
       -0.16737325 -0.040078346 -0.042451743 -0.067883655
0002b0 08 00 46 be b8 8e 36 be a7 55 80 bc 3a 87 9b 3c
       -0.1933595 -0.1782788 -0.015665842 0.01898538
0002c0 21 c0 aa bd 7c aa 36 3e c6 0f 5f 3e 49 0d 2a 3e
       -0.08337427 0.17838472 0.21783361 0.1660663
0002d0 bf 5e d1 bd 62 d7 1f be 4b cd 04 be 9d db 40 be
       -0.102231495 -0.15609506 -0.12968938 -0.18833776
0002e0 f2 c4 ff 3d ba 70 6e bd 77 c5 d9 bd 5b fc a8 bd
       0.12488736 -0.058212973 -0.106333666 -0.08251258
0002f0 20 5f 59 3c e8 36 4a 3e 6f 32 46 3e ac 02 58 be
       0.0132673085 0.19747508 0.19355176 -0.21094769
000300 3f e4 80 be e5 c6 3e be 77 71 04 be 4b 0e ce bd
       -0.25174138 -0.1863056 -0.12933908 -0.1006132
000310 68 28 ee 3d 91 a4 8d be ed 92 50 3e d3 47 a2 bd
       0.11628801 -0.27664617 0.20368548 -0.07923856
000320 2b ce 7d 3e 82 54 35 3e f6 2d b0 bd 1b 29 0e 3e
       0.24785678 0.17708018 -0.08602516 0.13882868
000330 bc 65 6f 3d 4f d4 4b 3e 61 20 37 3e cb ee 28 be
       0.05844663 0.19905208 0.17883445 -0.16497342
000340 40 8a 79 3e f2 43 31 be f5 cd 33 3e 4f 47 56 3e
       0.24369144 -0.17311075 0.17559035 0.2092564
000350 d7 d5 8c 3e 6a 6a 3a 3d 2c 10 b6 bd e0 f9 43 bd
       0.27506897 0.04551164 -0.08889803 -0.04784572
000360 8c 24 26 be 51 7e a0 3d 1d 8c 32 be 61 be 1f 3e
       -0.16224879 0.07836593 -0.17436261 0.15599968
000370 56 45 75 bd b6 1b 68 3e 0a 0c 29 be ac 19 1d be
       -0.059880577 0.22666821 -0.16508499 -0.15341824
000380 7b ca 16 3e a6 e6 6a be bd c8 12 3e 26 de 50 3e
       0.14725678 -0.22939548 0.14334388 0.20397243
000390 d4 5c 31 be 77 aa 23 3d b3 dd 0d 3e 1c 74 46 3e
       -0.17320567 0.03995749 0.13854103 0.1938023
0003a0 0d f9 31 bd 79 71 07 3e 03 9c 55 3e 25 4c 57 be
       -0.043450404 0.1322688 0.20860295 -0.2102514
0003b0 82 05 c1 3d 49 d7 10 3e c5 fc 07 be 06 79 14 3d
       0.09424879 0.14144625 -0.13280018 0.03624823
0003c0 cc 02 60 3d 2d 98 2a bd 96 74 0f be 83 62 75 3c
       0.054690167 -0.041649032 -0.14009318 0.0149771
0003d0 59 99 31 be 64 3b 10 be 6a e8 8e 3c 16 20 15 be
       -0.17343654 -0.14085156 0.017444808 -0.14563021
0003e0 77 82 22 3e 6c 19 16 be 66 22 76 be 15 31 84 be
       0.15870081 -0.14658135 -0.2403656 -0.25818697
0003f0 7a 6a 31 bd 88 4c 43 3e a7 0e 3c be f3 16 34 3e
       -0.043314435 0.19072163 -0.18364964 0.1758688

bn3.weight f4 [16]
000000 29 7a 78 3f 91 11 78 3f 65 b1 83 3f f5 ac 83 3f
       0.970614 0.96901804 1.0288512 1.0287157
000010 84 d6 77 3f 76 31 7b 3f 32 59 84 3f cb 5d 83 3f
       0.968117 0.98122346 1.033972 1.0262998
000020 56 4c 78 3f f5 c0 83 3f ea 8a 82 3f 1d e2 80 3f
       0.9699148 1.0293261 1.0198643 1.0069004
000030 e6 4d 84 3f c3 4c 78 3f 5f a9 83 3f cb 56 84 3f
       1.0336273 0.9699213 1.0286063 1.0338987

bn3.bias f4 [16]
000000 67 90 a1 bc 2c 21 a5 bc ec 57 a0 3c b4 26 a6 3c
       -0.019722177 -0.02015742 0.019573174 0.020282127
000010 89 b6 b8 bc ac 68 b5 bc 0d f2 a4 3c 00 43 d0 3c
       -0.022547977 -0.022144638 0.02013495 0.025422573
000020 87 4e c4 bc 49 74 aa 3c 34 3c e6 3c 73 c8 47 3c
       -0.023963226 0.020807402 0.028104879 0.012193787
000030 83 b0 d1 3c 50 ba aa bc fb 4c b9 3c 4d 28 c7 3c
       0.025596863 -0.020840794 0.022619715 0.02431121

bn3.running_mean f4 [16]
000000 26 ec ac bd a9 2e a1 bd 75 4f dc bc 29 75 bf bc
       -0.08443479 -0.07870228 -0.026893357 -0.023371296
000010 f5 c1 3e bc 23 1c 0b be 23 51 16 bd 9d ac 27 3c
       -0.011642923 -0.13584952 -0.03669847 0.010234025
000020 fd e8 a4 3c ed 22 34 3d 96 90 44 3c 6b 8d 39 3d
       0.020130629 0.04397862 0.011997363 0.045300882
000030 3b 4a 5a 3d a3 4f 64 bd 3f d4 98 bb 9a cd b9 3d
       0.053293448 -0.05574001 -0.0046639736 0.090724185

bn3.running_var f4 [16]
000000 cb 11 0e 3e e9 7a 3e 3e 9a f9 0c 3e c5 1f b5 3d
       0.13873975 0.18601574 0.1376709 0.0884395
000010 1d 37 f8 3d cb 5f 00 3e f6 51 3b 3e 15 c6 ff 3d
       0.12119887 0.12536542 0.18292984 0.12488953
000020 9c dd 87 3d dd f0 20 3e f1 d3 7d 3d 53 82 04 3e
       0.066340655 0.15716882 0.0619697 0.1294034
000030 20 0f 75 3e 84 62 1b 3e fa 14 1d 3e 31 0d f0 3d
       0.23931551 0.151743 0.15340033 0.11721266

classifier.weight f4 [2, 16]
000000 dd 0c d4 3a 6e 6f 07 3e b7 d5 3f 3d 10 9f 54 be
       0.001617815 0.13226101 0.046834674 -0.20763803
000010 7e a2 39 3e 19 1c 89 3d b5 71 39 be d1 1d bd 3b
       0.18128392 0.06694812 -0.18109782 0.0057713767
000020 23 05 5b 3e f7 71 7a be 9d 36 63 be ec d4 ac 3c
       0.21388678 -0.24457537 -0.22188802 0.021097623
000030 c7 0d 86 bc 42 4d 39 3d 0c 90 7d be 8c 34 85 be
       -0.016363991 0.045239694 -0.24761981 -0.26016653
000040 c4 23 99 bd c4 0e 08 be 1d 74 50 3e 69 7e e2 bd
       -0.07477525 -0.13286883 0.20356794 -0.11059267
000050 00 f4 f2 bd 69 c3 a3 bd b0 30 1d 3e 10 bb a6 3d
       -0.118629456 -0.07996256 0.15350604 0.08141148
000060 28 d7 00 3e 9d 21 22 be 87 f8 1f be 71 e8 ad 3d
       0.12582076 -0.15833135 -0.1562215 0.084916
000070 ad 0b 8f 3e 57 b3 05 be 92 28 0d be 74 ba 0a 3d
       0.27938595 -0.13056694 -0.13785008 0.03386922

classifier.bias f4 [2]
000000 93 4d b2 bd 0c 4c 28 be
       -0.08706202 -0.1643526
