notebooks/outputs/temp_B03_fold5_last.pth (torch, 31912 bytes, 18 tensors)

firstconv.0.weight f4 [16, 1, 1, 125]
000000 ca 31 87 bd 72 0d b1 bc b9 aa 8f bd f4 b6 db 3d
       -0.066012934 -0.021612857 -0.07014985 0.10728255
000010 7a 09 93 3b d8 2f bd 3d c0 55 92 bd 75 99 0a bd
       0.0044872137 0.09237641 -0.07145262 -0.033837754
000020 e9 df c5 bd 27 8c be 3c cc 3f 0a be 3e 8e ed bd
       -0.09661848 0.02326019 -0.13500899 -0.11599396
000030 08 d6 52 3c 60 43 29 3d 7b 4f 99 bd 28 1a 43 bc
       0.012868412 0.04132402 -0.07485863 -0.011908092
000040 28 ba f7 bc 2d a1 60 bc 46 5f e9 bc 08 92 11 3d
       -0.030240133 -0.013710302 -0.028487813 0.035539657
000050 f2 9e c2 3d de 77 b9 3d f2 d6 37 bd 0d 12 84 3d
       0.09502973 0.09056066 -0.044882722 0.064487554
000060 5a d8 30 bd c4 8f af 3c c4 b6 58 3c ac dd 8f 3c
       -0.04317508 0.021430857 0.0132271685 0.017561756
000070 90 29 7b bd f4 f6 3e bd 3b 12 9c bd d8 ae 9f 3d
       -0.061318934 -0.04662223 -0.07620665 0.07797021
000080 27 97 0c 3d da 62 d3 3c 5c 1c 92 bc 8a 1e 74 3c
       0.034323838 0.025803972 -0.017835788 0.014899859
000090 52 45 e6 3b 0b 26 9f bc fa 85 61 bd 61 78 bd 3c
       0.0070273066 -0.01942732 -0.05505941 0.02312869
0000a0 3b 52 7a bc 49 70 57 bd 10 7c 42 bc 21 9e a5 3c
       -0.015278394 -0.052597318 -0.011870399 0.020217003
0000b0 92 4a a5 3d 08 f1 82 bc a2 39 74 3d a8 94 90 bc
       0.08070864 -0.015984073 0.059625275 -0.01764901
0000c0 58 b9 ec 3c 2a b3 1d 3c f0 be da bb a5 36 58 3d
       0.028896973 0.009625236 -0.0066755936 0.052786488
0000d0 7a dd c4 3c ce 8a 88 3d f2 8a 76 bd 5f 17 14 bd
       0.02403139 0.066671 -0.060191102 -0.0361551
0000e0 0a 35 33 bd d5 0e 86 bd d0 7a 96 ba aa 43 2f bd
       -0.043751754 -0.06545798 -0.0011480693 -0.04278914
0000f0 22 12 1f bc 4f 19 af bd 17 a7 85 bd d2 97 13 bc
       -0.009708913 -0.08549749 -0.065260105 -0.009008365
000100 54 97 6f 3d df da cb bd 10 51 79 bd b9 76 21 bd
       0.058493927 -0.09953856 -0.060868323 -0.039419863
000110 f7 40 a2 3d 5c e3 46 3d 66 8f 1b bd 8a 89 a3 3d
       0.07922547 0.04855667 -0.037978552 0.07985218
000120 59 da 18 3d 13 f9 03 bd e4 cc 08 bd e7 0b 61 bd
       0.037317608 -0.032219958 -0.033398524 -0.05494299
000130 22 21 62 3d bd 6e 4f bd 1e 3d 75 3d 6a 98 5f 3d
       0.05520738 -0.050642718 0.05987274 0.054588713
000140 6f 96 2e 3d 84 1a 73 3d a9 11 da 3c 79 82 ae 3d
       0.042623933 0.05935146 0.02661975 0.085209794
000150 05 62 d3 bc f1 4a da 3c ff 6b ec bc 21 cf 63 bd
       -0.025803575 0.026647063 -0.02886009 -0.055617455
000160 3a 7f b2 3d d2 85 6d 3d 73 67 81 bd a7 63 a1 3d
       0.08715673 0.05798895 -0.063185595 0.07880335
000170 f5 2a 82 3d f9 ba 64 3d f3 5b be 3b fb 88 9b bd
       0.0635585 0.055842374 0.005809301 -0.07594486
000180 55 ad 50 3d d5 50 9c 3d 00 b3 2f bd 9c a9 8d bd
       0.050946552 0.07632605 -0.042895317 -0.06917116
000190 75 2f 82 bd b7 c4 59 bd b2 63 8e bd ae 2c c9 bb
       -0.06356708 -0.053166118 -0.06952609 -0.0061393594
0001a0 18 cb 80 3d 40 a1 ad bc a7 db 68 bd 53 b8 cd bc
       0.06288737 -0.021195054 -0.0568501 -0.025112307
0001b0 21 03 8b 3d 72 65 0a 3d 54 b7 63 bb 68 d0 34 3c
       0.06787706 0.033788152 -0.0034746723 0.011036016
0001c0 9d 97 9c bd ea 82 85 bd fa ef ab 3d 7b 80 99 bd
       -0.076461054 -0.065191105 0.08395381 -0.07495209
0001d0 3f 41 ff 3c f0 c2 b4 bd d1 e6 0b 3d c9 e2 ec 3b
       0.031159041 -0.08826244 0.03415567 0.0072291833
0001e0 07 17 98 bc 50 ec 17 3c 2c 9b 9c bc a6 e2 93 bd
       -0.018565668 0.00927265 -0.01911696 -0.07220964
0001f0 1a b6 6c bd 1e cb 0d 3d 41 fe 3e 3c 3e e3 27 bd
       -0.057790853 0.034617536 0.011657299 -0.0409882
000200 69 24 c8 3d 48 33 f6 bc 33 26 ca 3d 0c 75 ac 3d
       0.0977257 -0.03005375 0.09870567 0.084207624
000210 ec 96 b8 3b 64 ed be 3d 2d 81 91 bd 36 dd c2 3c
       0.0056332257 0.093226224 -0.071047164 0.023787122
000220 86 f1 7f bc 0c 9f c7 bc b3 25 9c 3d 9a a5 8f 3d
       -0.0156215485 -0.024367832 0.07624378 0.07014008
000230 80 71 55 bd 66 86 06 3c 3a 59 9d 3c 46 66 11 bd
       -0.052110195 0.008210754 0.019207586 -0.035497926
000240 0c 65 68 bc b0 14 4e 3d 3e c0 97 bd 8b 7a 3f bd
       -0.014184248 0.050312698 -0.07409714 -0.046747725
000250 6c 87 39 3d 6a 1b 0a 3d 97 d2 93 3a 20 cb 11 bd
       0.045295164 0.03371755 0.0011277971 -0.035594106
000260 b3 77 a8 bd 52 b3 58 3d b1 a7 84 bd 61 44 c4 bd
       -0.08225956 0.05290539 -0.06477297 -0.09583355
000270 ed c3 35 3d 1b 29 e2 bd 36 fc 52 bd 06 26 41 bd
       0.044376303 -0.110429965 -0.05151006 -0.047155403
000280 b6 12 1f bd 3a 33 44 bd 58 6f 80 bd 0c 7b 61 bd
       -0.038836204 -0.047900416 -0.06271237 -0.055048987
000290 16 21 25 3d 08 e7 9d bd c3 6d 82 bd ee 2e ad 3d
       0.040314756 -0.07710081 -0.06368592 0.08456217
0002a0 bf 53 31 bd a2 5b ac bd 56 be 2f bd c6 73 2b 3d
       -0.043292757 -0.08415915 -0.042906128 0.041858457
0002b0 2b e6 93 bd a4 7c ab 3d f0 96 b0 3d 59 20 e9 bc
       -0.072216354 0.08373383 0.08622539 -0.028457807
0002c0 16 09 77 bc ef 26 ff 3c 9a 13 ce bb 15 38 33 3d
       -0.01507785 0.031146495 -0.006288958 0.043754656
0002d0 88 41 ab bd 51 c3 a3 3d ce 7a eb 3b f2 d1 db bc
       -0.083621085 0.07996238 0.0071862703 -0.026833508
0002e0 c8 62 82 3b f1 c1 7e bc 09 7d e0 b9 45 f2 82 3d
       0.003979061 -0.015549169 -0.00042817768 0.063938655
0002f0 f7 06 af 3c c0 5f 4e bd 67 7b 80 bd 9c 82 09 bd
       0.021365626 -0.050384283 -0.06273537 -0.033571824
000300 34 aa c2 bc 6d 11 11 bd 73 c7 86 3d 7b cc fb bc
       -0.0237628 -0.03541701 0.06581011 -0.030737152
000310 d9 66 d0 3d 0d 18 29 3d d8 c3 1c bc d6 6f 7f 3d
       0.10175867 0.041282702 -0.009568177 0.062362514
000320 d5 4f b1 3d 40 1e a4 3d b1 fc dc 3c 26 60 82 3d
       0.08657805 0.08013582 0.026975961 0.06365995
000330 ea d1 7a 3d d6 a2 b9 3d 1a 47 a8 ba 62 2a 37 bd
       0.061235346 0.090642616 -0.0012838573 -0.044718154
000340 16 87 19 3d fa b9 7b 3d 0b 60 7e 3d 11 1f 4f bd
       0.037482344 0.061456658 0.062103312 -0.050566737
000350 f1 25 e1 3c 30 f4 55 3d 01 4d 9c bc 3b e6 c8 bd
       0.027483912 0.05223483 -0.019079687 -0.09809538
000360 ff 92 7d 3d 5d e8 5d 3d 6c f1 8e bd 13 62 2e bd
       0.061907765 0.054176677 -0.06979641 -0.042574
000370 e4 2c fe 3a 46 43 02 bd cf 5c bc bd 2c 1f ca bc
       0.001939204 -0.03180244 -0.09197389 -0.024673067
000380 82 7c cf 3c c5 3e e8 3c 20 3c 37 3d 47 49 33 bd
       0.025327925 0.028350243 0.044735074 -0.043771055
000390 00 74 17 bc 68 3d 8a 3d 9b 93 48 3a bf c2 cc bb
       -0.009243965 0.067499936 0.00076513895 -0.0062488015
0003a0 b8 3f a7 3c 2b af 47 bd 86 e8 06 bc 9c c2 a6 bc
       0.020416126 -0.048751038 -0.008234149 -0.020356469
0003b0 18 b4 6e 3d 51 ef dd bc d2 d7 88 bd dd de 8d bd
       0.05827722 -0.027091654 -0.066817895 -0.069272734
0003c0 92 c2 54 bd 94 9d 3b bd 0f 7d ab bc 8d 32 1e 3d
       -0.05194337 -0.045804575 -0.020933656 0.038622428
0003d0 a8 6d 16 3d 7d 78 5a 3d 87 77 88 bc a0 cb 2e 3b
       0.03672567 0.053337563 -0.016658558 0.0026671663
0003e0 c1 33 61 3d c6 cd 82 3d 6e fa 2e 3d 58 2c b8 3b
       0.054980997 0.063869044 0.042719297 0.0056205206
0003f0 17 47 b3 bb 19 3b 4e bd 19 93 c9 3c 07 66 c8 3c
       -0.005471121 -0.05034933 0.024606274 0.024462713

firstconv.1.weight f4 [16]
000000 64 95 7d 3f 74 57 7f 3f 18 a7 7d 3f a3 62 80 3f
       0.99056077 0.9974282 0.9908309 1.0030102
000010 e3 73 86 3f 9d 22 82 3f 15 71 81 3f 98 4e 81 3f
       1.0504116 1.0166813 1.0112635 1.010211
000020 f6 6c 80 3f 9f 2b 7c 3f ab 70 82 3f 40 02 85 3f
       1.0033252 0.9850406 1.0190634 1.0391312
000030 5c d4 7b 3f 58 73 74 3f fe c9 79 3f 04 05 83 3f
       0.9837091 0.954885 0.9757384 1.0235906

firstconv.1.bias f4 [16]
000000 37 20 27 ba e4 d7 83 bb 56 32 f3 39 cd 27 5a bb
       -0.0006375345 -0.004023539 0.00046386075 -0.0033287883
000010 ac 7e 0a 3a 24 90 7c b9 69 b3 3f 3b 71 c6 94 ba
       0.0005283158 -0.0002408629 0.0029251224 -0.0011350644
000020 ef c6 01 bb 0e 2d 98 3a 39 9f d8 ba 10 24 58 3b
       -0.0019802412 0.0011610107 -0.0016526944 0.003298048
000030 c3 6b e5 3a 95 47 8c b9 4c 9a 91 b9 cc 86 85 3b
       0.0017503429 -0.00026756214 -0.00027771515 0.004074907

firstconv.1.running_mean f4 [16]
000000 72 8a d0 2f e8 5e 9f af df ad 76 af 0a 98 48 30
       3.793335e-10 -2.8989366e-10 -2.2435341e-10 7.2975637e-10
000010 87 b6 2b b0 37 9c 17 30 b0 a2 08 2f 80 9a 98 b0
       -6.2468825e-10 5.5155475e-10 1.2426926e-10 -1.1103367e-09
000020 7b 84 a7 b0 a8 ed 33 30 b3 ee f8 30 46 5b 47 b1
       -1.2188502e-09 6.545755e-10 1.8112217e-09 -2.9010194e-09
000030 a6 11 ef ad bb 34 3c 30 1b a9 8e 2f 28 3c f9 2f
       -2.7178992e-11 6.8468936e-10 2.5949806e-10 4.533558e-10

firstconv.1.running_var f4 [16]
000000 76 f4 21 2d da 4d 55 2d f0 d7 29 2d c2 d8 1d 2d
       9.206072e-12 1.2124935e-11 9.6544855e-12 8.972547e-12
000010 c0 b4 d5 2d f1 4c 89 2d f7 68 20 2d d3 1b 92 2d
       2.4295566e-11 1.5609266e-11 9.118254e-12 1.6610635e-11
000020 ab 43 be 2c e9 f9 28 2d ae 9a a0 2d 42 7d d5 2d
       5.4076374e-12 9.605186e-12 1.8258586e-11 2.4270922e-11
000030 94 1c 29 2d 31 d1 83 2c 2e b7 b5 2c 72 ad 3c 2d
       9.612883e-12 3.746469e-12 5.1646664e-12 1.0725075e-11

depthwiseConv.0.weight f4 [32, 1, 3, 1]
000000 aa f8 32 3e b7 a5 93 be 96 cc c4 3e bb d3 a0 be
       0.1747767 -0.28837368 0.38437337 -0.31411538
000010 d7 ae 75 be d3 6d f4 be 7a 14 1f be 10 05 08 3f
       -0.23992477 -0.4774004 -0.15535155 0.53132725
000020 9c e3 c8 3e 36 e8 76 3e a8 c0 11 bf 2e 84 05 3f
       0.39236152 0.24112019 -0.56934595 0.52154815
000030 0b 24 10 bf 6c ad ee bd 2c 07 08 3e 2b cd 10 3e
       -0.56305 -0.11654171 0.13283986 0.14140765
000040 4c cd 40 be 6e cc cf be f4 2d 8e 3e b4 2b 05 3f
       -0.18828315 -0.40585655 0.27769434 0.5201981
000050 1a c5 f2 3d 21 29 10 bf 46 72 1d 3e a5 43 d9 3e
       0.118540004 -0.5631276 0.15375623 0.4243442
000060 1d d0 9f bd e8 60 01 3f 93 71 b1 be f7 19 aa 3e
       -0.07803366 0.5053849 -0.34656963 0.33222935
000070 f6 04 14 bf 1c 80 04 be 7c 54 c8 bd 17 d9 cd 3e
       -0.5782007 -0.12939495 -0.09781739 0.4020469
000080 76 f0 de be 2e 10 6c be fa db 64 bc a8 89 a9 3e
       -0.43542832 -0.23053047 -0.013968462 0.33112836
000090 2d f3 4e bd ca b9 72 be a2 79 fe 3e 52 e5 1e 3b
       -0.05052488 -0.23703685 0.49702173 0.0024245572
0000a0 d0 49 03 3f 78 09 26 be 27 d0 bb 3a fe b9 9e 3e
       0.51284504 -0.1621455 0.0014329002 0.31001276
0000b0 b7 a1 10 bf 44 ea 0e 3f d7 23 5a bb 42 e0 8c 3d
       -0.5649676 0.5582621 -0.0033285522 0.06878711
0000c0 03 fb af 3e cf 82 08 3f f7 ef 0d 3f 5b 3e e4 be
       0.34371194 0.533246 0.5544428 -0.44578823
0000d0 c9 58 8d be de 62 20 3e d3 28 74 3e 34 0b ce 3e
       -0.276068 0.15662715 0.23843698 0.40242922
0000e0 2c c3 c7 3e 64 8c 0d be 91 80 39 be 86 f6 f3 bd
       0.39016092 -0.13823086 -0.1811545 -0.11912255
0000f0 c3 27 83 3e ed e4 40 3d cb 79 55 bd ae ef 06 3e
       0.25616273 0.04709332 -0.052118104 0.13177368
000100 e7 1e 7b be 7b fc 2e 3e dc 26 1d 3e 20 28 0b 3e
       -0.24523507 0.17088501 0.15346855 0.13589525
000110 39 c3 c4 be b5 15 9e 3d 0b 54 02 bf 2b b6 a7 3e
       -0.38430193 0.07718984 -0.5090949 0.3275617
000120 2e f8 d8 be bb 48 ff be 9c 9e fb bd 58 0f 37 3e
       -0.42376846 -0.49860176 -0.12286112 0.17876947
000130 d6 78 ed bd e6 ec ad 3d 5c 99 d7 3e 0a 85 a4 3e
       -0.11595313 0.084924504 0.4210919 0.3213275
000140 fa fa 03 3f e4 8e 62 3e ed a6 d4 3d 18 e5 0b be
       0.51554835 0.22124821 0.10383401 -0.13661611
000150 3b c3 b8 3e 7c 48 f5 be 5e 9c bc be 35 93 dc 3e
       0.3608645 -0.47906864 -0.3683805 0.4308106
000160 3c 15 9e 3e 59 e1 9b be cd 74 40 3e ae 7b 1b 3f
       0.30875576 -0.30445364 0.18794556 0.60735595
000170 92 27 01 bf 54 39 36 3d 6d 3a 9f 3e 05 3d ab 3d
       -0.50451005 0.044488266 0.31099263 0.08361248

depthwiseConv.1.weight f4 [32]
000000 09 0b 82 3f ed 08 7a 3f 03 d4 7e 3f 8e fd 7f 3f
       1.0159618 0.9766987 0.99542254 0.9999627
000010 56 8a 7e 3f d5 20 75 3f 69 8a 7f 3f 55 9f 80 3f
       0.99429834 0.9575322 0.9982057 1.0048624
000020 03 36 86 3f 67 c4 82 3f 18 4f 85 3f 7f 0e 76 3f
       1.0485233 1.0216187 1.0414762 0.9611587
000030 3e 64 85 3f aa ee 7c 3f d1 01 84 3f 06 43 7d 3f
       1.0421216 0.9880167 1.0313054 0.98930395
000040 66 58 81 3f 68 58 7f 3f 69 e9 7a 3f 89 7d 80 3f
       1.0105102 0.9974427 0.98012406 1.003831
000050 cc a0 7e 3f 88 0a 87 3f 41 82 85 3f 82 70 81 3f
       0.99464107 1.0550089 1.0430375 1.011246
000060 b4 f3 79 3f 8a 59 82 3f cb 64 76 3f cc f8 73 3f
       0.97637486 1.0183575 0.9624755 0.9530151
000070 ef 55 7e 3f 75 f3 79 3f e3 3b 84 3f ac d1 80 3f
       0.99349874 0.9763711 1.0330776 1.0063987

depthwiseConv.1.bias f4 [32]
000000 25 39 43 bb 87 86 27 bc cf ed 2b bc 89 1e a4 bb
       -0.00297887 -0.010224945 -0.01049371 -0.005008523
000010 56 98 4b bc 15 c7 3c 3c 89 37 aa bb 2f ba 1a bc
       -0.012426456 0.011522074 -0.0051946086 -0.009443804
000020 81 43 cc 3c f3 1d 0a 3c b9 b9 cf 3b 53 c9 64 bb
       0.024934532 0.008429992 0.0063392785 -0.0034910038
000030 09 ea 69 3c 7e 20 cc 3a 00 1e 87 bc fd 95 ca 3b
       0.01427699 0.0015573648 -0.016493797 0.006182431
000040 3c 44 bc bc 7a 17 3b b9 ae da bc bc ba 1d ce b8
       -0.022981755 -0.00017842455 -0.023053493 -9.8283825e-05
000050 fa 32 97 3c a9 3e 2e bb fb 13 bb bb 94 c3 10 bc
       0.018456925 -0.0026587641 -0.005709169 -0.008835692
000060 88 41 3b 3a ee 0b e7 3b 14 01 db bc fb b9 9e 3c
       0.0007143249 0.0070509827 -0.026733913 0.019375792
000070 b5 cd 8f bb cd cd be bc cb 0e 56 3a 31 00 c0 bc
       -0.004388536 -0.023291493 0.00081656565 -0.023437591

depthwiseConv.1.running_mean f4 [32]
000000 57 a9 e9 b8 62 01 de 39 42 be 4a bb de 5b 4c ba
       -0.00011141848 0.0004234417 -0.0030936156 -0.00077956717
000010 27 02 4e b9 a7 63 2a b9 a9 42 4c bb 77 8b 59 b8
       -0.00019646493 -0.00016249587 -0.0031167662 -5.186672e-05
000020 bd f6 74 38 b0 74 8e b9 1e d7 f2 37 3c 30 a2 b7
       5.8403926e-05 -0.0002717129 2.894882e-05 -1.9334366e-05
000030 98 a3 2c 3a 29 89 91 3a af 10 96 39 18 46 38 ba
       0.00065856567 0.0011103499 0.0002862266 -0.0007029488
000040 d6 5a 43 bb 8b 48 9a 3a 62 2e 95 3a cd 70 fd b9
       -0.002980878 0.0011770887 0.0011381621 -0.00048339964
000050 9f 9e e5 b9 09 22 d2 b8 df 97 a1 b9 dd ab b1 b9
       -0.00043796466 -0.0001001992 -0.00030821466 -0.0003388812
000060 2e 46 f1 ba c3 15 88 39 ba c3 0b ba 5a 15 a7 b8
       -0.0018407756 0.00025956155 -0.0005331595 -7.9671576e-05
000070 01 ff 03 39 14 54 ec b8 5f 6a 95 3a 50 cb e0 3a
       0.0001258813 -0.00011269018 0.0011399499 0.0017150436

depthwiseConv.1.running_var f4 [32]
000000 36 f6 fa 33 31 55 21 35 87 65 48 34 2d f0 86 34
       1.1686318e-07 6.0101144e-07 1.8663387e-07 2.5134196e-07
000010 37 4d 1f 35 50 3c 45 33 0e 81 06 35 3c d5 8f 34
       5.934448e-07 4.592249e-08 5.010669e-07 2.6790974e-07
000020 40 91 2b 34 16 4a 86 34 16 1c 10 34 3e f6 a7 33
       1.5978458e-07 2.501335e-07 1.3421263e-07 7.821335e-08
000030 eb c6 74 33 60 94 bb 33 1a f3 21 34 53 08 9a 35
       5.6991592e-08 8.734855e-08 1.5082733e-07 1.1476317e-06
000040 eb e7 1c 35 f7 ef 87 34 c4 da 17 35 6c 5e 02 34
       5.8452014e-07 2.5320307e-07 5.657023e-07 1.2141544e-07
000050 75 05 89 34 2b 91 90 33 15 37 da 33 1a c2 3b 34
       2.552221e-07 6.7319284e-08 1.01614354e-07 1.7486346e-07
000060 e0 b6 59 35 8a 47 66 33 01 03 b1 34 20 3e fe 32
       8.110492e-07 5.3616112e-08 3.2971005e-07 2.9597743e-08
000070 4e d9 4f 33 87 bf 52 34 59 62 95 34 34 ce d5 33
       4.839358e-08 1.9627451e-07 2.782497e-07 9.9560935e-08

separableConv.0.weight f4 [32, 1, 1, 16]
000000 02 cb 13 be 9e f6 14 be dd 5a 7b 3d 77 74 0a bd
       -0.1443291 -0.14547202 0.06136595 -0.033802476
000010 f2 e7 28 be b3 42 43 3d 9a 55 3d bc e9 50 6e be
       -0.1649473 0.04767103 -0.0115560535 -0.23273052
000020 c3 87 f3 bd e3 b4 41 be 9b ae 25 bb 46 af 2e 3e
       -0.11891129 -0.18916659 -0.0025281075 0.17059049
000030 a3 6f 7b 3c 0e 2a 13 be aa fe c7 3d de 9a 80 3e
       0.0153464405 -0.14371511 0.0976537 0.25118154
000040 d8 c7 4f be 2b 4c 17 be ff 4c 13 3e 73 49 77 be
       -0.20291078 -0.1477515 0.1438484 -0.24149112
000050 7d 05 4f 3e b0 40 6d be 39 30 69 be c4 1e 91 bd
       0.20216937 -0.23169208 -0.22772302 -0.07085946
000060 6f 66 34 3d fa 53 22 3e 29 f2 4e be 5d 78 bc ba
       0.044043 0.15852347 -0.20209564 -0.0014379133
000070 2a 59 65 3d c5 76 a3 3d 4c fe 32 bc 97 84 1c 3e
       0.055993237 0.07981638 -0.010924887 0.15284954
000080 2b 97 f1 3c 8e 40 19 bd 26 ac cc 3b bc a0 04 be
       0.029491028 -0.03741508 0.0062461076 -0.1295194
000090 05 89 5f 3d 57 2e ce bc 7b 3f 32 3e ae fe 6a 3d
       0.05457403 -0.025168581 0.17407028 0.057371788
0000a0 2d 03 09 3e 9c dc 3a be 35 3b 2e be a8 c7 bd bd
       0.13380118 -0.18248218 -0.17014773 -0.09266597
0000b0 e2 2a 60 be eb fb 69 be b8 49 03 be 72 f0 83 bd
       -0.21891358 -0.22850005 -0.1282109 -0.06442346
0000c0 af ae b6 bd 53 6a e7 3d bf 0e f9 bc 02 e0 1f 3e
       -0.08920037 0.112995766 -0.03040254 0.15612796
0000d0 4c 43 64 3d e8 a2 13 3d 0a 67 67 be 6c 9e 65 be
       0.05572824 0.03604403 -0.225979 -0.22423714
0000e0 62 bc 5b be de ce 3b 3e 51 f9 df bd 21 38 1e 3d
       -0.21458581 0.18340632 -0.10936225 0.038627747
0000f0 df b0 c2 bd b0 10 41 be ae 1b b9 bd c4 9f 68 3e
       -0.09506392 -0.18854022 -0.090384826 0.22717196
000100 ea 08 e1 bd 2f 7b 09 be 13 46 b1 3d 7c 33 c2 3d
       -0.10988028 -0.13425897 0.08655944 0.09482476
000110 44 ec 87 be 80 a3 17 bd 4e 94 72 3e 74 96 9c 3d
       -0.26547444 -0.03702116 0.23689386 0.07645884
000120 3b bb 2f be fe 46 bc 3d 04 69 4b be 27 c6 3b 3e
       -0.17161267 0.09193228 -0.19864279 0.18337308
000130 ab 52 95 3d 62 14 47 3e 7d 0c 05 be ec f2 3b 3e
       0.07291158 0.19441369 -0.12993045 0.18354386
000140 8d 17 be bd 37 c5 d9 3d ac 90 a8 3d 38 29 3c be
       -0.09281836 0.10633319 0.08230719 -0.18375099
000150 b9 37 b6 3c e9 c6 5c 3d 1a 3d bc bd 5e 91 e6 bd
       0.022243368 0.053900633 -0.09191342 -0.11258195
000160 91 4b 82 3c b0 61 b3 bd a9 0e b4 3b f8 f1 cc bc
       0.015905173 -0.08758867 0.0054949117 -0.025017723
000170 57 37 9e 3d 49 f9 fb bc 57 86 5e 3e 1a 3c 6b be
       0.07725399 -0.030758517 0.21730934 -0.22972146
000180 e7 0e e8 3d ae 1e 51 be 60 a9 e0 bd 4b 39 26 bd
       0.113309674 -0.2042186 -0.10969806 -0.040581983
000190 cc 90 f9 bd 81 5e 2f be ae 3a 2f bd 20 93 44 3e
       -0.12185821 -0.17125894 -0.04278057 0.19196749
0001a0 d6 fe ee 3c f3 3e 78 be 0c 6d 50 3d fe de 1a be
       0.02917425 -0.24242763 0.050885245 -0.15124127
0001b0 fe 73 c6 bd 96 29 ef 3d 00 49 7b be c4 45 17 be
       -0.096900925 0.11677854 -0.24539566 -0.14772707
0001c0 15 ce 2e bb a6 c9 16 be 8c 55 3d be cd 7e 72 be
       -0.0026673127 -0.1472536 -0.18489665 -0.23681183
0001d0 d4 fe 9b 3d fb ef 33 be d0 00 a5 3c d8 4d e9 bd
       0.07616964 -0.17572014 0.020141989 -0.11391801
0001e0 39 54 0a 3d 53 e3 48 be 7a 0d 68 3e 0d a6 26 bd
       0.033771727 -0.19617967 0.22661391 -0.040685702
0001f0 f9 d5 86 bd dc a0 0f be 8f 47 1e 3e aa cc cb 3d
       -0.06583781 -0.14026207 0.15456985 0.09951146
000200 ef 5a 74 bd b2 4e e9 3b 8d b4 79 be 65 74 a3 3d
       -0.059657034 0.007119977 -0.24385281 0.07981185
000210 c5 36 01 bd 50 29 34 be c2 d5 8e 3b d0 b5 6e bd
       -0.031546373 -0.17593884 0.004358978 -0.05827886
000220 cd bb 82 be 23 f8 a6 bd 2d 40 35 3d 2f 9d 98 bc
       -0.25533906 -0.08152797 0.044250656 -0.018629638
000230 18 7c 97 3e 87 51 6e bd c9 cd 96 3e d0 a8 83 3e
       0.29586864 -0.05818322 0.29453877 0.2571473
000240 00 d4 73 3e 7f da ad bd c0 d1 15 3e 4a 2f 3a 3e
       0.2381134 -0.084889404 0.14630795 0.18182102
000250 39 13 89 bc 5b a5 f6 3d db 57 ca 3d 2f 47 0d be
       -0.016732799 0.12043258 0.09880038 -0.13796686
000260 16 ed 6f 3e be 56 a8 3c 42 a7 32 be f1 8d 7a 3d
       0.23430285 0.020549174 -0.17446616 0.061170522
000270 0c eb be 3d 2a 14 b8 bd 30 fe 89 be c5 d5 57 3d
       0.093221754 -0.08988221 -0.26951742 0.0526941
000280 55 5e bd 3d 9b 43 1f bc 40 72 82 bd ff 2c 3c be
       0.09246508 -0.009720708 -0.06369448 -0.1837654
000290 05 cc 83 bc 2f c3 07 3e 09 a7 29 be 04 ea 59 bc
       -0.016088495 0.1325805 -0.16567625 -0.013300423
0002a0 bb f5 81 bd b7 bc 27 3e cd fc 0c 3e d3 37 6b 3e
       -0.063456975 0.16380583 0.13768311 0.22970514
0002b0 72 a0 9d bd ee bb d1 bd 61 f7 39 bd af b9 30 be
       -0.07696618 -0.10240923 -0.045401935 -0.17258333
0002c0 51 9e c7 bd 89 bc 8f bd 62 43 b5 bc f4 a0 8c 3d
       -0.09746993 -0.07018382 -0.022126857 0.06866637
0002d0 73 04 5f 3e 4f 44 36 be a9 4a 03 3e 5c 3b 49 3e
       0.21779041 -0.17799495 0.1282145 0.1965155
0002e0 3a 35 5a 3d 76 75 13 3e a0 1e 4a bd a9 88 47 3e
       0.053273417 0.14400277 -0.049345613 0.19485725
0002f0 b0 64 30 3e 60 15 c1 3d aa 34 49 3e 0c 71 f1 bd
       0.17225909 0.09427905 0.19648996 -0.1178914
000300 8f 8f 8d bd dd d8 6a 3d 36 1d 35 3e d6 54 4a 3e
       -0.06912147 0.057335723 0.17686924 0.19758925
000310 6e fb 8a 3e 20 ee 17 3d fb c6 d6 3d 8c 24 97 3d
       0.2714495 0.037092328 0.10487171 0.07380018
000320 a1 04 54 3d 16 24 4c 3e 0a 2d 0c 3e 20 46 85 3e
       0.051762227 0.1993564 0.13689056 0.26030064
000330 5a b9 82 bb b1 8c cf 3c ab 2f 4d be d2 5e 92 3d
       -0.003989381 0.025335642 -0.20037715 0.07146992
000340 11 ec 46 be 01 da 2d 3e b6 d4 58 be dc dd 06 3e
       -0.1942599 0.16977693 -0.21174893 0.1317057
000350 7c bc 26 3e f1 de 02 3e 90 4f 55 be 6a 3e 61 3e
       0.16282839 0.12780358 -0.20831132 0.21996465
000360 9e fc 4a be 73 36 fe 3d b5 28 fc 3d 61 f6 07 be
       -0.19822928 0.12412729 0.12312452 -0.1327758
000370 2b 8e 5f 3e 1b 6b 76 3e dd 31 58 3e 17 4e 2c 3e
       0.21831577 0.24064295 0.21112771 0.16826664
000380 36 64 64 3d 6d f7 89 bd 1f 9f a3 3d f6 c9 1d be
       0.05575963 -0.06736646 0.07989334 -0.15409073
000390 87 28 27 be 37 5c 27 be e0 10 43 be e7 4c dd bd
       -0.16324054 -0.16343771 -0.19049406 -0.108056836
0003a0 cc b0 16 be 16 71 77 3c ab 75 28 3e 3d 07 8b 3d
       -0.1471588 0.015102645 0.16451137 0.0678849
0003b0 b3 55 9a 3e b6 d9 a0 bd 97 b9 07 3e a4 1f 2b be
       0.30143508 -0.07854025 0.1325439 -0.16711289
0003c0 74 fb 3c 3e 0a a5 80 bd e2 55 47 3e 9f a5 87 be
       0.18455297 -0.06281479 0.19466355 -0.26493546
0003d0 3d 6b 0c bd 89 13 c8 bc d9 dd b2 bc a8 dd 57 be
       -0.034281958 -0.024423378 -0.0218343 -0.21080649
0003e0 05 08 ee 3d f7 87 c9 bd 77 cc 4c 3d d4 9d 8f 3d
       0.11622623 -0.09840386 0.04999968 0.07012525
0003f0 30 9c 1c be d3 0e a5 bc 7f cc 76 3e c7 7d 5e 3e
       -0.15293956 -0.02014867 0.24101447 0.21727668

separableConv.1.weight f4 [32, 32, 1, 1]
000000 91 a3 26 be 51 ad 28 3e 5e fc c5 bd 26 8e 50 bd
       -0.16273333 0.16472365 -0.09667276 -0.050916813
000010 29 54 05 3d 51 51 52 3d b3 7a d5 bb 6c 1a 1a bc
       0.032550965 0.05134708 -0.006514871 -0.0094057135
000020 bc b1 6e bd e7 ca f2 bd 3c 08 13 3d ab 34 26 3e
       -0.05827497 -0.11855107 0.035896525 0.16231029
000030 f0 7f 13 3e 38 36 c2 3d 0b cd 04 3e 9e 31 80 bd
       0.14404273 0.09482998 0.12968843 -0.06259464
000040 3c 8c 2d 3d 1e 51 04 3e ae 54 44 be 1f 0a cc 3d
       0.042370066 0.12921569 -0.19172928 0.09962868
000050 01 ae ba 3d 74 ec 10 be 25 16 b8 bc 22 2e 40 3e
       0.0911522 -0.141527 -0.022471497 0.18767598
000060 b2 c7 cd 3d 7c 33 f7 3d 68 ab 17 3e d7 64 05 bc
       0.100478545 0.12070367 0.1481148 -0.008141718
000070 d2 3e 9f 3c e3 11 82 bd fb 79 18 3e b0 04 83 bc
       0.019439135 -0.06351068 0.14890282 -0.015993446
000080 93 e6 b6 bd c3 e1 e6 bd 5e c6 31 bd 7f c6 56 3d
       -0.08930697 -0.112735294 -0.04340207 0.052435394
000090 fb ea bf bd 47 10 87 bd 48 45 5b bd cf 79 48 bd
       -0.09370991 -0.065949015 -0.05353287 -0.04894429
0000a0 61 01 89 3c 7a b7 14 3c 05 06 54 3d f4 c1 f3 3d
       0.01672429 0.009076947 0.051763553 0.11902228
0000b0 5f 38 e2 bd c2 7c ed 3b 42 43 47 3d 6a 89 11 be
       -0.11045908 0.0072475383 0.048648126 -0.14212576
0000c0 f9 68 4b bd 37 7c 8b bc c0 6a 4c bc 2a c4 4a ba
       -0.049660657 -0.017027004 -0.012476623 -0.0007734919
0000d0 50 4b a9 bd 1b 1c f5 bd 0c d8 f3 3d 59 33 2c 3e
       -0.08266318 -0.11968251 0.11906442 0.16816463
0000e0 bb 95 da 3c b1 6f 35 be c0 45 d6 3d 7f e9 2f 3d
       0.026682725 -0.17718388 0.104625225 0.04294729
0000f0 09 45 07 3e 67 ec d6 bd 4e 0c a2 bd 28 e4 43 be
       0.13209929 -0.10494309 -0.07912503 -0.19130003
000100 1d ce ed 3d 04 62 db bd c2 ce 42 bd 06 3d b9 bb
       0.116115786 -0.10712054 -0.04756046 -0.0056530265
000110 50 56 53 bd 15 8e 17 3a fe 96 1e 3c 27 3a 6c bc
       -0.051595986 0.0005781365 0.009679554 -0.0144181615
000120 3f c5 72 be 38 eb 23 be a9 70 90 bd b4 f1 25 bb
       -0.23708056 -0.16007698 -0.07052738 -0.0025321068
000130 99 b3 df 3d 95 40 e3 bd a4 9f 62 be 04 0d 8e bd
       0.109229274 -0.110963024 -0.2213121 -0.06936076
000140 73 84 cf 3c 24 42 ae bd e4 14 d6 bd 46 92 eb 3c
       0.025331711 -0.08508709 -0.10453203 0.028756272
000150 8a 16 06 3d 67 76 ea bd 31 b7 7a bc e9 a1 15 bd
       0.03273634 -0.11448365 -0.015302465 -0.036531363
000160 27 88 67 3d 18 b4 8a bd c5 9c 29 bc a5 51 70 bd
       0.05652633 -0.067726314 -0.010352318 -0.058671612
000170 1b 74 3a 3d 86 c9 bb bd f5 95 3b 3e 7a e7 78 3d
       0.045520883 -0.09169297 0.18318923 0.06076763
000180 9e 96 30 bd ab 60 b5 3c 1e 84 d0 3d 5f 62 14 3d
       -0.04311239 0.022140821 0.10181449 0.036226626
000190 e5 8e 6a 3d a9 a1 0c bd f2 db c2 bd f2 76 16 3d
       0.05726518 -0.03433386 -0.095146075 0.03673453
0001a0 d0 76 28 3e 26 a8 45 3c 40 ba f8 bc cf e1 eb 3d
       0.16451573 0.0120640155 -0.030362248 0.11517679
0001b0 1d 8a 02 be 61 b7 e7 3c 90 03 34 3e 6d 50 f1 bd
       -0.12747999 0.028285684 0.17579484 -0.11782918
0001c0 f5 ec 26 be a9 de 4b bc 7e d1 13 be d1 21 dc 3d
       -0.1630133 -0.012443223 -0.14435384 0.107486375
0001d0 7f 61 9a 3d 08 db 4a be c8 86 1a 3e d3 9d 47 bd
       0.07538127 -0.19810116 0.15090477 -0.048734497
0001e0 ac 3b 81 bd 82 b2 25 bd 5e 6a a7 bd 22 1d 89 bd
       -0.0631021 -0.04045344 -0.08174585 -0.0669501
0001f0 23 16 8b bc 79 f7 96 3d ba 12 9f bd 78 55 8b 3d
       -0.016978329 0.073714204 -0.07767244 0.06803411
000200 63 b4 ae 3c 1a 62 29 3e 36 73 82 bc fa c5 a5 3d
       0.02132625 0.16541329 -0.015924077 0.08094402
000210 00 74 8f bd 42 0f 1d bd d8 37 c9 3d eb 94 08 3e
       -0.07004547 -0.03834463 0.098251045 0.13338058
000220 87 09 99 bd b6 93 d3 3d 63 45 2d 3d cb ba 2f be
       -0.0747252 0.10330908 0.0423025 -0.171611
000230 a3 b5 2c be 89 82 1c 3e a0 2d 6b bd 29 c1 f6 bd
       -0.16866164 0.1528417 -0.05741656 -0.12048561
000240 33 04 1a bd 75 8a 2a 3c 7d 03 48 3d a2 08 cf 3b
       -0.03760166 0.010408987 0.04883145 0.006318168
000250 3e e7 05 3e d3 dc 47 be aa b5 aa bd e0 78 58 3e
       0.13076493 -0.19517832 -0.08335431 0.2113986
000260 12 5b 72 bd a6 f8 dc 3d 0c fc 65 bd 91 f8 29 3d
       -0.059168883 0.107896134 -0.056148574 0.041496817
000270 38 65 2a be 65 60 f0 bd da b1 88 bd 73 73 f4 3b
       -0.16640174 -0.11737136 -0.066745475 0.0074600517
000280 15 a8 1e 3e 4e f6 b8 3c df 3d 6f bd 1d be 40 3e
       0.15493806 0.022578385 -0.058408614 0.18822522
000290 29 81 73 bb ed 81 15 3e 13 e6 14 bc b4 f7 18 be
       -0.0037155843 0.14600344 -0.009088057 -0.14938241
0002a0 8a f6 97 3c c8 92 95 bb 16 ea c2 bd 76 3b 56 3c
       0.018550176 -0.004564617 -0.095173046 0.0130757
0002b0 a2 b7 ff 3d 6f 3e ca 3c 9a 99 2d bb ae 95 fd bd
       0.12486197 0.024687974 -0.0026489259 -0.12382065
0002c0 c3 9b b8 bd 33 fc 5a bd 26 fc 0a 3e ea cc e1 3d
       -0.09014084 -0.053463172 0.1357275 0.110254124
0002d0 20 ad 12 3e 14 41 0e 3e 60 6c b2 3d ac 70 5c bd
       0.14323854 0.13892013 0.08712077 -0.05381839
0002e0 12 65 3d 3e db 52 9f 3d 85 fa 03 3e a0 1e a9 bd
       0.18495587 0.07779475 0.12888534 -0.082577944
0002f0 a3 f6 82 bd 3b f6 19 3e f5 5a d1 3d 28 e7 40 3d
       -0.063946985 0.15035336 0.10222427 0.047095448
000300 27 26 01 3e 65 bd 45 3e 39 6f 15 be 79 63 05 3e
       0.1261221 0.1931053 -0.1459321 0.13026227
000310 59 da 45 be 8a 26 b6 3d 55 3b 0d 3e 91 af 63 3d
       -0.19321574 0.088940695 0.13792165 0.055587355
000320 13 65 73 3d 07 7b a6 3d 3b 78 16 be 99 0d 1d 3c
       0.059422564 0.08128934 -0.14694302 0.009585761
000330 b3 e2 14 bd ef 11 1d be d2 96 58 3d 0b 13 d6 bd
       -0.03634901 -0.15338872 0.05287821 -0.10452851
000340 31 72 b5 bd a4 ff 11 be 73 be b7 3d 37 9d 7c 3d
       -0.08859671 -0.14257675 0.08971872 0.06167337
000350 39 5e a9 bc 5f 6f 68 bc db 7d 66 bd 1d 7a b3 3d
       -0.020674812 -0.014186709 -0.05627237 0.08763526
000360 46 58 0e 3e db d7 0f 3e f8 dc 52 3d 3d 48 04 3d
       0.13900861 0.14047186 0.051480263 0.032295454
000370 27 e5 e3 3d c9 a0 1c be dc 73 e0 3c b9 3b e7 bb
       0.11127692 -0.1529571 0.027398996 -0.00705668
000380 3a e7 3c 3b c9 0c 81 bc 7c 6d 5c be c6 a5 94 3d
       0.0028824345 -0.015753167 -0.2152614 0.07258181
000390 f0 4a 2a bd 8f 73 2b be b3 24 b1 bd 90 88 7c 3d
       -0.041575372 -0.16743301 -0.08649578 0.061653674
0003a0 2b a7 3b 3e 7c 6d f1 3c c9 af fe 3d a6 80 c3 3c
       0.18325488 0.029471152 0.12435872 0.023865055
0003b0 70 09 d7 3d de 89 fa bd 57 3b bd bd 6e f8 83 bd
       0.10499847 -0.12233327 -0.09239834 -0.064438686
0003c0 96 5c 0b 3e ba dc bd 3d 2c 33 57 3d 57 bc 49 3d
       0.13609537 0.09270616 0.052539036 0.04925188
0003d0 cd f8 1b be 79 3f cf 3d d4 7e 23 be b0 e1 d4 3d
       -0.15231629 0.10119528 -0.1596635 0.10394609
0003e0 77 8a a5 3d b5 c6 b9 3d a5 d6 c7 bd a6 ea b2 bd
       0.08083051 0.090711035 -0.09757737 -0.08736162
0003f0 48 6d 32 3d 80 a6 9f 3d ff f5 18 be 63 0e 82 bd
       0.04356125 0.07795429 -0.1493759 -0.063504

separableConv.2.weight f4 [32]
000000 82 43 84 3f dd 3b 84 3f 37 01 86 3f d0 c9 86 3f
       1.0333102 1.0330769 1.0469121 1.0530338
000010 d4 7f 82 3f 9a 8d 83 3f 71 27 85 3f 03 2c 87 3f
       1.019526 1.0277588 1.0402662 1.0560306
000020 a0 ca 81 3f a5 78 82 3f ad 4e 88 3f 4d 27 84 3f
       1.0139961 1.0193068 1.064901 1.0324494
000030 f1 20 86 3f 89 13 84 3f b0 6d 84 3f 8b 5b 83 3f
       1.0478803 1.0318462 1.0345974 1.0262312
000040 f4 fd 85 3f ab 65 83 3f c5 03 81 3f 7e 12 7f 3f
       1.0468125 1.0265402 1.0079275 0.9963759
000050 18 f2 84 3f 05 71 88 3f b5 83 83 3f d9 bd 85 3f
       1.0386381 1.0659491 1.0274569 1.0448562
000060 b4 02 83 3f f6 51 86 3f 8d 6c 81 3f 95 11 86 3f
       1.02352 1.0493762 1.0111252 1.0474116
000070 9b ad 83 3f 7e ee 82 3f 71 75 85 3f ed e8 84 3f
       1.0287355 1.0229032 1.0426465 1.0383583

separableConv.2.bias f4 [32]
000000 5c 9d 22 bd 94 1d 5a bd 2d 37 46 bd 7e 66 50 3c
       -0.03970085 -0.053250864 -0.048392463 0.012719749
000010 c2 bc 69 bc dc b8 02 3a bf e9 27 bd 9b 0f 35 bd
       -0.014266195 0.00049866526 -0.040994402 -0.044204336
000020 f5 a2 48 bd 83 e1 dc bb 32 41 2b 3c f8 84 32 3c
       -0.048983533 -0.0067407503 0.0104525555 0.01089596
000030 7a e2 30 bd 0e d6 02 3c 04 07 c4 3c 48 c6 90 bd
       -0.043184735 0.007985605 0.023929127 -0.07069069
000040 09 6f 12 bb 97 ad e0 3c f0 ec 77 bc 7e 04 6c bd
       -0.0022344014 0.027426524 -0.015132174 -0.05762147
000050 54 41 ad bc 93 61 fd 3b 4a 3c 04 3c d8 7f 15 bd
       -0.021149315 0.007732579 0.008071015 -0.036498874
000060 1f 3f 2f bd b9 e4 85 bd ff 23 90 bc bb bf 5e 38
       -0.042784806 -0.06537766 -0.01759529 5.3107487e-05
000070 8c d5 29 bd 7c cb 2a bd a1 a7 bf 3c f4 9b ee bc
       -0.04146342 -0.041697964 0.023395361 -0.029127099

separableConv.2.running_mean f4 [32]
000000 3d 57 dd ba 87 7e ca ba 91 9d 45 bb 2a 08 c8 b9
       -0.0016886961 -0.0015449085 -0.0030153731 -0.00038153055
000010 e9 07 7f bb 10 d7 af ba 2a b7 81 bb af bc ed 3a
       -0.0038914627 -0.0013415534 -0.0039586024 0.0018137897
000020 fd 22 4d 3b 4b 95 c0 3a 44 ee 58 bb e7 64 40 b7
       0.0031301372 0.001469293 -0.0033101002 -1.1467585e-05
000030 69 f2 4c bb 84 2b a9 ba 9a e9 6f bb 77 73 09 bb
       -0.0031272417 -0.0012906645 -0.0036607743 -0.0020973363
000040 b8 26 80 3a ee e9 37 39 18 e2 29 b9 e0 59 c3 ba
       0.0009777164 0.00017539386 -0.00016201322 -0.0014904104
000050 98 b3 48 bb ea f5 f9 3a 69 e5 ba bb be d0 8c 3b
       -0.0030624624 0.001907048 -0.0057036174 0.004297345
000060 6e 8d 87 ba bf 36 1d bb fb db ac bb fd c6 9c 3b
       -0.0010341832 -0.002398893 -0.005275247 0.0047844634
000070 00 3e ff 39 7f 73 1a 3b 0a aa a0 3a 89 ee 72 3b
       0.00048683584 0.0023567376 0.0012257707 0.0037068448

separableConv.2.running_var f4 [32]
000000 36 6f 84 3b fd 77 48 3b 00 72 8b 3b a7 3d 83 3b
       0.0040415777 0.0030589097 0.004255533 0.0040051523
000010 b9 4f 62 3b 41 20 9e 3b bb 42 c2 3b 5b 0c 91 3b
       0.0034532382 0.0048256223 0.005928365 0.0044265217
000020 be 98 79 3b 4b 16 90 3b 3a 8b 83 3b 37 d6 ad 3b
       0.0038085426 0.004397189 0.0040144 0.0053050774
000030 6f 43 5f 3b 5e 47 8d 3b 02 a7 65 3b ca e3 4d 3b
       0.0034067293 0.004311486 0.0035042171 0.003141629
000040 52 e4 5a 3b 6f 46 92 3b 2a 70 41 3b 5c 84 65 3b
       0.003340025 0.0044639627 0.0029516318 0.003502152
000050 78 97 85 3b 5a 0f 57 3b a1 21 b1 3b 57 76 bc 3b
       0.0040768944 0.0032815547 0.00540562 0.005751412
000060 73 ca 78 3b 41 b1 7e 3b 37 55 3c 3b 5e 6f 93 3b
       0.0037962466 0.0038862976 0.0028737315 0.00449936
000070 45 3d b3 3b 6c ca 8f 3b a1 a3 88 3b 90 a6 ad 3b
       0.0054699504 0.0043881442 0.0041698967 0.005299397

classify.weight f4 [2, 992]
000000 91 d8 40 3d de 65 e5 bc 23 e3 91 3d 9c f9 88 bc
       0.047081534 -0.028002676 0.07123401 -0.016720586
000010 1e de f6 3b bc b3 9f bc fc 44 a2 3c f8 e2 12 3d
       0.0075338027 -0.019494884 0.019808285 0.035860986
000020 60 20 95 3d 0e d7 b5 bc 5f e6 06 3d 19 e6 64 3c
       0.07281566 -0.022197273 0.032934543 0.013970875
000030 f1 1c aa 3b 9b 05 99 3c a5 e7 be 3c c8 cf 82 3b
       0.0051914384 0.01867943 0.023303816 0.0039920546
000040 b6 4f 4d bb 59 ea 61 3c 4d 88 e8 bc c3 55 a3 ba
       -0.003132803 0.013788783 -0.028385306 -0.0012461472
000050 50 86 36 3c 22 75 df bc fa 77 96 bc fe 90 e9 3c
       0.011140421 -0.027277533 -0.018367756 0.02851152
000060 43 e6 00 bd 23 f0 0f 3c 09 15 be bc e6 5d 02 bb
       -0.031469595 0.00878528 -0.02320339 -0.0019892394
000070 90 6e d3 3c 23 be 65 3c e3 0a 8f bd bb 97 7c 3d
       0.025809556 0.014022383 -0.06984498 0.06166814
000080 0e 32 ac 3c 37 ae 74 3c eb f4 a9 3c fe 14 1b bd
       0.021019962 0.014934114 0.020746669 -0.037861817
000090 54 2b 34 3d 45 14 d7 3c 2f 1c dc 3c 46 d8 7f 3b
       0.043986633 0.026254782 0.026868908 0.003903882
0000a0 22 ec 70 3c 80 32 2d bd 31 c7 04 3d c2 72 29 bd
       0.014704736 -0.04228449 0.032416526 -0.041369207
0000b0 79 58 68 bc f7 01 d2 3c 7e 4d 22 bc 73 de 79 3d
       -0.01418125 0.025635703 -0.009906171 0.06100316
0000c0 c8 53 c7 bc d2 b1 bf 3b db 27 2f 3d 54 03 aa 3c
       -0.024331942 0.0058500553 0.04276262 0.02075354
0000d0 9d 56 5e 3d ab 4b 2c b8 93 47 6e 3d 7a 7e 35 3c
       0.05428182 -4.1078467e-05 0.058173727 0.011077518
0000e0 6b 37 ec 3c 2a 10 e4 3c 60 f2 e8 3c 0c 55 11 3b
       0.02883502 0.027839739 0.028435886 0.0022175936
0000f0 77 64 47 3c 88 ae 85 bd 0d 74 e9 bc f7 81 1c 3d
       0.012169949 -0.0652743 -0.02849772 0.03820988
000100 fe 92 9c 3d 4a de ca bd bc ba e0 3c 8b a0 63 3c
       0.07645224 -0.099056795 0.027432792 0.013893257
000110 4a 8a 1f 3c 16 f8 49 3c 47 57 c7 3c 39 da 76 3b
       0.0097375605 0.012327215 0.02433361 0.0037666692
000120 74 b9 86 3d 63 2a d3 bc 54 86 77 3a 0e b6 b4 3c
       0.06578341 -0.025777048 0.00094423187 0.022059467
000130 14 41 30 3d 26 af e5 3c 85 4b d8 bb 87 6d a4 3c
       0.043030813 0.028037619 -0.0066007995 0.020071758
000140 99 ba 5c bb 92 9d 91 bc 57 03 2c bc 06 c4 0a 3d
       -0.0033680557 -0.01777533 -0.010498843 0.03387835
000150 3d 04 0d 3c d9 6a 57 bd c8 42 37 3d 90 e0 91 3c
       0.0086069675 -0.052592132 0.044741422 0.017807275
000160 84 2e ad 3c b4 f3 cd 3a 3a 4d 3d bc 09 8a b8 bc
       0.021140344 0.0015712888 -0.011554057 -0.022526758
000170 60 23 5b b9 88 1d 16 3c e7 cb 86 bc 5f 41 83 3b
       -0.00020898646 0.009162314 -0.01645465 0.0040055956
000180 bc f7 cb 3d be 29 92 bd 66 45 a6 3c ed 26 8c bc
       0.09959361 -0.07136868 0.020296764 -0.017108405
000190 c4 c6 d5 3b 35 61 cf 3b c0 c9 18 3c e0 b1 07 bc
       0.006523939 0.0063287267 0.009325445 -0.008282155
0001a0 9a e3 98 3c 44 89 bb 3c 37 a3 3d 3b 29 90 43 3c
       0.018663216 0.022892602 0.0028936395 0.011936226
0001b0 68 66 08 3d 08 87 dd bc 33 87 ca bc a1 31 5a 3c
       0.033300787 -0.027041927 -0.024722671 0.0133174965
0001c0 73 bd 93 3b 00 74 1d bd ab f0 ac bc c6 c7 03 bd
       0.004508668 -0.038440704 -0.021110853 -0.03217294
0001d0 56 68 d0 3c 7a a9 67 3c fb aa 1d bd ab b6 bd 3a
       0.025440376 0.014139527 -0.038493138 0.0014473995
0001e0 fe 3f e1 bb 84 fd 76 3d 87 2d a5 bc 15 55 b8 38
       -0.0068740835 0.060300365 -0.02016331 8.7896515e-05
0001f0 65 6f 43 3d e8 f5 fc 3b 43 22 9c bb 24 9e 8e 3c
       0.047713656 0.007719744 -0.0047648265 0.017409392
000200 63 10 c4 bc e9 41 3d bb 37 10 9b 3c 9f ea e5 3b
       -0.023933595 -0.0028878397 0.01892863 0.0070164944
000210 fd b3 e2 3c 1d 52 78 bd 00 ed c7 bc b1 40 91 3c
       0.027673716 -0.060625184 -0.024405003 0.017731043
000220 4b 9f b6 bc 38 53 5c 3d 6a 7c 04 bd 8f 3c 13 3d
       -0.022292754 0.0537903 -0.032345213 0.035946425
000230 03 bd f6 3c f5 bf 91 3c 18 e6 9d 3b f0 d6 f0 bc
       0.030119425 0.017791728 0.004818689 -0.029399365
000240 92 b7 37 3d 9b f7 e8 3b 7d 3d a2 bc 48 0e a1 b9
       0.0448528 0.007109595 -0.01980471 -0.00030718953
000250 fc dc f4 3b 69 a8 68 bd 1c 63 4c 3c 61 18 35 bb
       0.0074726325 -0.056801233 0.012474801 -0.002763294
000260 ba 84 6b bc ab 4c a5 bc b1 30 8e 3c 95 03 20 bb
       -0.014374906 -0.02017816 0.017357202 -0.0024416198
000270 2f ad 92 3d 38 01 29 3a 25 2e 56 bc 29 0b 37 bd
       0.071619384 0.000644702 -0.013072525 -0.044688378
000280 0b 9a 95 3a de 9a 87 3c 20 b7 85 3b d9 e6 96 bb
       0.0011413706 0.016553339 0.004080668 -0.004605156
000290 67 61 99 bc e2 62 c7 3c f6 e7 26 bd 00 e8 ac bc
       -0.018723203 0.024339143 -0.04074856 -0.02110672
0002a0 99 9e ac bc 3b bb d1 bb e9 0f 3b 3c 24 38 3b bd
       -0.021071719 -0.0064004934 0.0114173675 -0.045707837
0002b0 ac 34 80 3c 3a 43 a6 bb 3a ff 05 bd 6e c7 e7 bc
       0.015650116 -0.005073932 -0.032714106 -0.028293338
0002c0 59 14 e2 bc af cc 38 3d 2e 19 39 3c f9 0b 8e bc
       -0.027597593 0.045117076 0.011297507 -0.017339693
0002d0 90 d9 ed 3b 58 6d 26 bc 93 f5 f7 3c d6 9f fe 3c
       0.0072586015 -0.0101579055 0.030268466 0.031082075
0002e0 f6 57 1e bc 9f 8c e7 bc 03 78 8b bb bc f4 45 3d
       -0.009664526 -0.028265296 -0.00425625 0.0483291
0002f0 51 96 2c bd f4 5c 62 bb 98 26 ed bb e6 1c 83 3c
       -0.04213554 -0.0034540268 -0.0072372667 0.01600499
000300 c7 c1 84 3d 86 71 f8 bc 58 04 85 3d 0a da 3b bd
       0.064822726 -0.03032757 0.06494969 -0.045862235
000310 ae 33 0a bd 00 a0 66 3c d1 f2 f7 bc 79 86 8b bb
       -0.03374069 0.014076233 -0.030267151 -0.0042579737
000320 46 f2 48 bc 78 ae d7 bc a0 6e 8d bc 91 1e 28 3d
       -0.012264794 -0.02632831 -0.017264664 0.041044775
000330 56 15 ac bb b7 b8 1f bb 0d 12 45 bc d4 60 30 3c
       -0.005251567 -0.0024371573 -0.012028229 0.010765273
000340 a6 10 32 bc 85 c6 5f bc ab ba a3 3b 26 23 ed 3c
       -0.010868227 -0.013658171 0.004996618 0.028947424
000350 64 e9 6a 3c 52 5f 44 bd d2 ed 10 bd 28 18 93 3c
       0.014337871 -0.047942467 -0.035383053 0.017955855
000360 04 6c b8 bc 2c f0 1a 3d 76 65 ae bc f8 7a 2d bd
       -0.022512443 0.037826702 -0.021288615 -0.0423536
000370 11 86 84 3d 1b 5e 00 bd 41 fe 3a bd 33 0b 29 3d
       0.06470884 -0.031339746 -0.04565263 0.041270446
000380 fa 19 9a bc 4f 51 7b 3d 8a bf 0f 3c 72 ed ab 3c
       -0.018811215 0.06135684 0.008773694 0.020987246
000390 60 50 cc 3b ea c3 c3 3c bf 1a 36 bd 1b d3 a1 3d
       0.0062351674 0.02389713 -0.0444591 0.07901593
0003a0 2a ad 72 3c 0b a6 ca 3c a9 bd d8 3c ae 85 75 bc
       0.014811793 0.024737379 0.026457625 -0.014985485
0003b0 a8 7e 46 3d cf 64 3f 3d fa ce 86 3c 40 60 b1 bb
       0.048460633 0.046726998 0.016456116 -0.005413085
0003c0 22 b0 92 bb 7e 31 f0 3b f0 28 16 bc 56 49 de 3b
       -0.004476563 0.0073301187 -0.009165034 0.0067836447
0003d0 15 45 03 bd 63 a5 39 3c 07 f9 71 3d 2d d0 c1 bb
       -0.032048304 0.011330935 0.05907538 -0.005914709
0003e0 f4 5f ed 3c e2 21 41 3c 53 61 41 3b 37 bd 67 3d
       0.028976418 0.011787863 0.0029507473 0.056576934
0003f0 8d 5c 9d bc ac 9e 17 bd 22 76 35 3d 3e 53 06 3b
       -0.01920917 -0.037016556 0.044302113 0.0020496394

classify.bias f4 [2]
000000 29 c2 71 bd 31 1c c6 3c
       -0.059023056 0.024183365
