notebooks/outputs/temp_B08_fold4_last.pth (torch, 31912 bytes, 18 tensors)

firstconv.0.weight f4 [16, 1, 1, 125]
000000 c6 74 7a 3c 2f fd cf bb 5b 55 74 bd b6 7e c2 3d
       0.01528663 -0.0063473205 -0.059651714 0.094968244
000010 13 6e a8 3d 52 83 4b bd 4c 2d 68 bd d9 71 6c 3d
       0.0822412 -0.049685784 -0.056683823 0.05772576
000020 76 62 06 3c 04 94 3f bd 38 ba 53 3d b8 48 b6 3d
       0.008202186 -0.046772018 0.051691264 0.08900589
000030 51 91 66 3d 66 97 3d 3d 8d 5e a4 bb dd f6 98 3c
       0.05629093 0.046286963 -0.005016154 0.018672401
000040 3a 5d 86 3d cf a4 00 3d d6 3d 8d 3d 89 e1 2f 3d
       0.0656075 0.031407174 0.0689656 0.042939696
000050 bb 87 84 3d 0e 99 23 bc 0d 79 b6 3d 08 f7 55 bd
       0.06471201 -0.009985222 0.08909807 -0.05223754
000060 b5 46 de bc af 10 cd bc 9b 4e a7 3d 3d 20 42 bb
       -0.027133325 -0.02503237 0.0816929 -0.0029621266
000070 10 67 93 3d 4f fa a9 3d 5b b3 77 3a 07 24 9f bd
       0.07197392 0.08299696 0.00094490283 -0.077705435
000080 57 dd 04 3c e6 fa 70 3d 1a 35 54 bc bd 42 84 bc
       0.008109412 0.058833025 -0.0129521135 -0.016145105
000090 11 22 30 3d b0 e9 60 bd 7f 24 c5 bd ba e5 5a 3b
       0.04300124 -0.05491036 -0.09626102 0.0033401088
0000a0 8d ff bb 3c 0e 73 87 bc 2f 2e e4 bc 18 cf 4b bd
       0.022949005 -0.016534355 -0.027854053 -0.049758047
0000b0 83 11 87 bd 45 c5 0e 3c dc c0 51 3a b9 3e 9a bd
       -0.06595137 0.008714025 0.00080014556 -0.07531495
0000c0 80 91 01 bd d0 48 fd bc 7b 91 27 3d 67 13 6f bd
       -0.0316329 -0.030918509 0.040910225 -0.058368113
0000d0 16 23 30 3c e6 cb 38 bd 08 e0 15 bd 3a 90 54 bc
       0.010750553 -0.045116328 -0.036590606 -0.012973839
0000e0 89 b5 24 3d 40 bd a8 3d b3 53 10 bc 7e 39 93 3d
       0.040212188 0.082392216 -0.008809018 0.071887
0000f0 85 c2 85 bd 88 9a 88 bd d0 d5 d4 3b fa 9a 37 bd
       -0.06531242 -0.066700995 0.006495215 -0.04482553
000100 15 af 66 bd 0e 7f 8b 3d 9b 71 ac 3d 97 c0 18 bc
       -0.056319315 0.06811343 0.08420106 -0.009323261
000110 36 12 24 bd 77 d6 69 3d f5 8c 36 bd f3 6d 86 3d
       -0.04005643 0.057089295 -0.04456802 0.0656394
000120 de 48 31 3a 37 4c ab 3d 0c a0 01 3d b1 06 95 3d
       0.0006762872 0.08364146 0.031646773 0.07276667
000130 fc 95 e6 3c 8f 90 36 3d ed e1 4e 3c ef 37 ef ba
       0.02814769 0.044571456 0.012627107 -0.0018250922
000140 db d9 82 bd ba cc af bc 9f 62 9a bd 56 a5 f7 3c
       -0.06389209 -0.021459926 -0.07538342 0.030230206
000150 4a e2 3a 3d 8d 86 be 3c 97 73 c7 bd 2a 6b 32 bd
       0.045625962 0.023257518 -0.09738844 -0.04355923
000160 23 fb 85 3d f6 0c 5d bd 43 4a 8e 3c 4b 51 71 bd
       0.06542041 -0.05396744 0.017369395 -0.058915418
000170 d0 df 4f 3d f0 d9 e4 bb 62 00 57 3d 5e aa 95 bd
       0.050750554 -0.006983988 0.0524906 -0.073078856
000180 dd 3d ae bc e1 0b 69 bd c6 0b 22 bd 5a 9a ad 3d
       -0.021269733 -0.056896094 -0.03956201 0.08476706
000190 83 93 be bc 61 67 57 bd dd 21 e0 3c c5 6b 62 3b
       -0.023263698 -0.052588824 0.027359897 0.00345491
0001a0 a7 64 99 bb fc 06 55 3d a8 a6 57 bd 84 b5 11 bc
       -0.004681188 0.052008614 -0.05264917 -0.008893374
0001b0 f1 fd 81 bd c8 91 b2 3d 1e df 86 bd 5c 70 73 bd
       -0.063472636 0.08719212 -0.06585525 -0.059433326
0001c0 f2 f9 b0 3d 6a 47 90 bd 39 ec 8e bd e3 d5 9b 3d
       0.08641423 -0.07044871 -0.0697865 0.07609155
0001d0 8a b1 3f bc a8 20 74 bd 1f e6 20 bd f8 db 85 bd
       -0.011700043 -0.059601456 -0.03928196 -0.06536096
0001e0 a0 cf 57 bc 5d 37 3d bd 52 40 4e bd c4 fa 80 3b
       -0.01317206 -0.046195377 -0.05035431 0.0039361436
0001f0 cd 52 d1 bc 55 ad 27 bd 5c a4 a2 bd 7b c6 3a bc
       -0.025552178 -0.040936787 -0.07941505 -0.0113998605
000200 d9 32 73 3b 8b 2e 61 3b 81 cc 3c 3d 81 02 ea bc
       0.0037109165 0.0034360017 0.046093468 -0.028565647
000210 c3 ca fa 3c b7 8c 8c 3d ac 59 d7 bb c8 54 bc bb
       0.030614262 0.06862777 -0.006571969 -0.0057474114
000220 03 5d a7 bd 3f ad 88 bb 0f 6d a0 3d 4a b5 a0 bd
       -0.081720375 -0.004171043 0.07833301 -0.07847078
000230 68 24 bc bd 0d 80 6d 3d fd 7b 7b 3d 45 ed f2 bc
       -0.091866314 0.057983447 0.06139754 -0.029654155
000240 4a 47 b0 3c b8 8e 8a bd da 3e 74 bd 77 51 d5 bc
       0.021518368 -0.06765503 -0.059630252 -0.026039822
000250 79 11 1b bd 1c 27 13 bd 76 ad 81 bd 38 14 ff bb
       -0.03785846 -0.03592597 -0.06331913 -0.0077843927
000260 d0 d6 4b 3d 15 ea 53 3d 1a c1 74 3c c8 1a ee 3c
       0.049765408 0.05173691 0.014938617 0.029065505
000270 de b2 2c bc e3 be d8 bc a3 6d 02 bc 4f b2 ff 3c
       -0.010540692 -0.02645821 -0.00796071 0.031212954
000280 65 15 31 3d 99 40 b6 3c 4e d9 30 bc ef 38 57 3c
       0.043233294 0.0222476 -0.010793997 0.013136133
000290 3e 2c 69 3d f5 d7 7b 3d ba 89 9a 3d 88 87 c8 bc
       0.05692696 0.06148525 0.075458005 -0.024478689
0002a0 68 c0 28 3d 6f d0 9f 3d b3 65 6e bd 5b e7 af 3d
       0.041199118 0.078034274 -0.058202457 0.085890494
0002b0 88 b2 3d bd f0 f8 f0 bc 77 60 7d bd 2c 25 bc 3c
       -0.04631284 -0.029415578 -0.061859574 0.022966944
0002c0 b9 94 e8 bc 72 6a 6d bc 91 f7 12 bd c4 25 13 bd
       -0.028391229 -0.014490711 -0.03588063 -0.035924688
0002d0 78 e7 8b 3d f3 cf 9c 3d 25 33 1b bd e6 40 32 bd
       0.068312585 0.07656851 -0.037890572 -0.043518923
0002e0 be 7f 9c bd 76 1a 9c bd a3 8e 69 3d c8 7a 0d 3d
       -0.076415524 -0.076222345 0.057020795 0.03454092
0002f0 9f 6f 3b bd 5f e0 83 bd 60 08 61 3b 6b ff ce bd
       -0.045760747 -0.0643928 0.0034337267 -0.10107311
000300 39 4c 86 bd e6 3f 19 bd 8b de 8e 3c ff ac 80 3a
       -0.06557507 -0.037414454 0.017440101 0.0009817182
000310 17 93 31 bd 96 09 e3 bc bf e9 74 bd 6b 1a 62 bd
       -0.043353166 -0.027714532 -0.05979323 -0.055200975
000320 7e 1c 2c 3c f6 08 2f bc 8a fd 1d bd 36 a7 c7 bc
       0.01050484 -0.010683289 -0.03857187 -0.024371725
000330 41 e0 14 bb 60 e8 88 3c e3 42 8f 3d da 8d ab bd
       -0.0022716674 0.016712368 0.069951795 -0.083766654
000340 07 62 0e bd 19 8f 46 bb 8b c6 9b 3d fe 55 f6 3c
       -0.034761455 -0.0030297695 0.076062284 0.030070301
000350 fd 48 8c 3d 78 77 35 3d 4c 1f 3e 3d 87 7b a0 3d
       0.06849859 0.044303387 0.046416566 0.07836061
000360 96 e9 7c bd 53 14 8e 3d 7f 3e 8d b9 84 5e 34 bb
       -0.061746202 0.0693747 -0.0002694018 -0.0027522156
000370 79 da 16 bc 4e bb 97 bc b5 58 b2 bc bd 8c 26 bd
       -0.009207361 -0.018521931 -0.021770814 -0.040661562
000380 a7 b1 2e 3d b4 e9 fb bb 6d a0 72 bb 4a fc ce bc
       0.04264989 -0.0076877717 -0.003702189 -0.025266785
000390 84 00 fe bc 5e 99 84 3d 3d b5 fa 3b 96 e6 ad bd
       -0.031006105 0.06474565 0.007651 -0.084912464
0003a0 c7 51 a0 bd 97 4d bf 3c 4a b1 87 bc 67 db 6a 3d
       -0.07828098 0.023352427 -0.01656403 0.057338145
0003b0 df 8a ac bc 47 8e 67 bc 0c b8 d6 bc 55 62 c5 3d
       -0.021062313 -0.014133043 -0.026210807 0.09637896
0003c0 d4 74 60 3d 11 5a 9c bd 0e 75 a5 3c 31 d1 9e bd
       0.054798916 -0.07634366 0.020197418 -0.07754744
0003d0 f3 42 c1 3d e8 8d 82 3d 1b da 7c bd 92 bf 86 3d
       0.09436598 0.06374723 -0.06173144 0.06579508
0003e0 75 e9 f6 3c 3d 9f 6d 3d dd 4d b0 3d 29 5f d5 3d
       0.030140618 0.05801319 0.08608601 0.10418541
0003f0 a0 8a 13 3d 91 58 4c bc f9 bd fa 3b a0 bd 50 3d
       0.036020875 -0.012472288 0.007652041 0.05096209

firstconv.1.weight f4 [16]
000000 1f 9c 78 3f e8 8e 77 3f 0f db 84 3f 01 08 80 3f
       0.9711322 0.9670243 1.0379351 1.0002443
000010 0f 3a 82 3f c3 55 7f 3f fe c0 7d 3f 15 34 82 3f
       1.0173968 0.99740237 0.9912261 1.0172144
000020 87 42 80 3f fe 9b 76 3f a9 80 86 3f 6c 85 7e 3f
       1.0020303 0.96331775 1.0508014 0.99422336
000030 09 26 83 3f 78 67 81 3f b3 06 84 3f 25 06 81 3f
       1.0245982 1.0109701 1.0314544 1.008

firstconv.1.bias f4 [16]
000000 04 63 ac 3b 3e 9e 8a bb 14 db 87 b7 dd 0f e7 3b
       0.005260827 -0.0042302897 -1.619527e-05 0.0070514516
000010 f2 96 9f 3a 05 1c 6f bb 85 d1 3f b9 4f 4e 75 3b
       0.0012175723 -0.0036485207 -0.00018293232 0.0037430709
000020 24 5f 90 3a c3 99 c3 bb ce 2b 22 3b 70 08 24 bb
       0.0011014682 -0.0059692576 0.0024745348 -0.0025029443
000030 50 f0 b8 3a 9e 29 0c bb fe f3 f0 3b 87 60 29 3b
       0.0014109705 -0.002138711 0.007353305 0.0025844888

firstconv.1.running_mean f4 [16]
000000 65 4a d0 30 2d 2d 47 b0 96 f0 57 30 ea 68 f6 af
       1.5155136e-09 -7.2459977e-10 7.855844e-10 -4.4821685e-10
000010 70 81 30 2f b6 9e 56 2f df 2c f9 ae 27 ba a4 ae
       1.6053092e-10 1.9519572e-10 -1.133118e-10 -7.490924e-11
000020 a3 70 ce af bb 17 b7 af d0 54 ec af 8e ee 11 31
       -3.7551215e-10 -3.3304368e-10 -4.2988413e-10 2.123588e-09
000030 b5 02 8a b0 a8 14 ec ae b4 92 a4 b0 96 23 cc 2f
       -1.0041591e-09 -1.0735707e-10 -1.1974266e-09 3.713267e-10

firstconv.1.running_var f4 [16]
000000 43 80 2e 2c 1e 3e 8a 2c a5 02 55 2d 67 c8 a3 2d
       2.4798087e-12 3.9290923e-12 1.2108235e-11 1.8619951e-11
000010 e7 5c b5 2c 72 d1 8d 2c 97 e6 14 2d cd 22 8f 2c
       5.1546436e-12 4.030714e-12 8.464027e-12 4.068168e-12
000020 30 3e 0d 2d b6 4f 30 2c 18 4a 29 2d 1d ac a8 2c
       8.0287305e-12 2.5055353e-12 9.62299e-12 4.7939556e-12
000030 ae a7 a0 2d 89 83 87 2d 18 b3 f2 2d dd 79 9f 2c
       1.8264359e-11 1.5406136e-11 2.7591748e-11 4.5325813e-12

depthwiseConv.0.weight f4 [32, 1, 3, 1]
000000 27 05 97 3d a9 ff f4 3e 06 2c 00 3f bc e4 b3 3e
       0.073740296 0.47851303 0.50067174 0.35135448
000010 9e 4c d6 3d dc 8a 74 3e 3f 7e 84 3e 5c 66 a6 be
       0.10463832 0.23881096 0.25877568 -0.3249997
000020 e7 8c 04 bf de ca d0 3e 65 4a 94 3e 72 97 90 3e
       -0.517775 0.40779775 0.2896301 0.28240544
000030 ae 92 ea 3e b5 7c c3 be 08 ec 6a 3e c7 17 ee be
       0.45815033 -0.3818108 0.22941601 -0.46502516
000040 39 85 b2 be 77 da d4 3d 15 f8 2a bd 9d 6d b5 3d
       -0.34867266 0.10393231 -0.041740496 0.08858798
000050 60 6d e8 be 9a 9f c0 3e 06 34 b6 3e 90 04 a7 3e
       -0.45395947 0.37621766 0.35586566 0.32620668
000060 be f2 08 bf b0 64 08 3f d7 8c 6f be 61 db 16 be
       -0.53495395 0.53278637 -0.2339357 -0.14732124
000070 e8 94 a9 be 7f 33 2d be ef 52 b4 be 98 32 7a 3e
       -0.3312142 -0.16914175 -0.35219523 0.24433362
000080 c1 bd ed be 81 c5 98 be c8 4d da 3e c5 e7 d2 3e
       -0.46433833 -0.29838184 0.42637467 0.4119245
000090 f9 65 fc be f9 fa 09 3f 46 7f 3c 3e e0 f0 05 3f
       -0.4929655 0.5389858 0.18407926 0.5232067
0000a0 f8 3b d2 be cd 2f 34 bc 66 bc a2 3e 71 b3 0f bf
       -0.41061378 -0.010997725 0.31784362 -0.5613318
0000b0 97 f1 af 3d b7 7d 49 be 98 ac ce be e6 a6 ff 3d
       0.085910015 -0.19676863 -0.40366054 0.12483005
0000c0 ad d6 70 3e 03 16 f7 be 84 1e 30 be 76 18 c5 3d
       0.23519392 -0.4825898 -0.17199141 0.09623806
0000d0 db 29 e0 be e1 bd 11 bd 4a e4 f5 3e 7d 32 a3 3e
       -0.43781933 -0.035581473 0.48025733 0.31874457
0000e0 67 fe 50 3e 7a 1f d4 3d 74 02 e3 3e 69 20 c7 3e
       0.20409547 0.10357566 0.4433781 0.38891914
0000f0 6a 49 2a be 91 96 b7 3e c0 2d 63 be 8d 8d b6 3e
       -0.16629568 0.3585706 -0.22185421 0.3565487
000100 7b 43 db 3e 00 5a 4e be c3 d8 bd 3e 5a 43 13 3f
       0.4282492 -0.2015152 0.3707944 0.57524645
000110 11 a9 26 be a8 0c 01 bf f2 24 00 bf 68 4d c5 3c
       -0.16275431 -0.50409937 -0.50056374 0.024084762
000120 a6 51 58 3e e1 2f 03 3f 16 fd de 3e 66 20 d7 3e
       0.21124896 0.5124493 0.43552464 0.42016906
000130 60 3f 91 be 51 0c bc be 2e 78 cf be e5 6e e0 3c
       -0.28368664 -0.36728147 -0.40521377 0.027396629
000140 c9 bd fd 3e 5b 50 c0 3d 6e b0 b3 be fb f7 f3 be
       0.49558857 0.093903266 -0.35095543 -0.47650132
000150 d5 be 9a 3e e0 09 e8 3b 2f ce 91 3e b1 1d 3b 3e
       0.30223718 0.0070812553 0.28477618 0.18273045
000160 92 be 87 3e 87 cf 4f be 29 8c 08 bf 08 4e c3 3e
       0.2651258 -0.20294009 -0.5333887 0.3814547
000170 3e 9f 04 3f d5 9a e4 be 27 21 a1 be 3c aa 1d 3e
       0.51805484 -0.44649377 -0.31470606 0.1539697

depthwiseConv.1.weight f4 [32]
000000 7b 84 7b 3f cb d5 76 3f 80 90 80 3f a1 35 76 3f
       0.98249024 0.9641997 1.0044098 0.9617558
000010 aa c2 81 3f aa 53 84 3f 32 1f 82 3f 5f 50 7c 3f
       1.0137532 1.0338032 1.016577 0.98560137
000020 53 19 89 3f 6f 77 78 3f ac b9 81 3f 66 bb 7a 3f
       1.0710853 0.9705724 1.0134788 0.979422
000030 05 cc 79 3f 0c d5 80 3f 84 d6 84 3f 67 eb 77 3f
       0.97576934 1.0065017 1.0377965 0.9684357
000040 01 68 81 3f b6 e4 7a 3f 80 99 78 3f 89 98 7a 3f
       1.0109864 0.98005235 0.9710922 0.97889
000050 88 9f 89 3f 5a ea 7e 3f 5e 50 80 3f 75 4c 7d 3f
       1.075181 0.9957634 1.0024526 0.9894479
000060 98 55 83 3f fa 37 80 3f 47 db 83 3f f2 72 76 3f
       1.0260496 1.0017083 1.0301293 0.9626914
000070 7c 29 86 3f 92 c4 7a 3f af 54 73 3f 27 11 85 3f
       1.048141 0.9795619 0.9505109 1.039586

depthwiseConv.1.bias f4 [32]
000000 f0 c2 26 bc 02 14 23 bd 42 45 12 3c 83 0d 85 3b
       -0.010178313 -0.039814003 0.008927645 0.0040604486
000010 49 e4 3b 3a 19 83 f9 bb 8f 42 10 bd e1 29 b8 bc
       0.0007167501 -0.007614505 -0.035219725 -0.022480907
000020 7b d7 91 b9 d1 13 c3 bb 4e 11 56 bc de 45 8a bb
       -0.000278171 -0.00595329 -0.013065649 -0.0042197546
000030 ef 77 4a 3a 62 ab 4f 3c 3a d1 15 ba 44 a0 71 bb
       0.000772356 0.012675138 -0.0005715076 -0.0036869207
000040 6b 4e 21 bc ce 5b 47 bb 09 0a 6d 3c 41 d4 64 ba
       -0.009845356 -0.003041971 0.014467725 -0.0008729138
000050 a0 02 5e bb 8e 24 06 bc f1 68 5c 3c e3 0d ea bc
       -0.0033876076 -0.008187426 0.013452754 -0.028571075
000060 9a fd be bc 3f d5 05 3c e2 25 d5 bc e5 59 1a bd
       -0.023314286 0.008168518 -0.02601904 -0.037683386
000070 60 b5 e0 bc 8f 8b a7 3c 7b b5 85 b9 b3 50 d2 3b
       -0.027430236 0.020452289 -0.0002550295 0.0064183115

depthwiseConv.1.running_mean f4 [32]
000000 16 3f ba 3b 60 d0 75 3b 49 ad 2a 3b ea 40 8f bb
       0.00568379 0.0037508234 0.0026043227 -0.004371752
000010 3a 97 b3 33 ee 42 0d b5 44 7f 3f bb 69 33 f9 3b
       8.362845e-08 -5.262399e-07 -0.0029220143 0.0076050055
000020 32 e9 a7 b9 e2 5f 66 ba 01 d2 06 3b 01 5f fe ba
       -0.00032026466 -0.00087880914 0.002057195 -0.0019406975
000030 3f 53 97 b7 58 42 06 b7 84 0e 21 ba 65 71 f2 ba
       -1.8039367e-05 -8.002469e-06 -0.00061438256 -0.0018496929
000040 0f 35 d9 b9 ce af c2 b9 36 be c1 bb b4 a3 b4 bb
       -0.00041428997 -0.00037133548 -0.0059125675 -0.005512679
000050 ee 0f 91 b8 77 99 b1 3a 4d e3 fe ba 9e 69 1f 3b
       -6.917106e-05 0.0013549764 -0.0019446403 0.0024324427
000060 8c b9 b4 3a 49 11 90 b9 57 b0 84 b9 1e c1 cd 3a
       0.0013788207 -0.000274787 -0.00025308385 0.0015697812
000070 9c 98 91 3b 0f 55 f0 3a fe 2e 85 3a 6b ec dc ba
       0.0044432413 0.0018335896 0.00101611 -0.0016855126

depthwiseConv.1.running_var f4 [32]
000000 19 5c 53 34 53 ed b8 33 ea 33 1b 34 5d c7 85 34
       1.9684411e-07 8.611337e-08 1.4454386e-07 2.4918236e-07
000010 6c b9 ac 34 c3 b8 f3 34 03 d2 16 35 e6 43 c3 35
       3.217241e-07 4.539671e-07 5.618496e-07 1.4548393e-06
000020 b0 3f 2f 34 73 ff 26 34 6d 7e 47 34 6b 66 0b 34
       1.6321314e-07 1.5552887e-07 1.8579313e-07 1.2982643e-07
000030 cb a6 01 34 81 1a ca 33 19 3a 99 33 07 a9 b6 33
       1.207474e-07 9.411179e-08 7.1351856e-08 8.505781e-08
000040 08 33 19 34 ac a0 ef 33 d4 f4 24 34 79 97 1d 34
       1.42678e-07 1.1158531e-07 1.5362758e-07 1.467687e-07
000050 ef 21 fc 33 79 1f ad 34 af 95 76 34 40 26 ab 34
       1.1740837e-07 3.224666e-07 2.296499e-07 3.1879063e-07
000060 1a d9 f9 35 e0 b0 6f 34 03 6c 94 34 2a f1 4d 35
       1.861513e-06 2.2322956e-07 2.7645737e-07 7.671939e-07
000070 06 70 77 35 2a d0 90 34 a0 3e 05 34 1d 0b 13 34
       9.2177686e-07 2.697355e-07 1.2409373e-07 1.3694485e-07

separableConv.0.weight f4 [32, 1, 1, 16]
000000 a0 d6 7e be 6f 8d f1 bd 46 d5 f0 bd 2b 35 cc bd
       -0.2488656 -0.117945544 -0.11759429 -0.099710785
000010 9c 08 9e bd 2e 03 e0 3d 9b 1e ee 3d ea 29 c0 bd
       -0.07716486 0.109381065 0.11626931 -0.093829945
000020 b6 05 b6 bd 19 8c 4d be 18 5c 72 3e 61 59 55 3e
       -0.08887808 -0.20072974 0.23667943 0.20834877
000030 29 10 b0 3d 67 fe 7b be da f1 2b be 3b ee 6e 3e
       0.08596832 -0.24608766 -0.16791478 0.23333065
000040 f4 89 9f bc 23 8f 09 3e 5d 48 60 3e 5a 91 b6 bd
       -0.01947496 0.13433509 0.21902604 -0.08914442
000050 5b b4 07 3e 9e 9b 7b 3d 05 68 80 3c 0c 1e 1d be
       0.13252394 0.061427705 0.0156746 -0.15343493
000060 2d 5e 53 be d4 e8 3f 3d 89 c8 0e be ca da 12 3e
       -0.20641394 0.0468529 -0.13943686 0.14341274
000070 d6 d9 b2 3d 9e ed 43 be f5 ca 6b bd 8f 12 a2 3c
       0.08732955 -0.19133613 -0.0575666 0.01978424
000080 c1 e2 16 3e 14 70 75 be 07 d7 16 3d e8 59 6d 3c
       0.14734937 -0.23968536 0.03682616 0.014486767
000090 e6 9c c2 bd b5 3d c4 bc 0d 9d 6c be 39 d3 bd 3d
       -0.09502582 -0.023955205 -0.23106785 0.09268803
0000a0 1f ea f9 3d 76 c8 bc 3d d0 ef 1b 3e d9 0e c6 bd
       0.12202858 0.092179224 0.152282 -0.09670801
0000b0 c3 ff f5 3d 39 13 0f 3d 8c e5 5e be b2 51 f7 3c
       0.12011673 0.03493044 -0.21767253 0.030190323
0000c0 9b f7 14 be f1 e0 20 3e 09 51 19 3d 98 d4 50 3e
       -0.14547579 0.15710808 0.037430797 0.20393598
0000d0 93 6d 48 bc 33 07 de 3d 15 39 45 3e 3c d7 52 be
       -0.012233156 0.10841217 0.19260056 -0.20589918
0000e0 55 d1 07 3e ff e0 0c 3e 88 93 3e 3c 85 55 a8 3d
       0.13263448 0.13757704 0.011631854 0.082194366
0000f0 24 57 13 be a7 62 c3 3d a0 36 14 3e 2e 1c 53 3e
       -0.1438871 0.09540301 0.14473963 0.20616218
000100 0c 65 f8 3d 87 b4 84 3e d8 b2 06 bd 83 66 5b 3d
       0.12128648 0.2591898 -0.032885402 0.05356456
000110 cd 18 89 be 77 f0 2d bb 55 2b 5b be 9a 6e 57 3d
       -0.26776734 -0.0026541033 -0.21403249 0.052595712
000120 f2 39 4c bd 0f 46 72 be ee 21 44 3e e7 72 b4 3c
       -0.04985995 -0.23659538 0.19153568 0.022027446
000130 ea 69 aa 3d 61 13 53 3d 40 11 63 3e e8 b7 59 3e
       0.08320983 0.051532153 0.22174549 0.21261561
000140 6e 1a b6 bc 45 63 2a 3e 8b a2 56 3e 68 4e a2 bd
       -0.0222294 0.16639431 0.20960443 -0.07925111
000150 2d 74 50 3e 83 db 63 3e 1a af 70 3d 8b 6e 2c 3e
       0.20356818 0.22251706 0.05876074 0.16839044
000160 ad ec 0b 3d 2c 7a 09 3d 1d 0f ff 3d d4 26 76 3d
       0.03416126 0.033563778 0.124540545 0.060095623
000170 a3 c2 3c 3e b5 39 0b 3e a1 f2 6d 3e 54 cc 50 be
       0.18433623 0.13596232 0.23237087 -0.20390445
000180 48 18 d0 bd 5f 95 7b 3e 6b 7d 24 3e b4 86 11 3e
       -0.10160881 0.245687 0.16063468 0.14211541
000190 ad 9f f3 bd bc b7 6f bd 71 f5 6e 3e c8 3f 6d 3e
       -0.1189569 -0.058524832 0.23335816 0.23168862
0001a0 05 23 f8 bd 81 e4 c9 bc 79 5c e3 3d 64 85 7a 3e
       -0.121160544 -0.024645092 0.11101622 0.24464947
0001b0 1f 35 8d bc 82 6d 7e 3e 9d 1a 5c be 7e 03 4c be
       -0.017237244 0.24846461 -0.21494527 -0.19923207
0001c0 d1 6c 49 3e fd 05 55 bd ed 6b a8 3d ed ac 65 3e
       0.19670416 -0.052007664 0.0822371 0.22429247
0001d0 37 be 04 be af a8 71 3e 29 72 48 be c7 fe d1 3d
       -0.12963186 0.23599504 -0.19574799 0.10253673
0001e0 ad a2 02 be 9b e1 5b 3d a7 4f c3 bc d1 fb 58 3e
       -0.12757368 0.05368195 -0.023841692 0.2118981
0001f0 be 82 1c 3e f0 c9 63 3a 5a b2 98 3d 8c b3 62 3e
       0.15284249 0.0008689454 0.07455893 0.22138804
000200 93 aa 81 3d 6c 1d 32 be 63 1d 6b be 39 04 e2 3d
       0.063313626 -0.17394036 -0.22960429 0.11035962
000210 82 0a f7 3d ae f6 6d bd f2 0a 8d 3c b5 14 46 3d
       0.12062551 -0.05809658 0.017217133 0.04835959
000220 6f 14 15 3e 52 a1 5e 3e ac 38 2f 3e 5d 48 c4 3d
       0.14558576 0.21741226 0.17111462 0.09584115
000230 1a 5a 15 3e 47 7c 2b bc 4f fb a4 bd be 8d c3 3c
       0.14585152 -0.010466642 -0.08055746 0.023871299
000240 14 5d f7 3d e7 41 47 bd 3b 78 16 be 2f 82 5d 3e
       0.120783 -0.048646834 -0.14694302 0.21631692
000250 90 34 50 3e 2b 24 2d bd 5e 5c d3 bd 86 b8 af bd
       0.20332551 -0.04227082 -0.10320352 -0.08580117
000260 19 0e 44 be 4f b3 91 3d 3d 6b 07 3e 8f ba 61 bd
       -0.19146003 0.071142785 0.13224502 -0.055109557
000270 4d 58 a3 bd 22 14 bb bb 9f d5 64 3e 09 d5 a4 3d
       -0.079758264 -0.005709187 0.22347115 0.08048446
000280 9c a9 42 be f3 b6 4e be 6f f1 b0 bd 57 d8 4a 3e
       -0.19010013 -0.20186977 -0.086398 0.1980909
000290 ee 0b 3d 3d a2 ed 0c 3e cc 82 2e be 7c 62 49 be
       0.046153955 0.13762525 -0.17042083 -0.19666475
0002a0 9d 2f ee bc f4 1e 5d 3e b6 05 cc bd 46 fd 69 3e
       -0.029075438 0.21593839 -0.09962027 0.22850522
0002b0 83 56 2a be 7e ff 92 bd 51 6d 87 3d fd 62 2d be
       -0.16634564 -0.071776375 0.06612647 -0.16932292
0002c0 4f d0 61 be 5e d3 48 be 2d 29 5e 3e 36 4d 2f 3e
       -0.2205212 -0.1961188 0.21695395 0.17119297
0002d0 76 eb 8b ba c3 14 95 bd df f1 eb 3d 82 e9 44 3e
       -0.0010675031 -0.072793506 0.115207426 0.19229701
0002e0 75 de 09 3e 4c 0c 8e bc d1 cb 5a be 38 46 22 3e
       0.13463767 -0.017339848 -0.21366812 0.15847099
0002f0 2f 0c 40 be 9a 50 25 be 3d 82 43 be 27 70 63 3e
       -0.18754648 -0.16144028 -0.1909265 0.22210751
000300 60 7e 64 3b 88 6c 77 bd 85 01 1c be b8 d2 2c 3d
       0.0034865364 -0.060406238 -0.15234955 0.042193145
000310 af 28 45 be 0a 3c 3d bc 85 ae ae 3d cf e1 f2 bd
       -0.19253801 -0.011549959 0.08529381 -0.11859476
000320 63 7f 0e 3e a1 53 e1 bd e0 5c 61 be 91 6b e1 3c
       0.13915782 -0.11002279 -0.22008085 0.027517112
000330 da b8 03 3e 14 44 ae 3d e0 9e ba 3d 70 37 0c 3d
       0.12863484 0.085090786 0.09112334 0.034232557
000340 54 79 df 3d 17 13 3a 3e bd 76 62 bd ba 79 49 be
       0.109118134 0.18171345 -0.05528902 -0.19675341
000350 b1 0b 7d be 78 5a 54 bd 7f d2 19 be c7 03 06 3e
       -0.24711491 -0.05184409 -0.15021704 0.13087378
000360 e4 7f 51 be 86 9e c2 3c e9 05 11 3e 1e 20 5b 3e
       -0.20458943 0.02375723 0.14162411 0.2139897
000370 d9 b6 67 bd 10 23 d9 3c a0 99 3b 3d a8 b8 95 3c
       -0.05657086 0.026505977 0.045800805 0.018276528
000380 5c 59 26 be e7 8e 7a be df 32 22 3e 21 e6 b3 3d
       -0.16245025 -0.24468575 0.15839718 0.08784128
000390 b7 34 03 3d 77 a6 91 be 82 34 80 be f4 53 85 3e
       0.032032695 -0.28447315 -0.2504006 0.26040614
0003a0 ee 6e 2c 3e 81 63 90 3e 00 25 50 3e a5 7b 25 bc
       0.16839191 0.28200915 0.20326614 -0.01010028
0003b0 31 4a c4 bd 82 86 50 3e 5c 70 42 be 9d 29 fc 3c
       -0.095844634 0.2036381 -0.18988174 0.030781562
0003c0 99 d5 17 bd 4c 00 a8 bd b2 a3 e9 3b bf f9 8e bd
       -0.037068937 -0.082031816 0.0071301097 -0.06981229
0003d0 5e e5 81 3e a4 fe b1 3d 12 c4 13 3e 1f 8e 41 3e
       0.25370306 0.08691147 0.14430264 0.18901871
0003e0 59 21 31 3e d3 9e 89 3b 38 5d 66 3e 4f c4 27 be
       0.17297877 0.0041998415 0.22496498 -0.1638348
0003f0 9a c2 ba bd 76 da f5 3d bd 7e 21 3e 2b 23 96 bb
       -0.091191486 0.12004559 0.15771003 -0.004581829

separableConv.1.weight f4 [32, 32, 1, 1]
000000 18 84 64 3b 17 ca 72 bd 60 b2 23 be 88 8b b9 bc
       0.0034868773 -0.05927476 -0.15986013 -0.022649541
000010 cd a2 06 bd f8 cb 86 bd 0f 5a 3e bd e5 96 50 bd
       -0.032870103 -0.06581873 -0.046472605 -0.050925154
000020 04 e9 9e 3d f9 b4 f7 bd 5a a6 3d be 86 fc 17 be
       0.07759288 -0.12095065 -0.1852049 -0.14842424
000030 96 db 76 bd 4f 7f 10 3e b6 68 07 3d 21 ac 00 be
       -0.060268007 0.14111064 0.033058845 -0.12565662
000040 65 ab ef bd ee 31 e5 bd 1f 21 03 3e c0 2e 26 bd
       -0.11702613 -0.11191164 0.12805603 -0.040571928
000050 04 1a 95 3d cc 9d 97 bb d2 6a eb 3d 22 16 59 bc
       0.07280353 -0.004626965 0.11494984 -0.013249906
000060 4c ca 2c be ee a3 c7 3b a7 f0 e2 3d 31 42 de 3d
       -0.16874045 0.00609254 0.11081057 0.10852469
000070 8e 2a 26 3e 11 97 22 3e 15 7a 2e 3d 24 da 29 3d
       0.16227171 0.1587794 0.042596895 0.0414678
000080 cc 99 3c 3d 49 34 e4 bd 61 ea 03 3d 7c b6 03 3e
       0.04604511 -0.11142785 0.032205943 0.12862581
000090 1d f5 a8 bb 8a 43 79 bd b8 75 80 3a 94 4e bf bd
       -0.005156173 -0.060855426 0.0009800708 -0.093411595
0000a0 c6 1d 90 3b d8 70 43 be 6e 59 4b 3d ec 6c 1e bc
       0.0043980805 -0.19086015 0.049645834 -0.009669524
0000b0 f5 d8 87 bd 70 48 04 3c 99 37 65 3d 16 26 90 bc
       -0.06633178 0.008073911 0.055961225 -0.017596286
0000c0 23 54 cf bd 1f 1e e3 bd 37 ae ed bd cd 51 b9 bd
       -0.1012347 -0.110897295 -0.116054945 -0.090488054
0000d0 d0 85 39 be 5a 67 ac 3d 8a fb 42 3d 60 02 0b 3e
       -0.18117452 0.0841815 0.047603168 0.13575125
0000e0 5c e9 ee 3d 0d 49 79 bd 44 81 49 bc 17 95 99 bd
       0.116656035 -0.060860682 -0.012298886 -0.0749914
0000f0 b9 5d df 3a 84 79 71 be e9 dc c7 bd 0a 6b 41 be
       0.0017041481 -0.23581511 -0.09758932 -0.18888488
000100 08 06 fd 3d 8d 11 db 3d 73 59 62 bc e2 3f 1f bd
       0.12354666 0.10696707 -0.013815272 -0.038879283
000110 c1 6b a8 bc 79 98 d2 bd da ad e4 bc 09 50 1e 3d
       -0.020559194 -0.10282988 -0.02791493 0.038650546
000120 57 1b 03 3d c9 8d 30 be 9b 62 45 bd 1c a6 1d 3e
       0.032008495 -0.17241587 -0.04818974 0.15395397
000130 54 87 03 3e 02 80 1f be a4 2a 34 3c 4f b8 5b bd
       0.12844592 -0.15576175 0.010996494 -0.053642567
000140 51 ec d9 bd 03 61 40 be a1 bf 31 be 79 4c 2b bd
       -0.10640777 -0.18787007 -0.17358257 -0.041820977
000150 e7 7f 4b be 9d 60 97 bc 92 26 9d bd b5 8b ce 3c
       -0.1987301 -0.018478686 -0.07673372 0.025213102
000160 af f2 34 3e a9 31 03 be 15 c1 20 3d 93 20 50 bc
       0.17670701 -0.12811913 0.039246637 -0.012703079
000170 69 98 b5 bb a6 e5 b9 bd 54 e9 15 bd f3 76 94 bd
       -0.0055418503 -0.09077005 -0.036599472 -0.0724925
000180 cc b9 8d 3d b9 fd f8 3d 2e 81 cf 3c 22 06 47 3d
       0.069202036 0.12157769 0.025330152 0.048589833
000190 9b 7f 85 bd 9e 2a ac 3c 76 12 09 be 27 46 0c be
       -0.065184794 0.021016415 -0.13385949 -0.13698636
0001a0 cb a5 39 be 20 9f db 3c 44 b6 80 3d a2 85 5d bd
       -0.18129651 0.026809275 0.062847644 -0.05408252
0001b0 69 81 84 3d 7a da 16 bc ac b6 1b be 56 65 34 3d
       0.064699955 -0.009207362 -0.15206403 0.044041954
0001c0 d1 6c dd 3d 44 4b ed bd 6d 3f 21 3e 8e b1 c2 3d
       0.10811771 -0.115866214 0.15746851 0.09506522
0001d0 21 85 2a bd e0 1e c9 3c 48 b0 af 3d a5 80 19 be
       -0.041630868 0.024550855 0.08578545 -0.1499048
0001e0 07 c1 04 3d ed 70 d8 bc 3f 6d ba 3d 34 45 40 be
       0.032410648 -0.026421035 0.09102868 -0.18776399
0001f0 d7 b6 0d bd d9 bb 7e 3c 34 f5 f5 bd 38 a6 1a be
       -0.034598198 0.015547716 -0.120096594 -0.1510247
000200 f0 76 1c 3e bf 52 b4 bd 4b 74 16 3e 52 de c8 3c
       0.15279746 -0.08804845 0.146928 0.024520073
000210 ae 44 00 3e 3a 9c d8 bd b0 76 27 3e 6d df 1c be
       0.12526199 -0.10576673 0.1635387 -0.15319605
000220 24 f0 27 3d 00 c5 c1 3c 1e 35 f1 3c e1 74 5a bc
       0.0410005 0.023653507 0.029444274 -0.01333353
000230 a9 d5 c5 bc a8 e2 9f 3d 37 4e 65 bc b9 39 c0 bd
       -0.024149733 0.07806903 -0.013995699 -0.0938601
000240 2b 1a af 3d 56 3c fa bd 7a b0 5c 3d 25 b4 41 bd
       0.08549913 -0.122185394 0.05387924 -0.04729094
000250 ae c1 48 3d a4 41 5e bc d1 90 b0 bd fb 2d 95 bc
       0.049012832 -0.013565455 -0.086213715 -0.018210402
000260 7e 4c d2 3d 61 2b 77 bc a7 0b 3c be 9a a8 cf bd
       0.10268496 -0.015086026 -0.1836382 -0.1013958
000270 3f 62 dd 3d 3a 61 5e 3b e2 6b 52 be 6c ab 20 be
       0.108097546 0.0033932463 -0.20548967 -0.15690392
000280 ca 1f f0 bc 8b f9 1f be 8d fb 26 bd 72 b3 1d be
       -0.029312033 -0.15622537 -0.04076724 -0.15400484
000290 bc 18 f0 bd 21 e8 2f 3d cf 2b 04 3e d9 d4 e8 3d
       -0.11723468 0.042945985 0.12907337 0.113687225
0002a0 ac 83 13 3e 76 ce a4 bc 10 b4 b7 bd 3c d0 f9 bd
       0.14405698 -0.02011798 -0.08969891 -0.12197921
0002b0 b9 81 06 be 63 41 c9 3d eb 03 96 bd 70 b8 bb 3d
       -0.13135423 0.09826925 -0.07324966 0.09166038
0002c0 9d 8f 7e 3c b4 2c e5 bd 8f 5b dd 3d 73 2b 2b be
       0.01553717 -0.11190167 0.10808479 -0.16715793
0002d0 ec 3b 3e be a0 f4 98 bd d1 7a af 3d 67 9e 20 be
       -0.18577546 -0.074685335 0.08568347 -0.15685426
0002e0 f0 b7 13 3e 88 ea bf 3d 59 6c d8 bd 39 6b 4c 3d
       0.14425635 0.09370905 -0.10567541 0.049906943
0002f0 f7 76 06 3e 6a 73 4d bd d7 35 0d be d5 18 87 bc
       0.13131319 -0.050158896 -0.1379007 -0.016491333
000300 e7 05 23 bd f7 00 69 3d 58 1d c2 bd 22 88 01 be
       -0.03980055 0.056885686 -0.09478253 -0.12649587
000310 30 d2 1a be 48 39 5b bc 89 88 db 3c 25 6c a7 3d
       -0.15119243 -0.013380356 0.026798503 0.08174924
000320 75 23 98 3d 06 75 22 3e 16 32 2a be 11 3b 3c 3e
       0.07428638 0.15864953 -0.16620669 0.18381907
000330 5e 32 cb bd 2e 7c 6e 3d 01 e6 4f 3c 91 93 38 bd
       -0.09921716 0.058223896 0.012689115 -0.045062605
000340 84 91 c0 bd 72 cb df bc 2d 54 8a bd 3b 37 2e bd
       -0.09402755 -0.02731869 -0.067543365 -0.04253314
000350 04 d5 a0 3c e8 21 f8 bd 88 b3 46 3b 2d cf f4 3b
       0.019632824 -0.12115842 0.0030319411 0.0074709863
000360 94 0b 2f 3d 11 75 e8 3d 6b b1 24 be c4 f9 81 bd
       0.04273565 0.11350454 -0.16083305 -0.06346467
000370 ff 48 d6 3d 90 a9 1f 3d a6 d3 ad ba bb f6 c8 bd
       0.10463142 0.038980067 -0.0013261929 -0.09812685
000380 00 a5 f2 ba 1a da 8a 3d 7c b1 c4 bd 93 de 92 bd
       -0.0018512309 0.06779881 -0.09604165 -0.07171359
000390 1e 08 45 3d af b8 05 3e a4 cd fb 3d e6 b7 08 be
       0.048103444 0.13058732 0.12295082 -0.13351402
0003a0 59 af 3a 3e 52 5f 34 bb a6 4b 2c be 12 ba f1 bd
       0.18230952 -0.0027522636 -0.16825733 -0.11803068
0003b0 e8 cf 30 3d 0a f8 3b 3d d9 f0 96 3d 6d d7 fa bd
       0.043167025 0.045890845 0.07370157 -0.122481205
0003c0 ff 06 07 3e be a9 0a 3c 9d cf d5 3d b5 bd b0 3d
       0.13186263 0.008463321 0.1043999 0.08629934
0003d0 75 44 09 3e cd 48 20 3e 32 60 38 3e 27 8f 31 3e
       0.1340502 0.15652771 0.18005446 0.17339765
0003e0 ac bf 02 3d 93 85 09 be ed 70 06 bc 0c 49 99 bd
       0.031921074 -0.13429861 -0.008205635 -0.07484636
0003f0 7e c7 04 be c1 ad b1 3d 58 1b 89 bd f3 23 29 be
       -0.12966725 0.08675719 -0.066946685 -0.1651762

separableConv.2.weight f4 [32]
000000 8f 1a 86 3f 65 ab 88 3f 87 b0 89 3f b3 3e 84 3f
       1.0476855 1.0677305 1.0756997 1.0331634
000010 0b 60 82 3f 23 87 85 3f 4a 11 89 3f fb f4 82 3f
       1.018556 1.0431865 1.0708401 1.0231012
000020 93 9d 7d 3f 3b 9d 87 3f c7 2d 87 3f 5d 17 86 3f
       0.99068564 1.0594858 1.0560845 1.047588
000030 fd bd 84 3f ed 7e 84 3f a4 06 85 3f bd 7a 86 3f
       1.037048 1.0351235 1.0392652 1.0506207
000040 05 06 83 3f c1 aa 86 3f 17 8a 85 3f 71 aa 85 3f
       1.0236212 1.052086 1.0432767 1.044264
000050 94 f8 82 3f 57 d9 85 3f e6 5e 82 3f f0 e7 87 3f
       1.023211 1.0456952 1.0185211 1.0617657
000060 d5 dc 82 3f 63 06 85 3f 40 ec 7f 3f 37 d6 85 3f
       1.0223643 1.0392574 0.99969864 1.0455998
000070 ef 07 8a 3f 64 b3 82 3f 0f fa 83 3f 7b 66 88 3f
       1.0783671 1.0210996 1.0310687 1.0656275

separableConv.2.bias f4 [32]
000000 84 9f 11 bd e7 0d a8 3c c8 44 5b 3b df 27 b0 bc
       -0.035552517 0.020514442 0.0033457745 -0.021503387
000010 45 25 43 bd a0 fc 2d 3b 44 1a 59 bd ab a9 05 3c
       -0.047642965 0.0026548281 -0.053003564 0.008158128
000020 7c 93 0c bd b8 0a eb 3c 17 26 f0 bc c0 7e d9 3c
       -0.03432034 0.028691635 -0.029315038 0.026549697
000030 ce 1e 3a 3b 20 13 43 bd 45 dd 01 3d d5 c1 41 bd
       0.0028399709 -0.04762566 0.03170516 -0.047303993
000040 72 1e 51 bd 5b cf 1c bc 2b fa ce 3a 15 71 33 bd
       -0.051054426 -0.009570922 0.0015791109 -0.043809015
000050 c6 0c 67 bd c1 65 be 3c 34 9f c6 3c d3 50 43 bd
       -0.056408666 0.02324188 0.024245836 -0.0476845
000060 65 20 50 bd d9 75 3c bd 06 db 0c 3d 4c 54 00 3d
       -0.050812144 -0.046010826 0.034388565 0.03133039
000070 04 3a a3 3c 9a 28 3e bd b0 15 4c bd 7e a2 4c bd
       0.019925125 -0.04642544 -0.04982537 -0.049959652

separableConv.2.running_mean f4 [32]
000000 a9 f1 6c bb 3e 1b 92 3b 63 a5 4f 3b 70 d4 d3 ba
       -0.0036154783 0.004458814 0.0031684272 -0.0016161334
000010 a1 8b 66 3b 1f 7d 6f b9 c1 c6 f4 3a 8f 15 ca 38
       0.003517844 -0.00022839427 0.0018674956 9.636126e-05
000020 ea a8 db 3a b5 90 05 3b d0 b6 96 bb ae 31 0c bb
       0.0016758714 0.0020380442 -0.0045994297 -0.0021391916
000030 d6 a6 99 ba 60 94 fa bb 37 93 b6 b8 63 4f 06 bb
       -0.0011722695 -0.007647082 -8.705857e-05 -0.0020494096
000040 e6 6c cd 3a ff 73 86 bb 4a db ac 3a d9 04 ac bb
       0.0015672713 -0.0041031833 0.0013187912 -0.0052496013
000050 e9 1e ba bb 3a e6 3b 3b 3a 35 34 3b 83 e4 82 3b
       -0.0056799543 0.0028671161 0.0027497546 0.003994526
000060 82 89 00 bb b9 75 2b bb f2 97 9f 3b ce ea 1f 3b
       -0.001961321 -0.0026162697 0.004870408 0.002440143
000070 44 26 84 ba 4d a4 c4 3a 6a c8 47 bb 27 42 4f 3b
       -0.0010082205 0.0015002579 -0.0030484446 0.0031625123

separableConv.2.running_var f4 [32]
000000 cd b2 9e 3b 34 e6 04 3c 38 ee d8 3b a3 6a a2 3b
       0.004843092 0.008111525 0.0066201948 0.0049565597
000010 26 f2 af 3b 49 56 f6 3b 83 05 b3 3b 64 6c b0 3b
       0.0053694425 0.00751761 0.0054633035 0.005384015
000020 23 df 6e 3b 02 35 da 3b 47 66 5b 3b a0 57 89 3b
       0.0036448918 0.006659151 0.003347771 0.004191354
000030 94 90 b3 3b 1c 26 91 3b cf a4 a0 3b ff 65 0f 3c
       0.0054798815 0.004429592 0.004902459 0.008752345
000040 39 6c a2 3b f4 be bb 3b a9 d6 9b 3b 04 13 98 3b
       0.004956749 0.0057295505 0.004755814 0.0046409387
000050 22 8b 01 3c b5 e1 8e 3b 2e 36 8c 3b a0 18 c2 3b
       0.007906707 0.0043604025 0.0042789197 0.0059233457
000060 43 17 aa 3b 6e 8b a4 3b 85 2b 69 3b 0a 28 ab 3b
       0.0051907613 0.005021504 0.0035578918 0.005223279
000070 15 4a 23 3c 9b a7 d6 3b d1 18 d1 3b f9 7c c2 3b
       0.009966393 0.006550742 0.006381132 0.005935308

classify.weight f4 [2, 992]
000000 ab 90 63 bd 88 9e 1a bb 4c 77 c7 3b 23 5b 36 bd
       -0.055557888 -0.0023593027 0.0060872193 -0.04452051
000010 e1 dc 33 3d 3b 50 8e 3c a6 de 5e bd 95 15 c5 3c
       0.04391182 0.017372241 -0.054411553 0.024058143
000020 df 2e 81 bd 88 c2 e2 bb 83 e3 73 bd bf 73 3a ba
       -0.06307768 -0.0069201626 -0.059543144 -0.00071125844
000030 69 90 af 3b d0 e6 63 bd e2 84 f4 bb 0b 5b 45 3c
       0.005357791 -0.05564004 -0.00746213 0.012045632
000040 ab d2 49 bd e9 ef a5 3a 8e 3c 2e 3d a3 72 c8 bc
       -0.049273174 0.001266 0.04253822 -0.024468726
000050 a3 6c ce bc e7 54 6b bd 50 d7 b6 bc ee ac 2a bc
       -0.025198286 -0.057454016 -0.022319466 -0.010417206
000060 c5 82 8b 3b e5 58 e2 3c 61 d0 b2 3b 65 cc 14 3a
       0.0042575323 0.027630279 0.0054569696 0.0005676209
000070 b3 ee 47 bc 79 06 90 bb 2c 4f b8 3d 79 86 d1 3a
       -0.012202906 -0.004395303 0.08999476 0.001598551
000080 6e 0e 8f bc 44 28 c6 bc 80 83 50 3d 67 ed 0b bd
       -0.017462935 -0.024189122 0.05090666 -0.03416195
000090 50 8d 1a 3d 49 9e 3f 3d 06 69 f5 3b f5 13 3d 3d
       0.037732422 0.046781812 0.0074893264 0.04616161
0000a0 de 81 75 3d b6 02 d1 3a 7f ad fa 3b ee fb 43 bb
       0.059938304 0.0015946242 0.007650077 -0.00299048
0000b0 02 26 99 3d 8c dd 26 3d f5 46 06 3d 2b 61 d0 3d
       0.074779525 0.040738627 0.032782514 0.10174783
0000c0 02 e1 49 3c a8 2c 1b bc 16 1e 2e 3d 5b f3 2b 3d
       0.012321712 -0.009471096 0.04250916 0.04198013
0000d0 38 ee 9c 3c 0f 8f 2a 3d 44 e3 b7 3c 5e 90 81 39
       0.01915656 0.041640338 0.022447236 0.0002471236
0000e0 c5 34 a3 bb eb 3c e7 3c 5a ce 75 3c d7 ee 98 bc
       -0.004980656 0.02822729 0.015002811 -0.018668575
0000f0 b4 b7 1d bd f1 75 c3 bc cf 69 62 3c 38 05 fd 3c
       -0.03850527 -0.02385995 0.013819172 0.030886278
000100 c8 0e 8f bc f4 a0 d3 3b e3 8a 13 bd 53 eb 7d 3d
       -0.017463103 0.006458396 -0.036021125 0.061992
000110 4e d9 95 3c 2f 17 02 3d 37 a3 d6 39 55 74 2a 3d
       0.018292096 0.03176039 0.00040938865 0.04161485
000120 c3 1e 36 bd 36 0f 64 bc 73 a4 ad 3c 47 fc fd bb
       -0.04446293 -0.013919642 0.02119658 -0.007751021
000130 c1 e7 68 bc 9c 00 d7 3c 84 03 55 3d ba 02 a4 bb
       -0.014215411 0.026245408 0.052005306 -0.005005208
000140 59 dc 8c 3c 51 02 30 3d 13 7d 9e 3b 9d 59 dc 3c
       0.017194914 0.04297096 0.0048366874 0.0268982
000150 ab d0 54 3c 8c 82 01 3d 78 45 ef 3c 3c dc 9d bc
       0.012989203 0.03161864 0.02920793 -0.019270055
000160 8c 27 c3 3c 87 85 83 3d ec 2a 9e bc d3 6b 83 bd
       0.023822568 0.06421953 -0.019307576 -0.0641705
000170 6d 92 d9 bc 0b 08 35 3d a2 10 3d 3d 52 61 8a bc
       -0.026559079 0.044197123 0.04615844 -0.016892109
000180 ca 3d 85 3d ff 26 2b bd 9c 46 04 3d 7b 5b af bb
       0.06505926 -0.041785236 0.0322939 -0.0053514815
000190 4b 36 e4 3b 12 e7 01 bd 44 e5 c7 bc af 24 3a bc
       0.00696448 -0.031714506 -0.024401315 -0.011361285
0001a0 7e fe 9a bc 88 52 f6 bc 88 fd 3f bd e8 46 ac bc
       -0.01892018 -0.03006865 -0.046872646 -0.021029904
0001b0 a5 c8 30 bc a1 ef 44 bd e9 b6 1f 3d 2c 10 0b 3c
       -0.010790025 -0.04808009 0.038992796 0.008487742
0001c0 b0 1b d4 bc 53 7f 03 3d b5 10 8f bc 55 f2 91 b9
       -0.025892109 0.032103848 -0.017464021 -0.00027837107
0001d0 1e 21 df bb 08 f5 73 bc 09 65 22 bd dc a5 80 bc
       -0.006809368 -0.014889963 -0.039647136 -0.015704088
0001e0 9b 61 9d bc 5f b8 cf 3c 23 4a a8 3c e6 3c a7 bc
       -0.019211581 0.02535647 0.020543164 -0.02041478
0001f0 b0 ac e0 3c e0 cf 4c bc 57 42 52 bc 46 d3 af 3c
       0.027426094 -0.012500733 -0.012833199 0.021463048
000200 00 cf df bc 11 23 8f 3b c7 a3 ca bc c7 e6 d1 bc
       -0.027320385 0.004368194 -0.024736298 -0.025622739
000210 41 0d 28 bc 63 2e 80 bd 77 8b 08 bd 40 a6 af bb
       -0.010257066 -0.062588476 -0.03333613 -0.0053603947
000220 8a 42 26 bd 4e 0d 16 3d 50 7d 26 bd b5 1b 49 3c
       -0.0405908 0.036633782 -0.04064685 0.012274672
000230 7e a8 e1 3c b7 82 2b bc 14 9c c1 bc f7 41 13 3d
       0.027546164 -0.010468177 -0.023633994 0.03595158
000240 46 63 db 3b 9f 6e 9c bc ec f0 23 3d 47 1d c8 bc
       0.006695184 -0.019095717 0.040024683 -0.024428023
000250 22 66 28 bd 5b 46 52 3a e7 d8 e6 bc b7 00 2e bd
       -0.041113026 0.0008021348 -0.028179599 -0.04248115
000260 a8 5e 0d bd 20 9a 86 3c 64 84 cb bc 30 39 d0 3c
       -0.0345141 0.016430914 -0.024843402 0.025417894
000270 81 5c 44 3c 25 cf f8 3c 79 6a 20 3d 07 c8 5d 3c
       0.011984945 0.030372212 0.03916404 0.01353646
000280 e8 f9 c2 bc 8a d9 eb 3c 4a 07 6d bc 70 b0 26 3c
       -0.023800805 0.028790254 -0.01446707 0.010173902
000290 a2 9c b8 bc 35 dc b2 3b 73 b0 13 bd 73 9b c2 bc
       -0.022535626 0.0054583796 -0.036056947 -0.023755765
0002a0 65 5a d8 3c 22 7d 51 bb 8d ee 73 3d 9b 61 73 bd
       0.026410291 -0.0031965454 0.05955367 -0.059419256
0002b0 96 5c c7 3b 65 24 8c bc 16 ab 58 bc 7a 9d b8 3c
       0.006084035 -0.017107198 -0.013224384 0.022536028
0002c0 a2 36 48 3d 4f 88 0f 3c ce a2 97 3c b2 7e 2f bd
       0.048880227 0.008760526 0.018510249 -0.042845435
0002d0 49 de 66 3c ea 65 a3 bc fb 66 18 bc 19 1e 3e bd
       0.014091083 -0.019946057 -0.009301896 -0.046415422
0002e0 dc e3 af bb 59 7c 71 bd d6 bb 21 3d 98 56 0c bd
       -0.005367739 -0.058956478 0.039485775 -0.03426227
0002f0 92 2f 47 3d 1a 94 3f 3c f8 1e b6 ba 10 4b 5f 3d
       0.04862935 0.011693025 -0.0013894727 0.054514945
000300 5d 64 58 3d bc 3e 53 bc 72 77 df ba b1 f2 ea 3c
       0.05283009 -0.012893375 -0.0017049147 0.028680177
000310 07 23 3a bd f1 79 32 3b 99 a3 3a bd fb dc e8 3c
       -0.04544356 0.0027233327 -0.045566175 0.028425684
000320 d7 6a 30 bd 2e f8 f8 bc e8 4e 17 bd 3d cd 22 bd
       -0.04307064 -0.030391779 -0.036940485 -0.03974651
000330 1c 94 c0 bb ee df fc 3a a0 78 94 bc 5d 22 f0 3b
       -0.005877031 0.001929281 -0.018123925 0.007328315
000340 d2 96 09 bd f8 b5 26 3d d3 22 6d bd 2b 56 a1 3c
       -0.0335911 0.040700883 -0.05789454 0.019694408
000350 45 94 88 bd 5f 07 7b ba 5a 43 8e bc e8 f5 fa 3b
       -0.06668905 -0.00095759885 -0.0173661 0.007658709
000360 e5 9a 5e bd c8 7d 85 bd fb f6 99 3d b3 9f 85 3c
       -0.054346938 -0.065181315 0.07517811 0.016311502
000370 b1 d6 be bc 59 37 f3 3b 36 88 c8 3c d8 ef c2 bc
       -0.023295732 0.0074223694 0.024479013 -0.023796007
000380 07 16 88 3b ed d6 33 bd c1 48 41 ba 14 26 83 bd
       0.0041530165 -0.04390614 -0.0007373207 -0.06403747
000390 73 ad 17 3d 80 ca 21 3c 45 4a 0b bc 20 a7 b0 bc
       0.03703065 0.00987494 -0.008501594 -0.021564066
0003a0 0b 35 3d 3a d9 3d 35 bc a3 22 04 bc a0 3c 1e 3d
       0.0007217682 -0.011062109 -0.008064899 0.038632035
0003b0 e7 3a 67 bd 55 8a 77 3c 73 10 04 bc fb d8 05 3b
       -0.056452658 0.0151086645 -0.008060562 0.002042352
0003c0 fb 6b 4a bd 07 aa 55 bc 48 cb d7 3b 00 00 5f 3d
       -0.049419384 -0.013041026 0.0065855123 0.05444336
0003d0 9e 59 6d 3c 52 34 cf bc d9 10 a9 3c 34 55 00 bd
       0.014486698 -0.025293503 0.020637916 -0.031331256
0003e0 39 af 12 bd 0c 31 99 bc cb 1d 22 3d bd d5 d4 bb
       -0.035811637 -0.018700145 0.039579194 -0.006495206
0003f0 97 78 15 3c 04 5b 99 bc 26 cb 4c bc a2 07 b9 ba
       0.009122989 -0.018720157 -0.012499606 -0.0014116655

classify.bias f4 [2]
000000 28 02 7f 3d f1 33 0a bd
       0.062257916 -0.03374094
