notebooks/outputs/temp_B09_fold5_best.pth (torch, 31912 bytes, 18 tensors)

firstconv.0.weight f4 [16, 1, 1, 125]
000000 f7 8b 77 bd ae cf 00 3d 4d ed a7 bc 29 93 12 bd
       -0.060436215 0.03144806 -0.020498896 -0.035784874
000010 ba b8 86 bd ba c1 ac 3c 4c 4e b7 3d 8e c3 bf 3d
       -0.065782025 0.02108847 0.08950481 0.09363471
000020 a2 aa 2d 3c 42 28 a4 bd 98 d4 83 3d 19 a5 e7 bc
       0.010599764 -0.08015491 0.064370334 -0.028276967
000030 2f c5 b4 3d df aa 96 bd 06 af 6c bd 11 76 33 bc
       0.08826672 -0.0735681 -0.057784103 -0.010953442
000040 a5 47 b0 bd be 84 48 bd db e6 ac bd 09 f8 c2 3b
       -0.08607415 -0.048954718 -0.0844247 0.0059499783
000050 d5 e7 0b 3d e5 5c 98 bd 77 4e 4f 3d 22 c3 a9 bd
       0.03415664 -0.07439593 0.05061194 -0.08289172
000060 82 a1 2f bd 9f 43 2a bd fe e5 55 b9 bf 75 a3 bc
       -0.042878635 -0.041568395 -0.00020398942 -0.019953607
000070 60 7f 36 3b d9 9c 4b bd 42 63 00 3d 7f b6 87 3d
       0.0027846918 -0.04971013 0.03134466 0.06626605
000080 5d 6e 5e 3c 0a b0 85 3b d1 a4 92 bd 58 b9 be 3c
       0.013576117 0.0040798234 -0.071603425 0.023281738
000090 9f e6 93 bd a9 04 89 3c af 45 ae bd 43 59 45 3d
       -0.07221722 0.016725855 -0.08509385 0.04818083
0000a0 ca fd 79 bc 3a 10 16 3d 60 b4 d2 bc ea 92 a5 bd
       -0.015258262 0.03663657 -0.025720775 -0.08084662
0000b0 e5 e7 61 3d e1 59 87 3c 1a 4a 62 bd 74 d0 d2 bb
       0.055152792 0.01652235 -0.05524645 -0.006433541
0000c0 32 b0 64 3d 98 65 f0 ba bb c4 10 bd 7e e9 37 3d
       0.055832095 -0.0018340824 -0.035343867 0.04490041
0000d0 66 7c 84 bd 1d 40 dd 3c e5 e8 9a bd bb 67 41 bd
       -0.064690396 0.02700811 -0.07563952 -0.047218066
0000e0 8f 95 85 bd a6 cb d6 3c 80 25 aa 3b b2 da 03 bd
       -0.06522667 0.026220154 0.0051924586 -0.032190986
0000f0 7c 58 9c 3d 62 c2 59 3d bf 0e d0 bc 54 62 26 3d
       0.076340646 0.053163894 -0.025397656 0.040621117
000100 b8 c5 67 bd a1 fc 8c 3d e4 b6 43 3d bd ae 9e bc
       -0.056585044 0.06884123 0.04778184 -0.019370431
000110 80 a3 34 bd bb cb af 3d 85 a8 f8 3c 8c 72 c5 bc
       -0.04410124 0.085837804 0.030353794 -0.024102472
000120 2b 99 35 3d 3d 0e 60 3d 2e 9b 8f bd b2 07 9b 3c
       0.044335525 0.05470108 -0.0701202 0.018924568
000130 40 44 a0 3d 3a c4 7a bc ce 2d 34 bb b0 06 44 3c
       0.07825518 -0.015305573 -0.0027493122 0.011964485
000140 32 44 94 bd 8c b9 4b bd fa 89 a1 3b b5 eb 40 bd
       -0.0723957 -0.0497375 0.004929778 -0.047099788
000150 c7 80 f2 bc 63 c7 83 bd 03 a5 be ba d0 33 55 bc
       -0.029602421 -0.064345144 -0.0014545027 -0.013012841
000160 41 53 59 3d 0e 40 93 3d 70 c5 2d bd 0d 58 96 3d
       0.053057913 0.07189952 -0.04242462 0.07341013
000170 36 af 93 bd 86 6c 7b bd 14 bf 4a 3d cf 45 18 3d
       -0.07211153 -0.061382793 0.049498633 0.03717595
000180 d3 b6 62 bd 9c 8a 31 bd b9 ed 33 bd 08 7f 1e 3d
       -0.055350136 -0.04334508 -0.043927882 0.038695365
000190 fe 9b 46 3d a4 3c d1 3c 36 d6 ec 3c 1e 15 1e bd
       0.04848861 0.025541611 0.028910737 -0.038594358
0001a0 28 9d 2a bd e6 93 63 bb d2 b6 1c bd 52 b7 91 bd
       -0.041653782 -0.0034725606 -0.03826029 -0.07115044
0001b0 73 4b 22 bd 1e c5 a7 3d c4 c8 b1 3d 1a bc e1 3c
       -0.039622735 0.08191894 0.08680871 0.027555514
0001c0 11 1e fe 3b 58 a5 8d bd 52 2b 9e 3d 0b 5f f9 3c
       0.007755049 -0.069163024 0.077231064 0.030440828
0001d0 ff df 6d ba 3e e1 d0 3b d0 fb e7 3b 03 74 cc bd
       -0.00090742105 0.006374507 0.007079579 -0.09983065
0001e0 2e 3f c1 bc cb 7c 86 bd 03 87 6b 3d 40 70 82 bd
       -0.023589697 -0.06566771 0.057501804 -0.06369066
0001f0 40 06 d7 bc 6b 14 19 3c b9 63 3c 3d 49 c4 94 3d
       -0.026248097 0.009343247 0.04599354 0.07264001
000200 56 16 64 bd be 84 76 bd 78 3c e1 bc 56 5c 88 bd
       -0.055685364 -0.060185187 -0.027494654 -0.06658237
000210 d1 1d 77 bc 30 8f 95 3c ee 79 a1 bc 43 a2 a4 3d
       -0.015082792 0.018256754 -0.01971146 0.080387615
000220 48 e0 dd 3c 54 e5 43 bd db a8 24 3d fe 95 73 bd
       0.027084485 -0.047826126 0.040200096 -0.059469216
000230 d2 ed 10 3d b6 71 70 bc c8 4c 79 3d ba 0b 36 3d
       0.035383053 -0.014675548 0.06086424 0.044444777
000240 6f 6e ec 3c 3d 2f 4e bd dd d1 53 bd a1 2d 15 bd
       0.028861253 -0.05033802 -0.051713813 -0.03642047
000250 c3 aa 86 bd 81 24 e3 bc f3 10 fd 3b 79 3f 14 3b
       -0.06575539 -0.027727367 0.007722968 0.002262084
000260 33 dd 5e bd 25 ab 02 bc 34 36 3c 3c 82 3e d5 bb
       -0.05441017 -0.007975374 0.011487532 -0.0065076957
000270 69 9c a6 bd fc d4 42 3d f1 1f 7a bd 6e 6c c2 bc
       -0.081353016 0.0475664 -0.061065618 -0.023733344
000280 b5 ee 83 3c 0c 26 9a bd 2e 85 b4 bd 0a 6b 88 3d
       0.016105035 -0.07526788 -0.088144645 0.06661041
000290 c0 34 8a bd d5 0f 1c 3c 0b 21 1d bd 00 a7 9b 3d
       -0.067483425 0.009525259 -0.03836159 0.07600212
0002a0 2d b4 28 bc fe d3 b2 bd 3e 9c 89 3d 2b 3b 09 3d
       -0.0102968635 -0.087318406 0.06719254 0.033503693
0002b0 99 9a 6b bc a5 09 77 3d 06 5e 3f bd 1e 44 33 bd
       -0.014380121 0.060311932 -0.046720527 -0.043766133
0002c0 52 49 80 3d 78 fa b1 3d fc 94 bb 3d c0 0b 88 3b
       0.06263985 0.08690351 0.09159276 0.0041517913
0002d0 73 57 e2 3a ef c6 d3 3c 20 b6 d4 3b ab 0f 75 3d
       0.0017268494 0.025851695 0.0064914376 0.059829395
0002e0 a8 e1 94 3d 98 ce 70 3d f6 8a 42 bd 96 3c 75 3d
       0.07269603 0.058790773 -0.047495805 0.059872232
0002f0 77 88 49 3d 00 09 95 bd 28 8a b4 bc 11 61 97 3d
       0.04920241 -0.07277107 -0.022038534 0.07391561
000300 4f c4 12 3d ef 63 61 bd ff 3f 07 3d cd 4e 6e 3d
       0.035831746 -0.055026945 0.033020016 0.05818062
000310 20 97 91 bd e1 ac 86 bd bc 96 00 3d 3b 24 b8 bc
       -0.07108903 -0.06575943 0.03139375 -0.022478214
000320 ac 68 7c bd dc a5 be bc 7c aa 1e 3d 1a 20 73 3b
       -0.06162326 -0.023272447 0.038736805 0.0037097991
000330 a6 d9 a0 3c bf 53 31 bd 44 a8 47 3b a2 14 62 3d
       0.019635033 -0.043292757 0.0030465284 0.05519546
000340 a8 1e f1 3c f1 47 b9 bb b6 62 af bd 72 8f 9f 3d
       0.029433563 -0.005654328 -0.085637495 0.07791032
000350 99 ae 54 3d d2 f0 f7 3c b3 a6 a5 3d b7 dd d2 3c
       0.05192432 0.0302662 0.08088436 0.025740488
000360 7f 84 3e bc 3a ae ac bd 34 5b 9c 3d 93 e7 ed bb
       -0.011628269 -0.084316686 0.07634583 -0.007260272
000370 b4 be 8b 3c 6c bf 2d 3d 4c 5e 33 3d 84 b7 d7 bc
       0.017058708 0.042418882 0.0437911 -0.026332624
000380 02 12 0d bd 91 59 de 3c f9 6c bb 3b 6a d3 79 bd
       -0.034441 0.027142318 0.0057197777 -0.060992636
000390 f3 58 e3 b9 32 07 84 3d 54 91 09 3d f4 2e 94 3d
       -0.00043363086 0.06446685 0.03358586 0.07235518
0003a0 78 ef 82 3d 9b ae 56 bb 9d 95 1a bd 6a 16 0b 3d
       0.06393331 -0.0032757882 -0.03774034 0.033956923
0003b0 79 fd a8 3d 70 5c 03 bd 9c d2 a5 ba 58 9b 7e bd
       0.08251471 -0.032070577 -0.0012651267 -0.062159866
0003c0 26 ef 3e bd 84 b3 83 bd 02 dc a7 3d 8b 3f 8f 3d
       -0.04661479 -0.06430724 0.0819626 0.06994542
0003d0 fc 60 83 bd 86 84 4f 3d 8b a9 ec 3c 01 01 48 3d
       -0.06414983 0.050663494 0.028889438 0.048829082
0003e0 77 6b 43 3d f6 e1 9e bd 55 21 25 bd be d9 ca b9
       0.04770991 -0.077579424 -0.04031499 -0.00038690673
0003f0 90 c1 8e 3c bf 80 81 3d 35 90 a6 3d 6e 58 9e bd
       0.017426282 0.063233845 0.08132974 -0.077317104

firstconv.1.weight f4 [16]
000000 cb 78 80 3f 08 4d 80 3f 8e fc 7e 3f f3 83 7d 3f
       1.0036863 1.0023508 0.9960412 0.99029464
000010 85 32 81 3f 6d 5a 80 3f b7 66 7e 3f 1a 69 7f 3f
       1.0093542 1.0027596 0.9937548 0.9976975
000020 16 10 81 3f b0 ec 7d 3f a6 5d 7e 3f 60 7e 80 3f
       1.0083034 0.9918928 0.99361646 1.0038567
000030 37 60 80 3f 60 85 80 3f 33 72 7f 3f 5e 09 7f 3f
       1.0029362 1.0040703 0.9978363 0.9962367

firstconv.1.bias f4 [16]
000000 e2 cf 8f bb 14 fc d6 3b 14 46 e6 bb ad 1d ee b9
       -0.0043887952 0.006560812 -0.007027397 -0.00045417008
000010 9c cc 2d 3b c3 e8 ae 3b df 89 7b 3b 05 ac 3a bb
       0.0026519662 0.005337806 0.0038381738 -0.002848388
000020 e3 56 5d 3a 4d 92 13 ba d8 fb 88 bb 5d 3a b9 3b
       0.0008443428 -0.00056294055 -0.0041804127 0.0056527094
000030 e0 75 f2 3b 8b 60 e3 3b f0 9c 6c 3b 47 93 8f bb
       0.0073993057 0.006938999 0.0036104284 -0.0043815705

firstconv.1.running_mean f4 [16]
000000 33 d1 d2 ae d8 8b 98 b0 9d 55 96 30 6b 49 22 ae
       -9.5868556e-11 -1.1099202e-09 1.0938269e-09 -3.6899744e-11
000010 40 ce 91 2e 01 31 a3 30 68 13 8c 2e 07 f9 a4 af
       6.630474e-11 1.1873739e-09 6.36991e-11 -3.000837e-10
000020 9b 59 60 b0 fd 40 06 b0 68 3f 5c af ef 26 28 af
       -8.161806e-10 -4.884127e-10 -2.003141e-10 -1.5293343e-10
000030 62 34 b4 af 1d 0b b7 2f 01 28 b4 30 da 1c e2 af
       -3.277903e-10 3.3295403e-10 1.3108093e-09 -4.112966e-10

firstconv.1.running_var f4 [16]
000000 64 b2 19 3e 64 b2 19 3e 64 b2 19 3e 64 b2 19 3e
       0.15009457 0.15009457 0.15009457 0.15009457
000010 64 b2 19 3e 64 b2 19 3e 64 b2 19 3e 64 b2 19 3e
       0.15009457 0.15009457 0.15009457 0.15009457
000020 64 b2 19 3e 64 b2 19 3e 64 b2 19 3e 64 b2 19 3e
       0.15009457 0.15009457 0.15009457 0.15009457
000030 64 b2 19 3e 64 b2 19 3e 64 b2 19 3e 64 b2 19 3e
       0.15009457 0.15009457 0.15009457 0.15009457

depthwiseConv.0.weight f4 [32, 1, 3, 1]
000000 b1 c7 2a bb 9c 74 06 3f 1b dc c7 3d 9f 03 aa be
       -0.0026058967 0.5252168 0.09758779 -0.33205888
000010 a3 17 9c be ea 6c 82 3e 3c 74 55 3e 46 db 34 bc
       -0.30486783 0.2547372 0.20845121 -0.011038607
000020 4e 6b 99 be 85 57 8d be 5b a6 cb 3e 45 41 50 be
       -0.2996468 -0.27605835 0.39775357 -0.20337398
000030 29 ad ed bd 4d c9 55 be 60 22 5a 3e ff e0 d9 3d
       -0.11605293 -0.20877571 0.21302176 0.10638618
000040 99 69 df bd 3c 33 b9 3e 98 a1 7b bd d0 03 04 3f
       -0.10908813 0.361719 -0.061433405 0.5156832
000050 d7 61 82 be cb 00 63 3e 75 43 d3 be 3c 91 02 bf
       -0.2546527 0.22168271 -0.41262403 -0.5100286
000060 b7 bc 82 bd 2b 3b ee bd be e7 f9 be 11 b2 d7 3e
       -0.06383651 -0.11632379 -0.48809618 0.4212804
000070 a7 14 13 3f 6b 6b fc be 9d be c0 3c 64 19 02 3f
       0.5745339 -0.49300703 0.023528391 0.50819993
000080 89 36 2d be 91 f8 54 be a0 c4 d0 be a5 20 63 be
       -0.16915335 -0.20797946 -0.40775013 -0.22180422
000090 f6 08 11 bf 9d b5 c2 be be a9 26 bd e2 53 a8 3e
       -0.566543 -0.38029185 -0.040689223 0.32876498
0000a0 97 61 ce be fa 70 2b bd dc ed 9d 3e 95 47 bd be
       -0.4030883 -0.04185579 0.30845535 -0.36968675
0000b0 69 23 15 3e a2 ea 2a be b7 b6 33 be 86 3d 90 be
       0.14564289 -0.16691068 -0.17550169 -0.2817194
0000c0 94 da 46 bd 64 da 14 bf 00 af f7 be 71 3d 02 be
       -0.048548296 -0.5814574 -0.48375702 -0.1271875
0000d0 13 76 a9 be 83 51 10 3d 88 89 e2 3e 94 2a 14 3c
       -0.33097896 0.035233986 0.44245553 0.009043355
0000e0 09 ab 05 3f 4f b6 09 bf b1 76 e6 3d 7c 20 99 3e
       0.52214104 -0.53793806 0.11253107 0.29907596
0000f0 d7 02 ff be c2 75 8b 3d b9 e7 ca bd 8f 13 1e be
       -0.49806854 0.0680957 -0.09907479 -0.15437149
000100 64 69 ab 3d 66 e6 8c 3e 64 c2 4a be 34 29 ed 3e
       0.08369711 0.2751953 -0.19800717 0.46320498
000110 bd c3 20 3e 61 7e 81 be 5b 71 f3 be 00 17 fe 3e
       0.15699668 -0.25291732 -0.4754742 0.49626923
000120 14 60 2e bd d9 ce 87 be 8f 0d cb 3e 5c 2f 97 3d
       -0.042572096 -0.26525 0.39658782 0.0738208
000130 66 c5 96 be c0 bc 11 3f 13 6f 7a be 86 08 6f be
       -0.29447478 0.56928635 -0.24456434 -0.23343095
000140 c6 3f 9a 3e fb fc 5d bd 47 84 a6 3e b9 05 a3 bd
       0.3012678 -0.05419634 0.32522795 -0.07960076
000150 aa 4d 00 bf 8c 17 81 3e c4 80 3e 3e e8 e4 e3 3e
       -0.50118506 0.25213277 0.18603808 0.4451058
000160 20 18 47 be 0d cb 32 3e 29 bb a6 be 8a 03 2e 3c
       -0.19442797 0.1746027 -0.32564667 0.010620961
000170 8e f6 b3 3e d8 bb 6b be 90 a9 ad 3d 49 36 8d bc
       0.35149044 -0.23020875 0.08479607 -0.0172378

depthwiseConv.1.weight f4 [32]
000000 b2 47 81 3f 1e 56 7e 3f 4b 5f 80 3f 28 22 80 3f
       1.0100005 0.99350154 1.0029081 1.0010424
000010 ed c7 7f 3f 59 af 7e 3f 31 00 7f 3f f1 36 7d 3f
       0.9991444 0.9948631 0.9960967 0.9891196
000020 f4 f0 80 3f 3b e2 80 3f e9 6f 80 3f 32 ef 7f 3f
       1.0073533 1.006904 1.0034152 0.9997436
000030 f6 22 7e 3f 5f 44 80 3f 8b f4 7f 3f 77 24 7e 3f
       0.99272096 1.0020865 0.9998252 0.9927439
000040 4c 0e 81 3f 5a b0 80 3f 91 74 7f 3f cf 70 7c 3f
       1.0082488 1.0053818 0.9978724 0.9860963
000050 23 2f 7f 3f 26 9c 7d 3f ed 69 80 3f 3d 08 80 3f
       0.996813 0.9906639 1.0032326 1.0002514
000060 f9 f9 80 3f 19 0b 7f 3f c2 46 7e 3f 9b 88 81 3f
       1.0076286 0.9962631 0.9932672 1.0119814
000070 59 4f 7d 3f a4 a6 80 3f 74 9b 7e 3f ec 85 7f 3f
       0.989492 1.0050855 0.9945595 0.99813724

depthwiseConv.1.bias f4 [32]
000000 74 13 e7 3b a4 8f 7f bb 2f 22 84 ba 97 6a 64 3b
       0.0070518795 -0.0038995529 -0.0010080988 0.0034853572
000010 3c 4f 5c bb 15 3b 94 bb 9a 28 15 3b 87 5b a7 b9
       -0.0033616563 -0.0045236447 0.0022759796 -0.00031920915
000020 68 87 bb 3b b1 d6 50 b9 f4 55 86 3a a2 fe 68 3a
       0.005722929 -0.00019916405 0.0010249005 0.0008888041
000030 4d 01 23 3b e6 80 ad bb 59 ee 1e 3a 1a 74 b2 ba
       0.0024872601 -0.005294907 0.0006062738 -0.0013614923
000040 15 f4 1b bb 38 d2 67 ba fb ca aa 3b 7d 6c c8 bb
       -0.0023796607 -0.0008843276 0.0052121854 -0.0061164484
000050 d5 6a c3 3b 61 90 d6 3b e2 91 ca bb c9 c6 29 bb
       0.005963663 0.006547973 -0.0061819414 -0.0025905839
000060 7d 5b 6a 3b 6e 52 02 3c 8b f0 9d ba 74 57 22 bb
       0.0035760098 0.007954223 -0.0012049837 -0.0024771364
000070 17 e9 a5 b7 40 2b 05 3b ac 8b c2 3b ac a1 9c 3b
       -1.9778074e-05 0.0020319968 0.0059370603 0.004780015

depthwiseConv.1.running_mean f4 [32]
000000 bc 52 14 bb 4f fa b8 3a 50 0a 1e ba 65 bc ea b9
       -0.0022632321 0.0014112684 -0.00060287584 -0.00044772323
000010 5b 14 05 3a 7c 8f e1 ba 31 b1 2d b9 70 04 1e 3a
       0.00050765806 -0.0017208899 -0.00016564575 0.0006027883
000020 c1 c8 93 ba fd 40 5f 3a 40 64 ba 3a 0f 52 5b bb
       -0.0011275039 0.0008516459 0.0014220551 -0.0033465659
000030 1e f0 05 bb 26 30 7e b9 44 44 5c b7 39 42 d2 38
       -0.002043731 -0.00024241264 -1.3128916e-05 0.00010025915
000040 0f 29 c5 ba 9b 8b 15 ba 33 2a cd 38 fe 41 5c b7
       -0.0015042144 -0.0005704702 9.783022e-05 -1.3128387e-05
000050 8f 9e f5 3a 58 c0 38 ba bd 59 a9 3a 92 70 3f ba
       0.0018739271 -0.00070477044 0.0012920421 -0.0007302846
000060 a9 8e de 39 1f 9c dc 3a 98 9f 33 ba a1 5d 3b 3a
       0.0004244943 0.0016831196 -0.00068520894 0.00071474357
000070 86 74 45 b9 90 f9 a3 3a 8d 84 dc b8 41 7e f7 39
       -0.00018830792 0.0012510289 -0.00010515107 0.00047205578

depthwiseConv.1.running_var f4 [32]
000000 66 b2 19 3e 66 b2 19 3e 64 b2 19 3e 65 b2 19 3e
       0.1500946 0.1500946 0.15009457 0.15009458
000010 65 b2 19 3e 66 b2 19 3e 66 b2 19 3e 68 b2 19 3e
       0.15009458 0.1500946 0.1500946 0.15009463
000020 68 b2 19 3e 6a b2 19 3e 66 b2 19 3e 68 b2 19 3e
       0.15009463 0.15009466 0.1500946 0.15009463
000030 68 b2 19 3e 65 b2 19 3e 66 b2 19 3e 68 b2 19 3e
       0.15009463 0.15009458 0.1500946 0.15009463
000040 6f b2 19 3e 66 b2 19 3e 6b b2 19 3e 65 b2 19 3e
       0.15009473 0.1500946 0.15009467 0.15009458
000050 68 b2 19 3e 65 b2 19 3e 65 b2 19 3e 66 b2 19 3e
       0.15009463 0.15009458 0.15009458 0.1500946
000060 65 b2 19 3e 68 b2 19 3e 65 b2 19 3e 65 b2 19 3e
       0.15009458 0.15009463 0.15009458 0.15009458
000070 65 b2 19 3e 66 b2 19 3e 65 b2 19 3e 64 b2 19 3e
       0.15009458 0.1500946 0.15009458 0.15009457

separableConv.0.weight f4 [32, 1, 1, 16]
000000 69 49 4f 3d 1f 8d 39 3e 59 26 24 be c3 19 41 be
       0.05060712 0.1812024 -0.16030253 -0.18857484
000010 e0 c4 40 bd ce e6 49 bd 52 c9 cf bd ef 5b ca 3d
       -0.047062755 -0.049292378 -0.10145821 0.09880816
000020 d8 8d 19 bd cd 56 1f be 7a 3f 70 3e a6 bd 1d bd
       -0.03748879 -0.15560456 0.23461714 -0.03851094
000030 c1 3d e1 3c 7e af b1 bd da be 46 be f1 04 8e 3d
       0.027495267 -0.086760506 -0.19408742 0.06934536
000040 70 da 12 3e c4 86 45 3e 3d 65 3f 3e 88 a7 06 be
       0.1434114 0.1928969 0.18690963 -0.13149846
000050 d3 67 a5 3d 7e 48 1e be 78 9a 47 be 7e e7 3b be
       0.080764435 -0.15457341 -0.19492519 -0.18350026
000060 a0 bd b2 3c 74 7f 51 be 61 4a 03 3e 78 e6 8d 3d
       0.021818936 -0.20458776 0.12821342 0.06928724
000070 2d 7e 7f 3c e2 0b b8 3d 54 3f 46 3e 3e 16 5c 3e
       0.0155940475 0.089866415 0.19360095 0.2149286
000080 90 9c 3f be ba e1 74 3e 19 1d 6e be 12 83 c1 bd
       -0.18712068 0.23914233 -0.23253287 -0.09448828
000090 b2 52 65 3e 19 da 46 3d 4b 1e e0 bc 6e c9 05 3d
       0.22394827 0.048547838 -0.027358195 0.0326628
0000a0 09 ab fd bd b9 79 82 bd 69 38 0c be f5 71 3a 3e
       -0.12386138 -0.06370873 -0.13693394 0.18207534
0000b0 c7 e5 e5 3d d6 e6 ef bb d1 5a e9 bc c7 60 26 be
       0.11225467 -0.007321219 -0.028485687 -0.16247855
0000c0 79 e5 35 be 7c 6c 81 be 9a d4 03 be e0 24 81 be
       -0.17763318 -0.2527808 -0.1287407 -0.25223446
0000d0 f5 20 04 3e 39 bd 2c 3e 21 19 0d 3e c5 d1 43 be
       0.12903197 0.16869058 0.13779117 -0.1912299
0000e0 4a ea 81 3e fb c7 92 3d 22 ec 7a 3e 7d 38 0a be
       0.2537406 0.071670495 0.2450414 -0.13498111
0000f0 f4 cf 74 bd b7 2d 24 3e bc 56 30 3c f0 39 74 3e
       -0.059768632 0.16033064 0.010762867 0.23850226
000100 a2 bc 19 3d 6a 4f ba bd df a4 c5 bc 01 cd 36 3e
       0.03753341 -0.09097178 -0.024126468 0.1785164
000110 aa 51 55 bd 9c 45 5a bd 58 2f 78 3e 12 20 74 bd
       -0.052079834 -0.05328904 0.2423681 -0.059600897
000120 a5 e8 14 3e d2 ea 0e 3e 79 c9 36 be 9a d7 69 3e
       0.14541872 0.13956764 -0.17850293 0.22836152
000130 4f b8 b8 bd ab 08 ba 3d e2 1f 08 be a8 c4 22 bd
       -0.09019529 0.090836845 -0.13293412 -0.039738327
000140 36 4a 36 be f3 ff a9 bd 4e c2 5c bd 18 a9 6d 3e
       -0.17801747 -0.083007716 -0.05389624 0.23209035
000150 11 39 45 be f7 e2 b0 bd 1e 35 f3 bd 2e d0 1e 3e
       -0.1926005 -0.0863704 -0.11875366 0.15509102
000160 e3 4f 1d be 40 7a 7f be 8e da 8a 3d 1f 3d 58 bd
       -0.15362506 -0.24948978 0.06779967 -0.052792665
000170 c3 a6 47 3e 8c 71 26 be 42 88 39 3e 15 13 6e 3e
       0.19497208 -0.16254252 0.18118384 0.23249467
000180 83 b8 18 be 17 b5 80 3c ca fc 52 be 60 bb 6f be
       -0.14914136 0.01571135 -0.20604244 -0.23411322
000190 22 44 82 3e b4 40 9f 3d c1 bc 42 be 14 fa d7 bd
       0.25442606 0.07776013 -0.19017316 -0.105457455
0001a0 cd 88 33 3e 14 e6 5d 3e 61 81 94 3b dc e1 6d bd
       0.17532654 0.21669799 0.0045320247 -0.058076724
0001b0 ad a8 68 be fc 9c 69 bd 4b 28 34 be d0 fa 4d be
       -0.22720595 -0.057034478 -0.17593496 -0.20115209
0001c0 91 39 02 be a3 36 f6 bd e3 f4 c1 bc d1 d1 53 3e
       -0.12717272 -0.1202214 -0.023676341 0.20685507
0001d0 d6 29 ea bc a9 a7 2c be 8e c4 0b 3d e6 ba 03 3e
       -0.028584402 -0.16860832 0.034122996 0.12864265
0001e0 31 4d 42 bd ff 90 47 3d 88 1a 51 be d9 5d 10 be
       -0.047436897 0.048722263 -0.20420277 -0.140983
0001f0 5a 47 bb bd ce 0c 2b 3e 9a 0a 2b 3e a8 55 dd bc
       -0.091444686 0.16704103 0.16703263 -0.027018383
000200 d0 7d d9 3c 21 b1 25 be a2 c9 4d bd b0 ef 90 bd
       0.02654925 -0.1618085 -0.05024112 -0.07076967
000210 da 2f e7 3d 4e 1e 11 3e 31 83 91 3d aa 5d ce bd
       0.11288424 0.14171717 0.07105101 -0.10076459
000220 da 08 19 3e 1c a6 27 3e e0 db 2e 3d 3d 32 ed bd
       0.14944783 0.1637196 0.042690158 -0.11581848
000230 46 0b cb 3d c0 f3 4a be 9e 61 17 be d8 86 33 3e
       0.099142596 -0.19819546 -0.14783332 0.17531908
000240 22 c0 7c bd 6f 37 1b be 2f d1 f3 3d b7 e2 60 3e
       -0.06170667 -0.15157865 0.11905133 0.21961485
000250 ee 8d 41 3e a8 08 b6 bd f2 19 84 3e 83 3d 21 3e
       0.18901798 -0.0888837 0.25801045 0.15746121
000260 11 f3 cd bd 2e b3 22 3e f5 b0 9d 3d 30 d5 40 bd
       -0.10056127 0.15888664 0.076997675 -0.04707831
000270 1c ba 5f 3e d8 04 76 3e 7d 69 3b be f9 c1 86 bd
       0.21848339 0.24025285 -0.1830196 -0.06579966
000280 ad d5 fc bd 7f 89 20 be 0b cc 13 3e 98 6f e4 3d
       -0.12345443 -0.1567745 0.14433305 0.11154097
000290 9a 6e 3b be a0 15 db 3d 32 38 d6 3d 00 f2 6a be
       -0.1830391 0.10697484 0.10459937 -0.22943878
0002a0 6e 10 14 be c1 00 3d be 46 6e 1c 3e 94 b9 88 bc
       -0.14459392 -0.18457319 0.15276441 -0.016690053
0002b0 4d 14 b3 3b f2 b3 24 bd 9b f6 7a bd dc 33 c7 3d
       0.0054650665 -0.04021067 -0.061270338 0.09726688
0002c0 64 8d 1e be 7b 3b 53 be 00 2c 00 bd 3b db 9d bd
       -0.15483624 -0.20628159 -0.03129196 -0.077078305
0002d0 ad 5e 3b be e9 3b f7 3c 80 b7 6b be f0 17 1f 3d
       -0.18297835 0.030179935 -0.23019218 0.038841188
0002e0 60 34 c2 3c 33 0b 63 3e 0e 0b 62 3e a9 65 2f bd
       0.023706615 0.22172241 0.2207453 -0.04282156
0002f0 6c dd 2f 3d e7 9e bd 3b 39 47 d5 3a e9 74 00 3e
       0.042935774 0.005786765 0.0016271836 0.12544598
000300 db 93 12 3e c7 cb 2b be 82 14 c4 3d 83 39 81 3e
       0.14314215 -0.16776954 0.09574224 0.2523919
000310 41 1d 7b be ea 84 6e be 91 e0 fc 3c 53 d0 15 be
       -0.24522878 -0.2329289 0.0308688 -0.1463025
000320 83 0b 04 bc 56 6a 35 be ff c9 4d 3e 16 b5 54 3e
       -0.008059385 -0.17716345 0.20096587 0.20772204
000330 e4 7a 4b bd 61 7f eb 3c 06 14 70 be ec 6d ba 3d
       -0.049677745 0.028747262 -0.23445138 0.09102997
000340 46 64 4d 3e 6f e3 2e be af bf 67 3d 40 8d 13 3e
       0.20057783 -0.17078947 0.056579288 0.14409351
000350 85 ec 1e 3e 75 78 13 be 4b 1e 72 3c 09 c7 12 3e
       0.15519913 -0.1440142 0.01477773 0.14333738
000360 b3 fc 44 3e 3b 23 b7 3c f8 29 1c 3e b6 94 c1 bd
       0.19237022 0.022355666 0.15250385 -0.094521925
000370 30 17 33 3c da 61 b0 3c 56 ad 81 bd ab a3 59 3e
       0.010930821 0.021531034 -0.06331889 0.2125384
000380 ed fb 55 3e f0 c3 71 3e 15 6e c3 3d 95 ac d3 3d
       0.20896883 0.236099 0.09542481 0.10335652
000390 e3 f2 6c be d0 70 49 be 39 e9 f8 3d ac be 48 ba
       -0.23139529 -0.19671941 0.12153859 -0.0007657807
0003a0 d4 fc 5b be aa 41 97 bd 42 3e f5 bb 92 2a 06 be
       -0.21483165 -0.07385571 -0.0074842284 -0.13102177
0003b0 8e ce 5a be 15 72 2e 3e 9c be e5 3d 75 7f da 3d
       -0.21367857 0.17035706 0.112179965 0.10668842
0003c0 d2 db 10 bd 2f 84 d1 bd 22 68 ee bd 45 24 f8 3d
       -0.035365887 -0.1023029 -0.116409555 0.12116293
0003d0 93 7b 36 3e 8b fa 5a 3e f7 b4 e4 bd f7 45 f5 bd
       0.17820577 0.21384637 -0.11167329 -0.11976235
0003e0 a5 2f 6c 3e 45 a0 df bd e5 2b f6 bd 99 b0 5e 3e
       0.2306505 -0.10919241 -0.12020091 0.21747054
0003f0 eb a4 c1 3c 25 b7 36 3e 25 57 2f be 59 bb f0 bb
       0.02363821 0.17843302 -0.17123087 -0.0073465523

separableConv.1.weight f4 [32, 32, 1, 1]
000000 fb 3f 73 bd 43 fe 12 bd 4e 46 24 bd de d9 28 be
       -0.05938719 -0.035887014 -0.04010611 -0.1648936
000010 94 56 ce 3c 7c b8 73 bd a7 80 3f 3d d0 d5 d2 bd
       0.025187768 -0.05950211 0.04675355 -0.10294688
000020 70 ea 88 3d c8 d3 7d bd da c7 24 3e 36 7a c1 3d
       0.066853404 -0.06196955 0.16091862 0.09447138
000030 05 dc 23 3e 3c 18 95 bd 69 5d 2e be ec 10 d8 3d
       0.160019 -0.07280013 -0.1702782 0.105501026
000040 1e 3b d7 3d 2d ce cc 3d 35 c8 fc 3d f8 06 01 3e
       0.105093226 0.100002624 0.12342874 0.12600315
000050 d3 52 47 bd e9 ff 2a 3e 88 2a cf bd 4c 62 a8 3d
       -0.04866297 0.16699184 -0.10115534 0.08221874
000060 f2 56 34 bd 1b 80 29 3d 2b 51 3b be ff 76 2f 3e
       -0.04402823 0.041381937 -0.18292682 0.17135237
000070 33 ac b8 bd 97 81 8a 3c 3e 68 a5 bd 2e 93 dc bd
       -0.090172194 0.016907496 -0.08076523 -0.1077026
000080 cb ed 58 3c 3a c3 d0 bd e0 0d 22 3e 3c f3 a2 3b
       0.013240288 -0.101934865 0.15825605 0.0049728435
000090 ae 05 65 3c 43 cd 8f bc 84 94 09 be d3 e0 e8 3d
       0.013978405 -0.017553931 -0.1343556 0.11371007
0000a0 e8 dd c4 3d ce bb 48 3d d7 bb 0b be b1 f8 36 be
       0.09612638 0.04900723 -0.13645874 -0.17868306
0000b0 9f 2a 13 be 61 55 82 3d ab b8 92 3d 74 77 0e be
       -0.14371727 0.06363941 0.07164129 -0.13912755
0000c0 dd e0 34 3e 20 9e c3 3d dc b3 13 3e bc f3 e1 bd
       0.17663904 0.09551644 0.1442408 -0.11032817
0000d0 83 5c be bd 4d 7f 98 bd 59 ca 20 3e 5a 1c c9 3d
       -0.09294989 -0.07446156 0.1570219 0.09819861
0000e0 74 fd bf 3d 01 83 44 bc 73 16 27 3e 21 d6 f7 3d
       0.09374514 -0.011994124 0.16317157 0.12101389
0000f0 7a ee 2b be 22 05 54 3c 9d 9a 5e 3d d5 1b ba 3d
       -0.1679019 0.012940677 0.05434667 0.0908734
000100 31 b0 48 bd 57 be ed bc 02 01 01 be 18 46 df bc
       -0.048996154 -0.029021425 -0.1259804 -0.027255103
000110 d6 27 36 3d 1c 23 42 3d 2b 6d 1c 3d 12 8e 2c be
       0.044471584 0.047396764 0.03819005 -0.1685107
000120 c7 5a 2b be 99 98 1a be 9f ad bb bc 26 30 c5 3d
       -0.16733848 -0.15097274 -0.022909937 0.09628324
000130 a3 ee 20 3e 9a 7c e8 bd 0f e5 e6 3c 58 28 d7 ba
       0.15716033 -0.11351891 0.028185396 -0.0016415222
000140 1d 0b 89 bd 86 e7 a6 bc bf b5 a7 3d 62 6b 1f 3e
       -0.06691573 -0.02037407 0.08188962 0.15568307
000150 96 0c c4 bb b1 36 07 3e f3 b5 9b 3d 94 a8 18 3e
       -0.0059829457 0.13204457 0.076030634 0.14908057
000160 54 ef b7 bd 66 bf 0b 3e 4a 9c d7 3c c6 6b 18 3e
       -0.08981195 0.13647231 0.026319642 0.14884862
000170 ee 80 c5 bd 53 77 89 bd 18 7d de 3d 79 70 db 3d
       -0.09643732 -0.067122124 0.108637035 0.10714812
000180 d7 02 9f 3d 1d 15 bb bd 5b 0f 1d be d9 fc 0d 3c
       0.077642135 -0.091348864 -0.15337889 0.008666241
000190 4a 3e af 3d 26 bd 7e bd 76 d9 07 3d 9e d0 c6 bc
       0.085568026 -0.062192105 0.03316637 -0.024269398
0001a0 33 aa f0 3d d3 c3 5d bd 71 85 f8 bd be c2 2b 3e
       0.11751213 -0.05414183 -0.12134827 0.16773507
0001b0 c0 a0 c8 3c 97 c6 ac bd b3 a9 c3 3d 18 33 26 3c
       0.024490714 -0.084363155 0.09553852 0.010144018
0001c0 72 e7 71 3d 9e da f9 3d e4 46 05 be c0 10 0f bd
       0.059058614 0.12199901 -0.13015324 -0.034928083
0001d0 02 9c ba bc bc 27 5c 3d 99 64 a8 3d 66 81 bf 3d
       -0.022779468 0.05374883 0.082223125 0.09350853
0001e0 e9 db b9 3b 87 9d ac 3d 18 ff 87 bd b7 d5 f3 bb
       0.0056719673 0.084284835 -0.06640452 -0.0074412483
0001f0 9c 48 e2 3d 80 d4 9b 3c c7 d5 e7 bd 4a a5 82 3d
       0.110490054 0.019022226 -0.11320072 0.06379183
000200 7b 98 8d 3d f9 42 6d bd 5e dd 8d bc 55 a9 c5 bc
       0.06913849 -0.0579252 -0.01731747 -0.024128595
000210 f5 75 c1 3d d0 e3 02 3e bb 06 18 3e 0d cf 0c 3d
       0.09446327 0.12782216 0.14846317 0.034377147
000220 d2 c1 4f 3c e9 4b 64 3d 85 8d 02 be c0 d6 03 bb
       0.012680488 0.055736456 -0.12749298 -0.0020117015
000230 df 1e a4 bd 15 38 f4 bd 2c be a1 3d b8 62 4d 3d
       -0.08013701 -0.11924759 0.078976005 0.050142974
000240 92 ef 6b 3d 10 ff 69 bd 7d b1 68 bd 29 e2 0c be
       0.05760152 -0.057128012 -0.05680989 -0.13758148
000250 31 01 5a bd e7 eb 01 bd 77 0e 94 3d e4 23 32 3d
       -0.053223792 -0.031719115 0.072293214 0.04349126
000260 f4 6c bb 3c a7 a8 24 bd 8e 83 00 3e dd 70 11 3d
       0.022879101 -0.040199902 0.12550184 0.035508025
000270 49 a3 21 3e 4a ad 00 bc 44 e5 b5 bd 35 15 61 bd
       0.15784945 -0.007853815 -0.088816196 -0.054951865
000280 ac 55 36 be 53 1e ed 3d 35 a6 c0 bc e5 c5 3d bd
       -0.17806119 0.115780495 -0.023516754 -0.046331305
000290 1e 94 83 bd ed d6 1f be cd 36 31 be b6 99 e8 3d
       -0.064247355 -0.15609331 -0.17306061 0.11357443
0002a0 ee 27 77 3d 85 7e 01 be 10 02 ab bb c9 79 37 3d
       0.060340814 -0.1264592 -0.0052187517 0.044793878
0002b0 03 f7 18 be 77 8a 7f bd 0e 39 02 be 39 e1 d2 3d
       -0.14937977 -0.06238791 -0.12717077 0.10296864
0002c0 56 f3 96 3c 15 6a bc 3d 4b 65 70 bd f3 fc 01 be
       0.018426578 0.09199921 -0.05869035 -0.12694149
0002d0 5b c5 31 be cc 96 25 3d 16 48 32 3e 82 a8 19 3d
       -0.17360441 0.040427014 0.17410311 0.037514217
0002e0 34 4d 57 bc 3b 48 4f 3d 7f 1c c2 bc ef 97 43 3d
       -0.013140965 0.050605994 -0.023695229 0.047752317
0002f0 1b d4 d7 bd 52 a0 62 3c ce 60 1f 3d 65 ea e0 3d
       -0.10538503 0.013832169 0.03891068 0.10982207
000300 f6 eb ae 3d 4a 5f 51 bd cf 41 2b be e9 8c c5 bd
       0.085411 -0.051116265 -0.16724323 -0.09646017
000310 f2 bd c9 3c 54 7a 2d be 0c d2 2a be 6e fe 11 3e
       0.024626706 -0.16941196 -0.16681689 0.14257213
000320 a4 16 14 be 0c 07 64 bd 5b 0f c2 bd bb fa 93 3d
       -0.14461762 -0.055670783 -0.09475585 0.072255574
000330 f5 fb 87 3d d1 0c b6 bd ea 96 cc bd 9b 0c 16 3e
       0.06639854 -0.08889163 -0.09989722 0.14653246
000340 e5 fb 8c bd f1 a0 5e bd 7a aa 93 bd 34 a2 f7 bc
       -0.068839826 -0.054352704 -0.0721025 -0.030228712
000350 84 35 ff bc f0 7b 40 bd 8c fd 15 bd 44 4b 72 3d
       -0.031153448 -0.046993196 -0.036618754 0.05915381
000360 e0 07 44 3d 38 f1 03 3e ef bc 20 be 23 dc 37 be
       0.047859073 0.12884986 -0.15697072 -0.17955069
000370 6f 1f 1a 3d 89 1b 80 3d 01 3f ef bd 1f 60 c8 bd
       0.037627634 0.06255252 -0.11681939 -0.09783959
000380 c0 61 1c 3e ed 42 54 bd de e0 02 be e4 c4 01 3e
       0.15271664 -0.051821638 -0.12781093 0.12672764
000390 0c cd 9e 3d 4b d4 72 bd d7 bd 28 be 29 a8 3a 3d
       0.07753953 -0.05928449 -0.16478668 0.045570526
0003a0 3d 8f b5 bd 32 d7 f1 3d e9 79 2c bd e6 e7 35 be
       -0.08865211 0.118086234 -0.04210845 -0.17764243
0003b0 45 ee b7 3d a4 da 12 3e e2 4a 01 be 91 05 d3 bd
       0.08980993 0.14341217 -0.12626222 -0.10303796
0003c0 fc 90 36 bd 46 f2 32 bc 79 e6 71 bd 22 70 31 3e
       -0.04457186 -0.01092202 -0.059057686 0.17327932
0003d0 9d c1 44 3d 40 09 02 be 7f f0 7f 3d e9 f6 bc bd
       0.048036207 -0.12698841 0.062485214 -0.09226782
0003e0 49 f6 30 be d1 d0 8b 3d df 4c 4b bd 47 16 39 be
       -0.1728145 0.06826938 -0.049633857 -0.18074904
0003f0 89 ff 21 3e b5 5b 85 bd 52 ef 19 3e b6 aa 0e 3e
       0.15820135 -0.06511632 0.150327 0.13932309

separableConv.2.weight f4 [32]
000000 f4 53 7e 3f 71 55 80 3f 9f 1e 80 3f d8 56 7e 3f
       0.9934685 1.0026075 1.0009345 0.99351263
000010 79 4e 7f 3f 64 6b 80 3f 44 67 7e 3f 3d 92 7d 3f
       0.99729115 1.0032773 0.9937632 0.99051267
000020 1f 19 7e 3f 44 3d 7f 3f 6d 60 7e 3f 5b c4 7f 3f
       0.9925708 0.9970286 0.99365884 0.9990899
000030 72 7e 80 3f 5b 11 80 3f 1d f1 7d 3f d5 12 7f 3f
       1.0038588 1.0005296 0.99196035 0.9963811
000040 b1 e1 7e 3f 23 d8 7d 3f 2d 01 80 3f 53 8b 80 3f
       0.9956313 0.99157923 1.0000359 1.0042518
000050 e5 0b 7d 3f f2 2f 7e 3f 1e 0c 80 3f b4 87 7e 3f
       0.98846275 0.9929191 1.0003698 0.99425817
000060 20 a3 80 3f 53 d7 7e 3f 11 f5 7e 3f 5a 15 80 3f
       1.0049782 0.9954731 0.9959269 1.0006516
000070 fa 03 80 3f 44 da 7f 3f 1b 05 7e 3f cf 3d 80 3f
       1.0001214 0.9994242 0.9922654 1.0018862

separableConv.2.bias f4 [32]
000000 b3 71 13 3b 45 24 17 3c 2c 34 b0 ba 35 41 35 bc
       0.002249819 0.009224956 -0.0013443283 -0.01106291
000010 3e 65 f4 b9 94 53 36 b6 fa 28 89 bb 13 5e 2a bc
       -0.00046614738 -2.7168762e-06 -0.004185793 -0.010398406
000020 c1 19 ba 3b f3 7e 07 bb 61 b4 96 ba e2 50 6f bb
       0.0056793396 -0.0020675033 -0.0011497849 -0.0036516716
000030 53 b7 35 3a 1a 72 0b 3b 37 4e 84 bb 61 cd 83 3b
       0.00069319195 0.0021277727 -0.0040376442 0.004022286
000040 35 e8 bb 3a cc 7f a6 bb 78 e8 2a 3b 7c df f0 3b
       0.0014336171 -0.0050811525 0.0026078504 0.00735086
000050 ba cc 12 bc f8 84 32 bb b4 da 24 3b 22 1b 36 bb
       -0.008959943 -0.00272399 0.0025154771 -0.0027787169
000060 fb b6 1b bb cd d0 83 3b d3 16 b8 bb 70 67 88 3b
       -0.0023760188 0.0040226937 -0.0056179552 0.0041627213
000070 f8 05 7e bb db 3f 48 bb e1 38 b1 bb 65 29 07 3b
       -0.0038760882 -0.003055564 -0.005408392 0.0020624038

separableConv.2.running_mean f4 [32]
000000 b1 13 02 ba 07 83 c3 b9 5f f6 aa b8 03 68 ca 37
       -0.00049620407 -0.0003729092 -8.152122e-05 2.412871e-05
000010 25 3b aa b9 9b 0b b9 39 0d 00 6e 3a 3b 85 b8 b8
       -0.00032468993 0.00035294596 0.0009078987 -8.79862e-05
000020 52 95 81 3a 17 be 93 b8 6c 81 04 3b 45 b1 a9 3a
       0.000988642 -7.044913e-05 0.0020218743 0.0012946507
000030 41 84 ab b9 63 a3 f4 38 da 61 35 ba a3 1c 81 ba
       -0.00032714198 0.0001166526 -0.0006919183 -0.0009850453
000040 09 96 64 b9 9a bf 98 3a eb be 89 37 dd 3c 88 38
       -0.00021799667 0.0011653781 1.6420576e-05 6.496322e-05
000050 0b 7c a6 ba 34 ed 35 ba 65 26 a0 ba 47 42 8d 39
       -0.0012701763 -0.0006939948 -0.0012218474 0.00026942996
000060 70 c7 0b 39 84 16 e4 39 ff d3 84 b9 b8 34 e3 3a
       0.00013330369 0.00043504324 -0.0002533495 0.0017334437
000070 d6 ae 35 ba 6d 7b b5 3a 9a c0 11 3a 85 76 cb b9
       -0.00069306546 0.0013845988 0.0005560011 -0.0003880748

separableConv.2.running_var f4 [32]
000000 92 53 1a 3e 40 97 1a 3e 35 7c 1a 3e 9b 38 1a 3e
       0.15070942 0.1509676 0.15086444 0.15060656
000010 b4 fc 19 3e 7a 4b 1a 3e 9f 38 1a 3e 26 53 1a 3e
       0.15037805 0.15067855 0.15060662 0.15070781
000020 a3 b2 1a 3e f9 2d 1a 3e 88 92 1a 3e cd 5e 1a 3e
       0.15107207 0.150566 0.1509496 0.15075226
000030 a3 3a 1a 3e 41 47 1a 3e 19 55 1a 3e ce 61 1a 3e
       0.1506143 0.15066244 0.15071525 0.15076372
000040 df 65 1a 3e f8 cd 1a 3e 1a 7b 1a 3e 16 56 1a 3e
       0.15077923 0.15117633 0.15086022 0.15071902
000050 fa 93 1a 3e 28 2a 1a 3e 3b 66 1a 3e b1 49 1a 3e
       0.15095511 0.15055144 0.1507806 0.15067174
000060 38 94 1a 3e 36 30 1a 3e eb 09 1a 3e c8 5f 1a 3e
       0.15095603 0.15057454 0.15042846 0.150756
000070 a2 50 1a 3e 71 5b 1a 3e 74 5f 1a 3e b8 aa 1a 3e
       0.15069821 0.15073945 0.15075475 0.15104187

classify.weight f4 [2, 992]
000000 67 f4 a7 3a 30 9c 9d bc 95 3d 3c 3c b1 84 8c bc
       0.0012813926 -0.019239515 0.011489292 -0.017153116
000010 27 c7 19 3c f2 97 40 3c f8 89 a4 bc 54 8c d0 3c
       0.0093858605 0.011754977 -0.02008532 0.025457539
000020 8b df 93 bc 00 32 de bc 6e 25 07 bc 89 67 ab 3c
       -0.01805093 -0.027123451 -0.00824867 0.020923393
000030 7e 14 07 bb 0c 91 93 bc 06 87 5a 3b f6 fb ab 3c
       -0.002061158 -0.0180135 0.003334464 0.020994168
000040 00 10 7b 3b ed a6 b9 3c 96 c2 72 bc b0 39 33 3b
       0.0038309097 0.022662604 -0.014816901 0.0027347617
000050 1a 82 a4 bc fb d6 98 3c 3b 20 80 bc 64 19 86 bc
       -0.020081569 0.018657198 -0.015640369 -0.016369529
000060 68 97 17 bc 75 71 f4 bc a4 d6 18 3c d7 95 1f bc
       -0.009252407 -0.029839257 0.009328518 -0.009740314
000070 d3 09 3b bb 22 21 75 bc 03 d1 b3 3b 0c c4 a5 3c
       -0.0028539791 -0.014961513 0.0054875626 0.020235084
000080 03 c8 38 bc e9 ec b8 3c 2f 77 13 3c 88 14 8c 3c
       -0.011278155 0.022573905 0.009000584 0.017099634
000090 ec 5f 79 3c 3c b3 56 bc 28 c5 4a bc 43 f7 03 bd
       0.015220623 -0.013104256 -0.012376107 -0.03221823
0000a0 31 49 04 bd 7e d3 8f bc 16 70 8b bc 8a d6 eb bc
       -0.032296363 -0.017556902 -0.01702122 -0.028788824
0000b0 d4 80 08 bd 13 b1 b6 3b a0 3e 8a 3c ed 93 d9 3c
       -0.033325985 0.005575308 0.016875565 0.026559794
0000c0 5a 8e 86 3c 55 40 72 ba 9f b5 96 3c 88 60 f3 bc
       0.0164253 -0.00092411536 0.01839715 -0.029709116
0000d0 cf 0d f7 3b 29 c8 9f bb 87 fc 7b 3c 5d e6 38 3c
       0.007539488 -0.004876156 0.015380031 0.011285392
0000e0 e4 b6 52 3c d2 e1 bf bc b2 0e 5f bc f8 73 ca bc
       0.012860987 -0.02342311 -0.0136143435 -0.024713501
0000f0 4b a1 01 3c e5 44 8a bc 7f 8f b9 3c bb 35 00 bc
       0.00791199 -0.016878555 0.022651432 -0.00782531
000100 9f 07 ab bc 71 6f c9 3a ce 39 05 bd 73 f8 01 bd
       -0.020877657 0.0015368295 -0.03252583 -0.03173108
000110 86 fa 03 bc 37 68 9a bc d0 b7 c7 3c 09 37 9a bc
       -0.008055335 -0.018848522 0.02437964 -0.018825071
000120 99 e5 f0 ba e3 8f 05 bc 99 b0 86 bc d8 9b 11 3d
       -0.0018378972 -0.008151981 -0.01644163 0.035549015
000130 a3 58 c5 3c ae 41 3d bb ab 68 80 3c 75 31 10 3d
       0.024090117 -0.002887826 0.01567491 0.035203416
000140 d3 56 b0 bc b9 2a dc 3a 86 46 0a bc b4 22 eb 3c
       -0.021525776 0.00167974 -0.008439666 0.028703071
000150 4c 56 5b bc c5 7c b7 bc f7 11 ba bc b4 a7 1f 3b
       -0.013387274 -0.022398362 -0.022713644 0.0024361433
000160 e2 79 95 bc 30 f2 65 bc 56 5d ad 3c d0 a8 08 bd
       -0.018246595 -0.014034793 0.02116267 -0.033364117
000170 3b 78 98 3c b4 4e bb 3c 21 80 84 bc a2 55 83 bb
       0.018612018 0.022864677 -0.016174378 -0.004008011
000180 a9 88 87 bb f9 b7 6c bc e1 4c d7 3c a3 9a 91 3c
       -0.004136164 -0.014448159 0.026281776 0.017773932
000190 5f b8 13 ba 84 1b 01 3b 6b d3 94 bc 09 2f 20 bc
       -0.00056350784 0.0019700238 -0.018167218 -0.009776839
0001a0 cd 86 ab bb b4 21 9d 3c 5b 26 d3 3c f7 5b c5 3c
       -0.0052345754 0.01918111 0.025775125 0.024091704
0001b0 e9 ef 99 bc 52 78 a3 3c 76 21 9d ba be 48 a5 bc
       -0.018791156 0.019954834 -0.0011988122 -0.020176288
0001c0 ed 5d 73 3c fb 31 cd bc c7 00 a4 bc 25 fb 0b 3c
       0.014853937 -0.025048247 -0.020019902 0.008543764
0001d0 ba ec a8 bc f3 11 64 3c 71 62 38 3c 9f dd 9b 3c
       -0.020620693 0.013920295 0.011253939 0.019026576
0001e0 df a4 88 bb ac cd cf bb 84 0e cb bc 00 72 ae bb
       -0.004170045 -0.0063416567 -0.024787195 -0.0053236485
0001f0 ca f4 e4 bc ec d6 e5 3c df c9 de 3c cc dc 41 3b
       -0.027948756 0.028056584 0.027195869 0.0029581068
000200 46 09 2b 3c e3 47 7b 3c ba 91 ab 3a d4 78 f0 3b
       0.010439223 0.015336963 0.0013089695 0.0073386226
000210 5b 0b 86 3a 23 15 c3 bc b9 ca 75 ba 49 56 20 bb
       0.0010226773 -0.02381379 -0.00093762163 -0.0024465492
000220 f2 c8 77 3b ad 02 47 3c 39 7a d1 3b df 4a 98 3c
       0.0037808982 0.012146634 0.006392744 0.018590389
000230 53 b4 84 3c a6 7b bb bc 2e 06 b0 3c 2e fb c5 bb
       0.016199267 -0.022886109 0.021487322 -0.006041906
000240 ed 29 5d bc b7 09 05 bd 82 a7 a5 3c bd 66 64 bc
       -0.013498765 -0.032479968 0.020221476 -0.01394051
000250 d2 ad bb bc df f0 49 ba 0b 2e 43 3c 92 df 49 3b
       -0.022910032 -0.0007703434 0.011912833 0.0030803424
000260 9d 37 15 3c 37 c7 6b 3b 90 47 83 3c b8 f1 c0 bc
       0.0091074975 0.0035976896 0.016025335 -0.02355276
000270 e8 da 18 bd 1e c0 6a 3c d4 f5 d4 bc 35 67 9e 3c
       -0.03731814 0.014328031 -0.025996126 0.019336322
000280 97 43 c0 bc 02 85 a4 3c 48 7a fa 3c d4 2b 8b 3c
       -0.02346973 0.020082954 0.030575886 0.016988672
000290 85 54 c8 bb ef 8e c5 3c ec 11 aa ba 05 e5 e5 bb
       -0.006113591 0.024116008 -0.0012975312 -0.0070158266
0002a0 6e b3 b8 3c ca 53 ce bc 09 07 ef bb aa 0c c5 bb
       0.022546496 -0.025186438 -0.00729454 -0.0060134726
0002b0 f0 aa f4 3c 51 85 30 3c 70 d4 8d bc 5f 0e 44 3c
       0.029866666 0.010773973 -0.017313212 0.011966317
0002c0 7e c5 0f 3c 3d 2c 07 3c e9 db 28 39 8e 41 5e 3c
       0.008775113 0.008250293 0.00016103651 0.013565434
0002d0 7c b6 8a 3c a3 b9 bf bc 4c 9d a0 3b d0 1a c8 3c
       0.016932718 -0.023403948 0.0049015637 0.024426848
0002e0 42 f8 13 3b 8b 68 3c bc 66 22 b9 bc 8a 3d 78 3c
       0.0022578393 -0.011499534 -0.02259941 0.015151391
0002f0 7b 3e 62 bb 2b b4 50 3c 0e d3 c4 bc e8 37 86 3c
       -0.0034522105 0.012738268 -0.02402642 0.01638408
000300 f5 93 ac 3c 81 d8 ca bc 80 8d fb bb f2 2b af 3c
       0.021066645 -0.02476144 -0.00767678 0.02138326
000310 65 7c b1 3a 0a 34 77 bc 6b a8 64 ba 8b c7 35 bc
       0.0013541101 -0.015088091 -0.0008722606 -0.011094938
000320 42 ee dc bc ff d9 bb 3c 90 e2 c7 3c 1b 9c 2f bb
       -0.026969079 0.022931097 0.024400026 -0.0026795927
000330 75 c9 ce 3c 89 fd 26 3c dd a2 b7 3c e3 40 68 3c
       0.025242547 0.010192283 0.022416526 0.014175626
000340 21 0c a4 3c bb 60 20 ba 8a 88 14 3d 38 b2 09 3d
       0.020025315 -0.00061179296 0.036263026 0.03361723
000350 39 93 fb 3b cf 35 d5 bc 43 9a 5e 3b f5 57 97 3b
       0.0076774624 -0.026026634 0.003396646 0.0046186396
000360 b5 6c 32 3c d0 aa 9f 3b 86 92 a2 3c 01 69 d9 3b
       0.010890176 0.0048726574 0.019845258 0.006634832
000370 e6 2e 2b 3b da a0 a6 bc 1d fe 7b bc 5d f3 d4 bc
       0.0026120483 -0.020340372 -0.01538041 -0.02599495
000380 ed b8 ae 3b 0c 2a 68 bb 05 08 29 bc 4f 0f 44 3a
       0.0053321035 -0.0035425453 -0.010316853 0.0007479088
000390 26 bc ec 3b 9d c9 e7 3c 46 52 bf bc 24 23 cd 3c
       0.0072245775 0.028294379 -0.02335466 0.02504117
0003a0 5c cb f9 bb c3 2d 6a bc ba b9 17 3d a1 30 d9 bb
       -0.0076231193 -0.014293137 0.037042357 -0.0066281115
0003b0 cc bd ec ba 87 58 3d 3c 1d 88 dd ba 27 34 d4 3c
       -0.0018061935 0.011556751 -0.0016901527 0.025903774
0003c0 02 e6 bf bc 1e f5 68 bb 06 cc a3 bc 0e 3d 29 3c
       -0.023425106 -0.0035546492 -0.019994747 0.010329498
0003d0 f2 74 20 bc 3b ba bc 3b 57 d9 4d 3c b6 ce a8 3c
       -0.009793507 0.005759505 0.012564025 0.02060638
0003e0 e2 7a 37 bc e5 35 1a 3c 54 bd 15 bc 13 9e c5 3c
       -0.011198731 0.0094122635 -0.009139378 0.024123227
0003f0 a5 10 48 3c 42 ac f4 bb 9d 25 5e bc 1c 81 f9 bb
       0.012211 -0.007466824 -0.013558772 -0.007614268

classify.bias f4 [2]
000000 d6 e8 ba bc 20 f3 84 bb
       -0.022816103 -0.004057303
