notebooks/outputs/temp_B06_fold5_best.pth (torch, 31912 bytes, 18 tensors)

firstconv.0.weight f4 [16, 1, 1, 125]
0	0x3dd72d76	0.10506718
1	0xbd98f0b8	-0.074677885
2	0xbc014042	-0.007888855
3	0x3dc2de65	0.09515075
4	0x3db5e7da	0.08882113
5	0xbd7cea76	-0.061747037
6	0x3d8c7b6b	0.068594776
7	0x3d2a99b7	0.0416505
8	0xbcfa8e22	-0.030585352
9	0x3dd1922f	0.102329604
10	0x3bbb945a	0.005724472
11	0x3dbadbb4	0.09123936
12	0x3dd8c578	0.10584539
13	0x3da6ddda	0.081477836
14	0x3da400d4	0.080079705
15	0x3ddf8866	0.10914688
16	0xbd52d7f2	-0.051475473
17	0x3d884734	0.06654206
18	0xbd5cb6a9	-0.053885136
19	0xbc7032a4	-0.014660511
20	0x3c35801f	0.01107791
21	0x3d20e6d5	0.03928264
22	0xbb90dab6	-0.0044206036
23	0xbdc741b3	-0.09729328
24	0xbb1b664c	-0.0023712097
25	0x3d609ec6	0.05483892
26	0x3c504247	0.012711114
27	0xbde2a2b4	-0.110661894
28	0x3c95391d	0.01821571
29	0x3d63e11c	0.055634603
30	0xbc8fc1c8	-0.017548457
31	0xbdbe6c3b	-0.09297987
32	0xbd6eaea1	-0.058272008
33	0x3d071f59	0.03298888
34	0x3d582baa	0.052776016
35	0x3d8cdfcd	0.06878624
36	0xbd0da3a4	-0.034579888
37	0x3d8d742b	0.06906923
38	0xbb840444	-0.004028829
39	0xbd85770d	-0.06516848
40	0xbd214f83	-0.03938247
41	0xbda486f4	-0.08033553
42	0x3c5ec6f3	0.013597238
43	0x3c3207ff	0.010866164
44	0xbdc3b8b6	-0.09556715
45	0xbd14ae8d	-0.036299277
46	0xbdcbc4ec	-0.09949669
47	0xbdbbdb32	-0.091726676
48	0x3c369df3	0.0111460565
49	0xbbd05fad	-0.0063590617
50	0xbd46a4c7	-0.048496988
51	0xbce8cd84	-0.02841831
52	0xbd819d72	-0.063288584
53	0xbbd426ad	-0.006474337
54	0x3cfc2c8e	0.030782964
55	0x3d486066	0.048920058
56	0x3c5f7bd4	0.013640363
57	0x3d76b04a	0.060226716
58	0x3d670bee	0.05640786
59	0x3dbda46d	0.09259877
60	0x3da59a0e	0.08086024
61	0xbd25e5b9	-0.040502284
62	0xbc9fc600	-0.019503593
63	0xbd2cb795	-0.042167265
64	0x3dacac54	0.084313065
65	0xbd56f2ce	-0.05247765
66	0x3c24a33d	0.010048685
67	0xbce01c51	-0.027357252
68	0xbcf7da43	-0.030255442
69	0x3d8015d7	0.062541656
70	0xbc14a751	-0.009073094
71	0x3d509dce	0.050931744
72	0xbca65bb7	-0.020307405
73	0xbd0ae51f	-0.033909913
74	0x3d429ef4	0.04751487
75	0xbd33d7e1	-0.04390705
76	0x3d884665	0.06654052
77	0x3d23e6db	0.040015083
78	0x3d47f893	0.048821043
79	0x3d9990f8	0.07498354
80	0xbcebe94e	-0.028797772
81	0x3dc6cfc2	0.097075954
82	0x3dc4a2c0	0.096013546
83	0xbcb3cfe3	-0.021949714
84	0xbd0b7431	-0.034046356
85	0x3b628e63	0.0034569732
86	0x3d3e7a2f	0.046503242
87	0xbd8a846a	-0.06763537
88	0xbd8dac27	-0.06917601
89	0x3d97ff9c	0.074218005
90	0x3da549cd	0.08070717
91	0x3d927012	0.07150282
92	0xbd3482f0	-0.044070184
93	0x39f93535	0.00047532623
94	0xbc227f4f	-0.009918048
95	0xbd320422	-0.043460973
96	0x3c9f17c5	0.019420514
97	0x3cbf583c	0.023357503
98	0xbd07830e	-0.033083968
99	0x3d960812	0.07325758
100	0xbc252275	-0.010079016
101	0x3da0b2e6	0.07846622
102	0x3da1a8c3	0.07893517
103	0xbc881c65	-0.016615102
104	0x3c078481	0.0082713375
105	0x3d9006f3	0.070325755
106	0xbd262cc5	-0.04057004
107	0xbd3ab3cb	-0.04558162
108	0x3c3b71a1	0.011440665
109	0xbd9b667e	-0.07587908
110	0x3d43509c	0.047684297
111	0xbc0a774e	-0.008451296
112	0x3d1e95fd	0.03871726
113	0x3cbd9171	0.02314064
114	0x3d84371b	0.06455823
115	0x3c87945e	0.01655024
116	0xbdd2327b	-0.10263535
117	0x3d4b3841	0.049614195
118	0xbc7aa062	-0.015297027
119	0x3d2e9783	0.04262496
120	0xbb0ed454	-0.0021794038
121	0x3d9971a6	0.0749238
122	0xbcd87833	-0.026424503
123	0x3d8ae38a	0.06781681
124	0xbd30708f	-0.043076094
125	0x3c4a7a85	0.0123583125
126	0x3d9fb4ff	0.07798194
127	0x3cfc2b25	0.030782292
128	0xbd9211f2	-0.07132329
129	0xbca2fdd0	-0.019896418
130	0x3ce46aad	0.027882898
131	0xbcc278d1	-0.02373925
132	0xbd8f3c0e	-0.069938764
133	0x3da6251e	0.08112548
134	0x3d22caa2	0.039744027
135	0x3d28115b	0.041032176
136	0x3d555001	0.05207825
137	0xbd55ad64	-0.05216731
138	0xbd6e0e0b	-0.05811886
139	0xba828a58	-0.0009959443
140	0xbced391f	-0.028957902
141	0xb9380f23	-0.00017553246
142	0x3b7a461d	0.0038188763
143	0x3d937078	0.07199186
144	0xbd7e0efd	-0.062026013
145	0xbbf8dc4e	-0.0075946217
146	0xbd9e991e	-0.077440485
147	0x3da12eff	0.07870292
148	0x3db269f6	0.08711617
149	0xbd3f316a	-0.046677984
150	0x3dab7ad7	0.08373039
151	0xbd1d3f58	-0.038390487
152	0xbda9a1de	-0.08282827
153	0xbcf59fba	-0.02998339
154	0x3cb721fa	0.022355068
155	0x3bf15d20	0.0073658377
156	0xbd55adb7	-0.05216762
157	0x3dcb848e	0.09937392
158	0x3c8c5615	0.01713089
159	0xbd9bfe75	-0.07616893
160	0x3d47eb55	0.048808414
161	0x3d5b760e	0.053579383
162	0xbaa9e407	-0.0012961634
163	0x3d338e3e	0.043836825
164	0x3d954d56	0.07290141
165	0xbd72ce01	-0.059278492
166	0xbd47a9ed	-0.04874604
167	0x3b02e4bd	0.0019972764
168	0x3cba211a	0.022720862
169	0x3ad2bd88	0.0016078213
170	0xbd7c7ad3	-0.06164057
171	0xbbe4e096	-0.0069847805
172	0xbdc703a3	-0.097174905
173	0xbd794b16	-0.060862623
174	0xbda3f39a	-0.08005448
175	0x3d8a37af	0.06748902
176	0x3d77ab96	0.06046637
177	0xbd6b6a43	-0.057474386
178	0xbd45a5d1	-0.048253838
179	0x3d0b58c1	0.03402019
180	0xbdbffdd5	-0.093745865
181	0x3d3ad3f9	0.04561231
182	0xbdb09a22	-0.086231485
183	0x3d291642	0.041280992
184	0xbdb4be3e	-0.08825348
185	0xbcdf1dcc	-0.027235888
186	0xbd10ea20	-0.03537953
187	0xbd5ccf7b	-0.053908806
188	0xbd1d856c	-0.03845732
189	0xbd7f246b	-0.06229059
190	0xbcd772e8	-0.026299909
191	0x3da9d338	0.0829224
192	0x3d34b2b0	0.044115722
193	0x3ccb54ca	0.024820704
194	0xbcdd9ec7	-0.02705325
195	0xbcecf73f	-0.02892649
196	0x3c1416b9	0.009038621
197	0xbc8e532f	-0.01737365
198	0xbbc8b3ac	-0.006124934
199	0xbd09e696	-0.03366717
200	0x3c882f57	0.016624136
201	0x3cfd4164	0.03091497
202	0xbd0cfa81	-0.034418587
203	0xbdb4c5cc	-0.08826789
204	0xbcd06a6b	-0.025441369
205	0x3d998b5d	0.074972846
206	0xbd0eda0d	-0.03487592
207	0xbd74a43e	-0.059726946
208	0xbd667032	-0.05625934
209	0xbc1e66cf	-0.009668066
210	0x3dbb5d70	0.09148681
211	0xbd5fa9b0	-0.054605186
212	0xbd16b368	-0.03679219
213	0xbd8ade3d	-0.0678067
214	0x3dcce858	0.100052536
215	0x3d3a7a84	0.045526996
216	0x3d173ae8	0.03692141
217	0xbc8a04a8	-0.016847923
218	0xbcc4e6eb	-0.024035892
219	0xbd586569	-0.052831087
220	0x3d048092	0.032349177
221	0xbcef946c	-0.029245578
222	0x3d8e6ba2	0.06954123
223	0xbda7185c	-0.08158943
224	0xbd632461	-0.055454616
225	0xbc00cb1d	-0.007860926
226	0x3b8339e8	0.0040047057
227	0x3d1bad63	0.03800715
228	0xbd2d0170	-0.0422377
229	0xbc80deb9	-0.015731202
230	0xbb1f257c	-0.0024283817
231	0x3cd80748	0.02637066
232	0xbc72696a	-0.0147956405
233	0xbcc6e00f	-0.024276761
234	0xbda6d7ce	-0.0814663
235	0xbd2f7e3b	-0.042844992
236	0x3ce14d09	0.027502554
237	0x3d177665	0.036978144
238	0xbcc75fc1	-0.024337651
239	0xbbb3347a	-0.005468902
240	0x3da5b094	0.0809032
241	0x3d14aea1	0.03629935
242	0x3d72e03b	0.059295874
243	0xbda6c2d9	-0.08142633
244	0xbdcb323a	-0.09921689
245	0x3cdd83db	0.027040413
246	0xbccf6e4c	-0.025321148
247	0xbd885156	-0.066561386
248	0x3cbb0388	0.022828832
249	0xbd6d9982	-0.058007725
250	0xbd44d644	-0.048055902
251	0xbd507473	-0.050892305
252	0x3d9a5d1e	0.07537292
253	0x3da18d9c	0.07888338
254	0xbd9bd05b	-0.076081
255	0x3c8f3615	0.017481843

firstconv.1.weight f4 [16]
0	0x3f829de5	1.0204436
1	0x3f7ce126	0.9878105
2	0x3f775c40	0.9662514
3	0x3f803886	1.001725
4	0x3f8201f1	1.0156842
5	0x3f7e6c3f	0.9938392
6	0x3f81f366	1.0152404
7	0x3f8266a6	1.0187576
8	0x3f820dab	1.0160421
9	0x3f807f1a	1.0038788
10	0x3f7c4e2e	0.9855679
11	0x3f823cf0	1.0174847
12	0x3f812b9d	1.0091435
13	0x3f83d14c	1.0298247
14	0x3f814c1d	1.0101353
15	0x3f7ce238	0.9878268

firstconv.1.bias f4 [16]
0	0xb98bb3f1	-0.00026646213
1	0xba2efc0a	-0.000667513
2	0xbc19f9e4	-0.0093979575
3	0xbab4a0df	-0.0013780853
4	0xb8fdaa7c	-0.00012095735
5	0x3b0807cf	0.0020756607
6	0x3ba60b0b	0.0050672344
7	0x3b000059	0.0019531457
8	0x3b40d0a7	0.0029421241
9	0x3b494aff	0.0030714867
10	0x3a743a3b	0.00093165383
11	0xbb49e418	-0.003080612
12	0x3ab12d46	0.0013517521
13	0x383f325b	4.5584846e-05
14	0xba251eaf	-0.00062988227
15	0x3c133e29	0.008986988

firstconv.1.running_mean f4 [16]
0	0xb16f4ae6	-3.4821652e-09
1	0x313a97d2	2.7152862e-09
2	0x308af4e8	1.0110428e-09
3	0xafa29c12	-2.9578523e-10
4	0x311c8ee8	2.278222e-09
5	0xb114d230	-2.1656312e-09
6	0xb12596df	-2.409642e-09
7	0xb11bdcf6	-2.268107e-09
8	0x311d195a	2.2860918e-09
9	0xb08ad71d	-1.010196e-09
10	0xae91334c	-6.602949e-11
11	0x31116ed5	2.1163278e-09
12	0x3129a754	2.4687852e-09
13	0x2fcc16c9	3.7123574e-10
14	0x301a98ad	5.624184e-10
15	0xb0384663	-6.7038836e-10

firstconv.1.running_var f4 [16]
0	0x2e22afa6	3.6990543e-11
1	0x2e020dc7	2.9570815e-11
2	0x2e0c0117	3.1833283e-11
3	0x2e1106ab	3.2975105e-11
4	0x2e251cf2	3.7542365e-11
5	0x2e0e9a69	3.2424206e-11
6	0x2e24fb19	3.7512302e-11
7	0x2e3092f5	4.014829e-11
8	0x2e0ea66b	3.243487e-11
9	0x2e16a7c7	3.4255068e-11
10	0x2e0ce365	3.203428e-11
11	0x2e171a88	3.435699e-11
12	0x2e10c3b2	3.291562e-11
13	0x2e295e2b	3.850979e-11
14	0x2e1b8d12	3.5368215e-11
15	0x2e136079	3.3509615e-11

depthwiseConv.0.weight f4 [32, 1, 3, 1]
0	0x3e02b22d	0.12763281
1	0xbe35a7d2	-0.177398
2	0xbeaf045d	-0.34183016
3	0xbbfe7460	-0.007765338
4	0xbee01f0a	-0.4377368
5	0x3f0850dc	0.5324838
6	0x3ec737ce	0.38909763
7	0xbe2093f3	-0.15681438
8	0x3e96dfc1	0.29467586
9	0x3ef3abc9	0.47592
10	0x3e626089	0.22107138
11	0xbe9b8715	-0.30376497
12	0x3e164cd7	0.1467775
13	0x3ee1c799	0.44097593
14	0xbd267fec	-0.04064934
15	0xbe3610e7	-0.17779885
16	0xbf032ecf	-0.512433
17	0xbefe43e2	-0.49661165
18	0x3e2314ec	0.1592595
19	0x3edd7b3e	0.4325809
20	0x3e796a6a	0.24357
21	0xbef0a7ba	-0.47002965
22	0x3eb15bd6	0.34640378
23	0xbd448dd5	-0.047986824
24	0xbdc8ef40	-0.09811258
25	0xbe50cf24	-0.20391518
26	0x3f0fc627	0.5616173
27	0x3e2e5810	0.1702578
28	0x3e47e7c7	0.1952201
29	0x3d282d2e	0.04105871
30	0x3e9965a1	0.2996035
31	0x3eff0099	0.49805143
32	0xbe5149d2	-0.20438316
33	0xbd6ffdad	-0.058591533
34	0x3e910e1d	0.2833108
35	0xbf07fc17	-0.53119034
36	0x3eedb6ea	0.46428615
37	0x3d2b596f	0.041833337
38	0xbeb2c733	-0.34917602
39	0xbe76b224	-0.24091393
40	0x3d52d08f	0.05146843
41	0x3eeb35be	0.4593944
42	0xbe9ebc00	-0.31002808
43	0x3ef635c8	0.48087907
44	0xbf0ec00a	-0.5576178
45	0x3e714a9a	0.23563614
46	0x3f0a1ce1	0.53950316
47	0xbefa553c	-0.48893154
48	0x3e98d855	0.29852548
49	0x3ea02ec3	0.31285676
50	0xbeb75218	-0.3580482
51	0xbe6cf629	-0.23140778
52	0xbe7b1f1d	-0.24523588
53	0x3d654576	0.055974446
54	0x3ef46512	0.4773336
55	0xbf14ef96	-0.5817808
56	0xbd5d827e	-0.054079525
57	0x3f0612ac	0.5237224
58	0xbea394ab	-0.31949362
59	0xbeddec78	-0.43344474
60	0xbed862f5	-0.42262998
61	0xbeb87ad1	-0.360312
62	0x3e822dd6	0.25425595
63	0xbc465757	-0.012105784
64	0x3eb4c727	0.3530819
65	0x3ebae184	0.3650018
66	0xbe8d0180	-0.27540207
67	0xbd169294	-0.03676088
68	0x3e52a750	0.20571637
69	0xbea6a903	-0.3255082
70	0x3f01ad4f	0.5065507
71	0xbeb35914	-0.350289
72	0x3ec30be2	0.38095003
73	0xbe31e937	-0.1737412
74	0xbe17b876	-0.1481646
75	0xbe26b4b5	-0.16279872
76	0x3eda5912	0.4264608
77	0x3ebd1b7f	0.3693504
78	0xbf06546b	-0.5247256
79	0x3ee9b8a4	0.45648682
80	0xbefec5ec	-0.49760377
81	0xbe01c9c0	-0.12674618
82	0x3ebd6c16	0.36996526
83	0x3d3db3ba	0.04631398
84	0xbeb71bed	-0.35763493
85	0x3eec4904	0.46149457
86	0x3d8c0479	0.068367906
87	0x3cf6a7d6	0.030109327
88	0x3ee1a058	0.44067645
89	0x3ed02620	0.40654087
90	0x3f05f79f	0.52330965
91	0x3ecdc6aa	0.4019063
92	0x3e56f05c	0.20990127
93	0x3ea9f552	0.33194977
94	0xbf125196	-0.5715574
95	0x3ed69a19	0.41914442

depthwiseConv.1.weight f4 [32]
0	0x3f77fce6	0.9687027
1	0x3f871b32	1.0555174
2	0x3f7d6f07	0.9899754
3	0x3f7e15f2	0.99252236
4	0x3f785aa2	0.97013295
5	0x3f7a2727	0.9771599
6	0x3f7da4bc	0.9907949
7	0x3f81134b	1.0084013
8	0x3f8329cf	1.0247134
9	0x3f7e1da7	0.99263996
10	0x3f7bfbcd	0.9843109
11	0x3f82b24d	1.0210663
12	0x3f7d0f4f	0.98851484
13	0x3f8251a0	1.018116
14	0x3f8309dc	1.0237384
15	0x3f80b015	1.0053736
16	0x3f834685	1.0255896
17	0x3f7b143f	0.9807777
18	0x3f801b2d	1.0008293
19	0x3f8027db	1.0012163
20	0x3f7c18e4	0.9847548
21	0x3f7dce3c	0.99142814
22	0x3f7e392e	0.99306
23	0x3f82cecd	1.021936
24	0x3f813127	1.0093125
25	0x3f808cfe	1.0043027
26	0x3f83e225	1.0303389
27	0x3f7fd6b4	0.99936986
28	0x3f810f61	1.0082818
29	0x3f8039f1	1.0017682
30	0x3f79b0ed	0.9753559
31	0x3f81cafe	1.0140073

depthwiseConv.1.bias f4 [32]
0	0xb970e929	-0.00022975043
1	0x3c11ed5e	0.00890669
2	0x3b73dd29	0.003721068
3	0x3bc17e72	0.005904966
4	0xbc390e3f	-0.0112949
5	0xbc96f587	-0.018427623
6	0xbc3f8053	-0.01168831
7	0x39c2f7b2	0.0003718711
8	0x3bf85942	0.0075789997
9	0xbba50fcc	-0.0050372835
10	0xbc14a4e1	-0.009072513
11	0xbb823cef	-0.003974549
12	0xba8e32fa	-0.0010848932
13	0x39249c2b	0.00015698436
14	0x3a9d5186	0.0012002445
15	0xbc819d9c	-0.015822224
16	0x3a1bf93e	0.0005949921
17	0x3c4a849e	0.01236072
18	0x3bbde9f0	0.00579571
19	0x39f2e8d2	0.00046331302
20	0xbb8287fe	-0.0039834967
21	0x3c5879ad	0.0132126035
22	0x3bc13418	0.0058961026
23	0xbc0e2772	-0.008676397
24	0xbbad1829	-0.005282421
25	0xbc180a09	-0.009279736
26	0xbc038bd6	-0.008028945
27	0xbc517b67	-0.012785769
28	0x3b68ba00	0.0035511255
29	0xbbfcbb21	-0.007712737
30	0xbcc93e45	-0.024565825
31	0xba7e94b7	-0.00097114913

depthwiseConv.1.running_mean f4 [32]
0	0x38059fc7	3.1858475e-05
1	0xb6e99be5	-6.9620896e-06
2	0xba13fdc0	-0.00056454167
3	0xb9ddc32a	-0.00042297813
4	0xbbaa7734	-0.0052021984
5	0x3c38c038	0.011276297
6	0xba920feb	-0.001114366
7	0x397164a1	0.00023021038
8	0x3782106c	1.5504855e-05
9	0x37ca526a	2.4118654e-05
10	0x3ab0056c	0.001342935
11	0xba364d7b	-0.00069542945
12	0x3a55cba8	0.00081556523
13	0x3ab94c81	0.001413718
14	0xba5fa184	-0.00085308426
15	0x3a24f346	0.0006292354
16	0x3a3c6a23	0.00071874465
17	0xba9c09f6	-0.0011904824
18	0xba00691c	-0.0004898475
19	0xba398ef5	-0.0007078492
20	0xba269af6	-0.00063554884
21	0x3a5df9e3	0.0008467717
22	0x39b8d5ad	0.00035254416
23	0x3a1165dc	0.0005546489
24	0x38a3f072	7.817232e-05
25	0x3a5a1eed	0.00083206483
26	0xb89fad0e	-7.613945e-05
27	0x3822ee23	3.8845592e-05
28	0xb912feb6	-0.00014018532
29	0xba3c0967	-0.0007173032
30	0x3c2b2559	0.010445916
31	0x3ad89709	0.0016524504

depthwiseConv.1.running_var f4 [32]
0	0x33fcb5b7	1.1767718e-07
1	0x340fb22d	1.3382733e-07
2	0x33aadefc	7.9568025e-08
3	0x338e5844	6.628446e-08
4	0x340b3300	1.2963937e-07
5	0x35079c86	5.051919e-07
6	0x34b289e2	3.3255407e-07
7	0x33b489af	8.406948e-08
8	0x340bca47	1.3018972e-07
9	0x342dcde7	1.6186787e-07
10	0x346c6605	2.2016327e-07
11	0x33c6479b	9.2331184e-08
12	0x340c2d6b	1.3055039e-07
13	0x33b36803	8.354257e-08
14	0x34d05b89	3.880962e-07
15	0x34aa25f7	3.169259e-07
16	0x33bdd010	8.838845e-08
17	0x33dbcf8a	1.0235733e-07
18	0x33b82b2d	8.576021e-08
19	0x33a6cc19	7.7671025e-08
20	0x343cc0bf	1.7578985e-07
21	0x3449873e	1.8768785e-07
22	0x33193b1d	3.567685e-08
23	0x340a1844	1.286108e-07
24	0x32ec65e5	2.7520352e-08
25	0x34482b29	1.8642153e-07
26	0x35240f96	6.111744e-07
27	0x33dbe149	1.0238961e-07
28	0x337f9df1	5.951546e-08
29	0x35032d6f	4.886742e-07
30	0x35492f7c	7.4947434e-07
31	0x3412e35d	1.3680024e-07

separableConv.0.weight f4 [32, 1, 1, 16]
0	0x3cec9806	0.028881084
1	0x3caa8bbd	0.020818586
2	0xbe0e5f92	-0.13903645
3	0x3cd9d755	0.026591936
4	0xbe37a0c1	-0.17932416
5	0xbde9cedf	-0.11416411
6	0xbdd63330	-0.10458982
7	0xbd2b55c9	-0.041829858
8	0x3e0ef5be	0.1396093
9	0xbd914eeb	-0.070951305
10	0xbe6d65a8	-0.2318331
11	0x3c37324d	0.011181426
12	0xbe0f5c73	-0.1400011
13	0x3e3c19b6	0.18369183
14	0x3e050f9a	0.12994233
15	0x3e39d824	0.18148857
16	0x3db113d4	0.0864636
17	0xbdeff228	-0.117161095
18	0xbdb189ae	-0.086688384
19	0x3cde9de7	0.027174903
20	0x3be9f4fa	0.007139799
21	0xbe866502	-0.26248938
22	0xbe149c8c	-0.14512843
23	0xbe7b3e4c	-0.24535483
24	0x3e6249d4	0.22098476
25	0xbd8fb29e	-0.070164904
26	0x3e125945	0.14291866
27	0x3e4b74f7	0.19868837
28	0xbded1ef8	-0.115781724
29	0xbe2c6318	-0.16834676
30	0x3dce18d3	0.100633286
31	0x3e705afc	0.23472208
32	0xbe1d7ccb	-0.15379636
33	0xbe6f0882	-0.23343089
34	0xbdb83ca6	-0.08995943
35	0x3d4bdd28	0.049771458
36	0x3d27210f	0.04080301
37	0x3e1af908	0.1513406
38	0xbdfdb454	-0.123879105
39	0x3dd2771e	0.10276626
40	0xbe52a828	-0.20571959
41	0xbd266920	-0.0406276
42	0xbe1b1661	-0.15145256
43	0xbe3f749b	-0.18696825
44	0xbe06c220	-0.1315999
45	0x3e08bfdc	0.13354439
46	0xbdec37e9	-0.115341015
47	0xbe004537	-0.12526403
48	0x3de6ea77	0.11275189
49	0xbe45fb54	-0.19334155
50	0xbe1e5a67	-0.15464173
51	0xbe419c2f	-0.18907236
52	0xbb8a6207	-0.0042231116
53	0x3dd047ef	0.1016997
54	0xbe146ac2	-0.1449385
55	0xbe661fd1	-0.22473074
56	0xbce0fade	-0.027463373
57	0x3b2873f3	0.0025703877
58	0xbdabe82d	-0.083938934
59	0x3cf196cb	0.029490849
60	0x3dadbba2	0.08483054
61	0x3dda9b40	0.10674143
62	0xbe0a2f73	-0.13494663
63	0x3bf0f8b8	0.0073538683
64	0xbdc2204b	-0.09478816
65	0xbb88fdf3	-0.0041806637
66	0xbca05492	-0.019571576
67	0x3e5cb9e8	0.21555293
68	0xbc3fb380	-0.011700511
69	0xbda1b0a1	-0.078950174
70	0xbdbfdbb6	-0.093680784
71	0x3e11dcc0	0.14244366
72	0x3e19ed9f	0.15032052
73	0xbe6e5c79	-0.23277463
74	0xbe6bcdb2	-0.23027685
75	0xbe72c2cf	-0.23707126
76	0xbe325c1b	-0.17417948
77	0xbe5d8981	-0.21634485
78	0xbe518bdb	-0.20463507
79	0xbe056fae	-0.13030884
80	0x3e1bf105	0.1522866
81	0x3e412f78	0.18865764
82	0x3d779a3b	0.06044982
83	0xbd69a95a	-0.05704627
84	0x3d08e939	0.033425543
85	0x3db34c79	0.087548204
86	0x3c6c0f2d	0.014407915
87	0x3cb417a5	0.02198393
88	0xbe25f0c1	-0.16205122
89	0xbc559e7f	-0.013038277
90	0xbd231605	-0.03981592
91	0xbdab242c	-0.083565086
92	0x3d2f3247	0.042772558
93	0xbe616497	-0.22011028
94	0x3e3ab0a5	0.18231447
95	0xbdd59894	-0.104294926
96	0xbe82c25e	-0.25538915
97	0x3e8645ec	0.2622522
98	0x3d49dfab	0.049285572
99	0x3dc26f0b	0.09493836
100	0x3d092819	0.033485506
101	0xbe66720c	-0.22504443
102	0x3d80d603	0.062908195
103	0xbe28a42b	-0.16468875
104	0xbccdd8f4	-0.025127865
105	0x3e295455	0.16536076
106	0xbe1f8e47	-0.15581618
107	0x3e3652f7	0.17805086
108	0xbdc66ac7	-0.09688335
109	0xbddfdcb7	-0.1093077
110	0xbe6a3e4a	-0.22875324
111	0xbdd703e7	-0.10498791
112	0xbcc39194	-0.023873128
113	0xbe0be80a	-0.13662735
114	0xbe587b00	-0.21140671
115	0xbde8dac4	-0.11369851
116	0xbe1f376b	-0.15548484
117	0x3e161210	0.14655328
118	0x3c1588e7	0.009126878
119	0x3e7bd9c1	0.24594785
120	0xbd2bbc97	-0.0419279
121	0xbdfac6b9	-0.122449346
122	0x3dcec0e1	0.100953825
123	0x3e70bdce	0.23509905
124	0xbd857cd0	-0.06517947
125	0x3e626d83	0.22112088
126	0xbe10369a	-0.14083329
127	0xbd15beca	-0.036558904
128	0x3e890132	0.26758724
129	0x3e38b355	0.1803716
130	0x3d47c771	0.048774187
131	0xbe5fd5ae	-0.21858856
132	0x3d4f81d3	0.05066092
133	0xbcc1b447	-0.023645533
134	0x3dce675a	0.100783065
135	0x3d297730	0.04137343
136	0xbe32d875	-0.17465384
137	0x3e51e0b1	0.20495869
138	0x3df8704e	0.121307954
139	0x3dcb21b7	0.0991854
140	0x3e4eb301	0.20185472
141	0x3cc5e63b	0.024157634
142	0x3cf011c7	0.029305352
143	0xbd705d48	-0.05868271
144	0xbc3bb96f	-0.011457785
145	0x3e699cd7	0.22813736
146	0xbe13be1c	-0.1442799
147	0xbda1625f	-0.07880091
148	0x3a5a04c7	0.0008316752
149	0xbe57281e	-0.21011397
150	0x3e5fdfde	0.21862742
151	0xbd8655c0	-0.06559324
152	0x3e179e3a	0.14806452
153	0xbdfa3423	-0.122169755
154	0xbe24354e	-0.16035959
155	0xbe3d235f	-0.18470524
156	0x3d6b6493	0.057468962
157	0x3e4a0a50	0.19730496
158	0x3e720fd2	0.23638847
159	0xbe33f5a7	-0.17574178
160	0xbe7da648	-0.24770463
161	0xbd968271	-0.073490985
162	0x3df98a72	0.121846095
163	0x3d24f5ef	0.040273603
164	0x3bf54c50	0.007485904
165	0x3e29f775	0.16598304
166	0xbe2a8e82	-0.16655925
167	0xbc8952f8	-0.016763195
168	0x3d9df114	0.07711998
169	0xbdcda9db	-0.10042163
170	0xbdd052bb	-0.101720296
171	0xbe6ee568	-0.23329699
172	0xbd4e7b31	-0.050410453
173	0xbdaead2d	-0.085291244
174	0x3e02804e	0.12744257
175	0x3dd87b2c	0.10570368
176	0xbe1e227b	-0.15442841
177	0x3cd87941	0.026425006
178	0x3e33a694	0.17544013
179	0xbdd3cbc0	-0.103415966
180	0xbe5f3bf8	-0.2180022
181	0xbda4c44d	-0.08045254
182	0xbccfd7a0	-0.025371373
183	0xbd45e83b	-0.048317175
184	0x3dbe70f1	0.092988856
185	0x3db474b1	0.088113196
186	0x3e08da36	0.13364491
187	0x3c846cf4	0.016165234
188	0x3e285bcb	0.16441266
189	0xbd9a595e	-0.07536577
190	0x3dcb23ea	0.099189594
191	0x3e3cbfaa	0.18432489
192	0x3e6009b0	0.21878695
193	0xbe0ed6da	-0.13949147
194	0x3e140f95	0.14459069
195	0x3e83ebff	0.25765988
196	0x3e4b7e72	0.19872454
197	0xbd7be9f3	-0.06150241
198	0xbe08157e	-0.13289449
199	0xbca6f4af	-0.020380346
200	0x3e20f6e0	0.15719175
201	0x3e44c68e	0.19216368
202	0x3bbc1f23	0.0057410165
203	0x3e478e7c	0.19487947
204	0xbba0a9b4	-0.0049030427
205	0x3d1fc6af	0.03900784
206	0xbdac2551	-0.08405555
207	0xba9ba629	-0.0011875081
208	0xbca10103	-0.019653803
209	0x3d10c81f	0.0353471
210	0xbe273b8f	-0.16331314
211	0xbd6fba14	-0.058527067
212	0x3e2b73e0	0.16743422
213	0xbe21fefc	-0.15819925
214	0x3e024b15	0.12723954
215	0x3df510fc	0.1196613
216	0x3e1a66f7	0.1507834
217	0x3e316e0d	0.17327137
218	0xbe0ced62	-0.1376243
219	0x3cf03e91	0.029326709
220	0xbe8631d0	-0.2620988
221	0xbe665246	-0.22492322
222	0xbe2ac61a	-0.16677132
223	0xbde1ba27	-0.11021834
224	0x3e3a5e93	0.1820014
225	0xbdb96e65	-0.09054259
226	0xbe700ea8	-0.23443091
227	0x3e5666be	0.2093763
228	0xbe916c3e	-0.28402895
229	0x3b7af36c	0.0038292063
230	0x3e066cb4	0.13127404
231	0xbd9fdfe5	-0.07806376
232	0x3d340a7c	0.04395531
233	0xbe7c7a1d	-0.24655958
234	0x3dc7f8fa	0.097642854
235	0xbd4ceb32	-0.050028987
236	0xbdfabc05	-0.12242893
237	0x3e821744	0.25408375
238	0x3d3c47ed	0.04596703
239	0x3cdc4568	0.026888564
240	0x3bc77647	0.006087098
241	0x3cab2227	0.020890309
242	0x3e4f0958	0.20218408
243	0xbe6d3336	-0.23164067
244	0x3e0f1781	0.1397381
245	0xbcf28ae3	-0.029607242
246	0xbd313fde	-0.0432738
247	0xbe1e49a8	-0.15457785
248	0xbe85a72e	-0.2610411
249	0xbe71c304	-0.23609549
250	0x3e4d5301	0.20051195
251	0x3e30af45	0.1725436
252	0xbe316be9	-0.1732632
253	0xbc4607d6	-0.012086829
254	0xbe4c07e7	-0.1992489
255	0xbd78dce5	-0.060757536

separableConv.1.weight f4 [32, 32, 1, 1]
0	0x3da4cc27	0.080467515
1	0xbc1bd81f	-0.0095119765
2	0x3d4da01e	0.050201528
3	0xbdafb059	-0.085785575
4	0x3d93a11e	0.07208465
5	0x3c7bfd22	0.015380176
6	0x3c3b03be	0.011414466
7	0xbd89e2b5	-0.06732694
8	0x3d307e0f	0.04308897
9	0x3e1d76c5	0.15377338
10	0x3d00ad4a	0.03141526
11	0x3dd4a86b	0.10383686
12	0xbcadf385	-0.021234283
13	0xbdc7e27b	-0.097599946
14	0x3dbe950a	0.09305771
15	0xbd900b63	-0.07033422
16	0xbe14e111	-0.14538981
17	0xbd9d2d96	-0.076747105
18	0x3cf3f7b7	0.029781206
19	0xbc098e59	-0.008395755
20	0xbe20c31c	-0.15699428
21	0x3c9946d1	0.018710526
22	0x3da89f97	0.08233564
23	0xbca1d6e7	-0.019755794
24	0x3dc290f8	0.09500307
25	0x3d4b7f06	0.049681686
26	0x3de0d644	0.10978368
27	0xbc0e94b8	-0.0087024495
28	0x3be963c7	0.00712249
29	0xbd79164a	-0.060812272
30	0xbdfcb0ef	-0.12338435
31	0xbdeaa412	-0.11457075
32	0xbdbad26c	-0.09122166
33	0x3cc2a318	0.02375941
34	0x3e4ec3d6	0.20191893
35	0x3e2565bf	0.16152094
36	0x3d883e10	0.066524625
37	0x3e0161d7	0.12634979
38	0x3ab0b9c0	0.0013483092
39	0xbe3e8f9a	-0.18609467
40	0xbd179c26	-0.03701415
41	0x3dc14c60	0.094383955
42	0x3c4665af	0.012109204
43	0x3d922c76	0.071373865
44	0xbd3ca03a	-0.04605124
45	0xbca2cce4	-0.01987309
46	0x3de5152b	0.11185678
47	0xbdbca03b	-0.09210249
48	0xbddad4e6	-0.106851384
49	0x3d0bd17b	0.034135323
50	0xbc3f9ac6	-0.011694616
51	0x3dac6ca9	0.08419163
52	0xbe1edb22	-0.1551328
53	0xbdf3de7e	-0.119076714
54	0xbe1b8188	-0.15186131
55	0xbdfd3d17	-0.123651676
56	0xbd9ad4a9	-0.07560093
57	0x3de186cb	0.11012038
58	0x3e657860	0.224092
59	0x3d787245	0.06065585
60	0xbde37a6f	-0.11107337
61	0x3d614548	0.054997712
62	0xbd7c46e5	-0.061591048
63	0xbe332c2c	-0.17497319
64	0x3d8090d8	0.06277627
65	0x3e300cff	0.17192458
66	0x3dfb40f8	0.12268251
67	0x3cf08f3a	0.02936517
68	0x3d8352cf	0.06412279
69	0xbdd4f6f1	-0.10398663
70	0x3ddf39e1	0.108997114
71	0x3cf71bbf	0.030164598
72	0x3d81f21e	0.06345008
73	0x3e18555a	0.14876309
74	0x3e19c17c	0.15015215
75	0xbd2ab08d	-0.04167228
76	0xbdd65dd3	-0.10467114
77	0xbde8cb2c	-0.11366877
78	0x3c244862	0.010027023
79	0x3e0ac0e4	0.13550144
80	0x3da29e76	0.0794038
81	0x3d30e6a1	0.043188695
82	0xbe1c7188	-0.15277684
83	0xbcdcd0be	-0.026955005
84	0x3ddf3fc8	0.10900837
85	0x3de0dfde	0.10980199
86	0x3e2b8e38	0.16753471
87	0x3e195eaa	0.14977518
88	0xbcd7bf80	-0.026336432
89	0xbc78f429	-0.015194931
90	0x3dde7aeb	0.108632885
91	0xbdc46487	-0.095894866
92	0x3d958527	0.073007874
93	0x3d863c86	0.06554513
94	0x3e2025a2	0.15639356
95	0xbd291ab3	-0.041285228
96	0xbe20655e	-0.15663669
97	0xbe40ea20	-0.18839312
98	0x3bf1d11d	0.0073796646
99	0xbdeb1aae	-0.11479698
100	0xbdc9d969	-0.09855921
101	0xbdb1c9ee	-0.08681093
102	0xbe2c8dd4	-0.16850978
103	0xbe2dfa7b	-0.16990082
104	0xbd75c6ff	-0.06000423
105	0xbd50ab1d	-0.050944436
106	0x3d5fd593	0.05464704
107	0xbca9fa40	-0.020749211
108	0xbc5e98c6	-0.013586229
109	0xbe3d4d4c	-0.18486518
110	0xbe4e419a	-0.20142213
111	0x3a248495	0.000627586
112	0x3dcd0065	0.10009841
113	0xbdf945ef	-0.12171542
114	0xbd28d682	-0.041220196
115	0x3e30dbc9	0.17271341
116	0x3d4c4144	0.04986693
117	0x3ce9f2d6	0.028558176
118	0xbd88d078	-0.06680387
119	0x3d8f8f05	0.07009701
120	0x3e3f154b	0.18660466
121	0xbd3b9f71	-0.045806352
122	0x3e560a27	0.2090231
123	0xbdc2bfd6	-0.09509246
124	0xbdb9141c	-0.09037039
125	0xbe1e9e72	-0.1549013
126	0xbd9a2f63	-0.075285695
127	0x3ca2c2b0	0.019868225
128	0x3e019692	0.12655094
129	0xbe29f487	-0.16597186
130	0xbd4eda18	-0.05050096
131	0x3d9a701d	0.07540915
132	0x3dfcb762	0.12339665
133	0xbd56d200	-0.052446365
134	0x3d4fcc31	0.05073184
135	0x3e1929c7	0.14957343
136	0x3b8821e1	0.0041544293
137	0xbde844ff	-0.11341285
138	0xbda46a0b	-0.080280386
139	0x3e0e6920	0.1390729
140	0x3e119651	0.14217497
141	0x3e2d32f9	0.16913976
142	0x3db0e16d	0.086367466
143	0x3e0a0b63	0.13480906
144	0x3e119d64	0.14220196
145	0x3da90b78	0.082541406
146	0x3c92c1d7	0.017914696
147	0xbd174c08	-0.036937743
148	0xbe2673ed	-0.1625516
149	0x3e422220	0.1895833
150	0x3d791f05	0.0608206
151	0xbe387e07	-0.18016826
152	0xbe1a3a71	-0.15061356
153	0x3da99c86	0.082818076
154	0xbdc7d8f6	-0.09758179
155	0x3c3723c0	0.011177957
156	0xbdf5cb75	-0.12001697
157	0x3d5346fb	0.051581364
158	0xbcb867ae	-0.022510376
159	0xbd173ebf	-0.036925074
160	0x3db8ebc4	0.09029344
161	0x3c38edec	0.011287194
162	0x3dcb4df9	0.099269815
163	0x3e080b99	0.13285674
164	0xbe1e54c1	-0.15462019
165	0xbe046bea	-0.12931791
166	0xbdeb316c	-0.11484036
167	0xbb3cfa6d	-0.0028835789
168	0x3e608f9b	0.21929781
169	0xbd8a3c31	-0.06749762
170	0xbd825aa0	-0.063649416
171	0x3df7edae	0.12105881
172	0xbbdf0887	-0.0068064365
173	0x3ca213d6	0.01978485
174	0x3da0594e	0.078295335
175	0x3d96e18f	0.07367241
176	0xbb2aad00	-0.0026043057
177	0x3dfbbc9d	0.122918345
178	0x3d17a07d	0.037018288
179	0x3d71fdb2	0.059079833
180	0xbdfdebb9	-0.12398476
181	0x3e08a5bb	0.13344471
182	0x3e044885	0.12918289
183	0x3a85ae67	0.0010199071
184	0x3dd3b87c	0.10337922
185	0x3e41d274	0.18927938
186	0xbe42397d	-0.18967243
187	0xbd089183	-0.033341896
188	0x3d963b56	0.07335536
189	0xbccfb812	-0.025356326
190	0x3e1cfb31	0.15330197
191	0x3d29150d	0.04127984
192	0xbe1cf8fd	-0.15329356
193	0xbe1269d1	-0.14298178
194	0x3df9dbdd	0.12200139
195	0xbdba907d	-0.0910959
196	0xbd7cad43	-0.061688673
197	0xbdf9e331	-0.122015364
198	0x3d1a984a	0.03774289
199	0xbde7becd	-0.11315689
200	0xbdca5af2	-0.09880628
201	0x3c78cb8c	0.015185248
202	0x3dae73e3	0.085181974
203	0x395fb00a	0.00021332517
204	0xbdff9c19	-0.12480945
205	0x3dadb379	0.08481497
206	0x3e11d07b	0.14239685
207	0xbe43521b	-0.1907429
208	0x3e04782a	0.12936464
209	0x3d8c9c53	0.06865754
210	0xbe4bb01b	-0.19891398
211	0x3e010d06	0.12602624
212	0xbda47438	-0.080299795
213	0x3da3c9f1	0.07997502
214	0xbe37f72c	-0.17965382
215	0xbde58ab0	-0.11208093
216	0x3cd4fe3c	0.026000135
217	0xbd01de8e	-0.031706385
218	0x3c8b7383	0.017022854
219	0x3d072dc9	0.03300265
220	0x3db69ef1	0.089170344
221	0x3da8576a	0.08219798
222	0x3c477735	0.012174417
223	0x3cc4a046	0.024002206
224	0xbd4e9753	-0.050437283
225	0x3e42b348	0.19013703
226	0xbdbb8fc6	-0.09158282
227	0xbe2317b2	-0.15927008
228	0x3b69927e	0.0035640295
229	0xbe195b2b	-0.14976184
230	0x3d9c3c62	0.076287046
231	0x3c68374e	0.014173342
232	0xbe24370b	-0.16036622
233	0x3df7fd80	0.12108898
234	0x3d98f6dd	0.074689604
235	0x3c937843	0.018001681
236	0x3da1c8a7	0.078995995
237	0x3e001ac0	0.12510204
238	0xbe27dd6e	-0.16393062
239	0xbdae7d92	-0.085200444
240	0x3d38b892	0.045097895
241	0x3e3b84e4	0.18312413
242	0xbdd3f2d6	-0.10349052
243	0xbda073e8	-0.07834607
244	0xbe0311e9	-0.12799801
245	0x3cf68cdf	0.03009647
246	0xbcec2fad	-0.028831327
247	0x3d1373ab	0.03599898
248	0xbc7a4bca	-0.015276859
249	0x3cf31eb8	0.029677734
250	0xbc10f4fb	-0.00884747
251	0xbd9260d9	-0.071473785
252	0xbd99d421	-0.075111635
253	0x3c92df9b	0.017928889
254	0x3d259e97	0.040434446
255	0xbe60fa68	-0.21970522

separableConv.2.weight f4 [32]
0	0x3f83b2e1	1.0288965
1	0x3f81d628	1.014348
2	0x3f7fa656	0.99863183
3	0x3f85d100	1.0454407
4	0x3f85941f	1.0435828
5	0x3f843b16	1.0330532
6	0x3f865021	1.0493203
7	0x3f821377	1.016219
8	0x3f84a56f	1.0362986
9	0x3f83f9ba	1.0310585
10	0x3f825844	1.0183187
11	0x3f846435	1.0343081
12	0x3f81f525	1.0152937
13	0x3f83bc31	1.0291806
14	0x3f826897	1.0188168
15	0x3f848031	1.0351621
16	0x3f883787	1.0641946
17	0x3f84859f	1.0353278
18	0x3f84bfab	1.0370992
19	0x3f7eb078	0.9948802
20	0x3f828363	1.0196346
21	0x3f86b0b0	1.0522671
22	0x3f7f2ca6	0.99677503
23	0x3f85a1c4	1.0439992
24	0x3f83ef5f	1.0307425
25	0x3f84d490	1.0377369
26	0x3f8155d7	1.0104321
27	0x3f7e0da5	0.9923957
28	0x3f8313ef	1.0240458
29	0x3f844abb	1.0335306
30	0x3f83f5f1	1.030943
31	0x3f84000a	1.0312512

separableConv.2.bias f4 [32]
0	0xbbe0b5e2	-0.0068576196
1	0x3b950c80	0.0045486093
2	0xbbed0ff3	-0.0072345673
3	0xbb08b37c	-0.0020858934
4	0xbc52938e	-0.012852563
5	0x3c15976f	0.009130343
6	0xbcc33740	-0.023830056
7	0xbcad37ef	-0.021144835
8	0xbcf1d970	-0.029522628
9	0x3c057e9a	0.00814786
10	0xbc970162	-0.018433277
11	0xbc8bc077	-0.017059548
12	0xbc477520	-0.012173921
13	0xbcceed80	-0.025259733
14	0xbc02263f	-0.007943689
15	0xbca1295b	-0.01967304
16	0x3c309635	0.010778
17	0xbca22ce9	-0.019796805
18	0x3ba17706	0.004927519
19	0xbc9c5895	-0.019085208
20	0xbcea7d45	-0.028624186
21	0xbc805dbf	-0.015669702
22	0xbccdf180	-0.02513957
23	0x3c094b0e	0.008379711
24	0x3af58ff4	0.0018734918
25	0xbc0c5c96	-0.008566996
26	0xbc8d8cc1	-0.01727903
27	0xbc450edb	-0.012027468
28	0xbc4fb99b	-0.012678529
29	0xbd07f997	-0.03319701
30	0xbc915df5	-0.017744998
31	0xbbfc7234	-0.0077040438

separableConv.2.running_mean f4 [32]
0	0x3a854521	0.0010167697
1	0xbb5ee570	-0.0034011267
2	0x3aad66a1	0.0013229438
3	0xb980c403	-0.00024560103
4	0x3b91a4b5	0.0044446834
5	0x3b10587a	0.0022025392
6	0xbb2f37fb	-0.0026736248
7	0xb9c5abb4	-0.00037702697
8	0x3acf1e33	0.0015801847
9	0xb7af65b6	-2.0908989e-05
10	0x3b13eea9	0.0022572672
11	0x3b38b772	0.0028185514
12	0xbc00b641	-0.007855953
13	0x3aaab68b	0.0013024373
14	0x3ac2e7e7	0.0014870138
15	0x3a911afb	0.0011070663
16	0x3a333082	0.00068355363
17	0x3a97beb2	0.0011577217
18	0x3b98d65f	0.004664227
19	0xba679b10	-0.0008835057
20	0xba43dfcd	-0.00074720086
21	0xbaa1d823	-0.0012347739
22	0xbaca6ae8	-0.0015443237
23	0xbb7db279	-0.0038711114
24	0xb9f077c4	-0.000458656
25	0xba26bf59	-0.00063609105
26	0xbb92d47a	-0.0044808956
27	0xb9c30308	-0.00037195557
28	0x3b1b38af	0.002368491
29	0xbaf933d2	-0.0019012636
30	0xb997a9ec	-0.00028927566
31	0xbb07cbf4	-0.002072093

separableConv.2.running_var f4 [32]
0	0x3b4251a3	0.002965071
1	0x3bb369d3	0.0054752617
2	0x3b8339c3	0.0040046885
3	0x3be2e94b	0.0069247833
4	0x3b9e7109	0.004835252
5	0x3baf6586	0.0053526787
6	0x3b840129	0.0040284586
7	0x3b4d90fb	0.0031366933
8	0x3b813746	0.0039433567
9	0x3b91aeb7	0.0044458765
10	0x3bbbc62a	0.00573041
11	0x3b5a7d6b	0.0033338915
12	0x3b8c6b29	0.0042852354
13	0x3b4b4e9b	0.0031022194
14	0x3bb50540	0.0055243075
15	0x3b747b28	0.0037304852
16	0x3b62af43	0.0034589327
17	0x3bb3d67c	0.005488215
18	0x3b8ba4f7	0.0042616087
19	0x3b58acee	0.0033062059
20	0x3b468021	0.0030288773
21	0x3bc022c0	0.0058635175
22	0x3b6926eb	0.0035576175
23	0x3b8de945	0.0043307864
24	0x3b8aa233	0.0042307614
25	0x3bb8752e	0.0056292033
26	0x3b886454	0.0041623507
27	0x3b20189f	0.0024428738
28	0x3ba60035	0.0050659426
29	0x3b7e5097	0.003880536
30	0x3baa22ce	0.0051921373
31	0x3ba6ec60	0.005094096

classify.weight f4 [2, 992]
0	0xbcfd3094	-0.030906953
1	0x3d248152	0.040162392
2	0xbc8949ba	-0.016758788
3	0xbd2b1d86	-0.041776203
4	0x3d53b950	0.0516904
5	0xbb1ee2b3	-0.002424401
6	0x3d126e51	0.035749737
7	0xbcf28bdc	-0.029607706
8	0xbcc8bda2	-0.024504486
9	0x3d0da1a8	0.034577996
10	0xbc268b3d	-0.010165033
11	0xbc173199	-0.009228134
12	0x3bb2c7ae	0.0054559326
13	0x3ce43270	0.027856082
14	0x3cdd3958	0.027004883
15	0xbd7e9217	-0.06215104
16	0xbce7d596	-0.028300088
17	0x3c120589	0.0089124525
18	0xbd3be106	-0.045868896
19	0x3ce83aca	0.028348345
20	0x3d0ad99d	0.03389894
21	0xbcbf7365	-0.023370454
22	0x3be0df6c	0.0068625715
23	0x3c88c7bb	0.016696801
24	0x3d18bf2d	0.037291694
25	0x3c2ab293	0.010418552
26	0x3c93f915	0.018063108
27	0xbcd6f632	-0.026240442
28	0x3c7b08cd	0.0153219225
29	0x3c822f36	0.015891653
30	0x3c68a2a8	0.0141989365
31	0x3d116f00	0.03550625
32	0x3c2f1911	0.010687129
33	0x3cd52b60	0.02602166
34	0xbcdd036b	-0.026979169
35	0x3b8fb78b	0.0043858937
36	0xbb522194	-0.003206347
37	0x3ce8eee7	0.02843423
38	0xbd137363	-0.035998713
39	0xba81878d	-0.0009882316
40	0x3a1a3521	0.00058825506
41	0x3ce21217	0.027596517
42	0x3bf7209d	0.0075417296
43	0x3c4a2e32	0.012340115
44	0xbcc726ef	-0.024310557
45	0xbc782470	-0.015145406
46	0xbc2cdfbd	-0.01055139
47	0xbd25384c	-0.040336892
48	0xbcebf912	-0.02880529
49	0xbd2ffa7e	-0.042963497
50	0x3c8557c2	0.016277198
51	0x3ccf7d72	0.025328372
52	0x3d349943	0.044091474
53	0xbc97f2da	-0.018548418
54	0xbb69e76d	-0.003569092
55	0x3b6c6eb4	0.0036076726
56	0xbd17dced	-0.037075926
57	0x3a0533d0	0.0005081268
58	0x3cadff34	0.021239854
59	0xbc408ad7	-0.011751852
60	0xbcc6f80b	-0.024288198
61	0xbcf28726	-0.02960546
62	0xbc73f0aa	-0.014888922
63	0xb9bd5fbd	-0.0003612022
64	0xbca390f1	-0.019966574
65	0x3d2fa468	0.0428814
66	0xbd1d3e72	-0.03838963
67	0x3c778eee	0.015109761
68	0xbc719c47	-0.014746732
69	0x3c806020	0.015670836
70	0x3aea3c68	0.0017870786
71	0x3a15b573	0.0005710937
72	0x3b838a57	0.004014294
73	0x3c2be34b	0.010491203
74	0xbd24a9a6	-0.04020085
75	0xbd16f60e	-0.03685575
76	0xbb93ea98	-0.0045140497
77	0x3adf8e93	0.001705604
78	0xbd1325e1	-0.035924796
79	0x39503631	0.00019856614
80	0x3c11164a	0.008855412
81	0xbcd22ec4	-0.025657065
82	0x3cd1f212	0.025628123
83	0x3bbd38b4	0.005774582
84	0x39bf5845	0.00036496125
85	0xbcbf7cfd	-0.023375029
86	0x3ba61d2b	0.005069395
87	0x3c9d8372	0.019227717
88	0x3d004e23	0.031324517
89	0xb9de66b8	-0.0004241967
90	0xbc131601	-0.008977414
91	0xbb71e447	-0.0036909746
92	0xbd0b047b	-0.03393982
93	0x3c1fac16	0.009745618
94	0x3d3c5ce1	0.045987014
95	0xbd57d401	-0.052692417
96	0x3bfe8534	0.007767344
97	0x3cadc943	0.021214133
98	0x3b2bc98e	0.0026212665
99	0x3c73f07d	0.01488888
100	0xbc3b9b26	-0.0114505645
101	0x3d31505e	0.043289535
102	0x3c4219a3	0.011846933
103	0xbbe6c02c	-0.0070419516
104	0xbd1c253b	-0.038121443
105	0x3ace0a41	0.0015719609
106	0x3c942632	0.01808462
107	0x3b95277e	0.004551827
108	0xbd7472aa	-0.059679665
109	0xbd25eb45	-0.040507574
110	0xbcf9e1f3	-0.030503249
111	0xbcb40550	-0.02197519
112	0xbba3fe09	-0.0050046486
113	0xbca65d73	-0.020308232
114	0x3d04d822	0.032432683
115	0xbd7be5c7	-0.06149843
116	0x3d5edccc	0.054409787
117	0xbca27d02	-0.019834999
118	0xbd383acb	-0.044977944
119	0x3c2e648b	0.0106440885
120	0xbc48a3bb	-0.012246068
121	0xbcbbaec5	-0.022910485
122	0x3b7fcb7c	0.0039031198
123	0xbca2a270	-0.019852847
124	0x3d85b4b3	0.06528606
125	0xbd88c084	-0.066773444
126	0x3d591386	0.052997135
127	0xbcd4fef8	-0.026000485
128	0x3d8ef2a7	0.06979876
129	0xbd7d09d8	-0.061776966
130	0x3d153349	0.036425862
131	0x3d14ba54	0.03631051
132	0xbcb3a779	-0.021930443
133	0x3d8069dd	0.06270192
134	0xbd812435	-0.06305734
135	0x3c8cb2a0	0.017175019
136	0xbc9d5ccf	-0.019209294
137	0x3c8f9a1e	0.017529543
138	0x3c0b39e9	0.008497694
139	0xbccef550	-0.025263458
140	0xbd3b42cf	-0.04571801
141	0x3b808e1e	0.0039231917
142	0xba53f694	-0.0008085754
143	0xbb8dadc5	-0.0043236935
144	0x3bbd6896	0.00578029
145	0x3c50ef40	0.012752354
146	0x3c2f90df	0.010715692
147	0x3c256b40	0.010096371
148	0xbc6d91b0	-0.014500067
149	0xba636d3b	-0.00086756394
150	0x3cde48dd	0.027134353
151	0xbd0bcd2c	-0.034131214
152	0x3c5f1a2a	0.013617078
153	0xbd54e615	-0.051977236
154	0x3d4f3e4c	0.05059652
155	0x3c931571	0.01795456
156	0xbc58dfa5	-0.013236915
157	0x3be4561f	0.0069682742
158	0xbc0b7277	-0.008511177
159	0xbb2b9e06	-0.0026186719
160	0xbc7d4634	-0.015458632
161	0x3d3ff37b	0.04686306
162	0x3bc0d291	0.0058844765
163	0xbcfc23ed	-0.03077885
164	0xbcff357e	-0.031153437
165	0xbd2e6c4a	-0.04258374
166	0x3ceeb58c	0.029139303
167	0x3c13ec21	0.0090284655
168	0xbd1c33ac	-0.038135216
169	0xbcba2db4	-0.022726871
170	0x3ca6e348	0.020372048
171	0xbd86fc1f	-0.06591057
172	0x3ccbb1f1	0.024865123
173	0xbc662bde	-0.014048545
174	0xbcc53a9c	-0.024075799
175	0xbc914664	-0.01773376
176	0xbcbc97dd	-0.023021633
177	0xbbd4dd31	-0.0064960946
178	0xbd046f99	-0.03233299
179	0x3c887fad	0.016662443
180	0xbcd960b1	-0.026535364
181	0x3bf37840	0.0074301064
182	0xbd37f297	-0.044909086
183	0x3aba9b4a	0.0014236954
184	0xbcf17fb2	-0.029479835
185	0xbccfee80	-0.02538228
186	0x3c415daa	0.011802116
187	0xbd580ac4	-0.052744642
188	0x3d28a4f4	0.041172937
189	0xbcb09e78	-0.021559939
190	0x3c397415	0.01131918
191	0x3d150963	0.036385905
192	0xbcb2a6bd	-0.021808023
193	0x3d576dc8	0.05259493
194	0xbcc85119	-0.024452733
195	0xbab37dee	-0.0013694146
196	0x3d1ad585	0.037801284
197	0x3c3e857d	0.011628506
198	0x3d4ec5f4	0.05048175
199	0xbcefd49a	-0.029276181
200	0x3c2dfb56	0.010619005
201	0xbc95ce7f	-0.018286942
202	0x3baacabf	0.0052121575
203	0xbc47a2df	-0.012184828
204	0xbc15e5b8	-0.0091490075
205	0x3d1537bc	0.036430106
206	0xbcb023f9	-0.021501528
207	0x3bcfc2ba	0.006340352
208	0x3ce47dae	0.02789196
209	0x3c7c85b9	0.015412741
210	0xbd292f43	-0.041304838
211	0x3d59b012	0.05314643
212	0xbd8225e9	-0.06354887
213	0xbcbdcad4	-0.023168005
214	0x3d537ffc	0.051635727
215	0xbcd86ed1	-0.026420029
216	0x3c118043	0.008880678
217	0xbc8858a8	-0.016643837
218	0x3cd7e8e3	0.026356166
219	0xbca120df	-0.019668994
220	0xbb9fa72b	-0.004872223
221	0xbd58e0a2	-0.0529486
222	0x3d354302	0.044253357
223	0x3cd04f99	0.02542858
224	0xbc8eb5f6	-0.01742075
225	0xbbb88353	-0.0056308894
226	0xbcd6374c	-0.026149414
227	0x3d91d1d0	0.07120097
228	0x3ca8c12c	0.020599924
229	0xbc586378	-0.013207309
230	0x3ce8b8c4	0.028408416
231	0xbc1a1917	-0.009405396
232	0x3c1cef12	0.009578483
233	0xbcb170a2	-0.021660153
234	0xbcc44c82	-0.023962263
235	0xbc6e338f	-0.01453866
236	0xbc4dd294	-0.012562413
237	0xbbff11ec	-0.007784119
238	0xbba89188	-0.005144302
239	0xbbfa3fbf	-0.0076369937
240	0xbbb93f05	-0.0056532645
241	0x3cbc8a0a	0.02301504
242	0xbb8b5669	-0.0042522443
243	0xbbc8f38a	-0.0061325477
244	0xbb5ac0c4	-0.0033379057
245	0x3cbcef56	0.023063343
246	0x3abfe3aa	0.0014639993
247	0x3ca4e140	0.020126939
248	0x3cafa842	0.021442536
249	0x3c9dc69b	0.019259742
250	0xbaafb674	-0.0013405816
251	0xbcc11b4c	-0.023572586
252	0xbc643305	-0.01392818
253	0x3c906c27	0.017629696
254	0xbc720f67	-0.01477418
255	0xbbeb607b	-0.007183132

classify.bias f4 [2]
0	0x3c453770	0.012037143
1	0xbc65e65b	-0.014031972
