notebooks/outputs/temp_independent_test_B07_best.pth (torch, 13137 bytes, 18 tensors)

conv_temporal.weight f4 [8, 1, 1, 64]
0	0x3d0c7534	0.03429146
1	0xbdb08000	-0.08618164
2	0x3de31583	0.110880874
3	0xbd98a0ed	-0.07452569
4	0x3da9804a	0.08276422
5	0x3de6a413	0.112617634
6	0xbe01b3d9	-0.12666263
7	0xbd6ea50c	-0.05826287
8	0xbde0d265	-0.109776296
9	0x3df0b380	0.11752987
10	0x3dd0a3f0	0.101875186
11	0xbb708559	-0.0036700575
12	0xbb98abfc	-0.004659174
13	0xbc94d598	-0.018168256
14	0x3d3ccda9	0.04609457
15	0xbd898773	-0.06715288
16	0xbbabc9b7	-0.005242552
17	0xbde51de8	-0.11187345
18	0xbdbfb229	-0.09360153
19	0x3d896988	0.067095816
20	0xbd7e1d25	-0.062039513
21	0xbde82267	-0.11334687
22	0x3d92349f	0.07138943
23	0xbde94d73	-0.113917254
24	0xbde29923	-0.11064365
25	0xbd88782a	-0.066635445
26	0xbd906c0a	-0.07051857
27	0xbdc99389	-0.09842593
28	0xbd6c1533	-0.057637405
29	0xbda4cc8e	-0.08046828
30	0x3dcb6471	0.09931267
31	0xbdac4241	-0.084110744
32	0x3c8da2dc	0.017289571
33	0xbce5838f	-0.028016834
34	0x3dca2b82	0.0987158
35	0x3dc74ed7	0.097318344
36	0xbd0f60a1	-0.035004262
37	0x3d2bcd84	0.04194404
38	0xbda90a45	-0.08253912
39	0x3dd8a301	0.105779655
40	0xbd8ee40a	-0.06977089
41	0x3d63f810	0.055656493
42	0xbdb478a6	-0.08812074
43	0xbd40174a	-0.04689721
44	0xbdf88c14	-0.12136093
45	0x3d42d06c	0.047562048
46	0x3dd2fbf8	0.103019655
47	0xbd001c18	-0.031276792
48	0x3dfc6f3f	0.12325906
49	0x3df274a7	0.11838656
50	0x3dbd9b0c	0.092580885
51	0x3d1a2d04	0.037640586
52	0x3da04006	0.078247115
53	0xbdf28655	-0.11842028
54	0x3dd35cd0	0.10320437
55	0xbcc2330a	-0.023705978
56	0x3df7467e	0.12073992
57	0xbdbeb913	-0.09312644
58	0xbde7f2e4	-0.113256246
59	0xbda1d3ef	-0.07901751
60	0x3d1cd8bc	0.03829263
61	0x3e003ed0	0.12523961
62	0x3d379d5b	0.0448278
63	0x3dbacf18	0.09121531
64	0x3c9e66e2	0.019336168
65	0xbd99e4b1	-0.075143225
66	0x3d6b3f6c	0.05743353
67	0x3d19f8cf	0.037590798
68	0xbbea2f06	-0.007146719
69	0xbd11ff31	-0.03564376
70	0xbd985487	-0.07437997
71	0x3d8fec1b	0.070274554
72	0xbcace92c	-0.021107279
73	0x3d4b191b	0.04958449
74	0xbcacc7d5	-0.021091381
75	0xbd62fa2b	-0.05541436
76	0x3df9fd66	0.12206535
77	0xb9210635	-0.00015356469
78	0xbdd6aeac	-0.10482535
79	0x3d37a83f	0.044838186
80	0xbd9f1e0a	-0.07769401
81	0x3d680061	0.056640986
82	0xbcf6de76	-0.030135375
83	0xbdefe1f2	-0.117130175
84	0xbd0d1baa	-0.03445021
85	0x3ce03833	0.027370548
86	0x3de91b5a	0.1138217
87	0x3dc5af8b	0.09652623
88	0x3ca44fa3	0.020057505
89	0xbde539cc	-0.111926645
90	0xbdfd3fc1	-0.12365676
91	0xbdafbfcd	-0.08581505
92	0xbdaad731	-0.08341826
93	0x3b51d52c	0.003201793
94	0x3d718709	0.05896667
95	0xbd8de428	-0.06928283
96	0xbdbe6904	-0.09297374
97	0x3d417e98	0.04723987
98	0xbdf47581	-0.119364746
99	0xbcbcd7e2	-0.02305216
100	0x3d607d17	0.054806795
101	0xbd610601	-0.054937366
102	0x3aeab0c2	0.0017905461
103	0xbd9db530	-0.077005744
104	0xbde8c460	-0.113655806
105	0xbd3d7279	-0.046251748
106	0x3d32204d	0.043487836
107	0xbc8ad860	-0.016948879
108	0xbdfd23fd	-0.1236038
109	0xbd813856	-0.06309573
110	0xbd2ec293	-0.04266603
111	0xbdc7ee1a	-0.09762211
112	0xbd1119f0	-0.035425127
113	0xbcc5c67c	-0.024142496
114	0xbde6e488	-0.112740576
115	0xbd31f0ca	-0.043442525
116	0x3dbe4f1e	0.09292434
117	0xbd2b1ecd	-0.04177742
118	0xbcc24b8f	-0.02371767
119	0xbd5c13d9	-0.053729866
120	0x3d2b336d	0.04179709
121	0x3d0e7900	0.034783363
122	0x3d50cd52	0.05097706
123	0x3dc3ac1d	0.095543124
124	0xbd2456a2	-0.040121682
125	0x3d644a40	0.055734873
126	0xbddef956	-0.10887401
127	0xbdd5674d	-0.10420094
128	0x3d719c7a	0.05898712
129	0xbd12d900	-0.03585148
130	0x3d3ff190	0.04686123
131	0xbd889515	-0.0666906
132	0x3d13729c	0.035997972
133	0xb9fb3688	-0.0004791508
134	0x3d32b48c	0.043629214
135	0xbd6f749b	-0.058460813
136	0x3d3aaeaf	0.045576748
137	0xbde3069c	-0.11085245
138	0x3d7ffd45	0.062497396
139	0x3d48c973	0.049020242
140	0x3d6977e5	0.056999106
141	0xbdbfc20d	-0.09363184
142	0x3d22db33	0.039759826
143	0xbd454c4c	-0.048168465
144	0xbde33a28	-0.11095077
145	0xbdf2f346	-0.11862807
146	0xbaaa32f6	-0.0012985158
147	0xbdba1521	-0.09086061
148	0x3c7fc8bf	0.015611826
149	0xbdf05af2	-0.117360964
150	0x3d12295a	0.035683967
151	0xbcb6ec70	-0.022329539
152	0x3ab2dcce	0.0013646127
153	0xbb025512	-0.0019887132
154	0x3bc77a92	0.0060876096
155	0x3d121068	0.035660177
156	0x3cd2303e	0.02565777
157	0xbd800f8d	-0.06252966
158	0x3d7836f7	0.060599294
159	0x3ccb2e49	0.024802344
160	0xbd176696	-0.036963068
161	0x3cc81335	0.024423221
162	0x3ddcc44b	0.107796274
163	0xbb58f380	-0.0033104122
164	0xbd3fb24d	-0.0468009
165	0x3dec8675	0.11549083
166	0x3cb406bf	0.021975873
167	0x3d3037fb	0.043022137
168	0xba9cddde	-0.0011967977
169	0xbdc9c94b	-0.09852847
170	0x3db0d349	0.086340494
171	0xbccb811c	-0.024841838
172	0x3da20704	0.079114944
173	0x3dbdb16f	0.092623584
174	0x3d9eee69	0.07760317
175	0xbd07125b	-0.03297649
176	0xbd86a608	-0.06574637
177	0xbd4f0d80	-0.050549984
178	0xbd60323c	-0.054735407
179	0xbd3a10bc	-0.045426115
180	0xbc16138a	-0.009159932
181	0x3c59979e	0.013280777
182	0x3cd16fe3	0.025566047
183	0xbddc2d22	-0.10750796
184	0xbd45fc76	-0.04833647
185	0xbdf3376b	-0.118758045
186	0x3d4905d9	0.049077842
187	0x3da076ab	0.07835134
188	0xbe001599	-0.12508239
189	0xbdf17dda	-0.117915824
190	0x3ded66ab	0.11591848
191	0x3dbc2434	0.09186593
192	0x3df187e6	0.11793499
193	0xbd2e21f8	-0.042512864
194	0x3d395e9e	0.04525625
195	0xbddd4204	-0.10803607
196	0xbc7da25d	-0.015480605
197	0xbd46d84b	-0.048546117
198	0x3d2c651f	0.042088624
199	0xbdaab99e	-0.08336185
200	0x3ce3a6f8	0.027789578
201	0xbd347225	-0.04405417
202	0xbdb9413b	-0.09045645
203	0xbd8b318c	-0.0679656
204	0xbd913613	-0.07090392
205	0x3c88040d	0.016603494
206	0xbda7c7f0	-0.08192432
207	0xbdb2899e	-0.08717655
208	0x3dbc3689	0.09190089
209	0xbd406ac3	-0.046976816
210	0x3d217bcc	0.039424703
211	0x3d93539f	0.07193684
212	0xbd7e8cd6	-0.06214603
213	0x3d896a89	0.06709773
214	0xbdb3ced6	-0.08779685
215	0x3cfc4b45	0.03079761
216	0x3d40bc65	0.047054667
217	0xbd370938	-0.044686526
218	0xbcd3bcbe	-0.025846835
219	0x3d8cc56c	0.06873593
220	0xbd1ff092	-0.039047785
221	0x3dc4a29e	0.09601329
222	0x3c6d1d1a	0.01447227
223	0xbbc8fe13	-0.0061338036
224	0x3d87af56	0.066252396
225	0xbd2b3d92	-0.041806765
226	0x3d593927	0.05303302
227	0x3d8a2d43	0.06746914
228	0x3d803a68	0.0626114
229	0x3df3b514	0.11899772
230	0x3d126cfb	0.035748463
231	0x3b7d8b67	0.0038687827
232	0xbdd403ae	-0.10352264
233	0x3de177e4	0.110091954
234	0x3def2dac	0.11678633
235	0x3cefb00f	0.029258756
236	0xbb02d5d3	-0.0019963875
237	0xbcf00e1b	-0.029303601
238	0xbc4b4933	-0.012407589
239	0xbd231eaa	-0.039824165
240	0x3cee5325	0.02909238
241	0x3d656c06	0.056011222
242	0x3ca21de7	0.01978965
243	0xbdf93e15	-0.12170044
244	0xbdddf786	-0.10838227
245	0xbd2be830	-0.041969478
246	0x3c889487	0.016672386
247	0xbdc3af22	-0.09554888
248	0xbd989d62	-0.074518934
249	0xbd9b04b5	-0.07569257
250	0xbd060e3e	-0.032728426
251	0xbd0f250a	-0.034947433
252	0x3d2cb1a8	0.042161614
253	0x3dee4faa	0.116362885
254	0xbdb9ab72	-0.09065904
255	0x3d1dec25	0.038555283

bn1.weight f4 [8]
0	0x3f7f3b67	0.99700016
1	0x3f7f3b69	0.9970003
2	0x3f7f3b69	0.9970003
3	0x3f7f3b6b	0.9970004
4	0x3f7f3b6b	0.9970004
5	0x3f7f3b6d	0.9970005
6	0x3f7f3b6a	0.99700034
7	0x3f7f3b6c	0.99700046

bn1.bias f4 [8]
0	0xb69afefe	-4.6192426e-06
1	0x389c005f	7.438729e-05
2	0x378a3b0c	1.6478378e-05
3	0x37218a04	9.628482e-06
4	0x38a06b3c	7.6493685e-05
5	0xb883d3b0	-6.285997e-05
6	0xb8f183bb	-0.00011516312
7	0xb88299ef	-6.2275554e-05

bn1.running_mean f4 [8]
0	0xb80954c8	-3.2742304e-05
1	0xb785c2b0	-1.5945494e-05
2	0xb8df7901	-0.00010656007
3	0xb95e1b13	-0.00021181656
4	0x3916de27	0.00014387873
5	0xb738b90a	-1.1010337e-05
6	0xb895f5b7	-7.1506416e-05
7	0x384fd319	4.9549246e-05

bn1.running_var f4 [8]
0	0x3f63047e	0.8867873
1	0x3f4cb387	0.79961437
2	0x3f52544e	0.8215989
3	0x3f624b92	0.8839656
4	0x3f4cff63	0.8007719
5	0x3f5d7591	0.8650752
6	0x3f4af6a1	0.79282576
7	0x3f4e5ebe	0.80613315

conv_spatial.weight f4 [16, 1, 3, 1]
0	0xbea59b70	-0.32345152
1	0x3e6c7170	0.23090148
2	0x3d5a31c5	0.05327012
3	0xbdbeac09	-0.09310157
4	0xbdbf65f3	-0.09345617
5	0x3efa4b1a	0.48885423
6	0x3efb17a3	0.4904147
7	0x3c511d47	0.012763328
8	0xbee461b7	-0.446058
9	0x3ed82162	0.4221297
10	0xbd3fbb8a	-0.04680971
11	0x3edc6efb	0.4305342
12	0xbe1717a3	-0.1475511
13	0x3e56e80a	0.20986953
14	0xbe97424f	-0.29542777
15	0xbe952bba	-0.29134923
16	0xbefa5280	-0.48891068
17	0xbe41bb6c	-0.18919152
18	0x3ee4e95f	0.44709298
19	0xbef7881a	-0.48346025
20	0xbef20707	-0.47270986
21	0x3ec2c830	0.38043356
22	0x3d166c95	0.036724646
23	0x3eeed9fb	0.4665068
24	0xbef3bc09	-0.47604397
25	0x3ef58049	0.47949436
26	0xbe60706d	-0.21917887
27	0x3f0598ae	0.52186096
28	0x3d8ffc43	0.07030537
29	0x3ee5760a	0.4481662
30	0xbe258ba5	-0.16166551
31	0xbe49b9d5	-0.19699796
32	0x3ecb2dd8	0.39683414
33	0x3e2dccf4	0.16972715
34	0x3e9e3159	0.30897024
35	0x3d11a660	0.03555906
36	0x3ccb9710	0.024852306
37	0x3daf0c46	0.08547263
38	0x3ebd62d1	0.36989453
39	0x3eb70895	0.35748735
40	0x3edbc0a6	0.42920417
41	0xbe96a962	-0.29426104
42	0x3ec5220d	0.3850254
43	0x3dbe7ad5	0.09300772
44	0x3f0a66dc	0.540632
45	0xbe1fe793	-0.15615682
46	0xbe4e79c1	-0.20163633
47	0x3eb5cf1c	0.35509574

bn2.weight f4 [16]
0	0x3f804799	1.002185
1	0x3f7f5276	0.997352
2	0x3f80281d	1.0012242
3	0x3f7f9b6a	0.9984652
4	0x3f7f4112	0.99708664
5	0x3f803211	1.0015279
6	0x3f7fb4e6	0.99885404
7	0x3f805c33	1.0028137
8	0x3f804614	1.0021386
9	0x3f7f513c	0.9973333
10	0x3f7f8685	0.99814636
11	0x3f7f509e	0.9973239
12	0x3f803623	1.0016521
13	0x3f802737	1.0011967
14	0x3f80418d	1.0020005
15	0x3f7faa30	0.9986906

bn2.bias f4 [16]
0	0x3b2f8512	0.0026782197
1	0x3ad04a35	0.0015891256
2	0x3a90aec6	0.0011038415
3	0x398a8b99	0.0002642542
4	0xb87cfa93	-6.0314847e-05
5	0x3a3af845	0.0007132332
6	0xb8e8a757	-0.000110937915
7	0xba963804	-0.0011460786
8	0xbb0ce63e	-0.002149954
9	0xba734e75	-0.00092814054
10	0xba6736df	-0.0008820127
11	0x3b083a1e	0.0020786594
12	0xbb18a106	-0.0023289337
13	0x3adcce0b	0.0016846074
14	0x3aebbada	0.0017984763
15	0x3aaed322	0.0013338069

bn2.running_mean f4 [16]
0	0xb797765c	-1.8055718e-05
1	0xb7ddcda5	-2.6441014e-05
2	0xb6846e04	-3.946714e-06
3	0xb7d89b65	-2.5821568e-05
4	0xb4efbaaf	-4.465305e-07
5	0xb7536fc7	-1.2602605e-05
6	0x373ad4f2	1.1136044e-05
7	0x3612746d	2.1823464e-06
8	0xb790c6f6	-1.7258786e-05
9	0x378a420a	1.6481634e-05
10	0xb6d9ec4f	-6.494614e-06
11	0x3694ff36	4.440454e-06
12	0xb73f3f08	-1.1399163e-05
13	0x37f42905	2.9106168e-05
14	0xb7399562	-1.106164e-05
15	0x372f0910	1.0432923e-05

bn2.running_var f4 [16]
0	0x3f3ddbec	0.741637
1	0x3f4441fc	0.76663184
2	0x3f4381d3	0.7636997
3	0x3f60356e	0.8758153
4	0x3f40fdfb	0.75387543
5	0x3f6f6a15	0.93521243
6	0x3f50b6a2	0.81528676
7	0x3f6a041f	0.9141254
8	0x3f495de6	0.786589
9	0x3f7a1bc2	0.97698605
10	0x3f3f242b	0.7466456
11	0x3f4a6ed0	0.79075336
12	0x3f480e57	0.7814688
13	0x3f50a767	0.81505436
14	0x3f72a959	0.94789654
15	0x3f40d9e9	0.75332505

conv_separable_depth.weight f4 [16, 1, 1, 16]
0	0xbde6b859	-0.1126563
1	0x3dea276b	0.114333
2	0xbdde1ab3	-0.10844936
3	0x3e708340	0.23487568
4	0xbd89655a	-0.067087844
5	0x3e273f8f	0.1633284
6	0x3dba95f1	0.0911063
7	0x3db36ea1	0.08761335
8	0x3e472363	0.19447093
9	0xbd4031f4	-0.04692264
10	0xbcbf521e	-0.023354586
11	0x3e3dc4c0	0.18532085
12	0x3e0388cb	0.12845151
13	0x3e2a81cc	0.16651076
14	0xbe0aa6ee	-0.13540241
15	0x3d46d24f	0.04854041
16	0xbe3e6667	-0.18593751
17	0xbdbc4aea	-0.09193976
18	0xbe685e0c	-0.22692126
19	0xbe0f535e	-0.13996646
20	0x3e2f2ca5	0.17106874
21	0x3c804b20	0.015660822
22	0xbe482793	-0.19546346
23	0x3e77bcf6	0.24193177
24	0xbe1106bc	-0.14162725
25	0x3ddd09f7	0.10792916
26	0xbe4f77ee	-0.20260593
27	0xbe11194b	-0.14169805
28	0xbdfeacf4	-0.12435332
29	0xbe5034bb	-0.20332615
30	0xbe7c2d76	-0.24626717
31	0x3dd97816	0.10618608
32	0x3db32de4	0.08748987
33	0xbd0ff441	-0.035145048
34	0x3e3a161d	0.18172498
35	0x3dc3c393	0.09558787
36	0xbcf51316	-0.029916327
37	0xbe497193	-0.19672231
38	0x3e11e2e7	0.14246713
39	0x3d0543bd	0.032535303
40	0xbdb6aea3	-0.08920028
41	0x3c971bec	0.018445931
42	0xbdd0fa43	-0.10203984
43	0x3da2c5e2	0.079478994
44	0xbbaec09a	-0.0053330185
45	0x3ccd0dce	0.025030997
46	0xbdcafb4e	-0.09911214
47	0x3e3ae7f3	0.18252544
48	0xbd73f2eb	-0.059557837
49	0xbe296d9f	-0.16545723
50	0x3c01c310	0.007920042
51	0xbe495432	-0.19661024
52	0xbdf91ad2	-0.12163319
53	0x3e3b01fe	0.18262479
54	0xbdb6be79	-0.089230485
55	0xbe41262e	-0.1886222
56	0x3e238b75	0.15971167
57	0xbdb051fe	-0.08609389
58	0xbe273576	-0.16328987
59	0xbe48d3ce	-0.19612047
60	0xbda669d8	-0.08125657
61	0xbe027765	-0.12740858
62	0xbe2ed586	-0.1707364
63	0xbcff0c15	-0.03113369
64	0x3dab84ec	0.08374962
65	0x3e39834d	0.18116494
66	0x3dd5c1de	0.10437368
67	0xbe3952b9	-0.18097962
68	0xbe5c842a	-0.21534792
69	0xbd9b9888	-0.075974524
70	0xbdd8cc4a	-0.1058584
71	0x3e279f2c	0.16369313
72	0xbe244ea2	-0.16045621
73	0xbe0830ea	-0.13299909
74	0x3c6dfc86	0.014525538
75	0xbdea9971	-0.11455048
76	0x3da7e0a7	0.08197146
77	0x3db566a2	0.08857466
78	0x3d9a84f6	0.075448915
79	0x3e32047b	0.17384522
80	0x3e304214	0.17212707
81	0xbe06cf38	-0.13164985
82	0xbd3a9dd9	-0.04556069
83	0xbe30fc00	-0.1728363
84	0x3e0df0eb	0.13861434
85	0x3e738ad7	0.23783432
86	0xbe15899e	-0.14603278
87	0x3cf7e669	0.030261235
88	0x3e3952de	0.18098018
89	0xbe072da4	-0.13201004
90	0xbc74f456	-0.014950832
91	0x3d296a08	0.041360885
92	0xbdbc88ac	-0.092057556
93	0x3da6401e	0.08117698
94	0x3de864a6	0.11347322
95	0x3e6b0f72	0.2295511
96	0x3e1ffc29	0.15623535
97	0x3d9a4e94	0.07534519
98	0x3e37e75b	0.17959349
99	0xbe26fe9a	-0.1630806
100	0xbe2e39fd	-0.17014308
101	0x3ce784c4	0.02826155
102	0x3de426b4	0.111401945
103	0x3e70713e	0.23480698
104	0x3e5577d5	0.20846494
105	0xbe0e68a0	-0.13907099
106	0x3e1924d0	0.14955449
107	0x3dd70b00	0.10500145
108	0x3d2e9f15	0.04263218
109	0x3d3b8ddf	0.045789596
110	0x3dc5fd92	0.09667505
111	0xbe683f1c	-0.22680324
112	0x3d02780a	0.03185276
113	0x3e221ea6	0.15832004
114	0x3e4ca399	0.19984283
115	0x3e723ae3	0.23655276
116	0xbcad1d03	-0.021131998
117	0xbe64dd69	-0.22350086
118	0xbe7c1469	-0.24617161
119	0x3dca9015	0.09890763
120	0x3e2a582d	0.16635199
121	0x3e3c82cb	0.18409269
122	0xbde381eb	-0.11108764
123	0xbe62d227	-0.2215048
124	0xbe6b5520	-0.22981691
125	0x3d2618c2	0.040550955
126	0x3e6fbe32	0.23412398
127	0x3e2097dd	0.15682931
128	0x3e14b875	0.1452349
129	0x3e5c6e19	0.21526374
130	0xbe65027d	-0.2236423
131	0xbca35cde	-0.019941743
132	0x3e510d74	0.20415288
133	0xbe7e5ea5	-0.24840792
134	0x3e3d1532	0.18465117
135	0x3dff029f	0.12451672
136	0xbe6154af	-0.2200496
137	0xbe127f95	-0.14306481
138	0x3d0237a1	0.031791333
139	0xbe73b30d	-0.23798771
140	0xbda4741e	-0.0802996
141	0x3da19cfb	0.0789127
142	0x3e0fd343	0.14045434
143	0xbdefb927	-0.11705237
144	0x3e6d1fb5	0.23156627
145	0x3d6468e1	0.055764083
146	0x3d504dfa	0.050855614
147	0xbd901e19	-0.07036991
148	0x3d87903f	0.0661931
149	0x3e4238e1	0.1896701
150	0xbd9ad571	-0.07560242
151	0x3dbb4683	0.091443084
152	0x3d6efbc2	0.058345564
153	0x3e4b8f46	0.19878873
154	0x3da9cd96	0.082911655
155	0xbd96cf85	-0.073638
156	0x3ba96179	0.0051690903
157	0xbdd205c4	-0.10255006
158	0xbe25db6d	-0.16196986
159	0xbdfbd01e	-0.122955546
160	0x3d60cc3f	0.054882284
161	0xbe2715eb	-0.16316955
162	0x3d870165	0.06592063
163	0x3d3b0a2b	0.045663994
164	0x3dd66f25	0.10470418
165	0xbe18df3d	-0.14928909
166	0xbd463d8f	-0.04839855
167	0x3d3c000e	0.04589849
168	0xbe640d6f	-0.2227075
169	0x3d57709a	0.05259762
170	0x3d6b187a	0.05739639
171	0x3d88c696	0.06678502
172	0x3e7c14b3	0.24617271
173	0x3e11cf31	0.14239193
174	0xbd79d2ca	-0.06099204
175	0xbbdc7a95	-0.00672848
176	0xbe5a162f	-0.21297525
177	0xbdb93f40	-0.09045267
178	0xbe2dec61	-0.16984703
179	0x3ba402e4	0.0050052274
180	0x3bad4365	0.005287575
181	0x3e5a93d0	0.21345448
182	0x3e41b6b1	0.18917347
183	0x3e249624	0.16072899
184	0xbe22cf87	-0.15899478
185	0xbdc41acd	-0.09575424
186	0xbdb2648a	-0.087105826
187	0x3d51a2c6	0.051180623
188	0x3df5309a	0.11972161
189	0x3e763b38	0.24046028
190	0xbdc7aaf6	-0.09749405
191	0x3d8c1667	0.068402104
192	0x3e7df683	0.24801068
193	0x3e4ea4fc	0.20180124
194	0x3c32ed5d	0.01092085
195	0x3e0465c6	0.12929448
196	0x3e79923c	0.2437219
197	0xbe5bc16a	-0.214605
198	0x3e66c382	0.22535518
199	0xbce6fd69	-0.028197007
200	0xbdebf097	-0.11520498
201	0x3e0cbfe9	0.13745083
202	0xbe30577d	-0.17220874
203	0xbd124598	-0.0357109
204	0x3e75fa8b	0.24021356
205	0x3d4820a3	0.04885925
206	0xbd0ccb50	-0.03437358
207	0x3e52d3ec	0.20588654
208	0xbdbda1cc	-0.09259376
209	0x3da3d8ef	0.08000361
210	0xbe1c9666	-0.15291747
211	0xbddef015	-0.10885636
212	0xbe72b4b8	-0.23701751
213	0x3e4bcc6d	0.19902201
214	0xbae2222b	-0.0017252614
215	0xbe37bf8f	-0.17944168
216	0xbd38ea77	-0.045145478
217	0x3dd6ab16	0.10481851
218	0x3e2a8be4	0.16654927
219	0x3e147b38	0.14500129
220	0x3e36b870	0.17843795
221	0xbe07722b	-0.13227145
222	0xbe0ca161	-0.13733436
223	0xbdf9255a	-0.12165327
224	0x3d67cad6	0.056589924
225	0x3d7cf07b	0.061752778
226	0x3dac1728	0.08402854
227	0x3c2b7335	0.010464479
228	0xbd1d66a3	-0.03842796
229	0x3e1b7982	0.1518307
230	0x3c2c3ff0	0.010513291
231	0x3e4ce9b8	0.20011032
232	0x3e53994e	0.2066395
233	0xbe12e484	-0.14344984
234	0xbe7bc17a	-0.24585524
235	0x3dec7519	0.11545772
236	0x3e3956f4	0.18099576
237	0xbbe71aeb	-0.0070527694
238	0x3cdb8e2a	0.026801188
239	0x3e20d9b2	0.15708044
240	0xbe5033c0	-0.20332241
241	0x3dd266cf	0.102735154
242	0x3e1f7f1c	0.15575832
243	0x3d4378a9	0.047722492
244	0xbd51417b	-0.051087838
245	0xbc4cfbf3	-0.012511241
246	0xbe6ead37	-0.23308264
247	0x3e799bb9	0.2437581
248	0x3e7a4df2	0.24443796
249	0x3e60df00	0.21960068
250	0x3dc165b4	0.094432265
251	0x3e649f33	0.22326355
252	0x3c8bdc8e	0.017072942
253	0x3973c729	0.00023248479
254	0xbe371736	-0.17879948
255	0xbbf7f346	-0.0075668423

conv_separable_point.weight f4 [16, 16, 1, 1]
0	0x3e4258a3	0.18979125
1	0xbda32f58	-0.079680145
2	0xbd121c22	-0.03567136
3	0x3e3c4450	0.18385434
4	0x3e5575d7	0.20845734
5	0x3cd1beee	0.025603738
6	0x3cacf638	0.0211135
7	0x3d5c7ede	0.053831927
8	0x3e3f7349	0.18696322
9	0x3c8ccd98	0.017187878
10	0xbdee92f4	-0.11649123
11	0xbe266138	-0.16248024
12	0x3e151da0	0.14562082
13	0x3d96147b	0.07328125
14	0xbd36e8f5	-0.04465576
15	0xbdd30323	-0.10303333
16	0x3da52242	0.08063175
17	0x3d337c44	0.04381968
18	0xbe3826ac	-0.17983502
19	0xbe0ab96b	-0.13547294
20	0x3e2fdeb0	0.17174792
21	0xbd309c15	-0.0431176
22	0xbe14f7ec	-0.145477
23	0x3d896534	0.06708756
24	0x3e25e50e	0.16200659
25	0x3e6c6b7c	0.23087877
26	0x3e2824ca	0.16420284
27	0x3da4e11a	0.08050747
28	0xbe6e432d	-0.23267813
29	0xbd90c616	-0.07069032
30	0x3e09b6f2	0.13448694
31	0x3c0e26ed	0.008676273
32	0x3e345969	0.17612232
33	0x3de6cc73	0.11269464
34	0x3e6cfabe	0.23142526
35	0x3dc9c005	0.09851078
36	0xbdbf99e0	-0.09355521
37	0xbda00b0d	-0.07814608
38	0xbd16cdd4	-0.036817387
39	0x3d080918	0.033211797
40	0x3e355cd0	0.17711186
41	0xbe2c8696	-0.16848215
42	0x3d1d985c	0.03847538
43	0x3e168799	0.14700164
44	0xbe7ba141	-0.24573232
45	0x3e2093fa	0.15681449
46	0xbe0294ef	-0.12752126
47	0x3d20bcf7	0.03924271
48	0xbd008138	-0.031373233
49	0xbe3ba38f	-0.18324111
50	0xbe2a339d	-0.16621251
51	0x3e279f1f	0.16369294
52	0x3e03e5a6	0.12880573
53	0xbdcdd477	-0.1005029
54	0xbe666aa0	-0.22501612
55	0xbe363a95	-0.17795785
56	0x3db44a6e	0.08803259
57	0x3e4f7332	0.20258787
58	0xbe2395d4	-0.15975124
59	0xbc5e23c7	-0.013558335
60	0x3e656a33	0.22403793
61	0xbd46c17b	-0.04852436
62	0xbccf3a88	-0.025296465
63	0xbe107127	-0.14105664
64	0xbe05e534	-0.13075715
65	0x3e58f22c	0.21186131
66	0xbe14b43e	-0.14521882
67	0xbe6fbdc2	-0.2341223
68	0xbe4fccc7	-0.2029296
69	0xbdb05101	-0.086092
70	0x3e1d1049	0.15338244
71	0xbe3df9bd	-0.18552299
72	0x3e7a630d	0.24451847
73	0xbe23a7c8	-0.15981972
74	0x3e69fcfe	0.22850415
75	0xbc19f210	-0.009396091
76	0xbcb84ef0	-0.022498578
77	0x3d6ca222	0.05777181
78	0x3e467741	0.1938143
79	0x3d45054a	0.048100747
80	0x3da89531	0.08231581
81	0xbde19283	-0.11014273
82	0x3d807550	0.062723756
83	0xbe00b1d2	-0.12567833
84	0x3e193f73	0.1496561
85	0x3e61b6b4	0.22042352
86	0xbe2ba78f	-0.16763137
87	0x3e7b5787	0.24545108
88	0xbdcf8ff8	-0.10134882
89	0x3ce38bf0	0.027776688
90	0xbe20c3b5	-0.15699656
91	0x3e0dafd2	0.13836601
92	0xbdab092d	-0.083513595
93	0xbdf4c072	-0.119507685
94	0xbe6ce6e4	-0.23134953
95	0x3c902b59	0.017598795
96	0xbe7d392f	-0.24728845
97	0x3e0944c0	0.13405132
98	0x3e649bd1	0.22325064
99	0xbd8b299d	-0.067950465
100	0xbdd41856	-0.10356204
101	0x3dcc0496	0.09961812
102	0x3e17dcad	0.14830275
103	0xbe4e1ee6	-0.20128974
104	0xbe35304f	-0.1769421
105	0xbe2efdb6	-0.1708897
106	0x3e71000c	0.23535174
107	0x3e745b23	0.23862891
108	0x3d2e128b	0.042498153
109	0x3df3c56e	0.11902891
110	0x3e6e3e8f	0.23266052
111	0xbd1cc0b8	-0.03826973
112	0x3e26fe8c	0.1630804
113	0xbe1a34fa	-0.15059271
114	0xb8b1f1d8	-8.4850646e-05
115	0x3e6eb583	0.23311429
116	0x3e734b01	0.2375908
117	0x3e4feace	0.20304415
118	0xbd1065c8	-0.035253316
119	0xbc821238	-0.015877828
120	0xbc4fca5c	-0.012682524
121	0xbe08702d	-0.13324042
122	0x3db798c1	0.08964682
123	0xbe3a5fc8	-0.182006
124	0x3deaefe0	0.11471534
125	0x3e29dbb4	0.16587716
126	0x3dd7e1e7	0.10541134
127	0xbdcc92e2	-0.09988953
128	0xbd669b06	-0.056300186
129	0xbe67fcfd	-0.22655101
130	0x3dc14f6d	0.094389774
131	0xbe66151c	-0.2246899
132	0xbe0ee74f	-0.13955425
133	0x3e304540	0.17213917
134	0xbe7a174f	-0.24422954
135	0x3e45ed6e	0.19328853
136	0xbe0024ad	-0.1251399
137	0xbc74648a	-0.0149165485
138	0xbe75a77c	-0.23989671
139	0xbe22e4cf	-0.15907596
140	0xbc814a93	-0.01578263
141	0xbd8dc926	-0.06923132
142	0x3e18b37c	0.14912218
143	0xbe597145	-0.21234615
144	0x3da174d9	0.07883615
145	0x3e6ababb	0.22922795
146	0xbd163912	-0.03667552
147	0xbc071d8a	-0.008246789
148	0xbe54f730	-0.2079742
149	0x3e79d7ea	0.24398771
150	0x3e2f4bb3	0.1711872
151	0x3e5deb16	0.2167171
152	0xbdf46883	-0.119339965
153	0x3cb798db	0.022411754
154	0x3e198a9d	0.14994283
155	0xbde94fa7	-0.113921456
156	0x3dd26fa7	0.10275202
157	0x3b00cd30	0.0019653551
158	0xbe75a262	-0.23987725
159	0xbe74dc2b	-0.23912112
160	0xbe5ec8a6	-0.21756229
161	0xbe506010	-0.20349145
162	0x3ce99935	0.028515438
163	0xbdf79ea9	-0.12090809
164	0xbe4960d1	-0.19665839
165	0x3da62f1b	0.081144534
166	0x3e53a18d	0.20667095
167	0xbdf504b7	-0.1196379
168	0x3d80c5a4	0.06287697
169	0xbe05b2a2	-0.13056424
170	0xbe6d28fd	-0.23160167
171	0xbac7fcce	-0.0015257837
172	0xbbb77c68	-0.005599547
173	0xbe5b1f7b	-0.21398728
174	0xbdcce64e	-0.10004865
175	0x3e17d122	0.14825872
176	0x3d87fbaf	0.06639802
177	0x3cdb0b74	0.02673886
178	0x3e5b045f	0.21388386
179	0x3e6fc887	0.23416339
180	0xbdc9c6da	-0.09852381
181	0x3e3afcd0	0.18260503
182	0xbe5b9121	-0.21442081
183	0x3e618fad	0.22027464
184	0xbe10d219	-0.14142646
185	0xbd3e376e	-0.04643958
186	0x3e75686d	0.23965617
187	0xbcd7b0fe	-0.026329514
188	0xbd558862	-0.052132018
189	0xbe48cdd9	-0.19609775
190	0x3e60e216	0.21961245
191	0xbdfe5f72	-0.124205485
192	0x3e59e47c	0.21278566
193	0x3e43de8a	0.1912786
194	0x3e4817dc	0.19540352
195	0x3e208cae	0.15678665
196	0x3d24ebad	0.04026382
197	0xbddea8b6	-0.10872023
198	0xbdbbd1e5	-0.091708936
199	0x3e769633	0.24080734
200	0xbdd1eeba	-0.102506116
201	0xbd02a017	-0.031890955
202	0xbd6f4a67	-0.058420565
203	0x3e532739	0.20620431
204	0xbde759d1	-0.11296428
205	0xbe7d07b7	-0.24709974
206	0x3cea0979	0.02856897
207	0xbe56ff11	-0.20995738
208	0x3de21882	0.11039831
209	0xbd8b0cab	-0.067895256
210	0xbdc54dac	-0.09633955
211	0xbe7b2896	-0.24527201
212	0xbe70969b	-0.23494951
213	0xbd87b9e6	-0.06627254
214	0xbc9f7da6	-0.019469094
215	0x3e6c6be9	0.2308804
216	0x3e7ac1c1	0.24487974
217	0x3e607a8e	0.21921751
218	0x3d20ed1b	0.03928862
219	0x3e564e5a	0.20928326
220	0x3e5a1abd	0.21299262
221	0xbe4c708e	-0.19964811
222	0x3e09d1e2	0.1345897
223	0x3e2f43b8	0.17115676
224	0xbb85c5d4	-0.004082421
225	0x3e3ae2d8	0.18250597
226	0xbcd882a4	-0.026429482
227	0x3d7cd81a	0.061729528
228	0x3e460407	0.19337474
229	0xbe354160	-0.1770072
230	0x3e610cf2	0.21977594
231	0x3d06de73	0.032926988
232	0x3e4afbae	0.1982257
233	0xbd463c99	-0.048397634
234	0xbe060ad1	-0.13090064
235	0x3e4f8e98	0.20269239
236	0x3b5f165f	0.0034040434
237	0xbe4dcf97	-0.2009872
238	0xbe72ffd4	-0.23730403
239	0xbe6cf762	-0.23141244
240	0xbcb7aa0f	-0.022419957
241	0xbe3a265e	-0.18178698
242	0xbd427b8c	-0.047481105
243	0x3df0e380	0.11762142
244	0xbe417baa	-0.1889483
245	0xbe117b7a	-0.14207259
246	0xbe409081	-0.18805124
247	0x3cd2720a	0.025689144
248	0x3db122b0	0.08649194
249	0xbdf6566a	-0.12028201
250	0x3e2c9bd5	0.1685632
251	0xbe1ffc10	-0.15623498
252	0xbe18f79c	-0.14938205
253	0xbbf6dedf	-0.0075338925
254	0x3d8a9b82	0.06767942
255	0xbdd48a33	-0.10377922

bn3.weight f4 [16]
0	0x3f801a89	1.0008098
1	0x3f7faa38	0.9986911
2	0x3f7fb6be	0.9988822
3	0x3f7fd0e5	0.9992812
4	0x3f7fc083	0.99903125
5	0x3f801b6f	1.0008372
6	0x3f801baf	1.0008448
7	0x3f80190a	1.0007641
8	0x3f802091	1.0009938
9	0x3f801a9a	1.0008118
10	0x3f7fafec	0.9987781
11	0x3f801e59	1.0009261
12	0x3f801708	1.0007029
13	0x3f80245b	1.0011095
14	0x3f7fc66a	0.9991213
15	0x3f7fc348	0.9990735

bn3.bias f4 [16]
0	0x39eef597	0.00045577876
1	0xba5c307b	-0.0008399558
2	0xba10f84a	-0.0005530162
3	0xb9eafcca	-0.000448203
4	0xba090c67	-0.00052279833
5	0x39ec2a86	0.0004504511
6	0x3a260d1c	0.0006334351
7	0x39f788cc	0.00047213433
8	0x3a12e0c3	0.000560295
9	0x39fbe5aa	0.00048045564
10	0xba6980e4	-0.0008907451
11	0x3a3da895	0.00072348985
12	0x39fadddc	0.00047849014
13	0x3a418c5e	0.0007383282
14	0xba1cd248	-0.0005982262
15	0xba0b36ce	-0.0005310596

bn3.running_mean f4 [16]
0	0x39b8b200	0.00035227835
1	0x3b4e7306	0.0031501665
2	0xbcb37509	-0.021906393
3	0xbbf4ec02	-0.0074744234
4	0xb9b30014	-0.000341416
5	0x3c291b3c	0.010321435
6	0x3ac19c1b	0.0014771255
7	0x3b866051	0.0041008373
8	0x3c979cb4	0.018507339
9	0xbb5b8db6	-0.0033501214
10	0x3c590a12	0.01324703
11	0xbac8ce76	-0.0015320319
12	0xbc6ae382	-0.014336469
13	0x3d3fe6e4	0.046851054
14	0xbcbb9fed	-0.022903407
15	0xbc6df1d5	-0.014522989

bn3.running_var f4 [16]
0	0x3f4075b8	0.75179625
1	0x3f41519d	0.75515157
2	0x3f42296f	0.7584447
3	0x3f42c556	0.7608236
4	0x3f42ac8d	0.7604454
5	0x3f41e2e8	0.75736856
6	0x3f45693e	0.7711371
7	0x3f40502b	0.75122327
8	0x3f43cce3	0.7648451
9	0x3f459bd6	0.7719091
10	0x3f42a32e	0.7603024
11	0x3f456e2e	0.77121246
12	0x3f45127e	0.7698134
13	0x3f476a16	0.7789625
14	0x3f43e921	0.765276
15	0x3f417ff4	0.75585866

classifier.weight f4 [2, 16]
0	0x3dad188c	0.084519476
1	0x3e6a177f	0.22860526
2	0x3d98eb8a	0.074668005
3	0x3e359f9b	0.17736666
4	0xbd261a2a	-0.040552296
5	0xbe22ded5	-0.15905316
6	0xbce3ef3a	-0.027824033
7	0xbe3b9fa1	-0.18322612
8	0xbdf4ed5d	-0.11959336
9	0xbe140e84	-0.14458662
10	0x3e21b4d3	0.15791635
11	0xbe47ec56	-0.19523749
12	0xbdbb808b	-0.09155377
13	0x3d8901ba	0.066897824
14	0x3d0ce290	0.034395754
15	0x3e7795c9	0.24178232
16	0x3e31f4fa	0.17378607
17	0xbe5f2011	-0.21789576
18	0xbe31a6a4	-0.17348725
19	0x3dfee0b0	0.124451995
20	0xbe255acd	-0.16147919
21	0x3c1c7a2f	0.009550615
22	0x3e803b39	0.25045183
23	0xbe0abb8d	-0.13548107
24	0x3d22ab69	0.03971425
25	0xbdc16f1a	-0.09445019
26	0xbd776344	-0.0603974
27	0x3dda7655	0.10667101
28	0x3ca66142	0.020310048
29	0x3e10fed6	0.14159712
30	0xbdfb029c	-0.12256357
31	0xbe4b202b	-0.1983649

classifier.bias f4 [2]
0	0x3e234d9a	0.15947571
1	0x3e7c67be	0.2464895
