notebooks/outputs/temp_B07_fold3_best.pth (torch, 12776 bytes, 18 tensors)

conv_temporal.weight f4 [8, 1, 1, 64]
00000000: 16a6 a13d d56f 873d 6995 ef3d b0ea 8abc
00000010: 75af 003e d0cc bf3d d0f4 86bd 1f57 393d
00000020: f439 943d fe64 93bd bac2 b2bd 78e2 8abd
00000030: 1a68 adbc 76cf aa3d 1718 3dbd 2747 76bd
00000040: 44c7 b43b d565 bf3d 267e 323d 0bd0 5bbd
00000050: 12a9 bfbc f987 383d 81d2 a43d dfa1 173e
00000060: 4f0c ed3d 1d4d 393d f892 3c3c 80a6 71bd
00000070: 559d bbbd bd0d 003d 06ba 9fbc a254 993d
00000080: d3e3 2a3d 856b d1bd a6a4 003c ba96 17bd
00000090: 4a3c 36bc cef1 3a3d 0222 2f3d 754f 3e3d
000000a0: 88a5 8fbc 1cc3 d43d 17b7 d33d 848a 653d
000000b0: f040 443d 617a daba 81d2 913d 96d0 713c
000000c0: 61be 093d d517 90bd dc5f 73bd 77aa d53c
000000d0: 78bf 5bbd 5d23 bbbd ab22 813d bd47 2d3d
000000e0: d6b5 54bc aad4 3d3c e4d2 a5bd 6e2e ab3d
000000f0: c772 55bd 5ed1 fc3d 0578 2a3e e337 0d3e
00000100: 9986 07bd 3db3 be3d 8f88 e3bb 08b1 bfbd
00000110: a34e a2bc d6bd b3bd 4058 ad3c 370c 3bbe
00000120: 4677 dbbd 97a6 fdbc 7285 11be 6f2a 81bd
00000130: a243 ccbd c41e 17bc cdaa 433d 88ab 893d
00000140: 934d 45bd 563c 0b3e 523c a03d 64a8 b33d
00000150: 4a79 ab3d b150 14bd d3f0 b33d 7510 7b3d
00000160: af24 94bd 41b1 803d 1b94 a63d 09f4 8f3d
00000170: 1d85 5fbd a7ed de3d 2a9f d03d b08b 633d
00000180: 84b1 0cbd e42b 36bc 6642 2f3d bf65 863c
00000190: 949c f4bd f2e4 03be bbee 27bd c0f4 cbbd
000001a0: 66e4 aebd 4597 2ebd 845c 8bbd 72df 24bd
000001b0: 83ca a4bd 954f 153e 3fd3 64bd c6f8 443d
000001c0: 5ddf e3bb b10f f73c bcfe f63c 4ea1 5fbc
000001d0: d092 0dbe 812a 18bc 1b77 86bc f40d d7bd
000001e0: cbd8 42ba 7736 99bd 9d46 b73d 48a5 0abd
000001f0: e77e 8d3d 394e 963c 4071 813d dfb4 fd3d
00000200: 15f3 013e fdf8 503d db9d 163e fcca 053e
00000210: 96c4 c6bd 8318 e63c 980a 873d 8aba 65bd
00000220: 2759 98bd 1a90 a4bd f108 8abd e96b c43d
00000230: 62c6 b6bc 2a51 a1bd da86 18bd 7fa2 01bd
00000240: ef84 b63d 62dc d3bd 7a42 123d d498 2d3d
00000250: ba7c 0d3d a404 be3d 74d2 a6bd d064 aebd
00000260: e1a1 073d 483b 08be 3127 8936 1391 373d
00000270: 1bed c6bd 2b54 81bd 9e83 29bd 6cd8 4ebd
00000280: 4359 e93c c7d9 c83c 480d 6ebd 084e c7bc
00000290: 1511 f23c 8116 0cbd ee5b a7bd 7d42 be3d
000002a0: 9a76 f43d f773 8e3c b62d 28bd 53f7 213e
000002b0: a4d3 943d 7233 253e 22b4 a4bd 9544 93bd
000002c0: 706b 273d 3c41 493d e220 28bc f4aa 813c
000002d0: c8b5 913d 14cd a4bd 7989 79bd 2463 753c
000002e0: d7ce 873d 59d5 ad3d a952 4fbd bcd5 1d3e
000002f0: f2b1 0abc e12d 013e 932e 0c3e e601 12bd
00000300: 7ea5 9a3d 7251 ec3c 01f3 bcbc a8bf c4bd
00000310: ffbd 4c3d b74b 963d 3a95 5abd dffa 06be
00000320: eae7 85bd 2251 9c3d 7760 9ebd 84cd 573d
00000330: b251 c23d 7caf 19bd 6614 b73c 58e8 8c3d
00000340: f7dd f7bd 6aa4 013d 334d 7dbd 2af4 023e
00000350: ab43 9339 3932 043e 504b 2ebd 4d63 a6bd
00000360: ea32 6e3d c4cb bebb 5e89 35bd fd1d 86bd
00000370: 6516 c93c 0e7d 823c 1a08 9dbd e119 d73c
00000380: 3e4c 843d 077a 1f3e e179 0c3e 7cdb 8ebd
00000390: 8f6a bcbd dfaf b1bd 5ebc 3c3d b8b5 603c
000003a0: 5a52 a3bc ca8b 92bc ed4e 183e c55d 55bd
000003b0: a750 83bd 5b9f 83bd 5bab 863c dbbd 7c3b
000003c0: c5c4 933c 8b24 843d 104b 8c3b 372c 0a3e
000003d0: 37de 74bd 4c15 173e 1c5d 183e 18a9 5fbd
000003e0: de00 d4bd f9de 2b3d e323 03be 85d3 ae3a
000003f0: 3b61 59bc ce28 c6bd 3d8c c43d c4a4 10bd
0.078930065 0.06613127 0.116984196 -0.01695761 0.12566932 0.09365237 -0.06589663 0.0452491
0.07237616 -0.07196997 -0.087285474 -0.06781477 -0.021167804 0.08340351 -0.046165552 -0.06012645
0.0055169184 0.09345595 0.043577336 -0.053665202 -0.023396049 0.04505155 0.08047963 0.14807843
0.11574613 0.045239557 0.011509649 -0.058996677 -0.09160868 0.0312631 -0.019497883 0.074868456
0.041721176 -0.10225586 0.007851755 -0.03700898 -0.0111227725 0.04564076 0.04275704 0.046462495
-0.017534986 0.10388777 0.10337656 0.056040302 0.04791349 -0.0016668552 0.071202286 0.014759203
0.033628825 -0.070357956 -0.05941759 0.02608226 -0.053649396 -0.091376044 0.063054405 0.042304743
-0.012982806 0.011586348 -0.08096865 0.08358465 -0.052111413 0.12344621 0.16647346 0.1379085
-0.033087347 0.09311531 -0.0069437693 -0.09359938 -0.019812888 -0.08776443 0.021160245 -0.18266378
-0.10716109 -0.030963225 -0.14211062 -0.06306922 -0.099738374 -0.009223644 0.04777031 0.0672217
-0.048169684 0.13597235 0.07824005 0.08772352 0.083727434 -0.036209766 0.08786168 0.06129499
-0.07233559 0.062838085 0.081337176 0.07028968 -0.054570306 0.10885172 0.10186608 0.05555314
-0.03434898 -0.011118863 0.04278793 0.016405938 -0.119439274 -0.12880304 -0.040999155 -0.09958792
-0.08539657 -0.04262473 -0.06804755 -0.040252157 -0.080464385 0.1458114 -0.055865522 0.04808881
-0.006954117 0.03015885 0.030150764 -0.013649298 -0.13825536 -0.0092874775 -0.016414216 -0.10500708
-0.00074328174 -0.074810915 0.08949015 -0.03384903 0.0690897 0.018347846 0.06320429 0.12388014
0.12690385 0.051018704 0.14708655 0.13065714 -0.097054645 0.02808786 0.065938175 -0.0560861
-0.074388795 -0.08035298 -0.06739987 0.09590895 -0.022311393 -0.07876809 -0.03723798 -0.03164911
0.08912074 -0.10344769 0.03570793 0.042382076 0.034542777 0.09278229 -0.081456095 -0.08515322
0.033113364 -0.13303864 4.0874806e-06 0.044816088 -0.09713193 -0.06314882 -0.041385286 -0.050499365
0.028484946 0.024517907 -0.058118135 -0.0243292 0.029549161 -0.03420115 -0.08171831 0.092900254
0.11936684 0.01738928 -0.04105922 0.15817003 0.0726693 0.16132906 -0.0804217 -0.07190815
0.040873945 0.049134478 -0.010261746 0.015828587 0.0711475 -0.08046928 -0.06092212 0.01497725
0.066312484 0.084879585 -0.05061594 0.15413564 -0.008465277 0.12615158 0.13689642 -0.03564634
0.075510964 0.02884743 -0.023065092 -0.09606868 0.049985882 0.0733866 -0.05336497 -0.13181637
-0.06538375 0.07632662 -0.07733243 0.05268623 0.094882384 -0.03752087 0.022348594 0.068802536
-0.12102883 0.031650938 -0.0618412 0.12788454 0.00028088441 0.12909783 -0.042552292 -0.08124409
0.058154024 -0.0058226306 -0.044320457 -0.065486886 0.024546811 0.015928771 -0.07667561 0.026257457
0.064598545 0.15573893 0.13718368 -0.06975457 -0.09200012 -0.08676123 0.04607808 0.0137152
-0.01993673 -0.017888922 0.14873858 -0.05209138 -0.064118676 -0.06426879 0.01643913 0.003856531
0.018038163 0.064522825 0.004281409 0.13493429 -0.059782233 0.14754218 0.14879268 -0.05460462
-0.10351728 0.04196069 -0.12806658 0.0013338184 -0.01326781 -0.096757516 0.09597061 -0.035313383

bn1.weight f4 [8]
00000000: b2a8 243f 94e7 243f 7945 243f fd3a 243f
00000010: aceb 243f 1860 243f d2bf 243f 3177 243f
0.6431991 0.6441586 0.64168507 0.6415251 0.64422107 0.6420913 0.64355195 0.6424437

bn1.bias f4 [8]
00000000: 89a3 77b7 972f 96b7 14ad 65b7 fc70 66b7
00000010: 02cf 08b8 b165 71b6 3af4 acb6 1db6 dd37
-1.4760423e-05 -1.7903554e-05 -1.36897615e-05 -1.37353745e-05 -3.2617718e-05 -3.597099e-06 -5.154431e-06 2.6430056e-05

bn1.running_mean f4 [8]
00000000: 8708 2db9 05fa a039 1504 70b9 4dee 2db8
00000010: 68cc 5439 1bb8 3839 5988 0eb9 b6f8 50b8
-0.00016501742 0.00030703857 -0.00022889704 -4.146835e-05 0.00020294043 0.00017616192 -0.00013592969 -4.9822695e-05

bn1.running_var f4 [8]
00000000: fe47 373f c113 503f ba42 193f ec34 953e
00000010: d8d4 133f cf11 063f f3c2 fb3e 72f7 1c3f
0.71594226 0.8128014 0.5986744 0.2914194 0.5774665 0.52370924 0.49172172 0.6131507

conv_spatial.weight f4 [16, 1, 3, 1]
00000000: cf3c 2e3e b1d8 d0be bae1 9a3c d652 bd3e
00000010: 478f 25bf a77f b2bd f13c abbe 9894 c0bc
00000020: 1840 233f 1d4b e8bd 9142 6dbd a588 ab3e
00000030: 69dc 8fbe d57e 9d3d 3a14 0a3f f0de d73e
00000040: da68 f8be 25aa 5c3e 6e16 eabe 0410 efbe
00000050: 21c3 e1bd d33b bf3e ca48 39be 5b8c c6bd
00000060: c03a ecbd 820f 5c3c 4f40 a43e 6c81 61bd
00000070: 2a4a 21bf 5459 20be 8950 c5bd 8d93 123e
00000080: 8bc5 07bf 5f55 d63e 6b02 103f d854 2fbe
00000090: a821 cb3d 66bf bfbe 5487 903d 6ff3 c8bd
000000a0: 7546 46bf 2ba3 b93d 76e5 04bf 57fd e0be
000000b0: 7afb ef3d 4e27 8b3e 5c81 c6bc db7e 1bbf
0.17015384 -0.40790322 0.018906463 0.3697726 -0.6467175 -0.08715754 -0.33444932 -0.023508355
0.63769674 -0.11342452 -0.05792481 0.3350269 -0.28097847 0.07690207 0.53937113 0.42162275
-0.48517495 0.2154928 -0.45720237 -0.46691906 -0.11023546 0.3735033 -0.18094173 -0.096947394
-0.11534643 0.013431432 0.32080314 -0.055055067 -0.6300379 -0.15659076 -0.096345015 0.14314099
-0.530358 0.41862008 0.5625369 -0.17122209 0.09918529 -0.37450713 0.07057062 -0.09812056
-0.7745126 0.09064325 -0.5191263 -0.43943283 0.11717887 0.27178425 -0.024231605 -0.6074044

bn2.weight f4 [16]
00000000: 3eea 823f a909 963f 2979 883f b96c 833f
00000010: a583 5a3f cba6 6d3f e427 863f 098e 603f
00000020: f192 963f ffb1 503f 39ee 8d3f 831f 7e3f
00000030: 81a5 8a3f e4ee 863f d9ce 6e3f c018 903f
1.0227735 1.1721698 1.0661975 1.0267555 0.85357124 0.9283263 1.0480924 0.8771673
1.1763593 0.815216 1.1088325 0.99266833 1.0831758 1.0541654 0.93284374 1.1257553

bn2.bias f4 [16]
00000000: ad19 7dbe 4faf 97be b87d 44be aa22 58be
00000010: e4bd a9bd b8dd 3abe 73ef 1abe de6b 77bd
00000020: 2f6b a3be bec8 c5bd 88b3 5fbe 85ab 13be
00000030: b2db 6bbe b9b8 68be b8c2 25be 0d13 7fbe
-0.24716826 -0.29625937 -0.19188583 -0.21106973 -0.08288172 -0.18248641 -0.15130405 -0.060405605
-0.31917712 -0.09657429 -0.2184583 -0.14420898 -0.23033026 -0.22726716 -0.1618756 -0.24909611

bn2.running_mean f4 [16]
00000000: c26e 8c37 3880 c6b6 97dd 5ab8 bd99 b1b7
00000010: 9aba af38 5435 8837 079e a837 7d6b 2937
00000020: f4ad b7b8 83c5 1d38 387c 7b38 8de5 9838
00000030: 5768 8c38 5878 2d39 1525 22b5 8f3c c3b7
1.6740876e-05 -5.9157865e-06 -5.2181622e-05 -2.1171634e-05 8.3794075e-05 1.6237296e-05 2.0100748e-05 1.00982115e-05
-8.758521e-05 3.7615664e-05 5.995875e-05 7.290682e-05 6.695155e-05 0.00016543397 -6.0403664e-07 -2.3274011e-05

bn2.running_var f4 [16]
00000000: 2a57 6e3d 0ba4 1c3e 00fe cb3d 2b5d de3c
00000010: 8968 a33d ff4c 0e3e 963e 833e cf85 223d
00000020: c68d e83c 0703 5c3e 8584 043e a161 803e
00000030: e621 253d e3f6 813e 3ffe 6e3e 7c2c d63d
0.058188595 0.15296952 0.09960556 0.027144035 0.07978923 0.13896559 0.25633687 0.03967839
0.028387915 0.2148553 0.12941177 0.25074485 0.04031553 0.25383672 0.23339175 0.104577035

conv_separable_depth.weight f4 [16, 1, 1, 16]
00000000: 7fea 153c b578 863e 3fdd 173e 38e9 843d
00000010: 502e 6e3e 9951 92bc ef5f d6bc 1d6e f23d
00000020: f2c2 a33d 1c2e 863e 29f3 933e cd39 10bb
00000030: bf23 de3c dce7 993e 0b4c 853d b0a1 df3d
00000040: d56a 8cbe a459 74be 4692 c7bd 18f1 9cbd
00000050: b13d cc3c 3272 8abd 4bd8 043d 10f9 84be
00000060: 4e62 8ebe 5da1 d0bd 89dd 8dbe 026e 75be
00000070: a8bd 68be 75d4 55be a8da 15bd cc35 9bbd
00000080: b836 8cbd a082 85be 518a 873d d57b 39be
00000090: 2814 20be fa70 a4bd c11d 52be 6388 01be
000000a0: 0fc7 13be 50e2 483d 714a 52be 874d 89bd
000000b0: 555f 2bbe cba4 46be 4568 14be 8e46 d1bd
000000c0: 3db9 263e 0ecd 1b3d a4ec 473e e8f2 eb3b
000000d0: d3d1 843e cd41 993d ce0e 763e e429 25bd
000000e0: ee7e 743e 056f 713e 19a7 0f3e 1057 ae3d
000000f0: 6cea 1cbb 0501 63bb c041 993e 5de6 213d
00000100: 8aa6 dc3d 868f a13d 6dba 03be 5ea5 2bbe
00000110: 3b26 f2bd 4b11 223e 004d 033e fafc ccbd
00000120: dbbd f13b 252c f33d 765d 1d3e f562 00be
00000130: b605 febd d95b d43c 2edf 1c3e dd62 9b3d
00000140: 1ea7 99be 2e13 7cbe 9655 14be 3cdd 9e3d
00000150: 15a6 3abe b5dd c4bb 77dd 103d 7e7e 4d3c
00000160: 3fa2 c4bd 5623 8bbe 60d9 66be e8f4 9e3d
00000170: aa84 4cbd 8a80 abbc ddd6 93be 9dce 993d
00000180: 3cdd 50bd 5158 563d ea65 3bbe e3b0 25be
00000190: f8c0 3dbe 4c84 e8bd 93d5 1bbe 74f2 14be
000001a0: 40a9 56be a936 07be 1185 b9bc 5d63 abbd
000001b0: a24a c5bd 1129 47be 10a5 46bc fbed 29bc
000001c0: 88b8 88bd ad3d 0d3e 2cd1 4ebd 1d41 123e
000001d0: 671c 5d3c d62f dd3b 0f9b 943d ec7a 0b3e
000001e0: 7db2 9d3d f42c 00bd 5960 533c 40dc 2abe
000001f0: 1fa6 de3d e192 d63d 368c b6bd 2a9d 1d3d
00000200: c875 83be 2031 92be c2e2 c13d 5c73 7bbe
00000210: 3ca5 9dbd 9386 86be 3ab4 b5bd 4956 dcbd
00000220: 4aef 6abe 7d60 2cbe bb16 94be afe6 443d
00000230: 74a5 2a3d 3bd5 3fbe 8c98 77be e0b5 d4bd
00000240: 962f eebd a441 0d3e a52f 76bc e1f3 0bbe
00000250: 61a4 3fbd a8ed 003d 0562 243b daec 373d
00000260: 1fed 8a3d 85f4 bb3d 363e 03be f47e 243e
00000270: b451 e33d 31a0 fbbd 93d1 a83d 12f3 af3d
00000280: 44fa 94bd 4bfe 1dbe 42af 67be 4d9d deba
00000290: 973f 92be 9de6 6ebe 4d3b 073d ab29 70be
000002a0: ed54 0cbe 1a2f 66be 6c44 6ebe 061f 1bbe
000002b0: fee1 983c 98f4 23be 7b32 8fbd 0c61 4fbe
000002c0: e8cc cf3d a91f a23d b418 d13c 7597 503d
000002d0: e91b fd3d 681d b33d 0856 243e 9820 e23d
000002e0: 457b 1e3e 6829 be3d 4c1c 2c3d bcd0 0e3e
000002f0: ebe3 4fbc a15d 2b3e 8b19 06bc c9dd 0abc
00000300: a36e 603e 631c b6bc e2f1 963d d18e 683e
00000310: 1dc5 283e 28ad 32bb 7922 333e 7540 873d
00000320: ab17 863e f784 a63d 115f 893c 99c4 063e
00000330: e76a 7d3e 316c fd3c 6a30 223e ffda 703d
00000340: 6e34 14be b7de 1abe 3dd3 e2bd 0557 9fbd
00000350: 19b1 fbbd f44b 24bc efb1 03bc ee65 e6bd
00000360: fc23 a23d 4873 79be c244 5bbe 166a 0ebc
00000370: e9ac 0fbe a5b3 2ebe 0426 5b3d 795f 49be
00000380: f59a 00bd 6601 083c 050b 0d3e ec3e aa3c
00000390: 2334 0a3e 7f9b 55bd 7ca5 fa3d e8b2 893c
000003a0: 0f83 403e 6b36 833d d233 a73d 54f2 5bbd
000003b0: 580a 2d3e 6c82 b13d 2594 2d3e ffc4 82bd
000003c0: 0153 073e 28e7 a33e 81b4 2d3e 234e 4d3e
000003d0: fd4e c53d 1040 e53d a2b6 fb3d 9b15 783d
000003e0: 1548 663e c992 503e 69b6 0c3e 8bb5 3d3e
000003f0: 1d95 3b3e fbde 1d3d 80cd d23b 45e3 253d
0.0091501465 0.26263967 0.14830492 0.064897954 0.23259854 -0.017861174 -0.026168792 0.11837409
0.07996167 0.26207054 0.28896454 -0.0022007108 0.027116654 0.30059707 0.06508645 0.10919511
-0.27425256 -0.2386232 -0.09744696 -0.076631725 0.02493176 -0.06760062 0.032432836 -0.2597127
-0.27809376 -0.101870276 -0.2770808 -0.23967746 -0.22728598 -0.20881827 -0.03658548 -0.0757862
-0.06846374 -0.2607622 0.06618179 -0.18113644 -0.15632689 -0.08029361 -0.20519163 -0.12649684
-0.14431404 0.049043953 -0.2053621 -0.0670424 -0.16735585 -0.19398801 -0.144929 -0.10218535
0.162816 0.038037352 0.19523865 0.0072005875 0.25941333 0.07483254 0.24029085 -0.040323153
0.23876545 0.23577507 0.14028586 0.085126996 -0.0023943437 -0.003463806 0.29932976 0.039526332
0.10773952 0.07888703 -0.12864085 -0.16762301 -0.11823698 0.15826909 0.12822342 -0.10009189
0.007377369 0.11873654 0.15367684 -0.12537749 -0.12403433 0.025922703 0.15319511 0.07587216
-0.30010313 -0.24616691 -0.14485773 0.07757041 -0.18227418 -0.006007875 0.035367455 0.012542365
-0.096012585 -0.27175397 -0.2254386 0.07761556 -0.049931206 -0.020935316 -0.28874865 0.075101115
-0.050992236 0.05233032 -0.18300596 -0.16180758 -0.18530643 -0.113533586 -0.15218191 -0.14545614
-0.20963001 -0.13204445 -0.022646459 -0.083685614 -0.09633376 -0.1944926 -0.012124315 -0.01037168
-0.066758215 0.13793059 -0.05049245 0.14282651 0.013495541 0.0067500873 0.072561376 0.1362111
0.077000596 -0.03129287 0.012901389 -0.16685581 0.10871529 0.10477234 -0.08913462 0.03847996
-0.25675797 -0.28553104 0.09467079 -0.24555725 -0.076975316 -0.26274547 -0.08872266 -0.10758645
-0.22942844 -0.16833682 -0.28923592 0.04807156 0.041661695 -0.18733685 -0.24179286 -0.103862524
-0.1163017 0.13794571 -0.015026008 -0.13667251 -0.046787623 0.031476647 0.0025082838 0.044903614
0.067835085 0.09177498 -0.128167 0.16064054 0.11099568 -0.122864135 0.08243098 0.08591284
-0.07274297 -0.15429036 -0.2262545 -0.0016984135 -0.2856414 -0.2333016 0.033015538 -0.23453395
-0.13704272 -0.22478905 -0.23268288 -0.15148553 0.018662449 -0.16011274 -0.0699205 -0.20251864
0.10146505 0.07916195 0.025524475 0.05092569 0.12358839 0.08745843 0.16048443 0.11041373
0.15476711 0.09285241 0.042019174 0.13946813 -0.012688617 0.16734935 -0.008184801 -0.008475729
0.21917205 -0.022230333 0.07370354 0.2271073 0.16481443 -0.0027263854 0.17493619 0.06604091
0.26189932 0.0813083 0.016768964 0.13160934 0.24747811 0.030935379 0.15838781 0.0588026
-0.14473125 -0.15124021 -0.11075447 -0.077802695 -0.12289638 -0.010027874 -0.008038028 -0.1124991
0.0791702 -0.24360383 -0.21412948 -0.008692285 -0.14030804 -0.17060716 0.05350305 -0.19665326
-0.03139778 0.008301115 0.13773735 0.020781957 0.13496451 -0.052150246 0.12238595 0.016808942
0.18799995 0.06406864 0.08164181 -0.0536979 0.16898477 0.08667454 0.16951044 -0.0638523
0.13215257 0.32012296 0.16963388 0.20049338 0.096342064 0.111938596 0.12290694 0.06056748
0.22488435 0.20368494 0.13741459 0.18526284 0.18318601 0.03854273 0.006433189 0.040499944

conv_separable_point.weight f4 [16, 16, 1, 1]
00000000: 4b7a 92bd da1e 733d 4db7 543d 2f05 d6bd
00000010: 0f11 953c 30c7 8c3d 6e39 d3bd 79da bbbc
00000020: 96c4 39be cd13 4c3d 4e49 d03d 2827 623d
00000030: 840c 213e 35e8 1bbe 8463 fa3d cb59 033e
00000040: 862e 08bd d7ab 1e3d 8c00 203e 96c5 50bd
00000050: 4c9b edbc 1e62 a43d eeea d3bd c45e 1f3d
00000060: d059 66be d04d 24bd dea3 d33d 861e 9ebd
00000070: 6dd5 8b3e 0626 38be c3fd 0e3e 4cb3 363e
00000080: 6a1c e3bd db0e 0b3e 2425 2f3e aac4 8ebd
00000090: 314a 5dbd 532f dd3d da3b ccbc 1737 ccbd
000000a0: 6787 92be 0605 6cbc 2768 083e 3992 b83d
000000b0: 03db 5a3e 5930 5ebe ccfc 443e 3b5e ef3d
000000c0: 52a2 813e dacc ecbc 4345 0bbe f69f 863e
000000d0: 5a54 0abe cf71 56be 5987 0e3d 4a67 343d
000000e0: cadf cb3d 635a 513e b9d1 7fbe 8642 7bbe
000000f0: 58c6 4bbe bdf1 463c 1872 ebbb 9ef3 93bd
00000100: a859 74be 5dd2 00bb 3da2 0b3e 97e9 adbd
00000110: b1e9 26be a7f3 733c 2b99 bb3d d8b7 f9bd
00000120: b54e 95be fd89 cbbc b03e fc3d 0113 f6bd
00000130: 6de4 2fbd f4ae 3fbe e800 0c3d 8847 a43e
00000140: a12a 4dbe d66e 4a3e c6f8 173d 350f febd
00000150: 96ff 9b3d 5a6c e4bd 3b87 b0be ad4f 14be
00000160: b28c 153e 0d5b 7e3d f4a4 b43d 9391 803d
00000170: 1c1c d1bd 4775 b3bd 29c2 b9bd 5f1f 603d
00000180: d059 6cbd 0731 993d 49a6 ac3d 7c5a b9bd
00000190: 7b1e 083d 7bf5 9d3d 053d a6bd 60a4 693d
000001a0: a49a 45be 971d 593d e195 fd3d 18d3 84bc
000001b0: 875d c93d 098d 8bbd 71d6 0c3e a75e 163e
000001c0: 46d8 89bd 81ed 183e 6194 0b3e 2a50 11be
000001d0: 10eb 373e 9ff7 adbb 3117 103d b363 edbd
000001e0: 2129 f5bd aec0 c7bd e7ed 873d 1643 b8bd
000001f0: 159c 2d3e bb17 e03c c122 d2bc f22d 4c3e
00000200: 9401 55be 1df7 323e f072 213e 7195 babd
00000210: eacf a9bc ddfe 6d3d 3725 e93d 1a25 abbb
00000220: dbb4 92be b23c 033d 5dcc 1d3e a426 e2bd
00000230: f70d a73c c97a 26bd f986 8d3c a135 233e
00000240: c3fe 50bd 484f e03d 8be3 fc3d 0845 6ebd
00000250: 89e0 b5bd 3ff2 183e a657 413d a1bd 9d3d
00000260: 3d39 74be d22f 083e 92e3 263e 13de c83d
00000270: 6e7c 52bc d062 5cbd 7326 c0bd e7f5 063e
00000280: bd3c 383c 3598 3cbe 64b5 4abe a998 f53c
00000290: b82c 94bd 41b6 05be dcfc 323e 6e3b 0b3e
000002a0: dc0e b43d cbe6 2c3e a7ca 80be e789 32bd
000002b0: acbc 09be 0409 313e 5fb7 39be 028d 5fbe
000002c0: d897 d9bd ddd5 b93d 9b90 db3d 0a4b d4bd
000002d0: ce08 1bbe 7812 c23d 6888 2ebe 1a99 423d
000002e0: 058e 71bd 2f96 1b3d 4be8 b13d babe 703e
000002f0: 8e74 433e 1135 163d c670 323e b442 183e
00000300: 1b22 a73d 8a34 18be 7e0e 66bd 384a 793e
00000310: ac0d 6fbd c493 13be 301f 0d3e 8e19 c23c
00000320: 21ec 7e3d 790f 673d 36aa 05be ac04 afbd
00000330: 4188 1fbe 1a8f f03d 9640 2c3d 3fe1 27be
00000340: c6c7 be3e 4475 02be 7ba8 003e 80b7 0abe
00000350: 037c 62bd ebea 8ebd 642e 393e 56dd be3d
00000360: 97cd 653d 8877 193e 1f88 093d fd34 3dbe
00000370: 93ad 5cbe 081a 9c3d 5dde 38be 5dad 3abd
00000380: 8895 68bd 51a1 073e f3f2 ac3d bbb1 0cbe
00000390: e7f9 6d3d 04ce eabb b45d 4abe 0c43 32bd
000003a0: c14a b43d 1233 afbd 9bbc d03d 9777 783e
000003b0: ae7a 483e df52 3abe 0070 b83d 2f11 1b3e
000003c0: 980d 703e 4c20 65be bf0e fb3a 046c b13d
000003d0: c8d1 c3bd 64e0 5ebd 8058 1e3e 56a4 843d
000003e0: 84f4 cb3d 371f 003e 3e55 003d 3ee8 f5bd
000003f0: 1603 17be dfc6 2d3e c8ec b9bd bfc7 d3bd
-0.07152232 0.059355594 0.05193262 -0.104502074 0.01819661 0.068739295 -0.10313688 -0.022931324
-0.18141398 0.04982357 0.10170232 0.055213124 0.1572743 -0.15225299 0.12226012 0.12827222
-0.033247493 0.038738098 0.15625209 -0.050969683 -0.029004715 0.08026527 -0.10347544 0.038908735
-0.22495198 -0.04011327 0.103339896 -0.07720666 0.27311268 -0.17983255 0.1396399 0.17841834
-0.11089404 0.13579886 0.17104012 -0.069711044 -0.054025833 0.10800042 -0.024930883 -0.09971445
-0.2861893 -0.014405495 0.13320981 0.09012265 0.21372609 -0.2169813 0.1923706 0.11687895
0.25319153 -0.028906275 -0.1360064 0.26293916 -0.1350874 -0.20941852 0.034797046 0.044043817
0.09954794 0.20444636 -0.24982347 -0.24537095 -0.19899881 0.012142596 -0.007185232 -0.07224201
-0.23862326 -0.0019656636 0.13636108 -0.08491819 -0.16300084 0.014889634 0.09160074 -0.121932685
-0.2916161 -0.024846071 0.12316644 -0.120153435 -0.042942453 -0.18719083 0.03418055 0.32085824
-0.20035793 0.19768843 0.037102483 -0.12405244 0.076171085 -0.11153479 -0.34478173 -0.14483519
0.14604452 0.06209855 0.08820525 0.06277766 -0.102104396 -0.08762603 -0.09070236 0.054717418
-0.05770284 0.07480054 0.08430154 -0.09050462 0.033232193 0.07712837 -0.08117107 0.057041526
-0.19297272 0.053006735 0.12382103 -0.016213939 0.09832292 -0.0681401 0.13753678 0.14684545
-0.06730704 0.1493435 0.13630821 -0.14190736 0.17960763 -0.0053090598 0.035178367 -0.11591282
-0.11970735 -0.097535476 0.06637173 -0.089971706 0.16954072 0.027355066 -0.025651338 0.19939402
-0.20801383 0.17477079 0.15766501 -0.09110535 -0.020729024 0.058104385 0.11384051 -0.0052229287
-0.28653607 0.032040305 0.1540999 -0.11042526 0.020392401 -0.04064444 0.017276274 0.15938427
-0.05102421 0.10952622 0.12348088 -0.058171302 -0.08880717 0.1493616 0.04720273 0.077021845
-0.2384996 0.13299492 0.16297749 0.09807982 -0.012847049 -0.053805172 -0.093823336 0.13179742
0.01124495 -0.18417437 -0.19795758 0.02998002 -0.07235092 -0.13057806 0.1747927 0.1359689
0.08791897 0.16884916 -0.2515461 -0.043588545 -0.13450879 0.17288595 -0.18136357 -0.21831134
-0.10624665 0.09073994 0.10720941 -0.10365875 -0.15140077 0.09476179 -0.17044222 0.04750929
-0.05897333 0.037985023 0.086868845 0.23510256 0.19087431 0.0366717 0.17425832 0.14869195
0.08160802 -0.14863792 -0.056166165 0.24344718 -0.058362648 -0.14411837 0.13781428 0.023693826
0.06223691 0.05641124 -0.13053212 -0.08545813 -0.1557932 0.117460445 0.04205378 -0.16394518
0.3726179 -0.12740046 0.1256427 -0.13546562 -0.055294048 -0.06978401 0.18084103 0.0931956
0.05610427 0.14987004 0.03357708 -0.18477245 -0.21550588 0.076221526 -0.18053575 -0.04557549
-0.05678323 0.13245131 0.084447764 -0.13739674 0.058099654 -0.0071656723 -0.19762307 -0.043520972
0.08803321 -0.08554663 0.10192224 0.2426437 0.19578049 -0.18195675 0.09005737 0.15143274
0.23442686 -0.22375602 0.0019154175 0.086631805 -0.09561497 -0.054413214 0.15463448 0.06476657
0.09958747 0.12511908 0.031331293 -0.12007187 -0.14747271 0.16970395 -0.090783656 -0.10340833

bn3.weight f4 [16]
00000000: 2863 943f 52aa 933f bce5 933f e589 953f
00000010: 3f10 8c3f 19ee 833f 3f26 933f f5a0 893f
00000020: ce92 963f b70b 8f3f 8a25 923f 98e5 8c3f
00000030: 3166 963f 3a79 863f 2a5d 8e3f 4de6 903f
1.159276 1.1536353 1.1554484 1.1682707 1.0942458 1.0307037 1.1496047 1.0752245
1.1763551 1.117545 1.1417706 1.1007566 1.1749936 1.0505745 1.1122181 1.1320282

bn3.bias f4 [16]
00000000: 74c3 07bd 7515 19bd ecbb efbc 5851 063d
00000010: 9692 22bd 7f0f 20bd edab e6bc d2ff b7bc
00000020: b3a1 08bd 1916 14bd d0fb 643d 971e cbbc
00000030: 3bb7 313d 2d27 bb3c 565b 11bd d117 513d
-0.033145383 -0.03737398 -0.029264413 0.03279242 -0.039690576 -0.03907728 -0.028158152 -0.022460852
-0.033357333 -0.036153886 0.05590421 -0.02479486 0.043387633 0.022845829 -0.035487495 0.051048104

bn3.running_mean f4 [16]
00000000: 40bf 40ba c555 88bc e5fe a3bc d180 c33b
00000010: f897 33bd 5b9e 3b3d f71c f4bb acdd b1bc
00000020: 3fab 1cbd 1662 ccbc a953 f03b 10f1 cf3c
00000030: 3d73 f9bb d10d 77bd 3600 0a3d 53c5 12bd
-0.0007352717 -0.01664246 -0.020019004 0.005966284 -0.0438461 0.045805316 -0.007449742 -0.021712147
-0.03824925 -0.024949115 0.007334192 0.025383502 -0.0076126144 -0.06031591 0.033691607 -0.035832714

bn3.running_var f4 [16]
00000000: 286d 8e3d 816e f53d 16d6 1d3e f6bd 073e
00000010: 0b8e 3a3e aff0 ec3d ae6d 863d c301 863d
00000020: efdc 193e f430 da3d 9850 d73d da05 883d
00000030: 5539 a03d 6289 f53d 66e7 a33d cf9f bf3d
0.06954414 0.119839676 0.15413699 0.13256058 0.18218248 0.11569344 0.065638885 0.06543305
0.15025686 0.10653868 0.10513419 0.06641741 0.07823435 0.11989094 0.0800312 0.09356653

classifier.weight f4 [2, 16]
00000000: c336 75bd 3c91 ccbe 5b66 e1be 7a09 ca3e
00000010: 3818 bbbe 0d1d 29be 05d4 d7be beca 6fbe
00000020: 59dc 58be d640 40be f7f2 1a3e d23c d8be
00000030: cca4 0e3e cebc eb3b 6982 80be 217f ba3e
00000040: 3f3f ad3e b0bc ae3c a33f c13e 59a0 5abe
00000050: 7706 10bd 2b22 143e 2ac6 3f3d 77fe f33d
00000060: e0f2 9c3e d48e b33e beba cdbe 6678 62bd
00000070: 20a9 d8be 7304 90be b568 b83e f887 663c
-0.059866678 -0.39954555 -0.44023404 0.39460355 -0.36541915 -0.16514988 -0.42153946 -0.23417184
-0.21177806 -0.18774733 0.15131746 -0.42233902 0.13930053 0.007194138 -0.25099495 0.36425117
0.33837315 0.021330208 0.37743863 -0.2135023 -0.035162415 0.14466159 0.046819843 0.1191377
0.3065405 0.35069907 -0.40181535 -0.055290602 -0.42316532 -0.28128394 0.36017385 0.014070503

classifier.bias f4 [2]
00000000: b4e6 1f3e 1a03 95bd
0.1561535 -0.07275982
