notebooks/outputs/temp_B02_fold4_best.pth (torch, 31912 bytes, 18 tensors)

firstconv.0.weight f4 [16, 1, 1, 125]
000000 8b 55 b9 bd df a8 01 3c 59 93 25 bd fe 55 a8 3d
       -0.09049519 0.007913797 -0.040423725 0.08219527
000010 b4 11 6a bd 4c e9 70 bc cd 98 0c bd 5c 6d 80 bb
       -0.05714579 -0.01470406 -0.03432541 -0.0039192867
000020 84 bf 4f 3d fd 02 12 3d 48 b9 b7 bd 41 96 a1 bb
       0.050719753 0.03564738 -0.089708865 -0.0049312417
000030 9a f0 10 3d 7a c5 ba bd 72 f1 bb 3b e7 23 3a bc
       0.035385706 -0.09119697 0.0057355696 -0.011361099
000040 0c e2 32 3d f5 ce 7f bc 8c d0 85 bd f9 f6 04 bd
       0.043672606 -0.015613307 -0.06533918 -0.032462094
000050 80 59 90 3d 5d 14 95 bd 19 42 49 bc 04 43 c6 bb
       0.07048321 -0.072792746 -0.012283825 -0.0060504694
000060 0b bb 1e bd 7c a0 f6 bc 90 b9 03 3d e2 94 a7 bd
       -0.038752597 -0.030105822 0.032159388 -0.08182694
000070 41 32 a0 bd 7f a3 39 bd e1 8c 95 bd 9c e0 b2 3c
       -0.07822085 -0.045321938 -0.07302261 0.021835618
000080 81 b2 75 bd ae 31 2e 3d 5a 70 a0 3d 31 79 54 3d
       -0.059984688 0.042527847 0.07833929 0.05187339
000090 29 0a 9f 3b 78 df 81 3d fa 28 59 bd 08 1f 05 bd
       0.004853506 0.063414514 -0.053017594 -0.032500297
0000a0 c6 39 a1 bc 52 5d 48 3c 20 35 af 3d 9b 83 69 3c
       -0.019680869 0.012229281 0.08555055 0.014252569
0000b0 30 39 e5 bc 05 13 8c 3b 33 e0 b2 bb bc 3e c8 3c
       -0.02798137 0.0042747282 -0.0054588555 0.024443977
0000c0 ce 6c 25 bd 98 fd 97 3c 80 40 2f 3a 07 9a a3 3c
       -0.040386967 0.01855354 0.00066853315 0.019970907
0000d0 e5 1f 94 bd c5 03 27 bd 0d f0 8e 3d 1d 7f 87 bd
       -0.07232646 -0.04077508 0.0697938 -0.06616042
0000e0 dd a7 8b 3c 9b 94 83 3d dd a2 de bc 6c 0c 39 bd
       0.017047817 0.064248286 -0.027177269 -0.045177862
0000f0 d5 ea 03 bd d9 5e 25 3d 7a 85 bd 3c 00 75 a9 bd
       -0.032206375 0.040373657 0.023134936 -0.08274269
000100 9f a0 35 bd 47 e0 bd bc d2 b4 13 38 fb 26 b2 3b
       -0.044342633 -0.023178233 3.5215933e-05 0.0054367757
000110 7f 4b fa 3c ae 6f 56 bd 1a 97 8f 3d c8 9d 24 3d
       0.030553577 -0.0523526 0.07011242 0.040189534
000120 6c 3b d0 3c df 52 1f 3c 00 74 95 3d 8f 4f aa 3d
       0.02541896 0.009724348 0.07297516 0.08315956
000130 83 be 15 bb 81 2c 78 bd 0f 7a 70 bd 36 ce c7 bb
       -0.002284915 -0.060589317 -0.058710154 -0.0060975803
000140 5f a9 ab 3c 62 58 b6 3d 9b 81 49 3d 71 18 a2 3d
       0.020954786 0.089035764 0.049195867 0.07914818
000150 de e6 8d 3d a3 88 e4 bc a3 64 3c 3d 8e 82 82 bd
       0.069288 -0.027897185 0.045994412 -0.063725576
000160 0b ea 5e bd 3a e3 07 bc 26 38 64 bb 49 00 73 3b
       -0.05442242 -0.008293921 -0.0034823506 0.0037079027
000170 68 8c ad 3d 77 1d 52 3c 23 53 8e bd 75 21 80 3d
       0.08474046 0.012824408 -0.06949451 0.062563814
000180 b0 eb 21 3d 5b 13 21 bd 40 6e 80 3d 78 86 a3 bc
       0.03953141 -0.0393251 0.062710285 -0.01996158
000190 89 65 bf b9 f3 68 e1 3c 3e ab a8 bc 46 a6 39 3d
       -0.00036506008 0.027515864 -0.020589467 0.045324586
0001a0 31 7c a8 bd 38 50 95 bd 21 8b 60 3d 55 94 4d 3d
       -0.08226813 -0.07290691 0.054820184 0.05019029
0001b0 96 c1 00 3d ca ab 67 bd 83 f8 15 3d cc 24 1b bc
       0.031434618 -0.056560315 0.036613952 -0.009469222
0001c0 fa 86 e4 bc 12 98 f5 bc 2d a7 53 3d 9e c3 78 3d
       -0.027896393 -0.02997974 0.051673103 0.06073343
0001d0 61 3d bd 3d e8 94 b4 bc a1 c9 8c bd b3 ce 83 3d
       0.09240223 -0.02204366 -0.06874395 0.06435909
0001e0 4d 84 b8 bc 1e f9 05 bd b2 b3 ab 3d cf e7 38 3d
       -0.022524023 -0.03270828 0.083838835 0.045142945
0001f0 17 8c 86 3d 82 09 b9 3b f4 ce 05 bd ac c1 b5 bc
       0.06569689 0.0056468854 -0.03266807 -0.022187077
000200 5a bc 40 3c 88 63 41 bd d6 2d a4 3d a9 47 6a bd
       0.0117636565 -0.04721406 0.08016555 -0.057197247
000210 77 73 02 bd 32 65 1f 3c a4 e9 83 3c 26 c0 73 b9
       -0.031848397 0.009728717 0.01610262 -0.00023245867
000220 af 28 b5 3c f9 9c 7b bd 28 f9 62 3d f3 ed ac 3d
       0.022114126 -0.061428998 0.055413395 0.08443823
000230 16 f0 67 bd c0 22 a6 bd 0b c1 70 3d a3 a0 d4 39
       -0.05662545 -0.08112097 0.05877785 0.00040555475
000240 7b bc 21 bd b9 93 5b 3d 2b 62 60 bd 1d 55 a6 3d
       -0.03948639 0.053607676 -0.05478112 0.08121703
000250 78 5c 35 bd 71 94 cf 3c f3 91 bd bc a0 12 b3 3b
       -0.04427764 0.025339337 -0.023140883 0.0054648668
000260 18 63 e5 bb b0 46 84 bd 6a c3 a5 bd 99 85 0b 3d
       -0.0070003383 -0.06458795 -0.08093913 0.034062956
000270 ae d1 9d 3d c1 58 1d bd 93 a7 d9 bc ca a9 06 bd
       0.07706009 -0.03841472 -0.026569163 -0.032876767
000280 3c a7 57 3b cf 7e a0 bd ed 19 5d bd b1 59 d4 ba
       0.0032906076 -0.07836687 -0.053979803 -0.0016201047
000290 30 d5 90 bc 7e 0d ff bb d3 b1 68 3b fa 56 bc bc
       -0.01767978 -0.007783591 0.0035506382 -0.022990692
0002a0 ff f6 8f bd 94 02 3f bd b4 9d b1 bc 40 82 ab 3d
       -0.07029533 -0.046633318 -0.021681644 0.083744526
0002b0 55 88 b1 3c 4a 81 91 3d 41 ab 07 bd c8 f4 82 3d
       0.021671453 0.07104738 -0.033122305 0.063943446
0002c0 c9 96 99 bb e8 a6 b9 3c 3a c8 7a bd 7b 6b ba 3d
       -0.0046871644 0.022662595 -0.061226107 0.091025315
0002d0 93 a5 0b 3c bd b9 2c 3c be 93 80 3d e8 fd a6 3d
       0.008523363 0.01054233 0.062781796 0.081538975
0002e0 2b f7 b7 3d e0 bd 9d 3c 3f 9c 17 3d f7 eb 07 bd
       0.089826904 0.019255579 0.037014242 -0.033184018
0002f0 73 90 4c 3d 9a dc b2 bd f1 e8 51 bd d7 c6 46 bd
       0.049942445 -0.08733483 -0.05124754 -0.048529472
000300 7b f3 20 bd 64 b2 38 3c d2 b1 96 bd 86 5e 93 3c
       -0.0392947 0.011273 -0.07358135 0.017989408
000310 17 94 8c bd 6d 85 a6 bd f0 89 49 3d 75 ff 54 bd
       -0.068641834 -0.08130918 0.049203813 -0.052001435
000320 62 b1 44 bd fe f7 e2 bc 09 c0 e6 3c 67 7b 18 bd
       -0.048020728 -0.027706143 0.028167741 -0.03722706
000330 0c 20 7e bd 32 56 b3 3d 4e 7b 91 3d ae 05 5c bd
       -0.06204228 0.08756675 0.07103597 -0.053716354
000340 99 51 8b 3d 65 b7 23 3d e4 5d ad bc 5d b3 8e 3d
       0.06802673 0.03996982 -0.021162935 0.069678046
000350 ce b5 e7 bb fd a8 78 3d ae 0f aa bd 61 81 99 bd
       -0.0070712334 0.060708035 -0.08303772 -0.0749538
000360 7e 7a 8d bc 48 6e 6b bc e7 84 68 3d f3 7d 0a bc
       -0.017270323 -0.014369555 0.05676737 -0.00845288
000370 07 fb c4 3c 69 b8 1c 3d 50 45 65 bd 7c 87 d6 3c
       0.02404548 0.038261805 -0.055974305 0.02618765
000380 43 28 ab bd 20 24 46 3d 31 2c 9f bd 3c e4 33 3d
       -0.08357289 0.048374295 -0.07772101 0.043918833
000390 fc fb 2b bb 59 71 1f bd 03 19 c9 3b 59 d3 9a 3d
       -0.0026242724 -0.038926456 0.006137015 0.075598426
0003a0 4f 2d 0b 3c f5 b4 19 3d ff 1c 50 3d 08 6e a0 3c
       0.008494689 0.03752609 0.050808903 0.019583717
0003b0 05 46 86 3b 5b 1a 9d 3c 26 57 a6 3c ef 1f 60 3c
       0.0040977024 0.019177606 0.020305227 0.013679489
0003c0 b6 c6 a8 bd 19 50 9c 3d f6 0d 85 bc 00 d0 3f 3d
       -0.08241026 0.07632465 -0.016242009 0.046829224
0003d0 90 c6 9e bc ef 2a a4 bd 6c b7 bd 3c 3f 15 b5 bd
       -0.019381791 -0.080160014 0.023158751 -0.08841943
0003e0 3d ca a5 bd 39 a8 98 bd d2 74 89 3d 06 8b 15 bd
       -0.080952145 -0.07453961 0.06711735 -0.036509536
0003f0 83 0c 23 3c 2a cc 3d bd d9 98 a9 bd 23 be 89 3d
       0.0099517135 -0.046337284 -0.082811065 0.06725719

firstconv.1.weight f4 [16]
000000 77 56 80 3f 79 76 80 3f 8b 43 7f 3f 32 0c 80 3f
       1.0026387 1.0036155 0.9971244 1.0003722
000010 d6 54 80 3f 97 0d 7f 3f 95 10 80 3f 01 32 80 3f
       1.002589 0.9963011 1.000506 1.001526
000020 4a 9e 7f 3f 39 4b 7f 3f 9b 45 80 3f 9e 2d 80 3f
       0.99850905 0.99724156 1.0021242 1.0013921
000030 39 1b 80 3f 3a 57 7f 3f e2 6a 80 3f 50 4e 80 3f
       1.0008308 0.9974247 1.0032618 1.0023899

firstconv.1.bias f4 [16]
000000 e0 11 27 3b 88 26 f1 b8 b1 29 30 3a c4 93 7a bb
       0.0025492832 -0.000114989525 0.00067200797 -0.0038235048
000010 a2 c7 70 3b 4f ac 32 bb 02 5c d8 39 1a 7a 7a 3b
       0.0036740084 -0.0027263348 0.00041267282 0.003821975
000020 2a 9a f1 ba d3 01 52 3b 20 89 7e bb 37 3d 45 3b
       -0.0018432785 0.0032044544 -0.0038839057 0.0030096301
000030 3c 41 27 3b b5 f3 36 3b 75 27 ed b8 ff cb 12 3b
       0.002552106 0.0027916257 -0.0001130839 0.0022399423

firstconv.1.running_mean f4 [16]
000000 55 94 75 2f 09 fa 09 2f 1a d5 52 af e4 0b c4 af
       2.2335318e-10 1.2548908e-10 -1.9175098e-10 -3.566064e-10
000010 02 42 96 2f 68 a4 e4 2d c4 23 38 30 79 e0 46 ae
       2.7331742e-10 2.599361e-11 6.6989636e-10 -4.521936e-11
000020 df 4a 27 2f 1f aa d8 ae 5e 81 fa 2e 97 b9 09 30
       1.5215161e-10 -9.8527624e-11 1.1391664e-10 5.010405e-10
000030 d5 90 47 2f a6 29 db 2f fa 1c f3 af ee 21 9d ae
       1.8150399e-10 3.986546e-10 -4.4222032e-10 -7.1455605e-11

firstconv.1.running_var f4 [16]
000000 2a f6 27 3f 2a f6 27 3f 2a f6 27 3f 2a f6 27 3f
       0.6560999 0.6560999 0.6560999 0.6560999
000010 2a f6 27 3f 2a f6 27 3f 2a f6 27 3f 2a f6 27 3f
       0.6560999 0.6560999 0.6560999 0.6560999
000020 2a f6 27 3f 2a f6 27 3f 2a f6 27 3f 2a f6 27 3f
       0.6560999 0.6560999 0.6560999 0.6560999
000030 2a f6 27 3f 2a f6 27 3f 2a f6 27 3f 2a f6 27 3f
       0.6560999 0.6560999 0.6560999 0.6560999

depthwiseConv.0.weight f4 [32, 1, 3, 1]
000000 66 26 90 3d d6 a8 eb bb 3c d9 cb be 9a ba c4 be
       0.07038574 -0.0071917577 -0.39814174 -0.38423616
000010 71 c5 09 bf 62 24 a1 3e 2c db e6 be 7f a8 06 bf
       -0.53816897 0.3147307 -0.4508909 -0.52600855
000020 16 94 bd 3d e2 39 b7 be b8 39 a9 3d f4 1d d2 3d
       0.09256761 -0.3578635 0.08262962 0.10259619
000030 92 72 b9 be 22 b4 ed 3e e0 a5 01 3f 04 85 cc 3d
       -0.36220223 0.46426493 0.5064373 0.09986308
000040 8b d8 10 3e b4 e0 e1 be e2 63 9d 3e c1 8e bc 3e
       0.14145105 -0.44116747 0.30740267 0.36827663
000050 ad 57 df 3e 2e ac 0c 3e e4 1c d0 bc b4 72 05 bf
       0.4362158 0.13737556 -0.025404401 -0.5212815
000060 da ab a3 3e 20 ad b0 3e 38 48 6e be 3e 0a b8 be
       0.3196705 0.34507084 -0.23269737 -0.35945314
000070 b5 b6 fd 3e 93 85 a5 3e f8 58 12 bf 1e 0c a2 be
       0.49553457 0.32328472 -0.57167006 -0.3164987
000080 85 61 c5 be 53 0f f0 be 58 33 94 3e 92 e6 74 be
       -0.38550964 -0.4688669 0.28945422 -0.2391608
000090 67 ac 0d 3f e3 31 45 3d 00 34 55 bc 16 50 99 3e
       0.5534119 0.04814328 -0.013012886 0.29943913
0000a0 80 bd f7 3d f7 b8 75 3e a1 37 c5 be 4e 6e e0 3e
       0.12096691 0.2399634 -0.38519004 0.43834156
0000b0 5f 26 d8 be 1a 63 26 be 88 61 95 3e 8a ac 01 bf
       -0.42216775 -0.16248742 0.29175973 -0.506539
0000c0 31 81 c1 bb f7 de e0 be 8e a3 b5 3e 4c 15 f6 3d
       -0.0059052934 -0.4392011 0.35476345 0.12015781
0000d0 95 42 ff 3e d4 13 9b 3e 23 e7 7e bd 1e 5b e0 be
       0.49855486 0.30288565 -0.062232148 -0.43819517
0000e0 10 7b 37 be f3 a5 10 bf af 03 46 3e ec 94 e1 3d
       -0.17918038 -0.5650322 0.19337343 0.11014733
0000f0 11 5e 5e 3d 30 26 ce 3e 02 31 62 3e e2 2c 1d be
       0.054288927 0.4026351 0.22089007 -0.15349153
000100 d3 86 89 3c 9d c9 99 3e fb c6 d3 3e f2 ad 29 bd
       0.016787922 0.3003663 0.41362748 -0.041425653
000110 41 49 83 3e c9 42 90 be 00 e7 12 3f a4 00 18 be
       0.25641826 -0.28175953 0.5738373 -0.14843994
000120 84 32 db 3e 65 b9 ec 3e c1 a4 3b be 71 93 ba be
       0.42811978 0.46235195 -0.18324567 -0.36440614
000130 c4 c0 09 3f 8d 0f 81 be 8f 95 bd 3e b2 f5 bd be
       0.5380976 -0.25207177 0.37028167 -0.37101513
000140 06 41 65 3d 39 22 e0 3e 12 e0 c0 be 79 c9 3d be
       0.055970214 0.4377611 -0.37670952 -0.18533887
000150 96 ca ee be 4b 00 09 3f 4f 70 fa be 81 bf 00 3f
       -0.46638936 0.5351607 -0.4891381 0.5029221
000160 ff 5f fb 3e 01 68 0e bf 07 e0 5d be a7 e5 d8 be
       0.49096677 -0.5562745 -0.21667491 -0.4236271
000170 4f 8a b3 be a2 32 3d 3e cb 11 2a be 85 b4 ef 3e
       -0.3506646 0.18476346 -0.1660835 0.46817413

depthwiseConv.1.weight f4 [32]
000000 cd 1c 7f 3f e4 62 80 3f 08 7e 80 3f 70 47 80 3f
       0.9965332 1.0030179 1.0038462 1.0021801
000010 e0 06 80 3f 42 84 7f 3f d8 12 80 3f b2 09 80 3f
       1.0002098 0.99811184 1.0005751 1.0002959
000020 7b 41 80 3f fa 3b 80 3f 3f 27 7f 3f 9b 3a 80 3f
       1.0019983 1.0018303 0.9966926 1.0017885
000030 7d 13 80 3f 1b c0 7f 3f 23 b3 7f 3f 64 24 80 3f
       1.0005947 0.99902505 0.99882716 1.0011106
000040 7f 38 7f 3f 28 9f 7f 3f a6 20 80 3f 20 5e 7f 3f
       0.9969558 0.9985223 1.0009964 0.99753
000050 68 45 80 3f 73 b0 7f 3f 63 58 80 3f b3 5a 7f 3f
       1.0021181 0.99878615 1.0026973 0.9974777
000060 bf 62 80 3f a3 fd 7f 3f 83 57 7f 3f 92 4e 7f 3f
       1.0030135 0.99996394 0.9974291 0.99729264
000070 50 6c 80 3f cd 48 80 3f eb 51 80 3f 8c 5a 7f 3f
       1.0033054 1.0022217 1.0024999 0.9974754

depthwiseConv.1.bias f4 [32]
000000 55 a0 08 3a 69 fd 00 3b a5 74 4f ba e2 3c 51 3b
       0.00052118796 0.0019682294 -0.0007913805 0.0031927158
000010 58 e0 db b9 6f 31 2b 39 d3 23 17 3b 8e 5d 41 bb
       -0.00041938084 0.00016326246 0.0023062124 -0.0029505226
000020 22 f7 b8 39 1f 40 ca ba a5 9f 6a 3b e9 38 a3 3a
       0.00035279343 -0.0015430487 0.0035800722 0.0012452874
000030 98 7a 57 3b db 94 0b bb 70 a0 42 bb 00 dc b5 ba
       0.0032879468 -0.0021298442 -0.002969768 -0.0013874769
000040 c9 43 58 3b 77 ea ed 3a 0f 65 b9 38 1b 5e 0c bb
       0.0032999387 0.0018151541 8.840311e-05 -0.0021418396
000050 29 d4 2e 3b 3b cb de 3a 3e 1d 9e ba 84 f4 31 bb
       0.002667675 0.0016997823 -0.0012063158 -0.00271538
000060 44 d7 89 b9 b9 6b 09 3a 29 f6 aa ba 01 fb 7e ba
       -0.00026291062 0.0005242187 -0.0013043332 -0.00097267336
000070 2c cd ce b9 41 07 83 bb fe 9c af 3a d3 d0 f0 b9
       -0.00039444247 -0.0039986675 0.0013398228 -0.00045931953

depthwiseConv.1.running_mean f4 [32]
000000 0b 01 1e b9 aa 24 8d b9 29 33 20 b9 c2 e3 f7 b7
       -0.00015068443 -0.00026920933 -0.00015277848 -2.9550753e-05
000010 b9 0e 9d b8 cb 40 cb 37 fe 84 1f ba b0 dd 6c 39
       -7.489086e-05 2.4229657e-05 -0.0006085186 0.00022589299
000020 d8 2c 71 39 c4 aa 80 39 1d e2 24 3a 80 24 57 39
       0.00023000257 0.00024541293 0.0006289797 0.00020517595
000030 e9 a1 a3 b8 0a ed b7 b8 e0 6e 53 b9 e3 d2 5a b9
       -7.802604e-05 -8.770272e-05 -0.00020163832 -0.00020868662
000040 fa 3b 27 38 7c 94 db b9 16 ff b6 b9 cd d4 0d b9
       3.987176e-05 -0.00041881565 -0.000349038 -0.00013526082
000050 be b2 c5 b9 c1 db bf b8 e1 8b a3 39 1c 3a 97 38
       -0.0003770794 -9.148522e-05 0.00031194 7.211065e-05
000060 09 4c bb 39 64 9d 24 b8 70 86 c5 37 43 80 53 b8
       0.0003572407 -3.924723e-05 2.3546832e-05 -5.0425773e-05
000070 19 b8 5c 38 9e a6 65 b8 13 a5 f4 b9 a9 97 70 39
       5.262354e-05 -5.475303e-05 -0.00046662297 0.00022944681

depthwiseConv.1.running_var f4 [32]
000000 2a f6 27 3f 2a f6 27 3f 2b f6 27 3f 2a f6 27 3f
       0.6560999 0.6560999 0.6561 0.6560999
000010 2a f6 27 3f 2a f6 27 3f 2b f6 27 3f 2a f6 27 3f
       0.6560999 0.6560999 0.6561 0.6560999
000020 2a f6 27 3f 2a f6 27 3f 2c f6 27 3f 2a f6 27 3f
       0.6560999 0.6560999 0.65610003 0.6560999
000030 2a f6 27 3f 2a f6 27 3f 2a f6 27 3f 2a f6 27 3f
       0.6560999 0.6560999 0.6560999 0.6560999
000040 2a f6 27 3f 2a f6 27 3f 2a f6 27 3f 2a f6 27 3f
       0.6560999 0.6560999 0.6560999 0.6560999
000050 2a f6 27 3f 2a f6 27 3f 2a f6 27 3f 2a f6 27 3f
       0.6560999 0.6560999 0.6560999 0.6560999
000060 2a f6 27 3f 2a f6 27 3f 2a f6 27 3f 2a f6 27 3f
       0.6560999 0.6560999 0.6560999 0.6560999
000070 2a f6 27 3f 2a f6 27 3f 2a f6 27 3f 2a f6 27 3f
       0.6560999 0.6560999 0.6560999 0.6560999

separableConv.0.weight f4 [32, 1, 1, 16]
000000 36 75 69 be 6d e5 b5 3d b4 4c 9e 3d 1a ac 2e bd
       -0.22798619 0.0888165 0.07729474 -0.042644598
000010 ed 5d a2 bd 1d 17 0b be ac 42 07 be fe e9 0f be
       -0.07928071 -0.13583036 -0.13209027 -0.14054105
000020 cd 5d 1d be 1b 52 9b 3d ac 72 82 3d b0 c5 2a be
       -0.15367813 0.0758402 0.06369528 -0.16676974
000030 d4 65 bc bd f8 cc 3b 3e e4 e8 83 3d 0f 14 a5 bc
       -0.0919911 0.18339908 0.06440905 -0.020151166
000040 bf 56 83 3d 38 c0 ad bc 74 61 77 3e b6 4f 2a 3e
       0.0641303 -0.021209821 0.24158269 0.1663197
000050 b9 23 8c 3d 7f d7 1b 3e 7c 97 20 3d 61 dc bd bd
       0.06842751 0.15218924 0.039206967 -0.092705496
000060 a8 f7 3e 3e 53 f4 ab 3c 9f bb 58 be 7b 04 11 be
       0.18649161 0.020990526 -0.21165322 -0.14161865
000070 8f f6 19 3e e5 2a 45 3e 14 fe 15 3c 39 68 60 3e
       0.15035461 0.19254644 0.009154815 0.21914758
000080 db ab 10 3e af c0 db 3d 4d 67 73 3e 31 dd 48 3e
       0.14128058 0.10730111 0.23769875 0.19615628
000090 eb a1 04 be 7c e9 df 3d 7e 88 bd 3d 44 e8 a7 3d
       -0.12952392 0.109332055 0.092545494 0.08198598
0000a0 11 65 62 bd e0 cf 82 bd 45 9b 1a 3e be d8 d9 3d
       -0.055272166 -0.06387305 0.15098293 0.106370434
0000b0 f1 21 e2 3b 4f 51 05 3d f1 e4 76 3e f7 b7 77 be
       0.006901019 0.032548245 0.24110772 -0.24191271
0000c0 d7 c8 16 3e c4 b1 11 3e 7a eb 5e 3e df e2 cb 39
       0.14725052 0.14227968 0.21769515 0.0003888821
0000d0 4e fa 3a 3e 82 50 f9 bd b7 9a 34 bd d7 55 26 3e
       0.18259546 -0.12173559 -0.04409286 0.16243683
0000e0 e3 3a eb bd 95 ad 0d 3c c4 01 30 3e 6c ef ca bd
       -0.11485841 0.008647342 0.17188174 -0.09908947
0000f0 70 44 29 3d 1c f6 1e 3e 47 67 1f be b6 2e bb bd
       0.041325033 0.15523571 -0.15566741 -0.09139769
000100 55 fd 2b be 59 59 ba 3d da 58 2a be d7 13 87 3c
       -0.16795857 0.09099073 -0.16635457 0.016488953
000110 e6 a3 47 be 26 37 9e bd b1 2c 0c 3e 35 e9 de bd
       -0.19496116 -0.077253625 0.13688923 -0.108843245
000120 eb f7 b2 3d b1 da 35 3e a9 69 85 bd 43 e2 9a 3d
       0.08738693 0.17759205 -0.06514294 0.07562687
000130 28 ef d7 bd 78 f5 c3 3d 43 56 8b 3c ed 81 83 bb
       -0.10543662 0.09568304 0.017008906 -0.004013291
000140 cf 6b 2b 3e 09 87 38 3e bd 40 e3 ba 10 b4 4a bd
       0.16740344 0.18020262 -0.0017338019 -0.049488127
000150 34 8c a0 3c 63 61 f9 bd f9 95 1e be d1 cb 39 3d
       0.019598104 -0.12176778 -0.15486898 0.04536039
000160 e6 53 55 be c4 40 1c be d4 bf 35 3e 6b 0b 07 be
       -0.20832786 -0.15259081 0.17748958 -0.1318795
000170 30 26 44 be 78 fa b1 bb da 8f 79 3d 36 3e 20 3e
       -0.19155192 -0.0054314695 0.060928203 0.15648732
000180 45 01 05 be 77 fc 60 3e 5a e5 13 be 9e 80 01 be
       -0.12988766 0.21971308 -0.1444296 -0.1264672
000190 5d f3 a5 bd 5e 15 fe 3d b3 1c b9 3c d2 be df 3d
       -0.081030585 0.12406419 0.022596693 0.10925068
0001a0 48 fb 3e 3e 01 e4 e0 3c 09 7b 4f 3e 46 a9 28 3e
       0.18650544 0.02745247 0.20261778 0.16470823
0001b0 47 36 bf 3b 03 1a 2a 3d 15 a7 4f 3e aa 1e 56 3e
       0.005835328 0.041528713 0.2027858 0.20910135
0001c0 7e 1c 4d be 10 1c 5c be ec 18 41 3e ab 78 41 bd
       -0.200304 -0.2149508 0.18857163 -0.04723422
0001d0 5f 05 54 3e bf 33 5b 3e 7b 86 9b 3d a9 76 f9 bd
       0.20705174 0.21406458 0.075940095 -0.12180836
0001e0 4f e1 37 3e 21 0a 09 3d 63 15 81 3e c0 d3 ca bc
       0.17957042 0.033456925 0.2521163 -0.024759173
0001f0 be 28 d2 bd ed 3b f9 3d c5 86 0d 3d 84 06 0d 3e
       -0.10261677 0.12169633 0.034552354 0.13772017
000200 df c8 31 be a9 a9 78 3e 43 74 4e be 7f e8 00 be
       -0.17361782 0.2428347 -0.20161538 -0.1258869
000210 90 7d 28 3d 8e 5f fe bb e0 3d b2 bd 46 77 51 bd
       0.04113537 -0.007762856 -0.08703208 -0.05113914
000220 86 74 86 3d dc 4f 3e 3e ee 32 ac 3d 86 5e 36 be
       0.06565194 0.18585151 0.084081516 -0.17809495
000230 c0 d9 16 3e 4c c5 1b 3e 2d c3 79 3e 66 17 0f bc
       0.14731503 0.15211982 0.2439086 -0.008733606
000240 19 70 40 be c7 01 23 3e ab 22 bd bc 97 b9 2d 3e
       -0.18792762 0.15918647 -0.02308782 0.16965328
000250 fb 6d fc 3b f8 cb 63 bd d1 8d 69 3e f6 aa 78 3c
       0.0077035404 -0.05561444 0.22808005 0.015177479
000260 89 6b 06 3e 6e 7c b2 3d 73 a4 22 3d 53 88 ea bd
       0.13126959 0.08715139 0.039707612 -0.11451783
000270 b7 2e c3 3c b9 cf a7 bc 6d 6d 87 bd c0 ce 0d bc
       0.023825986 -0.020484792 -0.06612668 -0.00865525
000280 32 ad 30 be f3 8e 42 be ee bc 27 be 38 9f 7b be
       -0.17253569 -0.18999843 -0.16380665 -0.24572456
000290 5d d0 70 be 72 44 60 bd 88 2e 1e be b4 e8 17 bd
       -0.23516984 -0.054752775 -0.15447438 -0.037087157
0002a0 20 49 c4 bd 1a 4d 66 bd 30 99 0b bc ba 19 2f 3e
       -0.0958426 -0.056225874 -0.008520409 0.17099658
0002b0 a1 0f 41 bd 58 60 8e 3c ec 77 40 be 8d c3 95 bb
       -0.047134046 0.017379925 -0.18795747 -0.0045704306
0002c0 89 e9 c8 3d 61 10 15 3e 6d ba b2 3d a5 3e 9e bd
       0.09810168 0.1455703 0.08726964 -0.07726792
0002d0 c7 23 85 bc a9 53 52 be 5a 7d 51 bd b2 cc ab bb
       -0.016252412 -0.20539726 -0.051144935 -0.0052429074
0002e0 92 10 80 3d b0 d1 60 3e 13 fb 68 be 76 d8 1b be
       0.062531605 0.2195499 -0.22752027 -0.15219292
0002f0 0a 1b 4a be 75 54 f6 bd 0a f0 4a 3b c1 31 55 be
       -0.19736877 -0.12027828 0.0030965828 -0.20819761
000300 2f 3d 06 bd d4 4e 69 be d3 ca 28 3e e7 3f 23 be
       -0.032773193 -0.22783977 0.16483621 -0.15942346
000310 d4 a3 7d 3d 6c a7 29 3e 54 11 a9 bd 2c 6e 6f 3d
       0.061923817 0.16567773 -0.08255258 0.058454677
000320 4e f2 e9 bd f6 74 5e be 1f 5d 52 be b2 2d c5 3c
       -0.11423169 -0.21724305 -0.20543335 0.02406964
000330 44 10 bb bd ea 06 fa 3c e9 4e 6a be 05 d7 7a 3d
       -0.09133962 0.030520875 -0.22881664 0.061240215
000340 ee 4f 22 be ed 2e d0 bd e5 33 37 3e f4 8c 6b 3e
       -0.15850803 -0.101652004 0.1789089 0.23002988
000350 f8 3d 76 be 41 d7 13 3e 36 22 59 3e 09 23 a8 3d
       -0.24047077 0.14437582 0.21204457 0.082098074
000360 7b 30 76 bd 4b d2 df 3d d1 8b ba 3d 9a 81 40 3c
       -0.06010483 0.10928782 0.09108699 0.011749649
000370 58 31 5d be 09 d0 27 3e f5 b5 28 be 57 87 40 be
       -0.21600854 0.16387953 -0.16475661 -0.18801628
000380 68 a6 04 3e d4 3d 1e 3d 20 30 69 be 9b ff 49 3d
       0.12954104 0.038633183 -0.22772264 0.04931603
000390 b5 4c e8 3d 93 c7 dd 3d 6e 20 71 be 53 c4 ea 3d
       0.11342756 0.108290814 -0.23547527 0.11463227
0003a0 3e c9 1e be 1e 37 d8 3d b5 29 c1 bd ea c4 8b 3c
       -0.15506455 0.10557388 -0.09431783 0.01706167
0003b0 6c 9f be 3a 86 a2 8c 3c 0e 15 c2 ba b4 05 43 be
       0.0014543361 0.017167341 -0.00148073 -0.19045144
0003c0 ef 89 40 3e 5b 17 90 bd 67 5c 4e 3e 2b 23 80 3d
       0.18802617 -0.07035705 0.20152436 0.06256708
0003d0 95 cd 1c 3d 90 26 63 3d 54 1a 4a be d8 d5 e1 3d
       0.038281996 0.055456698 -0.19736606 0.110271156
0003e0 cb 5a 01 be ae 59 4e bc 42 d7 3e be da 68 4b 3e
       -0.12632291 -0.0125946235 -0.18636802 0.19864216
0003f0 ab 85 60 be 1c dd 1b 3e 9d 59 53 be f6 be fc bd
       -0.2192599 0.15221065 -0.20639654 -0.123411104

separableConv.1.weight f4 [32, 32, 1, 1]
000000 8a 86 45 3d b7 63 b4 3d 1c 74 8e bd 86 3c 63 3b
       0.04822401 0.088080816 -0.0695574 0.0034673526
000010 82 ba 96 3c e7 26 e6 3d 61 b6 f8 3d f3 3e 32 3d
       0.01839948 0.11237889 0.12144161 0.043517064
000020 1e e2 02 bc cb 42 fb bd 46 13 92 3b a1 81 e0 3d
       -0.007988481 -0.12268599 0.004457864 0.10962225
000030 d0 63 29 be e8 f9 2d bd 4d 89 29 3d 79 f0 87 3d
       -0.16541982 -0.042474657 0.041390706 0.066376634
000040 3c 4c 35 3d 28 3d 19 3d bc 2d a9 3c 02 9f 36 3c
       0.044262156 0.03741184 0.02065169 0.011146309
000050 37 4f e4 bd f7 39 0b be 9a 1e e7 bd 25 01 36 bd
       -0.111479215 -0.1359633 -0.11285134 -0.044434685
000060 2c 91 f5 bd ba 6c 44 3b 9d b8 23 3e ac 06 15 bb
       -0.1199058 0.0029972033 0.15988393 -0.0022739572
000070 9f 25 13 3e ec 85 fa 3d d3 94 db 3d 76 e5 23 be
       0.1436982 0.12232575 0.10721745 -0.16005501
000080 e3 e7 12 be ba 5a 70 bc e4 b6 4b 3d 8c e3 03 3e
       -0.1434627 -0.014670068 0.049734965 0.12879771
000090 15 6c 0d bd 82 88 08 3e ca 4f 0e 3e 25 ab a3 3d
       -0.034526903 0.13333324 0.13897625 0.079916276
0000a0 14 8f 96 bd cc 7e 96 bd 55 eb 37 3d 38 e9 0a 3d
       -0.07351509 -0.07348403 0.044902164 0.03391382
0000b0 5e 68 11 be 27 ff 26 3e c1 3b c6 3d 11 7d 29 3e
       -0.14199969 0.1630827 0.09679366 0.16551615
0000c0 9c 09 a2 3c 30 19 f7 3d 37 f0 e4 3d 58 c0 f3 3d
       0.019779973 0.12065351 0.1117863 0.11901921
0000d0 ee 1a 09 3d 87 62 37 3b 0e 74 0e be 71 36 5e 3d
       0.033472948 0.002798231 -0.13911459 0.054251138
0000e0 c6 dd 0a bd 7b 91 3f bd 64 c9 23 3e 0c e0 06 ba
       -0.033902906 -0.0467696 0.15994793 -0.000514508
0000f0 66 65 d5 3d b8 58 86 3d e0 63 9a bd 8f 84 c6 3d
       0.10419731 0.065598905 -0.07538581 0.09693252
000100 c2 99 fe 3d b2 98 01 be 6f bd 2b be 3b 42 0c 3d
       0.12431671 -0.12655905 -0.16771482 0.03424285
000110 63 f6 97 3c a3 d2 b3 bb d6 4b db 3c b6 8e 07 bd
       0.018550104 -0.0054877563 0.02676956 -0.033095084
000120 7f 17 ff 3d 1c 8e 83 3c f4 49 ff bd c1 e7 29 3e
       0.124556534 0.016058974 -0.12465277 0.16592313
000130 2b d3 86 bd 10 b4 a0 bd 0f 9b 38 bd d4 35 d6 bd
       -0.06583246 -0.07846844 -0.04506975 -0.10459486
000140 aa da c0 3d cd 04 c4 3d 72 ef 5a 3d 5f f1 cf bc
       0.09416707 0.09571228 0.05345101 -0.02538365
000150 03 6d 82 3b b7 f5 27 3e 9c 92 ae 3c 5a 9e bf 3d
       0.0039802804 0.16402327 0.021310143 0.09356375
000160 34 45 28 3e 4b 88 2b 3e f9 c3 a9 3d 5e 0c a6 3d
       0.16432649 0.1675121 0.08289332 0.081078276
000170 1d 32 06 3e 92 08 c4 bb 8f e6 27 be 59 96 21 3d
       0.13105054 -0.005982467 -0.16396545 0.039450023
000180 d5 e2 0e be 20 71 dd bd 4f 0d c7 bd 93 aa a9 bd
       -0.13953717 -0.108125925 -0.09719335 -0.082844876
000190 06 e4 9d 3d 6a b1 04 3e 4a a1 86 3d f8 1c 02 be
       0.07709508 0.12958303 0.06573732 -0.12706363
0001a0 f9 c3 bb 3d 98 49 cb 3d 3b 3a c6 3d 8b b3 21 be
       0.09168238 0.09926146 0.09679075 -0.15791146
0001b0 01 d8 96 bd 59 8f ed 3d be 1b f6 bc 34 b0 f5 bd
       -0.07365418 0.11599607 -0.030042525 -0.11996499
0001c0 c2 bd 1e be 64 7c 94 3d 7f d9 93 bd 9a b8 e1 bd
       -0.15502074 0.07250288 -0.072192185 -0.11021538
0001d0 c1 14 b6 bd 4d ab dc 3d 92 69 fa 3d 91 7f 82 bc
       -0.08890677 0.107748605 0.12227167 -0.015929969
0001e0 f3 20 97 bd 04 c8 4d bd 95 a7 e2 bd 01 55 0c 3e
       -0.073793314 -0.050239578 -0.1106712 0.13704301
0001f0 5b 22 dd 3d f1 07 0b 3e 10 bd 1f 3e 9e c6 02 3e
       0.107975684 0.13577248 0.15599465 0.12771079
000200 e1 3a a8 3d c7 40 0a 3e 41 ec 16 3e f9 ec 9b bd
       0.08214355 0.13501273 0.14738561 -0.07613558
000210 56 2d 03 3e e2 36 09 3e b3 c1 74 3d f4 25 88 bd
       0.12810263 0.13399842 0.05975504 -0.06647864
000220 0e 66 0a bd 17 eb 1f be 75 b0 08 be 91 fb ad 3d
       -0.033788733 -0.15617023 -0.13348563 0.08495248
000230 15 2b d5 3d 85 bf db bd ab 53 32 3e 68 62 e4 3d
       0.10408608 -0.10729889 0.1741473 0.11151582
000240 42 65 72 bc c0 46 04 be 0e 72 1a be 04 83 18 be
       -0.01479465 -0.12917614 -0.15082571 -0.14893728
000250 bb e3 aa 3d ef df f1 bd 64 ab d4 bd 52 ba 23 3e
       0.083442174 -0.1181029 -0.10384253 0.15989044
000260 07 91 2d bd 59 d4 13 be 34 4b 4e bd fc b7 b6 3d
       -0.042374637 -0.14436473 -0.050364688 0.08921811
000270 8c 85 6d bd 2e 3c 8b bd dd f0 14 3e 89 2c e6 3d
       -0.05798869 -0.06798588 0.14545007 0.11238963
000280 e5 57 bf 3d 7f 0e 0a be 51 98 b2 bd 97 40 e7 bd
       0.093429364 -0.13482092 -0.08720458 -0.112916164
000290 58 52 8b 3c df c0 dd 3d bd fc e7 bd 7f f0 00 3d
       0.017007038 0.10827803 -0.11327503 0.031479355
0002a0 4d cc 38 3d 74 80 2a 3e 04 8c 22 3e d4 7c b1 bd
       0.04511671 0.16650563 0.15873724 -0.08666387
0002b0 51 79 c2 3d 85 b6 32 3e 2e 0a 23 bd cc 31 9c 3d
       0.094957955 0.17452438 -0.03980463 0.076266855
0002c0 34 d0 18 3e 6b 0c ad 3d b1 70 1e 3e 17 6b 8d 3c
       0.14923173 0.08449634 0.15472676 0.017262978
0002d0 f3 b0 31 3e 69 4a 96 3d c3 18 24 be 28 7f af 3c
       0.17352657 0.07338411 -0.16025071 0.021422938
0002e0 eb a5 dd 3d 52 2e c7 bd c5 a7 14 3e 45 b9 a7 bb
       0.10822662 -0.09725632 0.14517124 -0.0051185214
0002f0 cf 9c 0f be a7 e4 36 3c 5a f9 4c bd c1 3f 1c bd
       -0.14024661 0.011162913 -0.050042488 -0.038146738
000300 80 0c 02 be 56 ac 10 be 75 43 ce bd 75 0f 0a be
       -0.12700081 -0.14128241 -0.1007146 -0.13482459
000310 60 46 30 be 9b cb f0 3d fb bd 17 be a6 b7 6f bd
       -0.17214346 0.11757585 -0.14818566 -0.05852475
000320 ca c0 32 bd f2 52 c9 3d 4d ec 0e 3e 5c fb ab bb
       -0.04364089 0.09830274 0.13957329 -0.00524847
000330 51 d2 c4 3d 7b e4 77 bb b7 13 98 bd a4 db 50 bc
       0.09610427 -0.0037825394 -0.07425635 -0.012747679
000340 b5 c9 f5 bc 5d e4 69 bd 11 a7 14 be 79 93 12 be
       -0.030003408 -0.05710255 -0.14516856 -0.14314069
000350 fe 5d cc bd 04 d5 c8 3b 9a 5a 17 be 09 58 79 3d
       -0.09978865 0.006128909 -0.14780656 0.060874972
000360 9a d2 86 bc db a1 0e 3e fe f4 16 3e f6 ee 13 3e
       -0.016457845 0.1392893 0.14741895 0.14446625
000370 f1 dc e9 bd fc a4 b3 bd 43 04 60 bc 16 fd 18 3e
       -0.11419094 -0.08771703 -0.013672891 0.14940295
000380 be 5c 2d 3e a7 0a 02 3e 3d 41 eb 3d fa 31 94 bd
       0.1692991 0.12699376 0.114870526 -0.07236095
000390 96 9e 0f be 08 89 b8 3b cd 4c d9 3b 49 da 21 3b
       -0.1402534 0.00563157 0.00663147 0.0024696758
0003a0 ba 5a 54 bc c9 57 1e 3e 41 29 10 3e 8f fd 89 bd
       -0.012961084 0.15463175 0.14078237 -0.067378156
0003b0 53 cd a1 3d 1f 65 c6 bd 29 4f e8 bd d6 be 0a 3e
       0.079004906 -0.09687256 -0.113432236 0.1354936
0003c0 c7 74 22 ba df 8e 30 3d f6 ce 8f bc 99 80 c1 3d
       -0.0006197211 0.043105002 -0.017554741 0.09448356
0003d0 99 b1 e6 bd a4 05 8b bd c4 cc 93 bd d3 37 53 bc
       -0.11264343 -0.06788185 -0.0721679 -0.0128917275
0003e0 2b a0 02 3e 7a 86 91 bc d1 33 ca bd 11 85 03 3e
       0.12756412 -0.017764319 -0.098731644 0.1284373
0003f0 fd 23 0a be 47 71 bf 3d 53 32 14 3e 36 ac c1 bd
       -0.13490291 0.09347778 0.14472322 -0.09456675

separableConv.2.weight f4 [32]
000000 bf a6 7f 3f cf ce 7f 3f b1 79 7f 3f 19 1e 7f 3f
       0.9986381 0.9992494 0.9979506 0.996553
000010 82 25 80 3f 9d a5 7f 3f be c4 7f 3f 6c b0 7f 3f
       1.0011446 0.9986208 0.9990958 0.99878573
000020 1a 56 80 3f d5 90 7f 3f 07 72 80 3f 5f 0a 80 3f
       1.0026276 0.9983037 1.0034798 1.0003165
000030 92 0c 7f 3f fe cc 7f 3f 1e 21 7f 3f 8b e0 7f 3f
       0.99628556 0.9992217 0.9965991 0.99952
000040 e3 5a 7f 3f a7 59 7f 3f c4 9d 7f 3f 3a 53 7f 3f
       0.9974806 0.99746174 0.99850106 0.9973637
000050 6f 1b 80 3f 60 06 7f 3f de 2f 80 3f 70 0b 80 3f
       1.0008372 0.996191 1.0014608 1.000349
000060 e4 0e 80 3f 12 09 80 3f a4 8e 7f 3f 8c 51 7f 3f
       1.0004544 1.0002768 0.9982703 0.99733806
000070 e0 75 7f 3f 3b 33 80 3f d0 bc 7f 3f 6c 2f 7f 3f
       0.9978924 1.0015634 0.9989748 0.99681735

separableConv.2.bias f4 [32]
000000 69 92 e7 ba 7c fa ae ba d5 e5 4e ba 53 ef 59 bb
       -0.0017667535 -0.0013349797 -0.0007892524 -0.003325422
000010 45 f4 7f 38 e3 ef a2 3a 61 6a 44 ba f7 8f 54 bb
       6.102423e-05 0.0012431111 -0.00074926583 -0.0032434443
000020 d5 b6 bd 3a c6 de fa ba 98 1a 6d 3b 40 0e 48 ba
       0.0014474044 -0.0019139878 0.0036179181 -0.0007631518
000030 7f aa 51 3b f3 73 cf 3a cc 43 65 bb 55 3c 86 b8
       0.0031992493 0.0015827402 -0.0034983037 -6.400856e-05
000040 23 21 cf ba c1 0c 9b b8 4c 49 35 ba 67 e0 cd ba
       -0.0015802722 -7.3933516e-05 -0.0006915524 -0.0015707136
000050 28 d2 d4 3a c7 72 e2 37 e0 bb ce 3a 66 4c 98 ba
       0.0016236948 2.6994747e-05 0.0015772544 -0.0011619448
000060 d2 45 04 3a 32 20 8a 3a 29 3d b5 ba e6 67 95 3a
       0.00050458044 0.0010538159 -0.0013827431 0.0011398762
000070 29 90 05 bb bf 74 28 bb 73 e4 26 ba 4b 35 4c bb
       -0.0020380116 -0.0025704352 -0.0006366439 -0.0031159695

separableConv.2.running_mean f4 [32]
000000 15 61 d2 39 c9 a8 84 39 04 ec 8c 38 fb 62 05 b7
       0.00040126653 0.00025302757 6.7196816e-05 -7.950463e-06
000010 93 04 15 3a 6f 42 a6 ba 12 74 a8 ba 31 dc 6e b8
       0.00056845805 -0.0012684594 -0.0012851974 -5.694869e-05
000020 97 ad 97 33 dc 2a 1a 3a ef d4 03 ba 53 2e 0a 3a
       7.063061e-08 0.00058810203 -0.0005028983 0.0005271185
000030 43 e3 e1 b9 f5 15 3d ba ab 05 bf 39 fc 80 1a ba
       -0.00043084667 -0.00072130497 0.00036434582 -0.0005893854
000040 f7 c9 9d b9 69 f7 1a ba 33 88 f6 38 20 3d 97 b9
       -0.0003009585 -0.0005911501 0.00011755563 -0.00028846506
000050 4a 7b ed 38 3c 19 7b b9 5d 1b 8f 39 7e bc 0e 3a
       0.00011324005 -0.00023946626 0.00027295473 0.00054449576
000060 a4 3a c4 38 3b c2 ef b9 a3 9f ad b9 c7 90 69 ba
       9.356931e-05 -0.00045730345 -0.0003311607 -0.0008909818
000070 31 96 14 b9 28 be 97 39 8b e4 8d 38 a0 6d 0e 3a
       -0.0001417033 0.00028942642 6.7659734e-05 0.00054332055

separableConv.2.running_var f4 [32]
000000 0e 04 28 3f cf 04 28 3f fa 0d 28 3f f4 10 28 3f
       0.65631187 0.6563234 0.65646327 0.6565087
000010 f2 0b 28 3f 22 16 28 3f 75 0d 28 3f bb 0a 28 3f
       0.6564323 0.6565877 0.65645534 0.65641373
000020 dc 03 28 3f c8 07 28 3f 6d 04 28 3f 38 04 28 3f
       0.6563089 0.65636873 0.65631753 0.6563144
000030 ea 10 28 3f 58 0b 28 3f 23 0f 28 3f e6 0f 28 3f
       0.6565081 0.6564231 0.65648097 0.6564926
000040 ed 02 28 3f 9b 10 28 3f eb 01 28 3f 7e 09 28 3f
       0.65629464 0.6565034 0.65627927 0.65639484
000050 75 02 28 3f 0c 09 28 3f 09 05 28 3f 9b 0c 28 3f
       0.6562875 0.65638804 0.65632683 0.65644234
000060 b1 08 28 3f 69 08 28 3f b0 08 28 3f e2 0e 28 3f
       0.6563826 0.6563783 0.65638256 0.6564771
000070 98 0b 28 3f b9 02 28 3f d6 0e 28 3f a0 09 28 3f
       0.6564269 0.65629154 0.6564764 0.65639687

classify.weight f4 [2, 992]
000000 a1 c8 ae bc a6 37 c4 3b 16 32 e8 bc be e9 32 3c
       -0.021335902 0.005988079 -0.028344195 0.010919986
000010 eb 7c b1 bc f6 43 b2 3b 4d 0b eb bc 2c 34 e9 3c
       -0.02166601 0.0054402305 -0.028691912 0.02846726
000020 95 68 26 b9 3f a3 9e bc aa 3e 89 bc 2f 75 13 3c
       -0.00015869953 -0.019364951 -0.016753513 0.009000107
000030 f9 96 0a bc b6 0a cb bc 71 1f 73 3c 2f 71 b6 ba
       -0.008458846 -0.02478538 0.014839039 -0.0013919229
000040 25 bd fa 3c 94 26 bd 3a 59 1f c4 3c 88 af f6 3b
       0.03060777 0.0014431053 0.023940729 0.007528249
000050 bf 37 16 bc b7 da 4c 3c be 89 99 3c f2 bf f9 bc
       -0.009168564 0.012503318 0.018742438 -0.030487034
000060 01 5a 36 3c d6 fd 80 3c d6 35 dd bb a8 90 41 3b
       0.011129857 0.015746038 -0.0067508025 0.0029535685
000070 1c e5 08 3b 7e 40 3e 3c 4b a8 0e 3c e8 9c 6f 3b
       0.0020888513 0.011612056 0.008707116 0.003656203
000080 42 bf 94 bc a4 ef bc 3c 1b 63 9c 3b 0d 37 eb bc
       -0.018157605 0.023063488 0.0047725565 -0.028712774
000090 7e 21 61 bc 58 fe 40 bc f5 3f 91 bc 0c a9 d9 3a
       -0.013740895 -0.01177939 -0.017730692 0.0016606166
0000a0 86 e5 bc 3c 61 17 9d 3c 2b ff 9b bc 1a e8 e9 bc
       0.023058664 0.019176187 -0.019042572 -0.028553057
0000b0 90 96 d4 bc 2a 5b 15 3c a9 3a 9c bc c2 28 5c 3c
       -0.0259507 0.0091159735 -0.01907094 0.013437452
0000c0 18 93 ee 3c 08 3d 4b 3c d7 8f 5e bc b4 42 c8 ba
       0.029122874 0.012404688 -0.013584099 -0.0015278668
0000d0 6a 28 1f 3c 58 47 22 3c 9b 03 09 bc d5 d0 c5 bc
       0.009714225 0.009904705 -0.008362676 -0.02414743
0000e0 c2 57 3d 3c 6b 58 85 3b 31 20 07 3c fc 93 f2 ba
       0.011556568 0.004069378 0.008247421 -0.0018507238
0000f0 90 18 95 3c 85 03 3f bc 13 5f 47 3c fa 72 4a bc
       0.018200189 -0.011658554 0.012168664 -0.012356514
000100 9b e9 9c bb 1f e1 d5 3c 2e a7 1d bc 52 d7 27 3c
       -0.00478859 0.026108323 -0.009622378 0.010244207
000110 89 e8 e2 b9 8e fd a6 bc d9 88 89 3a c8 88 fe bc
       -0.0004327933 -0.020384576 0.0010493054 -0.031071082
000120 03 e5 36 3a ec ab 28 3c 01 c5 d2 3c 95 30 89 bc
       0.00069768744 0.010294896 0.025728704 -0.016746799
000130 ee e7 84 3c 8c 41 6b 3c d3 ea 86 bc a3 3d 8f 3c
       0.016223874 0.014358889 -0.016469395 0.017485445
000140 72 cc 08 3d d8 c1 20 3c 02 64 81 bc 9c 31 41 bc
       0.0333981 0.009811841 -0.015794758 -0.011791613
000150 87 4e 96 bc 17 89 2e bc 5c 05 0e bc 9b 00 c6 3c
       -0.018347992 -0.010652802 -0.00866827 0.02417021
000160 df 68 80 3c 86 55 91 3c 17 47 72 3c f6 84 e0 bc
       0.015675006 0.017740976 0.014787457 -0.02740715
000170 1d c8 54 bb 6b 23 93 3c 88 3d cd 3b 32 3b ac 39
       -0.003246791 0.017961225 0.0062634386 0.000328505
000180 b9 b2 49 3c a0 db b8 3a c2 b1 4a bc 15 a3 06 3c
       0.012310677 0.0014103539 -0.012371482 0.008217593
000190 71 b6 bc 3b d0 b0 50 bc e5 e2 90 3a cd 67 cd bb
       0.0057590534 -0.012737468 0.0011053948 -0.0062684775
0001a0 bb 97 be 3c cc 30 c2 3c 64 ee b5 bc e5 14 83 3b
       0.02326571 0.023704909 -0.0222084 0.0040002936
0001b0 5f 11 68 3c d9 2e cc 3c 77 1c 08 bd 97 87 ba 3c
       0.014164298 0.024924682 -0.03323027 0.022769732
0001c0 34 be d8 bc 2a 80 4f bc 6f 9a 91 3c 54 44 c7 3c
       -0.026457883 -0.012664834 0.017773835 0.024324574
0001d0 8c 2f 82 3b eb e6 be bc 14 e9 f8 bc d3 4d e0 3c
       0.003972953 -0.02330347 -0.030384578 0.02738086
0001e0 f7 6f f0 ba 13 59 10 bb 73 60 b7 3b ab 1e d1 bc
       -0.0018343915 -0.0022025749 0.0055962144 -0.025527319
0001f0 b2 96 2c bc b5 84 ca bc 17 49 b9 3c a0 2a 28 3c
       -0.010533975 -0.024721483 0.02261786 0.010264069
000200 ab 1f fa bb a0 b5 a4 3b fa ab 59 bc 1e e5 87 ba
       -0.0076331696 0.005026534 -0.013285631 -0.0010367965
000210 cf 46 b3 3c c3 31 17 3c b0 3f 6b 3c 52 c6 16 3b
       0.02188435 0.009228173 0.014358446 0.0023006392
000220 3b 46 74 bc 8a 33 59 bc ce a0 b9 bc 98 7f ae bb
       -0.014909322 -0.013256917 -0.022659685 -0.005325269
000230 66 96 e7 bc 0d 5e ef bc b4 8f 02 3b a0 c4 1c bc
       -0.028269958 -0.029219652 0.001992208 -0.009568363
000240 5d f0 ce 3c 9a 2c 73 3b 9b 0c 98 b9 09 0b cb bc
       0.025261099 0.0037105442 -0.0002900109 -0.024785535
000250 5e d0 5f 3c 36 65 e5 3c ce 23 43 bc 5d ce 99 3c
       0.013660518 0.028002363 -0.011910392 0.01877516
000260 e9 0a d0 3c 19 9f 59 bb 04 0b b9 3c 85 08 81 bc
       0.025395827 -0.0033206402 0.02258826 -0.015751133
000270 b9 a2 02 bc 1b 0b a6 3b ff c6 1e bc 02 41 ce bc
       -0.007973366 0.005067242 -0.009690999 -0.025177483
000280 d2 a0 02 3c 17 63 d9 3b 0d e6 6b bc 42 78 75 3c
       0.007972913 0.006634127 -0.01439811 0.014982285
000290 18 7f 6a bc b4 8d 50 bb bf 10 8e bb 27 80 39 3c
       -0.014312528 -0.0031822743 -0.0043354924 0.011322058
0002a0 cc b8 85 bc 8c 66 e7 bc 6a ae 5f bc 1d b8 f0 3c
       -0.01632347 -0.02824714 -0.013652423 0.029384667
0002b0 1d 28 bc 3c 9b e9 45 3c c4 fb f7 3c 34 97 67 3c
       0.022968346 0.012079622 0.030271418 0.014135171
0002c0 2a 19 5f 3a 16 53 eb 3c 1d 61 9b bc 0f 8a f4 3c
       0.00085105246 0.028726142 -0.018967206 0.029850988
0002d0 96 2a 19 3a 8c 87 85 bc ff 7e cf bc 25 37 ad 39
       0.00058428326 -0.016299985 -0.025329111 0.00033038217
0002e0 0c 40 d0 bc 56 f4 cc bc 8f 69 e2 bc 43 60 81 3c
       -0.025421165 -0.025018852 -0.027638225 0.015792971
0002f0 db 44 c7 3c 98 1a 3f 3c 90 09 f2 3c 22 1f 7f bb
       0.024324825 0.011664055 0.029545575 -0.0038928469
000300 c6 8e 75 bb d8 34 da bc 8a 7d bd 3b f1 63 3f bc
       -0.0037469133 -0.026636526 0.0057827877 -0.011681543
000310 12 e4 7f 3c 15 01 8e bb 6f 8d db 3c ff 30 7f 3c
       0.015618341 -0.004333625 0.02680084 0.015575646
000320 2a 52 3a 3c bd 47 44 bc b6 7b 7b 3c 39 a1 b1 3c
       0.0113721285 -0.011979994 0.015349319 0.021683322
000330 8f 20 ef bc 1a 43 e7 3c 36 7f 11 bc c5 46 a5 bc
       -0.02919033 0.028230239 -0.008880427 -0.020175347
000340 eb 9e 97 3b b6 17 ec 3c 4a df 0b 3c a0 58 ee 3c
       0.004627099 0.0288199 0.008537123 0.029094994
000350 27 fd 93 bc 86 4d d7 3c af f9 bf bb 13 75 4f bc
       -0.018065048 0.026282083 -0.005858622 -0.01266219
000360 79 80 ca 3c 22 fb 89 bc e0 72 ea 3c 30 04 23 3c
       0.024719464 -0.016843382 0.02861923 0.009949729
000370 16 88 1b 3c f9 68 7d 3a af 4f 08 bd 3d 19 21 b9
       0.009492895 0.0009666826 -0.033279117 -0.00015363558
000380 1a 24 28 3c 4b 46 26 3b bc 60 fa 3c 2e e5 f0 bc
       0.0102625135 0.0025371488 0.030563705 -0.029406156
000390 48 0e 8b 3c a2 d6 82 3c 63 29 47 bc 78 a8 6b 3c
       0.016974583 0.015971486 -0.012155863 0.014383428
0003a0 dc 65 93 bc 1b 5c 3b 3c fa 61 99 bb 8f d9 27 bb
       -0.017992906 0.011435534 -0.004680869 -0.0025611853
0003b0 73 5f 51 bc ee 7f 65 bc a6 49 60 3b 95 3c ca bc
       -0.0127791045 -0.014007552 0.0034223585 -0.02468709
0003c0 2f 64 8f 3c 9e 50 0c bb 25 ec 52 bc ac 9a 58 3c
       0.017503826 -0.0021410356 -0.012873684 0.01322047
0003d0 c7 d8 d9 3c bd 86 cc 3b 1b 6e af bc 20 a9 80 bc
       0.026592625 0.006241648 -0.021414807 -0.015705645
0003e0 81 77 3b 3a ab 35 48 3c 7c cf 8f 3b 47 b0 9b bc
       0.00071512914 0.012219827 0.0043887477 -0.019004954
0003f0 0c 6b e5 3c 0b ee 36 bc 90 ff 04 3c bb 44 01 3d
       0.028005145 -0.011165152 0.0081175715 0.031559687

classify.bias f4 [2]
000000 eb c6 9e 3a 7d b5 13 bc
       0.0012113726 -0.009015438
