notebooks/outputs/temp_B05_fold5_best.pth (torch, 31912 bytes, 18 tensors)

firstconv.0.weight f4 [16, 1, 1, 125]
00000000: 0d7e c4bc 8234 8b3c c9cc 343c bdbd 9d3d
00000010: 1856 a7bd 515a c3bd 39c9 893d 1628 20bd
00000020: 4729 f83c f8fa 803d 6eb8 823d 9822 173c
00000030: 6d86 07bd fd65 9d3d a5c4 9a3d 00b8 45bd
00000040: 3831 87bc c13d a73c 67ad a33d c7a3 9b3d
00000050: d307 45bd 5bc8 ca39 ac55 963d eaf7 933d
00000060: 45e4 c23d 29e1 a33b 2634 423d 8f37 163b
00000070: fd98 cf3d 3e9d bc3c 6586 893d d0a4 873d
00000080: 6eef 053c 87bd b33c 4bde 123d 8193 a2bc
00000090: 758a 8f3d b702 65bd 6dd4 a13d 02db 8f3b
000000a0: 8971 61bd a023 fb3c 6a2f 17bd 1fa5 943c
000000b0: 8c88 5f3d f368 643d a24c 133d a935 c6bc
000000c0: e059 233d 49ed 35bb be63 c4bd 2512 883d
000000d0: 8a52 19bc 7257 653d 01fe b93c 1a7b 3bbd
000000e0: 0b1e 913d 9a4e 01bd 2a01 aa3d ea0b debc
000000f0: c283 b93c 333c dd3b 6bbf 8e3d 5e5c 08bd
00000100: 35a1 0ebc 88c7 103d b7e7 27bd a295 ddbc
00000110: 0e3d ac3c 1836 8d3d 3cd1 97bd 8d2b 1fbd
00000120: 05f2 45bd 089e 52bd 5b82 96bc d6cc a3bc
00000130: 7ca8 453c 9f2c 8bbd 51df 853d b66b 643d
00000140: c2bb 2fbb 76b5 62bd 0bf2 983d a67e 3abc
00000150: c061 1fba 4dc3 b0bb d7ab acbd 6550 5fbd
00000160: 947e 133d 7d8d 8f3d 4592 8dbd 31f2 df3b
00000170: d3da 0f3c f559 803d e5ab 933d 8164 98bd
00000180: 51dc a1bd 455e ccbc 2172 623c 75d1 273d
00000190: e17f 743d d127 7a3d b4e0 e4bc e497 773d
000001a0: f676 68bd e30f b43d 69be 9c3c b41b 453c
000001b0: a19c 6c3b bd7c 6cbd f0b2 e23b 420d 15bc
000001c0: 6f35 773d 9420 5cbd 5e83 97bd 34f5 8d3d
000001d0: dd6e a6bd ceb3 06bd a024 183c fa25 32bd
000001e0: 4587 323d d3cb 44bd 87e7 0ebd e69f f8ba
000001f0: 57b6 a6bd 417d bfb9 2ae8 94bc 6e63 133d
00000200: d3fa b3bd ceb0 3d3d 655a d63a 2522 ef3c
00000210: d1e9 5ebd bcdf 273d 438f a0bd 54da 793d
00000220: 3b03 2fbd cd53 febc ae59 afbd 2dd8 cbbc
00000230: 7ea4 583d 2729 11bc 0ff4 5dbd 5bb8 1bbb
00000240: b9ca f23c 8f1d 84bc fd9f 2c3d 85be 95ba
00000250: 21ee 98bd 8589 9f3d 5181 e93c 95c2 2abd
00000260: 8ce6 76bd 1af6 febb 97e1 9bbd 8baf 97bd
00000270: 2bcb 203c 4f8a f7bc 951d 35bd 541b 023d
00000280: 186b 4b3d 1ba0 ae3d fe06 91bd 94c6 073d
00000290: 5026 3abc f509 d93c c081 8cbc 607d 853d
000002a0: 3224 bd3b 274c 9b3d 4e1c 85bd b5e2 61bd
000002b0: 1885 e8bc fe2e 0ebd d8bd fd3c 68c3 b4bc
000002c0: 745d 5abd fb81 b1bc 2f74 fabc 2306 6c3d
000002d0: 1a88 6e3d c721 253d e756 8abc a8e7 27bd
000002e0: 9d45 5fbd 0227 2cbd 9c9f b7bb 97be cb3d
000002f0: bf5a 18bd e322 f93c 8d98 b13d a7e7 623c
00000300: b918 8abd 4bf6 d8ba 74f9 3e3d 26a3 86bd
00000310: 4cd4 d9bd b701 803c 6602 6dbd 742d cdbd
00000320: 27af 08bc 919f 80bd 0cec a9bd b414 48bd
00000330: 9327 c6bd a2bc 6abd b0a7 083d 22c4 afbd
00000340: 9548 3b3d af69 103d 0bd2 72bd ca0a bcbd
00000350: da4c 31bd ec43 b0bd bd90 a23d 2f54 1b3d
00000360: 2eba de3c a6c5 7c3d c4a4 c0bd 8866 41bd
00000370: 203c 953d 49e3 b23c e3f8 f7bc 130b 9f3d
00000380: 752f 613d e92f 963d 445f 873d fc98 213d
00000390: c5d0 003d 3bb5 bb3d 0c89 cd3d de2a 503d
000003a0: f644 da3d b921 d63d 2de4 4ebd 19a2 883d
000003b0: 1eca 773d b7c4 ca3d c7c8 f73c 3a96 c3b8
000003c0: 419e ad3b 6386 a5bd d0d3 933d d7df 393d
000003d0: 09bb a53c 0d8e 44bd 8078 fabc 7019 cf3c
000003e0: 5321 6d3d ea68 f13c df3a b4bd 13dc 88bd
000003f0: fde6 76bd 9c54 2abd 959d 983d fdbc 46bd
-0.023985887 0.016992811 0.011035153 0.07702205 -0.08170718 -0.09538711 0.06727833 -0.03910073
0.03029312 0.062978685 0.063828334 0.009224556 -0.033087183 0.07685468 0.07557038 -0.04827118
-0.016502962 0.020415189 0.07992058 0.075995974 -0.048103165 0.0003867772 0.07340559 0.0722502
0.09516195 0.0050012064 0.047413014 0.00229213 0.10136602 0.023024198 0.06715087 0.06623232
0.00817476 0.02194096 0.035856526 -0.019845726 0.070088305 -0.055910792 0.07901845 0.0043901214
-0.055039916 0.030656636 -0.036910452 0.018145142 0.05457358 0.05576415 0.035961755 -0.024195509
0.039880633 -0.0027759841 -0.09589337 0.06644086 -0.009358058 0.055991597 0.022704126 -0.045771696
0.07085808 -0.0315691 0.08301003 -0.02710529 0.022645835 0.006751561 0.06970104 -0.033291213
-0.008705427 0.035346538 -0.040992465 -0.02704889 0.021025207 0.06895083 -0.07412955 -0.038859893
-0.04832651 -0.05142024 -0.018372705 -0.019995134 0.012064096 -0.0679562 0.06536735 0.055766784
-0.0026814793 -0.055348836 0.07468041 -0.011382734 -0.00060799345 -0.0053943754 -0.08431213 -0.05452003
0.036009386 0.070094086 -0.06912664 0.0068342914 0.008780199 0.06267158 0.07210521 -0.074410446
-0.0790335 -0.024947295 0.013821156 0.04097124 0.059692267 0.061073128 -0.027939178 0.06044759
-0.056754075 0.08792093 0.019133763 0.012030531 0.00361041 -0.057736147 0.0069183037 -0.009097399
0.060353693 -0.053742006 -0.07398103 0.069315344 -0.08126614 -0.03288632 0.009286076 -0.04349325
0.043586034 -0.048045944 -0.03488877 -0.0018968552 -0.08140247 -0.0003652368 -0.01817711 0.035983495
-0.08788075 0.046311192 0.0016353844 0.029191086 -0.054422203 0.040984854 -0.07839825 0.06099923
-0.04272769 -0.031045819 -0.08562027 -0.024883354 0.052891247 -0.008859909 -0.05418783 -0.0023761007
0.029637681 -0.016127376 0.042144764 -0.0011424577 -0.074672945 0.07789902 0.028504046 -0.041689474
-0.06027846 -0.0077808024 -0.07611387 -0.07406529 0.009814064 -0.030217318 -0.044217665 0.031764343
0.04966268 0.085266314 -0.07081412 0.033148363 -0.0113616735 0.026494006 -0.017151713 0.06518054
0.005772137 0.07582884 -0.06499539 -0.055147845 -0.028383777 -0.034712784 0.030974314 -0.022065833
-0.05331178 -0.021668425 -0.030572979 0.05762304 0.058235265 0.040315416 -0.016887141 -0.04099241
-0.054509748 -0.04202939 -0.0056037437 0.099484615 -0.037195917 0.030412143 0.08671675 0.013849176
-0.06742997 -0.0016552893 0.046624616 -0.06574087 -0.106361955 0.015625818 -0.057863615 -0.10018435
-0.008342541 -0.06280435 -0.082969755 -0.04884787 -0.09675517 -0.0573088 0.033363044 -0.08582331
0.045723516 0.035257038 -0.059282344 -0.09181745 -0.043286182 -0.08606705 0.07937763 0.03792208
0.027188387 0.06171193 -0.094064265 -0.047216922 0.072868586 0.021836894 -0.030270046 0.07765784
0.0549769 0.07333357 0.06609967 0.039452538 0.0314491 0.09165426 0.10035905 0.05082213
0.106576845 0.10455651 -0.050510574 0.06671543 0.06049549 0.09900802 0.030247105 -9.3263065e-05
0.0052984064 -0.08082273 0.072181344 0.045379486 0.020230787 -0.047987033 -0.030575037 0.025280684
0.05789311 0.029468972 -0.08800291 -0.06682601 -0.06027888 -0.041584596 0.074519314 -0.048520077

firstconv.1.weight f4 [16]
00000000: 2f67 7f3f e49e 823f 34b7 803f f757 7b3f
00000010: f4e9 803f 5879 7c3f c821 813f 9962 7f3f
00000020: 6668 7c3f 6235 7d3f 219e 7b3f d279 813f
00000030: 5d1f 813f 91b7 7f3f 5d7a 813f fa5f 803f
0.9976682 1.020474 1.0055909 0.981811 1.0071397 0.98622656 1.0088434 0.99759823
0.985968 0.9890958 0.9828816 1.0115302 1.0087696 0.99889475 1.0115467 1.002929

firstconv.1.bias f4 [16]
00000000: 9cfc ccbb e0c5 9abb f614 243c d588 d1ba
00000010: 892f 76bb afaf 9b3a f6e1 0d3c 2bdc deba
00000020: 6c3c 67bb 28ec b73b a276 65b9 1791 b6bb
00000030: aba4 e43a 7763 06bb 7985 83bb b763 c2ba
-0.0062556993 -0.0047232956 0.010014763 -0.0015986214 -0.0037564954 0.0011877919 0.00865983 -0.0017002871
-0.0035283817 0.005612869 -0.00021883336 -0.0055714953 0.0017444094 -0.0020506063 -0.004013714 -0.0014830743

firstconv.1.running_mean f4 [16]
00000000: 3e7a 8c2e c795 ceb0 39b4 472f 1cd6 f5af
00000010: dda4 552f 6b67 74af 6c61 a2b0 0591 82b0
00000020: e5cd b830 eced 7f2f a490 87b0 76b3 c7b0
00000030: 98ac cd30 b26d 4030 a731 b230 ea6d c2af
6.3881775e-11 -1.5031042e-09 1.8162973e-10 -4.4717374e-10 1.9430808e-10 -2.2228412e-10 -1.181474e-09 -9.499962e-10
1.3446281e-09 2.3276642e-10 -9.863652e-10 -1.4530162e-09 1.4964767e-09 7.000508e-10 1.2965317e-09 -3.5366493e-10

firstconv.1.running_var f4 [16]
00000000: 3a89 9a3a 3a89 9a3a 3a89 9a3a 3a89 9a3a
00000010: 3a89 9a3a 3a89 9a3a 3a89 9a3a 3a89 9a3a
00000020: 3a89 9a3a 3a89 9a3a 3a89 9a3a 3a89 9a3a
00000030: 3a89 9a3a 3a89 9a3a 3a89 9a3a 3a89 9a3a
0.0011790164 0.0011790164 0.0011790164 0.0011790164 0.0011790164 0.0011790164 0.0011790164 0.0011790164
0.0011790164 0.0011790164 0.0011790164 0.0011790164 0.0011790164 0.0011790164 0.0011790164 0.0011790164

depthwiseConv.0.weight f4 [32, 1, 3, 1]
00000000: 7ecb 0c3f 7446 c3bd 1cb3 753e bba4 23be
00000010: a0ee ccbd 8e71 d3bd a766 97bc 57af 063f
00000020: 339a d0bc 10e3 1b3e ae48 b6be c85a 973e
00000030: eaf7 a1be 1b88 8bbd 5837 f1be 8da2 03bf
00000040: 47e4 cd3e 4de8 cf3e 05cd b1be 469d fbbe
00000050: 63b1 83be e1c8 bdbe dd82 463d 4fae 213d
00000060: 99ff 40be 5160 e8be e39b d73e 5a0e fabe
00000070: 9776 973e 2c19 a33e 58c0 0bbe c569 63be
00000080: 8b3d a0be b2f0 a6be 2df8 adbd 1ce5 f6bd
00000090: 2280 d03e f895 113d 79a8 7dbd 0828 e2be
000000a0: d96c 3c3d e422 d5bd edf0 10bf c035 babd
000000b0: 9d75 28be a9aa b7be 63de c73d 604f 10bf
000000c0: 9565 5c3e f4d8 f3be 84e9 293e b2ac 9b3e
000000d0: 0d10 2b3e 0c27 d4be 90d2 553e 717b 14be
000000e0: baf6 b3be 782a c93d 2812 da3d 0014 05bf
000000f0: be1a 49be 752e 843e 76ad cdbe 77d6 c53d
00000100: a64b c33e 729a 8b3e 69c5 a53d 2afb c1bd
00000110: 5d3b b1be c7d1 5b3e b253 ad3d d603 003e
00000120: f76d edbe fa92 a13e ef17 04bf a3dc 823e
00000130: e9aa 273e 11f6 bdbe 4a9b b7be 8f9c 0ebe
00000140: 68fb 1c3c 87c9 78be 6cc1 71be bed5 e93d
00000150: 3fe0 05bf d92f 013f 2adf 0e3f 71b1 a83d
00000160: e143 ccbe a201 aabd 6aca c1be 8d78 23be
00000170: c6c2 983e a4db af3e b91e ac3d 6cd0 c2be
0.54998004 -0.09534922 0.23994106 -0.15980808 -0.100064516 -0.10324393 -0.018481566 0.526113
-0.025464153 0.15223336 -0.35602325 0.29561448 -0.31634456 -0.068130694 -0.47112536 -0.5141991
0.40213224 0.4060692 -0.3472673 -0.49143428 -0.25721273 -0.3706732 0.048464645 0.039472874
-0.18847503 -0.45385984 0.4211112 -0.48839074 0.29582664 0.31855142 -0.13647592 -0.22208317
-0.31296954 -0.3260551 -0.084946014 -0.12055418 0.40722758 0.035543412 -0.061928246 -0.44171166
0.046002243 -0.104070455 -0.56617624 -0.09092283 -0.16451116 -0.3587239 0.09759214 -0.56371117
0.21523125 -0.4762646 0.16592985 0.30405194 0.16705342 -0.4143604 0.20881104 -0.14500214
-0.35149175 0.098225534 0.10647994 -0.5198364 -0.19639108 0.25816694 -0.40171403 0.096600465
0.38143653 0.2726627 0.080942936 -0.09471734 -0.34615603 0.21466742 0.08463229 0.12501463
-0.4637296 0.31557447 -0.5159902 0.25558957 0.16373791 -0.37101796 -0.35860664 -0.1392691
0.009581424 -0.24295627 -0.23608941 0.11417721 -0.522953 0.50463635 0.5580927 0.08236969
-0.39895537 -0.08301093 -0.37849742 -0.15963955 0.298361 0.3434726 0.084042974 -0.38049638

depthwiseConv.1.weight f4 [32]
00000000: a84b 7f3f 718f 7f3f 43e1 803f dd36 823f
00000010: 52b8 803f a4b4 7d3f 506a 7c3f 91ff 7b3f
00000020: f540 803f 777b 803f 907e 7f3f a3fc 7b3f
00000030: ab96 7e3f 1758 813f 2bf1 7e3f 4d33 7f3f
00000040: 0c4f 803f 118e 7a3f 750f 7b3f 81dd 7e3f
00000050: 80e9 7f3f aa48 7b3f f2dc 813f 953e 7f3f
00000060: 6464 7d3f 0c89 833f 603c 7f3f ce1a 803f
00000070: 7f9a 803f 702c 813f bda5 7d3f c926 823f
0.9972482 0.9982825 1.0068744 1.0172993 1.005625 0.9910376 0.9859972 0.9843684
1.0019823 1.0037678 0.99802494 0.9843237 0.9944865 1.0105008 0.99586743 0.99687654
1.0024123 0.97873026 0.9807046 0.9955674 0.9996567 0.9815775 1.0145552 0.9970487
0.9898131 1.0276198 0.997015 1.000818 1.0047148 1.0091686 0.9908102 1.0168086

depthwiseConv.1.bias f4 [32]
00000000: 7b32 0f3b 910c 213b b3db 833b 02a6 0bbc
00000010: 4d8f 3f3b 946d 15bc b1c1 a6ba d1f9 02ba
00000020: fbc5 653b c52a 283c 6da3 5eba 8fdd 90bb
00000030: d999 c6bb de92 a1ba cf21 e73b 4954 5dbb
00000040: e8be 1a3c 5301 33bb 78a1 863b 17c3 0dbc
00000050: 3e82 0ebb 0923 03bc d365 893a e9ad 14ba
00000060: c234 6e38 16ed a23b 56af 4dbc a57c 8bbb
00000070: 1d24 7e3c c750 81bc fbaa febb 4eda 213c
0.0021850157 0.002457414 0.004023993 -0.008523466 0.00292297 -0.009120364 -0.001272252 -0.0004996332
0.0035060633 0.010264103 -0.000849298 -0.004420943 -0.0060608205 -0.0012327095 0.007053591 -0.0033772162
0.00944493 -0.0027314022 0.004108604 -0.00865247 -0.002174511 -0.0080039585 0.0010482616 -0.00056716666
5.6792756e-05 0.0049721105 -0.01255401 -0.004256802 0.01551154 -0.015785588 -0.0077718473 0.009878708

depthwiseConv.1.running_mean f4 [32]
00000000: 92a7 62bb afce eb3a 589d 0bbb e4a6 e3b9
00000010: 66e9 0dbc d138 443b 3e1c 293b 4941 2e3a
00000020: e63d 6f3a 49be 04ba f4f8 89ba 11ec 58ba
00000030: d128 5a3b 7f65 8ebb c16b eb3a 886f eb3a
00000040: 7416 bc39 4437 59b9 884d b9ba de25 cbba
00000050: 0923 3339 9a33 d3b9 8dba cc3a 42c5 f0ba
00000060: fcc8 0fba 14be 3838 1ea5 e839 3287 ae39
00000070: 12c5 ddba 0452 a23a 92aa b339 749e 98b8
-0.0034584743 0.0017990674 -0.00213035 -0.00043421157 -0.008661604 0.0029941092 0.0025804187 0.00066473015
0.000912635 -0.0005063755 -0.0010526464 -0.0008274923 0.0033288489 -0.0043455954 0.001796119 0.0017962316
0.00035874883 -0.0002071532 -0.0014137486 -0.0015498956 0.00017083822 -0.00040283502 0.0015619561 -0.0018369334
-0.0005484966 4.4046043e-05 0.0004437351 0.00033288595 -0.0016919693 0.0012384062 0.00034268625 -7.277439e-05

depthwiseConv.1.running_var f4 [32]
00000000: 4a8c 9a3a e089 9a3a 3f8c 9a3a ba8a 9a3a
00000010: a292 9a3a 358b 9a3a 9c8d 9a3a d089 9a3a
00000020: 038b 9a3a 1d8a 9a3a c48a 9a3a 4d8a 9a3a
00000030: 708c 9a3a 238e 9a3a f58c 9a3a 438d 9a3a
00000040: f689 9a3a 148a 9a3a 038a 9a3a b68a 9a3a
00000050: 4f8a 9a3a 768b 9a3a e58a 9a3a 678b 9a3a
00000060: 778f 9a3a 218a 9a3a 268d 9a3a 8f8b 9a3a
00000070: 298c 9a3a 808a 9a3a 898a 9a3a 0c8a 9a3a
0.0011791077 0.0011790358 0.0011791064 0.0011790611 0.0011792968 0.0011790755 0.001179147 0.0011790339
0.0011790696 0.0011790429 0.0011790623 0.0011790484 0.0011791121 0.0011791628 0.0011791276 0.0011791367
0.0011790383 0.0011790418 0.0011790398 0.0011790607 0.0011790487 0.001179083 0.0011790661 0.0011790813
0.0011792023 0.0011790433 0.0011791333 0.0011790859 0.0011791039 0.0011790544 0.0011790554 0.0011790409

separableConv.0.weight f4 [32, 1, 1, 16]
00000000: 3801 4a3e d7e3 6dbe c06c e1bd 2a7d f23d
00000010: 9275 f83d bf93 dcbd 805b 193e bc11 813e
00000020: 824f 15be 73a9 e33d 4410 80bd bfb5 60be
00000030: e0a2 943d 7421 a4bd 6a09 10be 5ef0 9bbb
00000040: bdf7 e5bc 0f6a 6e3d 9248 10bd a10a 203e
00000050: d043 f3bd f2c3 403c 1660 5fbe 81cd 97bd
00000060: b6c5 7fbe 9791 8dbd 7899 cf3d 34ad f6bd
00000070: 0df8 c93c a7d2 3bbd cb01 98bd 618d e2bd
00000080: 247b 0c3d d01c 033e 0765 44be 1a47 453c
00000090: e702 03be 5270 1cbe dd18 31be 1615 15bd
000000a0: 5be1 6dbe e575 adbd c9cd 5bbc 322d 1bbb
000000b0: e697 cb3b 1c47 26be a330 0bbe 7d01 6fbe
000000c0: 9802 20be c91f 033e 233d 0cbe fccf 673e
000000d0: e69a 6bbe f7ed 72be 3595 6b3e e9be 74be
000000e0: 3a1e 4ebe 0cce 353e 7562 c33d 7dd8 dfbd
000000f0: 9498 863e fafd 1b3e 0e04 dd3d d3c0 453e
00000100: 301e 0bbd 93da c63d 53f3 0fbd 570d ff3c
00000110: 0051 d03d d6be 9fbd 24c7 26be 7e8e 60be
00000120: 4ef9 3fbe b1f7 8a3d e714 583e 06a7 7c3e
00000130: 4d0a 2d3d 27b5 1dbe eacc 47be 043a 6fbe
00000140: f277 ec3b ecf0 593e 0fd1 56be 7301 063e
00000150: c94f 733e 5fd9 773e cf75 22be fdc3 9d3c
00000160: 29b7 e63d 5b04 be3d f0f2 b0bb 7551 43be
00000170: da02 6e3e ad12 15bd 76e9 9abd 3f37 2ebe
00000180: 96a4 113e d68c 973d 751d 23be 5fcf 3b3d
00000190: 4741 eebc e3bf 333d ee1f 1d3d 1de3 dcbd
000001a0: ebdd 1c3d 9039 94bd 1405 9fbd 44af 4ebe
000001b0: 0e4e 05be 33f2 963d be28 163e c7a4 633e
000001c0: fed1 e0bd e000 0cbe 6211 32be 198e 133c
000001d0: de28 76be 682a 92bd 64e7 6e3e 6d1b cdbd
000001e0: 1603 9cbc a8e2 1abe bc57 323e 632d f7bb
000001f0: e76c 4bbe 758f 6fbe 6ae2 c9bd 2184 1c3d
00000200: d170 29bb 6e77 3c3c 1371 72be eb67 04be
00000210: 2cc1 963b 1e7e 86be 1eac 0e3e 6ba4 2d3e
00000220: e662 37be 8b9f 3a3e a643 683e cf26 1cbe
00000230: de5f cbbd 3a52 eabd 1b97 70be 37cf e13d
00000240: cf3c bc3d 91e4 763e fbd3 5d3e 487b 5d3e
00000250: 8f3e 09be 791a 7cbe 2944 0ebe a04d 10bd
00000260: f125 9b3c 6103 903c d0f8 b1bd ab6c 633d
00000270: 0d14 bebd ca00 bbbd 2d01 683e 070a 5c3e
00000280: 4097 febd 8921 8abd b0ba 5f3e 6371 8f3c
00000290: 836c 44be f903 8d3d 7a4d f23d 4cc2 003e
000002a0: 8053 f8bd b002 60be a51d c8bd f3b0 1e3d
000002b0: 2c34 b3bc 8093 f63d 7b88 d0bc a2b6 3b3e
000002c0: f38c 46be 2830 1f3e 1b44 bfbc e41a 233d
000002d0: 3873 723e ea2d 25bd bc65 873c eef6 78be
000002e0: 9552 7cbd ab2d 173e 0260 1f3e c8dc 6e3e
000002f0: 6cdd 083e 858d 71bd 3d9b 21bd 00a1 73be
00000300: a71b 5ebd 2507 263e b029 4f3e 629d d43d
00000310: eb63 e4bc 58a5 813e 2218 f2bd 3ce4 97bd
00000320: 18b4 3f3e 3b58 ad3d becd 473e a89f 63be
00000330: 0318 6a3e caeb 88be 2a04 473d e054 093d
00000340: b8ca 6e3e 3bdf 073c c57a bb3d 83d0 49be
00000350: 1371 9e3d 0b54 5dbe f22f 513e 8fb1 f33d
00000360: f13f c13c e1d7 af3d c199 1cbd d232 9d3d
00000370: 40da b7bd 4602 25be 2ee8 2bbe 2a96 2abe
00000380: 41e7 aa3d 97c0 b0bc 4df6 56bd 699d 123d
00000390: 503c 693e d801 6ebe 605e e63b 555b 96bb
000003a0: 0e60 9ebd 58d9 393e bc53 583d 25a0 fcbd
000003b0: 9576 0bbd 3a5b da3d 13a8 71be 4834 1c3d
000003c0: 67e8 81bd cb59 903c 5c46 35be 8c81 a1bd
000003d0: 763d 6c3e 72ee 403e 28f9 da3d dc90 843e
000003e0: 9258 5b3e 03f4 03be 98fd 50be 8812 1d3d
000003f0: 5ffc e03d 8ddb f33d 2647 013e 9f46 36be
0.19727027 -0.23231445 -0.110070705 0.118402794 0.121318 -0.10770368 0.1497631 0.25208843
-0.14581111 0.11116304 -0.062531024 -0.2194433 0.072576284 -0.08014193 -0.14066091 -0.0047588786
-0.028072232 0.058206614 -0.03522546 0.15629055 -0.118781686 0.011765467 -0.21813998 -0.07412244
-0.24977764 -0.06912535 0.10136694 -0.120447546 0.024654413 -0.04585519 -0.07422217 -0.11062122
0.034297124 0.1280396 -0.19179164 0.012040878 -0.12794076 -0.15277222 -0.17294641 -0.036397062
-0.23230498 -0.08469752 -0.013415762 -0.0023678062 0.006213176 -0.16238064 -0.13592772 -0.23340411
-0.1562599 0.12805094 -0.13695197 0.22637933 -0.23008308 -0.23723589 0.23006137 -0.23900951
-0.20128718 0.17754382 0.095402636 -0.10929964 0.26288283 0.15233603 0.10791789 0.19311838
-0.033964336 0.097096585 -0.03514416 0.03113429 0.101716995 -0.07800071 -0.16286904 -0.21929356
-0.18747446 0.06785525 0.21101724 0.2467309 0.04224615 -0.15401135 -0.19511762 -0.23361975
0.007216447 0.2128331 -0.20978187 0.1308649 0.23760904 0.24204014 -0.15865253 0.019258494
0.11265404 0.092781745 -0.005400054 -0.19074042 0.23243275 -0.036394764 -0.075640604 -0.17013262
0.14222941 0.07399909 -0.15929206 0.04585206 -0.029083861 0.04388417 0.03836053 -0.10785506
0.038297575 -0.07237542 -0.077646405 -0.20184046 -0.13018057 0.073704146 0.1466398 0.22230826
-0.10977553 -0.13672209 -0.17389444 0.009006047 -0.24039027 -0.071369946 0.23330456 -0.10014997
-0.01904444 -0.15125525 0.1741628 -0.0075432523 -0.19865762 -0.23394568 -0.09857638 0.038211945
-0.0025854597 0.011503084 -0.23675947 -0.12930267 0.0046006646 -0.26268095 0.13932845 0.16957252
-0.1790882 0.18224923 0.22682056 -0.1524918 -0.099303946 -0.11441465 -0.23495142 0.11025851
0.09191286 0.24110629 0.21662895 0.2162906 -0.1340277 -0.24619474 -0.13893189 -0.03523028
0.01893899 0.017579736 -0.08690035 0.055523556 -0.09281168 -0.0913101 0.22656699 0.214882
-0.124311924 -0.067446776 0.2184856 0.017510122 -0.19182019 0.06885523 0.11831184 0.12574118
-0.12125301 -0.21876025 -0.09771279 0.03874297 -0.021875463 0.12039852 -0.025455704 0.18331388
-0.19389705 0.15545714 -0.023347905 0.039820567 0.23676765 -0.04032699 0.016528003 -0.24312946
-0.061602194 0.14763515 0.15563968 0.23326409 0.13365716 -0.058972854 -0.039454687 -0.23791885
-0.05422559 0.16213663 0.20230746 0.10381581 -0.027879676 0.2532146 -0.11821009 -0.07416579
0.18721044 0.08464094 0.19512078 -0.22228873 0.22860722 -0.26742393 0.048587956 0.03352821
0.23319519 0.008292968 0.09154276 -0.19708447 0.07736411 -0.21614091 0.20428446 0.11899101
0.02359006 0.085860975 -0.03823257 0.07675709 -0.08977175 -0.16114148 -0.16787788 -0.16658846
0.083448894 -0.021576209 -0.052480984 0.03579465 0.22776914 -0.23242891 0.0070302933 -0.0045885243
-0.07733165 0.18149316 0.05281423 -0.12335233 -0.034048636 0.10661931 -0.23599271 0.038135797
-0.06343155 0.017620942 -0.17702621 -0.07886037 0.2307032 0.1884096 0.10692054 0.2589177
0.21420506 -0.12886052 -0.20409238 0.03834775 0.10985636 0.1190711 0.12624797 -0.17800377

separableConv.1.weight f4 [32, 32, 1, 1]
00000000: e98b 26be a4f0 9abc f3e5 9a3d fd55 cc3d
00000010: 8e8f 21be 1f45 d03d 9e6a 513c f3d7 0ebe
00000020: 1db1 153d 1ed2 e9bc b3f5 2ebe f505 413c
00000030: 0715 cfbd 86f8 093e dc51 08bd ac35 10be
00000040: 49ce 323e 93d1 c1bc 35e1 173e 48bf e03d
00000050: dc33 253e c1f5 3c3d 2c2b cc3d de77 a1bd
00000060: 3008 e7bc f7d1 9fbd 6a87 2fbe 8da6 ee3d
00000070: 7019 f83d 6068 083c 2978 ff3d 9a2d c83d
00000080: ef60 513d c76a 03be 7b2c 1cbe 9be2 2dbc
00000090: c4a6 44bc eb5a a1bd 7aef 0bbe 9592 e3bd
000000a0: 9f9f 96bd c3e2 dc3c a4f8 293c b4e8 00bd
000000b0: a229 2b3d 3d83 c53d 79c2 82bb 429b 2eba
000000c0: cd64 f63d aa65 7bbd 417f 0abe b7b3 37be
000000d0: 5957 94bd ec2a 1fbe d76e 143e d0d2 2a3e
000000e0: a0ba d13d e9c6 8fbd bd30 b83d 16f3 9f3d
000000f0: 15d0 91bd 7b0a a53d 6fe0 bfbd 8390 91bd
00000100: efbe ff3d 8a30 81bd ddf6 3f3e 6853 ffbd
00000110: 56f0 9a3d 8015 853c df97 743d 623c 4b3d
00000120: 8cac f63d 340c 24bb 3231 6bbd d0aa 3fbd
00000130: 34b4 1a3e 4472 bbbd 7586 073e a50a f1bc
00000140: c84f 503d c405 10be 5c1c db3a 6649 0bbe
00000150: 20cb 0fbe 8659 d8bc 8708 2cbe aa30 3a3d
00000160: e585 f13c de7e dbbd 523e 4a3d eccd 0ebe
00000170: 1b52 3c3e 7354 b03d eb34 acbd 0a97 e8bd
00000180: a2d5 03bd c4b0 693d afb1 093d b5dc b6bd
00000190: 6669 0abe 10f6 10be b024 d53d 164f 64bd
000001a0: bb88 e3bd b2d6 163e 6394 4cbd a894 cf3d
000001b0: 825f 9d3d 98ce c7bc e4d2 a53d 5bb6 703d
000001c0: d230 0d3e 7ec5 1e3d 9e87 373d c95e c83b
000001d0: 1c0e 063e 4611 bd3d 3a99 22be 647e ccbd
000001e0: 2fd2 063e d940 e43d dcc1 1fbe 4093 c1bc
000001f0: 20fb d13d 0217 8bbd 22ca 423d ed63 84bd
00000200: 8244 983d eb1f 3abc 654b f5bd 303d dc3d
00000210: db56 993d 0940 37bb caf2 cabd 4d34 5f3d
00000220: 961c 2d3e 128d 163c ddfa 18be 8065 e3bd
00000230: d2f7 0fbd 82ba d83c 41d3 4abd 1910 4e3d
00000240: 343a dbbd 5737 c53d f64f e93d a57e 333e
00000250: 26d8 063e 1046 823b 1fe3 2fbd b5b6 143e
00000260: 1f63 9bbd 3e8b 163a 706d 09be 651e aabd
00000270: 254c 1d3c 80a7 9b3d aa4c ef3a 25cd 413c
00000280: 6a3f f73d 10f6 2a3e edcd c03c 641f 213e
00000290: ebaa 12bd 8b76 92bc 19ea 203e 6c66 053d
000002a0: fa1c 0f3e 6802 9cbd 0382 b1bd 7d33 1fbd
000002b0: 102d 2abe 96f6 0e3e 1fda c5bc 72a4 b63d
000002c0: 8278 af3c a726 163b 4da7 7dbd 0e18 123e
000002d0: fb46 04be 7bf9 173e 10f9 1f3d 0f65 2a3e
000002e0: 749c 0f3e a089 12be 4e74 f7bd 4d5e ed3b
000002f0: 6da0 80bd 76a8 ed3d a5dc 9d3c aaaa efbd
00000300: b619 fdbd e500 23be b7b0 df3c a13d c3bd
00000310: 7729 10be 8175 1c3e ca75 abbd bec6 103e
00000320: 1bcb 06be 976a 83bd 84d6 3dbe 5877 2a3e
00000330: f9bc 253e 2e9f 4a3c b5dc 1bbe 398a 313d
00000340: 52df c23d c53f c5bd 261e 29bd a111 283e
00000350: 76c7 a33d 38cb afbd 3d0c 1bbe fbaa 13bb
00000360: 7033 79bd 5270 d63d cfe1 2bbe 054b 6d3d
00000370: 03b4 65bd c698 313d dbae 0bbe 30c1 9f3d
00000380: d0d6 2d3e 58a2 cebd 21e6 653d 7873 65bd
00000390: 36c1 853d ac06 193d 1380 e7bc 377d ddbd
000003a0: c6be 8abd 990a 543e 8f6d 09bd 58e3 ad3d
000003b0: 5862 633d 3f2b 07be bc6c d0bc cadb 883d
000003c0: 16d5 6abd 9360 c03d 0073 ba3d 0fbc 5b3d
000003d0: a347 13be 11f7 dcbd 03cf c33d 5538 c93d
000003e0: 9e2d 3dbe c33f 22be 7533 5bbd 73cf 1fbe
000003f0: 77d7 573d 67f1 0a3e 355a 143e 0cfd 27be
-0.16264309 -0.018913575 0.075633906 0.099773385 -0.15777418 0.10169434 0.012781767 -0.13949566
0.03654586 -0.028542574 -0.17085914 0.011781205 -0.101114325 0.1347371 -0.033281192 -0.14082974
0.17461504 -0.023659503 0.14832003 0.10973984 0.16133064 0.046132807 0.09969172 -0.07884191
-0.028202146 -0.078037195 -0.171415 0.11652861 0.12114227 0.008325666 0.124740906 0.09774323
0.051117834 -0.12833701 -0.15251343 -0.010613109 -0.012002651 -0.07878669 -0.13665572 -0.11111943
-0.07354664 0.026963597 0.010374222 -0.031471923 0.04178775 0.09644172 -0.003990468 -0.00066607085
0.12030945 -0.06137625 -0.13525106 -0.1793965 -0.07243223 -0.15543717 0.14495407 0.16681981
0.10240674 -0.07020361 0.08993671 0.07810037 -0.071197666 0.080586396 -0.09368979 -0.071076415
0.124875896 -0.06308086 0.18746515 -0.1246708 0.07565372 0.016245604 0.059715148 0.049618132
0.120446295 -0.0025031688 -0.057419963 -0.04679376 0.15107805 -0.09152654 0.13234885 -0.029424021
0.050857335 -0.140647 0.0016716826 -0.13602218 -0.1404233 -0.026409876 -0.16800128 0.045456566
0.029482791 -0.10717557 0.04937584 -0.1394574 0.18390696 0.086098574 -0.08408531 -0.113569334
-0.032186158 0.057053342 0.033616718 -0.08928815 -0.13516769 -0.14156365 0.10407388 -0.055739485
-0.11110064 0.14730337 -0.0499462 0.10135776 0.07684232 -0.024390504 0.08096865 0.058767658
0.13788155 0.038762562 0.04480707 0.006114815 0.1309132 0.0923181 -0.15878764 -0.099850446
0.13166116 0.11145181 -0.15601295 -0.023629785 0.102529764 -0.06791498 0.04755605 -0.06464372
0.07434942 -0.011360149 -0.11977271 0.10753858 0.074872695 -0.0027961752 -0.099095896 0.054493237
0.16905436 0.009188907 -0.14939447 -0.11103344 -0.03514845 0.026456121 -0.049517874 0.05030832
-0.10704461 0.09629696 0.113922045 0.1752878 0.13168392 0.0039756373 -0.04294121 0.14522822
-0.07587265 0.00057427946 -0.13420653 -0.083065785 0.009600674 0.076003075 0.0018257101 0.011828695
0.12072642 0.16695428 0.023535693 0.15734631 -0.03580753 -0.017878791 0.15714301 0.03256838
0.13975897 -0.076176465 -0.08667376 -0.038867462 -0.16618752 0.13961253 -0.02415186 0.08918084
0.021419767 0.0022911222 -0.06192713 0.14266989 -0.12917702 0.14841263 0.039055884 0.16640113
0.14024526 -0.14310312 -0.1208273 0.0072439075 -0.06280599 0.11604397 0.01927025 -0.117024735
-0.123584196 -0.1591831 0.027305944 -0.09533239 -0.14078318 0.15279199 -0.08372076 0.14138314
-0.13163416 -0.06416815 -0.18538862 0.16647089 0.16185369 0.012367053 -0.15220912 0.04334471
0.09515251 -0.09631304 -0.041288517 0.16412975 0.079970285 -0.08583683 -0.15141387 -0.0022532332
-0.06084007 0.10470642 -0.16785358 0.057932872 -0.056079876 0.043358587 -0.13640921 0.078005195
0.16976476 -0.10089558 0.05612767 -0.056018323 0.06530993 0.03735988 -0.028259313 -0.108148985
-0.067746684 0.20707168 -0.03355175 0.08490628 0.05551371 -0.13200091 -0.025442474 0.066825464
-0.05733212 0.0939342 0.09103966 0.053646144 -0.14382796 -0.10789312 0.09560969 0.098251976
-0.18474433 -0.15844636 -0.05351587 -0.1560648 0.052695718 0.1356865 0.14487536 -0.16405123

separableConv.2.weight f4 [32]
00000000: cf81 803f cec0 7c3f 33a6 803f 2f25 813f
00000010: c139 7e3f b70b 7e3f 1ad2 813f 98f5 7d3f
00000020: bb2d 813f 0350 7f3f 1ec4 7f3f 71ce 803f
00000030: c1ec 7f3f 075c 813f b401 823f 6e96 803f
00000040: 38d7 7e3f 8e3e 7e3f 7808 7c3f 3672 7c3f
00000050: b5d1 813f d19a 813f b767 803f 7dc9 7d3f
00000060: 2ea9 803f 4a11 803f 5463 813f 9f80 7f3f
00000070: f809 803f 8f83 7e3f 7e14 803f 4dcf 803f
1.0039614 0.98731697 1.005072 1.0089473 0.99306875 0.99236625 1.0142243 0.9920287
1.0092081 0.99731463 0.99908626 1.0063001 0.9997063 1.010621 1.015677 1.0045907
0.9954715 0.993142 0.9845042 0.9861177 1.0142123 1.0125371 1.0031651 0.9913557
1.005163 1.0005276 1.0108438 0.99805635 1.0003042 0.9941949 1.0006254 1.0063263

separableConv.2.bias f4 [32]
00000000: 94f6 56bb d93a 43bc 48c3 353c c1dc beba
00000010: a1dc 46bc a55b 9dbc 7944 33bb 151e bdbb
00000020: 3dca 79bb b1ca 38ba 895e 2cb9 feff d93b
00000030: 8a81 a53b 0c6d 5736 cc5c 5bbb 3f79 8e3a
00000040: 3ebf 93bb e23d f5ba b8e4 12bc 3b7a 62bc
00000050: b635 c639 44c8 87b9 438d b5bb 60f9 24bc
00000060: ba62 b6bb 7333 f1b9 292d c3ba 164c 7fbc
00000070: abed 99bc 77ba a6bb 1e76 4cbc f1d9 66bc
-0.003280078 -0.011915886 0.011093922 -0.0014561639 -0.012137563 -0.019208739 -0.0027354045 -0.0057714083
-0.0038114928 -0.00070492463 -0.00016438415 0.006652831 0.0050508427 3.210097e-06 -0.003347206 0.0010869874
-0.004508882 -0.0018710459 -0.008965664 -0.013823087 0.0003780552 -0.00025898416 -0.0055405213 -0.010069221
-0.0055659683 -0.00046005435 -0.0014890778 -0.015582105 -0.018790087 -0.0050881463 -0.012479333 -0.014090047

separableConv.2.running_mean f4 [32]
00000000: e31e cd3a 78d3 c83a 2cb0 19bb 7ad6 553b
00000010: a958 4439 1199 f5ba ff0d 89b9 3479 6e39
00000020: 8e36 003b 6d06 eab9 3596 7ab9 6fb7 b73a
00000030: fb1d 27ba 953c ebba 2960 4abb 5961 5e3a
00000040: baa1 a739 f277 ceba a605 1539 e12c 5d3a
00000050: e251 49ba 3766 f1b8 b1a0 19bb 8742 6fba
00000060: 05de a5b9 53eb 6639 19d4 74ba bd11 f1b9
00000070: 4907 3a3b 3b90 40bb f006 97ba 0bf4 05ba
0.0015649464 0.0015321812 -0.0023450954 0.0032629059 0.00018725045 -0.0018737634 -0.00026141104 0.000227426
0.0019563767 -0.00044636746 -0.00023897814 0.001401646 -0.0006375012 -0.0017947132 -0.003088007 0.0008483134
0.00031973218 -0.0015752299 0.00014211852 0.00084371684 -0.0007679743 -0.000115108145 -0.0023441727 -0.000912704
-0.0003163667 0.00022022174 -0.00093394663 -0.00045980318 0.002838569 -0.0029382843 -0.0011522453 -0.00051099126

separableConv.2.running_var f4 [32]
00000000: 62a9 713b e26e 143b 95cc 2e3b 12fe 673b
00000010: ae72 1d3b c0f2 373b 358c 623b ac5e 5e3b
00000020: 7ba3 753b b7a3 443b 88c8 303b a0ac 363b
00000030: b4b6 303b 803d 323b ab94 723b 9ee7 2a3b
00000040: 0c2c 203b a05d 753b 3d72 543b ac2e 273b
00000050: 9edc 4c3b b1e1 333b c714 5d3b ac0a 303b
00000060: 94ef 223b b8e3 363b dd1d 883b ed5c 533b
00000070: c9c0 1d3b a973 723b 18a4 303b 0b09 2b3b
0.0036874642 0.00226491 0.0026672233 0.003539924 0.0024024653 0.0028068274 0.0034568433 0.003393094
0.0037481475 0.0030004808 0.0026974995 0.0027873889 0.0026964368 0.0027197301 0.0037014883 0.0026077996
0.0024440316 0.0037439838 0.0032416724 0.0025509996 0.0031259428 0.0027447755 0.0033734308 0.002686183
0.0024862038 0.0027906727 0.0041539506 0.0032251433 0.0024071208 0.0036995208 0.0026953276 0.002609792

classify.weight f4 [2, 992]
00000000: ac91 723c f23b 26bd b161 2ebc 0fab 02bd
00000010: 8d13 0cbd c215 9f3b f7c4 003d 3a56 893c
00000020: dd90 bbbc a9a1 0b3c 31c5 673c 449a eaba
00000030: 7551 b53c 3c63 c2bb 5a36 30bc ceea 08bd
00000040: e152 2bbd 2af3 c23a 55c5 bb3b 6cca 053b
00000050: a5d6 3ebc f556 5cbd 7627 b83c 4f75 0d3d
00000060: f41a 583c 6b1a aa3c 6470 4e3c bac7 e93b
00000070: fb15 af3c 525f 8cbb f6b5 03ba b057 15bd
00000080: 7a4b 353c ed6b a0bc d162 23bc f402 103d
00000090: 79b4 583c dcf2 803c 1510 f7bb 7a30 623c
000000a0: f23f 733c 592a ef3b 2fc3 e9bc f884 073d
000000b0: 0ebc 513b 28d4 52bc 3b14 d6ba fdb6 803c
000000c0: 1f00 243d 701f 2b3c f9dc 693c fb80 fd3b
000000d0: c8f3 753c 3440 53bc 0c70 05bd 95e9 e53c
000000e0: f957 45bc 2c81 23bc a54c af3c ef91 1a3c
000000f0: c729 cc3c f92f 54bc 761f d9bc b648 efbb
00000100: 3382 08bc ad98 363c fc0d b8bc 349f a9bc
00000110: 33d9 12bd aff7 073d 1866 783c 2b0d 06bb
00000120: 37e2 f8ba 9ce2 f3bb bf8f 79bc e310 663b
00000130: e200 41bd bf17 6abc 9281 48bc 166f 083b
00000140: 9c8f 29bc 727c d1bc d598 f23c cf81 debc
00000150: 1529 1d3c ab49 19bd ebdd a23b 5bfd a13c
00000160: a5e6 b2bc 6116 ce3c a31f 98bb 9acf e73b
00000170: fa4f 683c f068 edba 868d e7bc 8a18 dbbb
00000180: 02d2 8c3c a843 00bd e38b 31bc 1357 f8bb
00000190: 8f77 c1bc e62c 0a3d ffc1 b33c cd1f bfbc
000001a0: 4ab0 053d 21d8 933c ab0d c8bc e3c2 8b3a
000001b0: 33ee 00bd 9c8f 31bd 7b9b 253c cea7 5cbc
000001c0: c13c 3bbc cc74 48bc a84c c3bc 387c fcba
000001d0: 0f5c 9abb aa91 a6bc 4461 d43c d93b 16bc
000001e0: a2d1 7fbc 80a4 1d3b 9788 de3c 3577 033c
000001f0: 3e07 7a3c 4b8a 1a3b 136d f7bc 9bc0 b43c
00000200: 6b51 5fbc 50f8 723a fd00 05bc c63f 073d
00000210: 29be dc3c af90 1ebc d234 be3b 9e2d 8b3c
00000220: 6fca 283d 664d 353c 3deb 90bc 8283 30bc
00000230: 3e04 ba3c 709b dd3c 8919 ae3c a140 b0ba
00000240: 8bdb 73bc 191c 1b3c 5e57 2bbd 709b c1ba
00000250: ad8f d1bb eb35 c6b9 a3b7 8dbc 81cc 283c
00000260: 9925 a1bb ac59 85bc 97ae fcbc 67cf 0f3d
00000270: 5ea8 dd3b febb cb3b ef23 6cbb f6f4 f93c
00000280: ee7d 8dbc f000 c13b 03ab 43bc 2ff6 c2bc
00000290: b601 c13c 093c a0bb 4374 c0bb ffdc e73b
000002a0: cacf dbbc 7eae 28bc 82a8 34bd 5e8b ff3c
000002b0: 384d 0dbd a9c6 c0ba ddb4 a4bb 0e29 b4bc
000002c0: ab58 393c 8904 39bc 55a2 7cbc 7d64 94bb
000002d0: a5ac 993c 813b c23c c1a8 9c3c 59d3 a6bb
000002e0: 6e2e a93c c87b 7ebc ad49 2abc e403 bbbc
000002f0: e76b 17bd b698 28bb 1fa4 47bd bee0 7bbb
00000300: 9c73 edbb dd76 2abd ca83 a3bc a2c0 d4bb
00000310: 0aec 8d3c b981 fc3c c72e fd3c 1503 25bb
00000320: 0f17 db3c 8ff8 8a3c b8b8 b93a b3d9 8fbc
00000330: a60d ccbc 5e2c 7cbc 1cf8 c8bc 5e56 913b
00000340: 966e e1bb 9643 a039 0663 2aba 57f7 253d
00000350: 7032 ef3c 1724 0cbc 63fe 323d ef59 1c3c
00000360: 5103 e93b 800d 43bb 9737 cdba 62ff 523c
00000370: 5830 46bc 7d60 77bc f175 da3c 0d0e 5cbd
00000380: e491 303d 9cc3 4e3c 37ca fe3c 2221 073d
00000390: 47de efbc ca2e 75bc 1631 05bc 7985 f4bc
000003a0: 4ec8 b8bc afc3 9bbc bcfd 6bb9 2e9d bfbc
000003b0: a705 ad3c 8ca8 45bc dc61 afbb 8166 3b3c
000003c0: 6d82 a93b a1bb 1fbc 57be aa3c ed73 08bb
000003d0: 7d98 cebb 1545 513b 80c6 983c 9682 b8bc
000003e0: cada 12bb 04d7 56bc 8223 92bc 4f50 493d
000003f0: f815 cfbb 6c5c 1cbb 0d66 acbc bb67 6e3c
0.014805239 -0.040584512 -0.010643409 -0.031901415 -0.034198333 0.0048548887 0.03143784 0.016764749
-0.022896225 0.0085224295 0.014146135 -0.0017898758 0.022133568 -0.00593224 -0.010755146 -0.033427052
-0.041827086 0.0014873494 0.005730311 0.0020414842 -0.011647855 -0.053793866 0.022479754 0.034535702
0.01319002 0.02076455 0.012600038 0.007134405 0.021372786 -0.004283824 -0.0005024368 -0.03646058
0.011065358 -0.019582713 -0.00997229 0.035159066 0.013226622 0.015740804 -0.007539759 0.013805503
0.014846789 0.0072987494 -0.028535454 0.033085793 0.0032002958 -0.012867965 -0.0016332933 0.015712256
0.040039178 0.010444507 0.014273875 0.007736323 0.015011735 -0.012893725 -0.03257756 0.028065482
-0.0120449 -0.009979527 0.021398852 0.009434207 0.024922265 -0.012950891 -0.02650426 -0.007302369
-0.008331823 0.011144799 -0.022467606 -0.020705797 -0.03585167 0.033195194 0.01516106 -0.0020454626
-0.0018988316 -0.0074427854 -0.015232026 0.003510528 -0.047119983 -0.014287888 -0.012237923 0.0020818166
-0.010349181 -0.025572035 0.029613892 -0.027161507 0.009592314 -0.03742377 0.0049703023 0.01977413
-0.021838496 0.025157155 -0.0046424433 0.0070743086 0.014179224 -0.0018112939 -0.028265726 -0.006686275
0.017189983 -0.031314522 -0.010836574 -0.0075787394 -0.02361658 0.033734225 0.02194309 -0.023330593
0.032638825 0.018047394 -0.02442058 0.0010662939 -0.031477164 -0.043349847 0.01010787 -0.013467742
-0.011428059 -0.012234878 -0.023840263 -0.0019263094 -0.0047106813 -0.02033313 0.025925286 -0.009169542
-0.015613945 0.0024054348 0.02716474 0.008024027 0.015260516 0.0023580964 -0.030203378 0.022064498
-0.013630251 0.0009268569 -0.008117911 0.033019803 0.026946144 -0.00967805 0.0058046365 0.016989525
0.04120868 0.0110658165 -0.017690295 -0.010773541 0.022707101 0.027051657 0.02125241 -0.0013446995
-0.014883886 0.009467148 -0.041831367 -0.0014771055 -0.0063953013 -0.00037805675 -0.017299479 0.010302664
-0.004917812 -0.01627811 -0.03084497 0.035109904 0.0067644557 0.006217479 -0.003603216 0.030512314
-0.017271962 0.0058900043 -0.011942628 -0.02379903 0.023560386 -0.0048899692 -0.0058732345 0.0070759053
-0.02683248 -0.010295508 -0.044106014 0.031194385 -0.03449747 -0.0014707643 -0.0050264434 -0.021992233
0.011312644 -0.011292585 -0.015419562 -0.0045285807 0.018759081 0.023710014 0.019123437 -0.0050911126
0.020652022 -0.015532441 -0.010393542 -0.022829004 -0.036968138 -0.0025725788 -0.048740502 -0.0038433517
-0.0072464477 -0.041617263 -0.019960303 -0.00649269 0.017324466 0.030823575 0.030906094 -0.002517884
0.026744394 0.016964225 0.001416943 -0.017559862 -0.024908852 -0.015391437 -0.02453237 0.0044353446
-0.006879638 0.00030567934 -0.0006499741 0.040519085 0.029198855 -0.008553526 0.043699633 0.009542926
0.007110991 -0.0029762685 -0.0015656826 0.012878271 -0.012096487 -0.015098688 0.026667567 -0.053724337
0.043107882 0.012619879 0.031102283 0.032990582 -0.029280795 -0.014964769 -0.008129379 -0.029848801
-0.02255645 -0.019014208 -0.0002250587 -0.023390379 0.02112086 -0.0120641105 -0.005352242 0.011438013
0.0051730187 -0.009749324 0.020842714 -0.002082105 -0.006304799 0.0031932045 0.01864934 -0.022523206
-0.002240824 -0.013112787 -0.017839197 0.049148854 -0.0063197576 -0.0023858799 -0.021044755 0.014551098

classify.bias f4 [2]
00000000: 6302 253c 0663 82bc
0.01007137 -0.015916359
