notebooks/outputs/temp_B07_fold1_last.pth (torch, 12776 bytes, 18 tensors)

conv_temporal.weight f4 [8, 1, 1, 64]
00000000: d6f2 b83d 08a6 96bd cc09 9e3d e7a4 933d
00000010: 5300 e0bd 65aa b23c cfa5 1abd e51f 6fbc
00000020: 21b8 dd3d 1b29 ecbd bda3 023d 9778 a7bd
00000030: 8e0a 68bd 4049 c83c 20a1 95bd 3f4d ae3d
00000040: 44da bf3d 8510 ebbc 1f9f acbd c48d 653c
00000050: 5933 933b 4a78 c73c c871 1b3c f274 193d
00000060: 8032 e13d 9634 d33c 7a88 6abd 88d7 e8bd
00000070: f02f 86bd 90a1 df3c 92c4 6d3d 114d e5bc
00000080: 5dab 4bbd 10c9 94bc 8dac 643d 30af 333c
00000090: 7215 293d 49f4 3e3c d3c3 24bc 36bd f7bd
000000a0: c4ea 4e3c 25f9 773d ba23 b43d 2825 eabd
000000b0: 45ca 563d 1417 00be 03bc a33d 9448 7ebd
000000c0: 2239 193d da88 98bb d47e d43d c602 883d
000000d0: 35c1 dd3d 8eb1 c33c fa77 1fbd 7e3a b83d
000000e0: 0bfa 6bbd ebc3 aa3d b0dc 38bd 2c32 5dbd
000000f0: 05b7 9dbc 4f74 f4bd b1c8 99bd f765 8d3d
00000100: 3ed9 b1bc d110 87ba 6a49 f0bd eefa dabd
00000110: de8e efbc b5d7 52be df71 863c c113 93bb
00000120: 98d8 09be d6db 79bd f0b1 74bc 2aa5 353d
00000130: f5e0 18bd b798 223d b3f9 6e3c 498b a6bc
00000140: 1652 253e 13a0 9cbd fd6e 2d3c c6cb 463d
00000150: 2e39 4dbd 8faf 07be 5fc5 0d3c 8d39 02be
00000160: af84 95bc 7146 f3bd b572 25bd 19c6 10bc
00000170: e679 ffbd 790a 3b3d a9cd 913d 2500 74bd
00000180: e81d 203d 870c 9d3d 88d8 373d 6044 ca3d
00000190: 987f 6fbc f7c1 df3c a076 9dbd ccfc 8d3c
000001a0: 0b82 a0bd d2de 2fbd 56e3 dfbd 5751 0cbe
000001b0: 334c c23c a3e8 883a ac57 a4bb 8d79 59bd
000001c0: b8c1 11bd fa60 afbb 848c e93d ab7f 173d
000001d0: 9fc9 e6bd 2e69 cb3d bdb8 773d 2cc0 163d
000001e0: ee90 7b3d c250 5dbd 81fc 3abd 6ba2 d1bc
000001f0: 6e75 c6bd b25c 8dbd 123d a8bd 5da2 26be
00000200: d03e dabd 9c7f 9ebd 30e4 1a3a 9fa8 3b3d
00000210: 8196 833d 117f cf3d f6ce 143d 1325 f23c
00000220: 8e30 54bd 541d 94bd 2d85 ae3d e620 863d
00000230: f078 453d 9c0e 6d3d 0dd7 03ba 25b1 c3bd
00000240: a81b 033b c219 a5bc cbee 1cbd 27ec 5bbd
00000250: 6332 7a3d 8084 b8bd 263e 0cbe d2e9 58bb
00000260: 38d7 8d3d f06a 703d 4719 d13d 1fce 80bd
00000270: a1fc 503d 7bbe 21bd f4b8 b13b 0e71 dcbd
00000280: 7e5b 933d df03 0b3d 3361 713d c300 0abe
00000290: bbe0 963d 5876 663c d22f 6fbd 0d70 c7bd
000002a0: a469 89bb 2c48 813b 29a8 6cbd 0c75 503d
000002b0: be19 e23d c379 7e3c 2b04 87bd b4cb 543d
000002c0: 9c1f 3d3d d2f3 33bd be8c 603d 4ed2 bb3d
000002d0: 3276 c5bc 6052 c6bd 87f6 87bd cc0a df3d
000002e0: dd81 253d 5718 31bc 4cd7 92bd 76e7 93bd
000002f0: 136d 2abd 6061 d1bd bff1 be3d 6c1a 0fbd
00000300: af0c bb3d 475f 023e 1bed 603d 24b8 0a3e
00000310: fc24 0abd e018 53bd a8e6 5e3b 18ba c83c
00000320: ef20 cd3c 0fcc fcbd ca34 14be d8c6 863d
00000330: ee3a cbbd 7ad9 9dbd cb6a c33d 164e cfbd
00000340: adc6 773d 0531 99bb cc69 703d 7257 dcbb
00000350: 1cec 183e ef6d d6bc bf96 083e b036 823c
00000360: ccbc 983d cff6 11bd 4be7 e73a 9656 403d
00000370: b6d2 27be 4386 7cbd 9ff6 f03c 0720 9a3d
00000380: 5c01 533d 9845 68bd 2b09 c7bb 76f0 153c
00000390: ad87 3d3d 77de 80bc f8d6 afbc 97c4 a9bc
000003a0: 4f7f 253e f50d 263e b13e 83bd ae43 033e
000003b0: 96a1 b9bd 766f 59bd b065 073e c193 4abd
000003c0: 1751 4abd 268c 09be f0ad 3a3d 6543 efbd
000003d0: d1c7 623c 1e27 633d e031 51bd 4ec8 cf3b
000003e0: 3b16 c0bd ac7c 4b3d 2a02 a73d 6b5c 9fbd
000003f0: 1d09 003e b336 5b3d 188e d63d 7c5b ac3d
0.09030692 -0.07355887 0.07716712 0.07209187 -0.10937562 0.021809766 -0.037755784 -0.014595007
0.108261354 -0.11531278 0.031894434 -0.081772976 -0.05665069 0.02444899 -0.07306123 0.08510827
0.09367803 -0.0286944 -0.084287874 0.01401085 0.004492205 0.02434935 0.009487577 0.037465043
0.1099596 0.02578191 -0.05725906 -0.11369234 -0.06552112 0.027298719 0.058048792 -0.02799085
-0.04972397 -0.01816228 0.05582862 0.010967061 0.041280217 0.011654922 -0.010056454 -0.12096636
0.012629215 0.060540337 0.08795877 -0.11432868 0.052438993 -0.12508804 0.07994845 -0.062080935
0.037408 -0.004654986 0.10375753 0.06641154 0.10827867 0.023888376 -0.038932778 0.089955315
-0.057611506 0.0833815 -0.04513234 -0.054002926 -0.01925231 -0.119362466 -0.07508982 0.06904214
-0.021710034 -0.0010304694 -0.117327526 -0.10692392 -0.02924293 -0.20590098 0.01641172 -0.004488439
-0.1346153 -0.061000668 -0.014935002 0.044346966 -0.03732391 0.03969642 0.0145859 -0.020330088
0.16144595 -0.07647719 0.010585544 0.048534177 -0.05010336 -0.13250564 0.008653014 -0.12717266
-0.018251745 -0.1187867 -0.040392596 -0.008836293 -0.12474422 0.045664284 0.07119305 -0.05957045
0.03909102 0.07668405 0.044884235 0.09876323 -0.014617823 0.02731417 -0.076886415 0.017332457
-0.07837304 -0.042937107 -0.10932033 -0.13702904 0.023717975 0.0010445308 -0.005015334 -0.053094435
-0.035585135 -0.0053521367 0.11403754 0.036986988 -0.11268925 0.09932171 0.060478915 0.036804363
0.061417513 -0.054032095 -0.045650963 -0.025590142 -0.09690367 -0.06902446 -0.08214773 -0.16272874
-0.10656512 -0.07739183 0.00059086364 0.045815106 0.06425191 0.10131658 0.036330186 0.029558694
-0.051804118 -0.072321564 0.08521495 0.06549244 0.048211038 0.05787526 -0.00050292985 -0.09555272
0.0020005498 -0.020153884 -0.03831367 -0.05369201 0.06108321 -0.09009647 -0.13695583 -0.0033098352
0.06925815 0.058695734 0.102098994 -0.062893145 0.051022176 -0.039488297 0.0054236595 -0.10763751
0.07195185 0.03393924 0.058930587 -0.13476853 0.07367083 0.014066301 -0.058395214 -0.09738169
-0.0041935015 0.003945371 -0.057777558 0.050892875 0.11040066 0.01553196 -0.06592592 0.05195208
0.046172723 -0.043933697 0.054821722 0.09170972 -0.024104211 -0.096836805 -0.06638818 0.10890731
0.04040705 -0.010809026 -0.07169971 -0.07221882 -0.041607928 -0.10223651 0.09323453 -0.034937307
0.091332786 0.12731658 0.05491362 0.13546807 -0.033726677 -0.051537395 0.0034011994 0.024502799
0.025040118 -0.123436086 -0.14473262 0.06580895 -0.09923349 -0.07707496 0.095418535 -0.101223156
0.060492206 -0.004675033 0.058694646 -0.0067242915 0.14933819 -0.026175467 0.13338755 0.015895218
0.07457885 -0.035635766 0.0017692832 0.046957575 -0.16388974 -0.06165148 0.029414473 0.0752564
0.05151497 -0.056706995 -0.006074091 0.009151569 0.04627197 -0.01573108 -0.02146481 -0.020723624
0.16161846 0.16216262 -0.06408442 0.12818787 -0.09064023 -0.053084813 0.13222384 -0.049457315
-0.04939374 -0.13432369 0.045576036 -0.11682776 0.013841585 0.055457227 -0.051072955 0.006341017
-0.0937924 0.049679443 0.0815471 -0.07781299 0.12503476 0.053518962 0.10476321 0.08415887

bn1.weight f4 [8]
00000000: ad51 403f e1a6 403f c268 403f 0014 413f
00000010: b65a 403f f29f 403f 625d 403f 3f55 403f
0.7512463 0.75254637 0.7515985 0.7542114 0.75138414 0.7524406 0.7514249 0.75130075

bn1.bias f4 [8]
00000000: 9352 9836 8af7 d1b8 736a 1737 f195 81b7
00000010: 6ed7 3eb8 7547 1336 811e 8837 d056 e035
4.539566e-06 -0.00010012004 9.025086e-06 -1.544782e-05 -4.5500165e-05 2.19463e-06 1.6226668e-05 1.6714566e-06

bn1.running_mean f4 [8]
00000000: 19a4 e5b7 a141 1739 8bb7 5d38 11be 09b9
00000010: 3d03 72b8 751d 2539 daa9 efb8 d9b6 3d38
-2.7375341e-05 0.00014424931 5.2861444e-05 -0.00013136143 -5.7700312e-05 0.000157466 -0.000114280454 4.52314e-05

bn1.running_var f4 [8]
00000000: a308 6b3e 26b7 573f ed8c ad3e e00b 393f
00000010: 0f6d 7d3f adf6 343f a660 0a3f a2fa ef3e
0.22952513 0.8426384 0.3389658 0.72283745 0.98994535 0.706889 0.54053724 0.46870905

conv_spatial.weight f4 [16, 1, 3, 1]
00000000: 045b f43e df50 c0be 5b8b 533e 2d0f dc3d
00000010: 4fa0 ea3d 5d7d 973c abbb 1b3e 5fff 673b
00000020: 0088 bfbe e8a8 b43e 9b5b 693e fe91 2a3f
00000030: 8e17 64bb 0d4f c93e abe6 94bd af06 48be
00000040: 40bf 6b3e d023 083c 4a16 993d 0e00 2abe
00000050: 1300 b63b eb69 033f 0719 f33e 61aa eebe
00000060: 42f4 cabe 8138 8cbe 0080 833e c602 a53e
00000070: 1538 26bf 09f5 b7be 4156 273e 34fc 833d
00000080: 6dd5 b0be 89fd a0be 5bcc f63e 60ff b73c
00000090: 3093 a03e b08f e1be 9f82 04bd 7b1f bb3e
000000a0: 78f9 223f 0d18 9b3d c2e7 fc3e e380 863e
000000b0: 6121 98be b791 173e d167 023f e667 b1be
0.4772569 -0.375617 0.20658629 0.10745082 0.11456358 0.018492395 0.15208308 0.0035400016
-0.37408447 0.35285115 0.22788851 0.66629016 -0.0034804079 0.39318123 -0.07270559 -0.195338
0.23022175 0.00830932 0.074749544 -0.16601583 0.005554208 0.51333493 0.47480032 -0.46614364
-0.3963948 -0.2738686 0.25683594 0.32228678 -0.64929324 -0.35929134 0.16341497 0.06444588
-0.3453783 -0.31443432 0.48202786 0.02246064 0.31362295 -0.44054937 -0.032351132 0.36547455
0.6366191 0.07572947 0.49395567 0.26270208 -0.29712966 0.1480168 0.5093966 -0.3464958

bn2.weight f4 [16]
00000000: deb5 673f 46ba 563f 8cce 963f 8be8 8a3f
00000010: 7ab8 613f 9c73 7f3f f05e 903f a794 6a3f
00000020: 161f 8f3f f80c 793f 08d8 8b3f 7d8e 873f
00000030: 08dc 893f 9f68 5b3f 2515 653f b9fb 5c3f
0.9051188 0.8387798 1.1781783 1.0852216 0.88172114 0.9978578 1.1278973 0.91633075
1.1181362 0.97285414 1.0925303 1.0590359 1.0770273 0.85706514 0.8948539 0.863216

bn2.bias f4 [16]
00000000: 4c79 8bbd 7a2e bdbd b533 50be 8cc8 32be
00000010: ac01 cbbd 48ed a6bd f460 18be 76b5 95bd
00000020: d835 20be 83c8 8abd 9154 2abe 1b1d ebbd
00000030: 7277 08be 45ef 56bd cf65 efbc de2d 1dbd
-0.06810245 -0.0923738 -0.20332225 -0.17459315 -0.09912428 -0.081507266 -0.14880735 -0.073100016
-0.1564554 -0.06776526 -0.16633822 -0.11480161 -0.13326815 -0.05247428 -0.02922335 -0.03837382

bn2.running_mean f4 [16]
00000000: 472c 5938 829e 27b7 8cf4 c638 60c3 17b9
00000010: e46d 9eb6 9801 9bb7 a4f6 8637 96eb 24b9
00000020: 4b29 6038 4ac2 46b9 428a f538 ff30 0138
00000030: 43e6 5f38 dc7a deb8 b655 19b9 80cc 98b8
5.1778068e-05 -9.990881e-06 9.486926e-05 -0.00014473265 -4.72156e-06 -1.8478182e-05 1.6088896e-05 -0.00015728021
5.344422e-05 -0.0001895513 0.00011708263 3.0801628e-05 5.338179e-05 -0.00010608669 -0.00014623147 -7.286016e-05

bn2.running_var f4 [16]
00000000: 4cde 2d3e ff80 a93c 6645 443d 455c 0b3f
00000010: 196b ab3d e02e 043d d02c 553c 93f2 9b3e
00000020: 0de6 1b3e e43f 513e b1ef 1f3d 51fd 023e
00000030: 1726 d93d 86a3 e63e ceac 323e af24 403e
0.16979331 0.020691393 0.047917746 0.5443767 0.08370037 0.032271266 0.013011172 0.30458507
0.15224476 0.20434529 0.039046947 0.12791945 0.10602968 0.45046633 0.17448732 0.18763994

conv_separable_depth.weight f4 [16, 1, 1, 16]
00000000: 22a0 33be 748d cc3d 82af 09bd ec95 dbbc
00000010: c881 c13d 2faf d8bd 54f9 003e 461f e6bd
00000020: 0480 28be 4136 20bd b58f 3dbe efe0 41bd
00000030: 115b c0bd 7e5e 15bd fdc1 e3bd e251 a63a
00000040: d2dd abbc 236b debd 62f7 7ebc f347 00be
00000050: e6d9 09bc bf12 253e b6a9 03be 2e82 eebc
00000060: dc0f 1fbc 56a1 99bd 6738 3bbc 4869 d83d
00000070: 4ff8 89bd e01b e23d 42de d6bc 84fe 13bd
00000080: 215e 8c3e 1848 a63e d211 903e 5846 973e
00000090: 7ddd 803e 20e7 a2bc daab 633e 1a28 c33d
000000a0: 63bb cb3d c507 9e3e ee53 4b3e cd1c 013e
000000b0: e607 7e3e ab2e 1fbd a89f 263e e3ae 7d3e
000000c0: 5f48 f03d 6f8c 873e 0987 353e 279f 543e
000000d0: 6cc0 a5ba b59a 763e 2789 88bd 55a1 fcbd
000000e0: 313a 173c f30d 733e f891 edbc e09a 973d
000000f0: 4ee0 633e 7a57 05be fb6b d6bc 951c 8c3e
00000100: 9690 20be 7af7 30bd e6ba 62bd 6a3c 36be
00000110: 5608 16be 4f44 92bd 3090 6cbe 98b5 e73d
00000120: 8f05 1ebe 53d9 8bbc 77ee 8c3d b371 a9bd
00000130: 2209 efbd 5c3b 21be 4455 0b3e 2c8c f2bd
00000140: c530 433e 354a 25bd 57e3 d23d b9d3 f63d
00000150: fac6 053c 8028 c73d 8c1e 4fbd 19d2 04be
00000160: 3dd5 113e 0aee 2c3e 3766 583e c212 613e
00000170: 701b b3bc b242 b03d 3b89 1a3e 6dc9 903c
00000180: 6de5 9d3d 4c19 823b 30b5 fdbc eab2 563e
00000190: b2b5 9b3d 32eb 933e 9c45 8f3e 95c6 593d
000001a0: 4de4 9b3e dcd3 f3bd f6a5 e1bc 9b14 783e
000001b0: af27 9f3e b0c0 3b3e 79c5 2f3e c1a7 5c3e
000001c0: ea78 48be e151 2fbb d15a dd3b 1add d33d
000001d0: cf44 25bd 820f ddbd 2790 88bd 8018 113e
000001e0: dbf0 67bd 6185 593d fb35 d5bd 7af1 333d
000001f0: 2812 a6bd 9b20 3fbe 2d2e f9bd 5e55 59bd
00000200: 725a e9bd db84 5e3d 2e11 d3bd 9b5d 87be
00000210: 4837 cc3d 58a0 4abe 7fa3 25be c505 60be
00000220: d2a8 8bbc c856 75be 5848 83be 8b57 86be
00000230: 003a 393d 7c67 6ebe a30d 9bbe b82d 29be
00000240: 2692 05be 7693 43be 1975 bd3d a628 303e
00000250: c264 113e 41f4 3fbe 1b65 a23d 7c12 19be
00000260: 4fb2 07be 0f3b 153e 7730 3abe a587 1dbe
00000270: 68f0 e3bd 0bb1 273e 0ba4 b43d 307a 30be
00000280: b61f 1abe 456e b7bd 7e17 edbd e178 adbd
00000290: 4c4d 7ebe 2a8f e6bd 8a8d 15be e4c1 4cbe
000002a0: 00d9 e1bd 5031 55be 898d abbc 7e03 48be
000002b0: 2682 85bd 0521 26bc b884 2dbe 168e 8dbb
000002c0: 5a98 63be 56bc acbd a8eb e93b 5735 1e3d
000002d0: bcf6 b83d 81a8 8dbe 9ffa 96bc 8392 753d
000002e0: 73a1 fbbd 5b2a 11be bcc9 5fbe 7ba5 dc3d
000002f0: 7ab6 e1bd 2a7c 27bd 3b32 5dbe 43d5 0abe
00000300: 7241 0f3d bded a43d 8de0 2e3e fb98 713e
00000310: dd91 a83d 16bb 503e d79c bf3d 1412 5d3e
00000320: a7ab 883d e738 9bbc 33c1 49bd 732a d5bc
00000330: da66 303e 1085 b63d 7e6b 323e 9d8d b2bc
00000340: 3064 973c 99e2 a9bd 7bb2 44bd 7166 f03c
00000350: e56b c53d 4210 eb3d c2bc c3bd c2ac fbbd
00000360: b2f6 b73d 56fb 93bd f348 da3a 89de f33d
00000370: 777e 3abd faf4 f5bd e0e8 a43d 8f6a 813d
00000380: f216 c63d 5c5b 2b3e 685a 9a3d 566f 783d
00000390: 0bfc 443d ba8d 973d 267f babd 851b 733d
000003a0: da74 78bd a986 23bc d422 6cbd 52ed 84bd
000003b0: 61fd 563c 3667 c73d 0c35 1cbd a589 cb3c
000003c0: 2a0f d73c 15b9 383e 862d 17bd a8dc c63d
000003d0: ff55 03be 22e4 cabc c8f3 37bd 0ecb 3abd
000003e0: ebdb 0bbe ae83 45be 33ac 653d 33f5 a9bd
000003f0: ab17 023e aede d73c 2e17 06be ee0a 3b3e
-0.17541555 0.099879175 -0.033614643 -0.026804887 0.09448582 -0.105802886 0.12595111 -0.11236434
-0.16455084 -0.03911424 -0.18511851 -0.047333654 -0.093923695 -0.036467068 -0.11120985 0.0012689198
-0.020979796 -0.108602785 -0.01556191 -0.12527446 -0.008413767 0.16120432 -0.12857708 -0.029114809
-0.009708371 -0.075014755 -0.011427022 0.10566956 -0.06736814 0.11040473 -0.026229028 -0.036131397
0.27415565 0.32476878 0.28138596 0.29545856 0.25168982 -0.0198856 0.22233525 0.09529133
0.099478506 0.30865303 0.19856235 0.12608643 0.248077 -0.038862865 0.16271842 0.24773745
0.11732554 0.2647433 0.17727293 0.20763837 -0.0012645847 0.24082454 -0.06666785 -0.12335459
0.0092301825 0.2373579 -0.029000267 0.07402587 0.22253534 -0.13021651 -0.026174536 0.27365556
-0.15680155 -0.043204762 -0.05535402 -0.17796484 -0.14651617 -0.07141935 -0.23101878 0.11313933
-0.15431808 -0.017071402 0.06881421 -0.082736395 -0.11671664 -0.157453 0.13606745 -0.11843142
0.19061573 -0.040353972 0.10297268 0.12052102 0.0081651155 0.09724522 -0.05056624 -0.12970771
0.142415 0.1688768 0.21132742 0.21979812 -0.02186367 0.08606471 0.15091412 0.017674172
0.07709775 0.003970301 -0.030970186 0.20966688 0.07603015 0.28890377 0.27982795 0.0531679
0.30447617 -0.11905643 -0.027544957 0.2422661 0.31084964 0.18335223 0.17165174 0.21548368
-0.19577375 -0.0026751684 0.006755211 0.10344906 -0.040348824 -0.107939735 -0.0666812 0.14169502
-0.056626182 0.053105716 -0.104106866 0.043931462 -0.08108932 -0.18664782 -0.121670105 -0.053059928
-0.11394204 0.05432592 -0.10306011 -0.26438603 0.099714816 -0.19787729 -0.1617565 -0.21877201
-0.017048273 -0.23958886 -0.2564113 -0.26238665 0.04522133 -0.23281664 -0.30283841 -0.16521347
-0.13044032 -0.1909922 0.0925085 0.17203006 0.14198592 -0.18745519 0.079294406 -0.14948457
-0.13251613 0.1457331 -0.1818255 -0.15383776 -0.11129838 0.1637613 0.08820351 -0.17234111
-0.1505116 -0.08956579 -0.115767464 -0.084703214 -0.24834174 -0.11257775 -0.14604774 -0.19995838
-0.110277176 -0.20819592 -0.020941513 -0.19532582 -0.065189645 -0.010139708 -0.1694516 -0.0043199165
-0.22226086 -0.0843436 0.007138688 0.038625088 0.09031436 -0.2766762 -0.018430052 0.059954178
-0.12286653 -0.14176314 -0.218543 0.107737504 -0.11021133 -0.040889896 -0.21601193 -0.13557915
0.034974523 0.080531575 0.17077847 0.23593514 0.08230946 0.20383868 0.09356087 0.21588928
0.06673365 -0.018948032 -0.049256515 -0.026021218 0.17226735 0.089120984 0.17423818 -0.021796042
0.01848039 -0.08295173 -0.048021775 0.029345723 0.0963972 0.1147771 -0.09557487 -0.1228881
0.089826 -0.07225673 0.0016653821 0.119076796 -0.045530763 -0.12009616 0.0805223 0.063191526
0.09672345 0.1673407 0.07536775 0.060653053 0.04809193 0.07400079 -0.09106283 0.059352417
-0.060658313 -0.009980836 -0.057650402 -0.06490578 0.013121934 0.09736483 -0.038136527 0.024845907
0.026252348 0.18039353 -0.03690865 0.097100556 -0.12825774 -0.024766985 -0.044910222 -0.045603804
-0.13658111 -0.19288513 0.056072425 -0.08298721 0.12704341 0.0263513 -0.1309478 0.18265888

conv_separable_point.weight f4 [16, 16, 1, 1]
00000000: 3dbb 0f3e 0a47 b5bd 2f04 633e 366f cc3c
00000010: 464c 51bd 1f4e e8bd 12f7 4fbd cbc8 e0bb
00000020: a69e 14be 3106 37bd 337b 69be decb b83d
00000030: cdff 16be 2cae adbd b153 08bd 63bf 8ebc
00000040: 865e 02bc 4bbf b83c dc9e 5f3e d782 2c3e
00000050: 9ada 493e 4c91 32bd 5f96 98bd ff80 4b3d
00000060: daf2 633d cdd5 433b fac9 aebe ebbc 223d
00000070: d7a5 eabc 6cee a23d 5e87 b43c 2d1a b03c
00000080: 8866 213e aac0 73bd 84f1 813e 55ea 133e
00000090: 907a 3d3d 5219 24be fb86 b5bd 0757 3ebb
000000a0: 3af5 37be 2e43 3ebd aee0 063c 8a8c 8a3d
000000b0: 1399 a13b ce38 3e3d 282b 4abe d4e0 20be
000000c0: abc8 dd3d 1f48 97bc 32f7 13be 81ef 8f3c
000000d0: d486 a33d 9935 523e f1fd d63d a97d d83d
000000e0: 2938 de3d e7b7 35be d0f7 3a3d 3504 bcbd
000000f0: ca65 a63e e5b8 213e 14ce babd 8faf e83c
00000100: 13c3 583e 9cdc 96bd d8d5 debc 68e4 9f3b
00000110: 12ce d03d 379e 5a3e 4b38 113e dc8e e73d
00000120: 5a54 dd3d 9ac8 42be ba10 e23d 920c 8abe
00000130: 5519 8a3d ab52 43be c000 333d b689 27be
00000140: 9489 473d 9fca 32be fac5 963e 07f9 053b
00000150: c19c bf3d c542 5cbd 107a 06be 5b60 d8bd
00000160: f703 04bd f235 6dbc 4e56 84be b85a 973d
00000170: 8d28 f9bd 526c b4bd 436a c2bc 5f4d 2d3d
00000180: fa6e 3f3d cdcb 893d 4bbb d3bd 6734 95bd
00000190: 04f1 b73d a642 1d3d 9b58 923e ab35 9cbd
000001a0: 7b49 d23d fdf9 29bd 0820 b03c f840 0b3e
000001b0: 01af 523e bb1f 2f3e 2653 76bd be67 7bbc
000001c0: a8eb 68be 1cdb 1c3e deb4 cd3d 617c 8c3c
000001d0: b283 6ebe 0bf6 173e 38d1 04be d8f4 ee3d
000001e0: daf7 17be 32a5 4cbe 18bd 7e3e a9d6 8c3e
000001f0: 69a1 143e cc37 1dbd 7859 ed3b 65e9 693e
00000200: 50f5 e93d 5822 ccbd 2c57 e5bd d1f0 b0bd
00000210: 149c 14be 152c d13c a5c5 9d3d 54be 0e3e
00000220: f9ed 9c3d 73e3 cfbd 293b 673e ab5b 08be
00000230: 41a3 443e d3ed b0bc 1ae3 a13b 8ec6 23bc
00000240: 4bde e83d 4624 32be 73be 99bc 465f a03e
00000250: edb5 7d3e a7cf 8fbe 5dd0 8bbe c84f da3d
00000260: d36d 983d 15a1 91bd 66b3 8c3a 228c 523d
00000270: 8a51 6abd d653 3a3e a9c1 b1bd dd48 023e
00000280: 3532 49bd c79d 06be 9eef 8e3e 53de d23d
00000290: bbe8 4e3b 4319 35bc b2be 9dbd 1ec9 c4bc
000002a0: b657 8cbd a0bc 01bd 702f 10be d180 423d
000002b0: da64 53be 91a8 b13d 7467 48bd 4880 d03d
000002c0: 459b 6bbd 43ad 053e 44cb 01be 7089 34be
000002d0: c054 aebd d466 07be 966c d73d e7b1 ae3d
000002e0: 8dcd 6f3e 1db5 4d3e 0efb 1cbd 7455 8abe
000002f0: 0a7c 66bd 541c f53d 771c 51be c26d 113e
00000300: 68a6 573e 52bd 42bb 9fa1 663d c888 883e
00000310: c2de 093d 6806 45be 42e1 82be 89ad 573e
00000320: 7f26 46be 0fb7 263d 362d 24be ad27 fd3a
00000330: 26bd be3d e221 933d 9919 a1bd a97f bcbb
00000340: 4789 54be 935f c2bd 4f67 73bd 0a55 92bd
00000350: 32ad 92bc 5f06 e53d 9b17 7bbd ce01 693e
00000360: 486b 5c3e c659 c63c cf3e d93c e990 b1be
00000370: 3d4f cfbd 2f01 c63d a526 003e c698 a7bd
00000380: 6181 003d 1dbf 603e 502d 26be ddfb 133e
00000390: 71f5 52be cd70 4a3e 444c 523e a648 6e3c
000003a0: 79bc e9bb 5bc0 43be 7b27 3c3e dc65 fbbd
000003b0: e6f1 5c3d 2bf8 963d c083 6bbe 6495 3dbe
000003c0: 26d6 523e 4d5a db3d 8059 09be be47 a53e
000003d0: 64ae 1fbe 33b6 743e 8a42 f43d 04d9 8b3e
000003e0: ea6e b5bc dd43 a13e ce26 9fbe 55e3 8db9
000003f0: 524b e03d 3252 bd3c 21af 243e 703e 7fbe
0.1403627 -0.0885144 0.22169565 0.024955373 -0.05109813 -0.113430254 -0.050772734 -0.006859874
-0.14513645 -0.04468364 -0.22800903 0.090232596 -0.14746018 -0.08480486 -0.03328294 -0.017425245
-0.007957106 0.022552153 0.21837944 0.16846786 0.19712296 -0.043595597 -0.07450556 0.049683567
0.055651523 0.0029882074 -0.3413847 0.039730947 -0.028643532 0.079556316 0.022037204 0.021496857
0.15761769 -0.05950991 0.25379574 0.1444486 0.046259463 -0.16025284 -0.08863636 -0.0029043572
-0.1796464 -0.046450786 0.008232279 0.06765087 0.004931578 0.046440892 -0.19743025 -0.15710765
0.1082929 -0.018467007 -0.14449766 0.017570259 0.07984701 0.20528258 0.10497654 0.10570843
0.108505554 -0.17745934 0.04564649 -0.0918049 0.32499534 0.15793188 -0.091213375 0.028404025
0.21168165 -0.07366297 -0.027201578 0.004879523 0.10195555 0.21349417 0.1418163 0.11306545
0.108071044 -0.19021836 0.110383466 -0.26962715 0.06743113 -0.19074504 0.043701887 -0.16361126
0.04871519 -0.17460106 0.2944792 0.0020442621 0.0935607 -0.053774614 -0.131325 -0.10565253
-0.032230344 -0.014478194 -0.25847095 0.0739035 -0.121659376 -0.08809723 -0.02373231 0.042310115
0.046736695 0.06728325 -0.10338458 -0.072853856 0.08981517 0.03839364 0.28583226 -0.07627424
0.102679215 -0.041498173 0.021499649 0.13599002 0.20574571 0.17101948 -0.06013789 -0.015344558
-0.22746146 0.15317959 0.10044263 0.017149152 -0.23292425 0.14839952 -0.12970436 0.11667794
-0.14840642 -0.19984892 0.24876821 0.27507523 0.14514698 -0.03838329 0.0072433315 0.22842939
0.11423743 -0.09967488 -0.11198267 -0.08639682 -0.14512664 0.025533715 0.07703713 0.13939792
0.07662577 -0.10150804 0.22581162 -0.13316219 0.19202901 -0.021597778 0.0049404027 -0.00999607
0.11370524 -0.1739665 -0.018767571 0.31322688 0.2477643 -0.28088114 -0.27307406 0.10659748
0.07442822 -0.07110802 0.0010734617 0.051403172 -0.057206668 0.18196043 -0.08679516 0.12723108
-0.049120147 -0.13146125 0.27917188 0.10296311 0.0031571824 -0.011053386 -0.07702388 -0.024021681
-0.06852667 -0.031674027 -0.14080596 0.04748613 -0.2064394 0.086747296 -0.048926786 0.10180718
-0.057521123 0.13054375 -0.12675196 -0.17630553 -0.085122585 -0.1322282 0.10518758 0.08530026
0.23418255 0.2008862 -0.038325362 -0.2701832 -0.056270637 0.11968294 -0.20421015 0.14202026
0.21059573 -0.0029714894 0.056306478 0.26666856 0.033659704 -0.19240725 -0.25562483 0.21062292
-0.19350623 0.040701922 -0.16032872 0.0019314192 0.09313421 0.07184197 -0.078662105 -0.005752523
-0.20755492 -0.094908856 -0.059424695 -0.07145126 -0.017904852 0.11182856 -0.06130181 0.22754595
0.215253 0.02421273 0.026519207 -0.3468087 -0.101225354 0.096681945 0.12514742 -0.08183436
0.031373385 0.21947904 -0.16228223 0.14451547 -0.20601441 0.19769593 0.20536906 0.014543688
-0.0071330634 -0.19116347 0.18374436 -0.122752875 0.05394163 0.07371553 -0.22999477 -0.18514019
0.20589504 0.10710583 -0.13413048 0.32281297 -0.15593868 0.23897628 0.11926754 0.27314007
-0.022147615 0.31497088 -0.31084293 -0.0002706299 0.10951866 0.023110483 0.16082431 -0.24926162

bn3.weight f4 [16]
00000000: 5a48 8c3f 7156 903f c01b 883f cdbc 883f
00000010: 9986 843f 60b2 913f bee3 873f d016 733f
00000020: 16d8 883f 4170 833f 00ec 923f afb0 843f
00000030: 3c94 873f 5802 813f 4017 823f 56cc 803f
1.095958 1.127638 1.0633469 1.0682617 1.0353576 1.1382561 1.0616376 0.94956684
1.0690944 1.0268632 1.1478271 1.036642 1.0592113 1.007884 1.0163345 1.0062358

bn3.bias f4 [16]
00000000: 703d bbbb 389b cc3c 64b8 f03c 9777 68bc
00000010: beed ccbc 20d8 a53c a7e0 bebc 2937 e8bc
00000020: f4ea 61bc 8111 b63c fc38 133d 2c78 b1bc
00000030: f150 fa3c 96b5 98bc 7ee8 1a3d 3271 843c
-0.005714111 0.024976358 0.0293848 -0.014188669 -0.025015708 0.020244658 -0.023300482 -0.028346615
-0.013788927 0.022225143 0.035943016 -0.021663748 0.030556174 -0.018641274 0.037819378 0.016167257

bn3.running_mean f4 [16]
00000000: a6d8 0c3d b58f 1e3d cf6e b53c 78fe fa3c
00000010: 65af 1a3d 9b88 fd3c 9380 8e3c f178 d23c
00000020: a36d 2fbc da36 e1bd 5a46 2a3d 1fe4 76bd
00000030: 9d11 4fbc 2d76 87bc 6c09 473d e6db 963d
0.0343863 0.03871127 0.022147564 0.030638918 0.037764926 0.030948928 0.017395293 0.025692435
-0.010707292 -0.1099679 0.041571 -0.060276147 -0.012638477 -0.016535843 0.04859297 0.07366161

bn3.running_var f4 [16]
00000000: 3209 d13d cc0e f43d dede ca3d c655 ee3d
00000010: 4d1f 123e fb08 0f3e be32 ce3d 488d 1d3e
00000020: 818f a23d 2307 043e d4dd e63d 971d 183e
00000030: cca0 e33d b6bc 0c3e 2b1c 083e 974f 453e
0.10206832 0.11916885 0.0990579 0.11637454 0.14269753 0.1396827 0.10068272 0.15385926
0.079375274 0.12893347 0.11272779 0.14855038 0.11114654 0.13743863 0.13291995 0.19268642

classifier.weight f4 [2, 16]
00000000: 8c45 bdbd 4794 633d 3b34 56be 5c94 a33e
00000010: 2d9b cd3c b2ef a5be 04b2 833e 6bbb 003e
00000020: 4af4 973e a545 92be 3bdc abbe 75a7 ef3d
00000030: d504 92be dbc6 b53d fa19 663e fba0 133d
00000040: 7a3f 453e 7963 b33e 92bc 8b3d a825 0bbe
00000050: 23b2 84be 6944 5b3e 7afb 82be 6913 c63d
00000060: e22b 99be a39c 1abe 324c e0bc 80ea 8fbe
00000070: f90a 093e 300b 84bd 51ee c13d f18e 2b3e
-0.09241781 0.05556133 -0.20918362 0.31949127 0.025098408 -0.32409436 0.25721753 0.12571494
0.29678565 -0.2856876 -0.3356646 0.11701862 -0.28519312 0.08875819 0.22470847 0.036042195
0.19262496 0.3503683 0.06823076 -0.13588583 -0.25917158 0.21412815 -0.25582486 0.09671671
-0.29916292 -0.15098815 -0.027380083 -0.28108597 0.13383092 -0.06447446 0.09469283 0.16753747

classifier.bias f4 [2]
00000000: e1d6 3d3e 5e87 1d3e
0.18539001 0.1538367
