notebooks/outputs/temp_independent_test_B01_best.pth (torch, 13137 bytes, 18 tensors)

conv_temporal.weight f4 [8, 1, 1, 64]
0.097854756 -0.08759594 0.09577668 0.09499924 0.07181817 -0.13293834 0.06816178 -0.0066427775
-0.06405025 0.110338844 0.035702225 -0.012508649 0.09077893 -0.085805446 -0.11731569 0.057457592
-0.010226885 -0.07098545 -0.0023063852 0.10166492 0.018138815 0.047680393 0.06279629 0.041445717
-0.11828573 -0.10770529 0.09899574 0.043188732 0.09723923 -0.024602924 -0.036427673 -0.0011326139
0.06307997 0.013889516 0.0127929235 0.039153453 -0.011722782 -0.02875684 -0.036301065 0.07800175
0.01406858 -0.018563712 0.09856494 0.019418532 -0.030995728 -0.086984284 0.08651216 0.049758296
0.05729434 -0.0018554057 0.03869746 0.0041018343 0.0032684742 0.0800505 0.018314527 0.09766693
0.0057375953 -0.089541644 0.026515994 0.100288644 -0.11074524 -0.090262584 -0.014705518 0.09890987
0.012831719 -0.030953096 0.07490114 0.11134342 -0.016734907 -0.047222894 0.05162541 0.008710846
-0.031126045 0.048537984 0.10077646 0.07906413 0.110235654 0.02875942 -0.00031478764 0.06547984
-0.048373904 -0.08835516 -0.108242474 -0.084741294 -0.025493143 0.057892982 -0.10180917 -0.08972461
0.07867988 0.12515555 0.013780495 0.04523078 -0.059429813 -0.04648504 0.12153537 -0.08400658
0.02441328 0.10696341 -0.0033460637 0.111821584 0.020683236 0.024742944 0.102824286 0.008954604
0.029209075 0.030941503 -0.1184421 -0.10235949 0.08974385 0.11317378 0.0795465 0.09746743
-0.039372925 -0.052597918 0.0069937357 0.02184256 -0.04192489 0.05798405 0.07265438 -0.11297163
0.12182626 0.06543015 0.085340664 -0.008408281 -0.038453612 -0.086600594 0.10523899 0.11033985
0.009655 0.07498134 -0.004195566 0.07883276 -0.006173199 0.01108924 0.06621515 0.1015495
0.10007959 -0.065121986 -0.07730436 -0.1041188 0.018131036 0.12095586 0.06696761 0.038583364
0.059570298 0.020416297 -0.1081719 0.08291829 -0.08916958 0.09397891 -0.039878167 -0.05396285
0.023451598 -0.045151286 0.13071394 -0.04038798 0.03219888 -0.026512522 0.08181902 -0.03470503
-0.02283275 0.021649055 0.08682422 -0.052753925 0.044879008 0.09628437 -0.022173515 0.04822493
-0.00475236 -0.124589756 0.11836056 -0.07453314 0.050591286 -0.04808837 -0.06041949 0.115974635
-0.09962884 -0.022936484 -0.10857157 0.080846354 0.059847336 0.04356785 0.117095254 0.04066341
0.042815067 0.041687034 0.043472428 -0.022241456 -0.08494858 0.10324269 -0.026363764 0.089105695
0.0508469 0.07430432 0.076990835 -0.103765965 0.007786131 -0.054398544 -0.116471864 -0.039836306
0.095328204 0.027574359 -0.027216459 0.012521669 0.0395424 0.047754645 -0.070625365 0.02259092
0.0066310423 -0.029855013 0.048758913 -0.116070695 0.1068822 -0.0021433078 0.072074465 0.093806304
-0.09874714 0.0838412 -0.037071444 0.08943734 -0.12102496 0.024684604 0.095525965 0.095602125
0.09808637 -0.06510193 -0.07727164 -0.071708776 0.09092488 -0.031874854 -0.06508829 -0.06291336
-0.09655399 0.0715995 -0.10207394 0.10353818 -0.08598759 0.09674412 0.024360321 -0.017506607
-0.08692061 -0.013566266 0.046441488 0.04725625 0.035826806 -0.08986814 0.06312878 0.0052629677
-0.009267432 -0.10222316 -0.007630861 -0.06634233 0.091488265 -0.0026183778 -0.0042740665 -0.0089639425
00000000: 1368 c83d 8065 b3bd 9026 c43d f68e c23d
00000010: 6815 933d fd20 08be 6798 8b3d a8ab d9bb
00000020: c72c 83bd 55f9 e13d 7f3c 123d 14f1 4cbc
00000030: 4eea b93d c4ba afbd 3543 f0bd a758 6b3d
00000040: aa8e 27bc d260 91bd b926 17bb b335 d03d
00000050: da97 943c 844c 433d 579b 803d fcc2 293d
00000060: ca3f f2bd 9794 dcbd 47be ca3d abe6 303d
00000070: 5d25 c73d 128c c9bc 2f35 15bd 3774 94ba
00000080: 1230 813d da90 633c 6999 513c 5f5f 203d
00000090: e910 40bc 7793 ebbc 6db0 14bd 62bf 9f3d
000000a0: e77f 663c ed12 98bc 6adc c93d 9d13 9f3c
000000b0: c1ea fdbc d124 b2bd 4a2d b13d 5bcf 4b3d
000000c0: 78ad 6a3d 1631 f3ba 3a81 1e3d ae68 863b
000000d0: e633 563b 84f1 a33d 5908 963c 9905 c83d
000000e0: 7002 bc3b 9c61 b7bd 1238 d93c 2264 cd3d
000000f0: 66ce e2bd 97db b8bd 6aef 70bc 4291 ca3d
00000100: 213c 523c 5991 fdbc c565 993d 0508 e43d
00000110: a517 89bc cb6c 41bd 2a75 533d f0b7 0e3c
00000120: 0cfc febc c4cf 463d e363 ce3d 60ec a13d
00000130: 3bc3 e13d e098 eb3c 150a a5b9 4b1a 863d
00000140: b723 46bd 8df3 b4bd 3bae ddbd d88c adbd
00000150: ffd6 d0bc 3121 6d3d 5381 d0bd 89c1 b7bd
00000160: eb22 a13d c728 003e 96c7 613c e943 393d
00000170: ad6c 73bd 1967 3ebd 89e7 f83d a40b acbd
00000180: 5cfe c73c a20f db3d a249 5bbb b702 e53d
00000190: e46f a93c b7b1 ca3c 8a95 d23d 55b6 123c
000001a0: df47 ef3c 0979 fd3c c691 f2bd daa1 d1bd
000001b0: a0cb b73d a8c7 e73d 47e9 a23d 019d c73d
000001c0: 8145 21bd ea70 57bd b52b e53b 2bef b23c
000001d0: 6fb9 2bbd af80 6d3d d2cb 943d ac5d e7bd
000001e0: 0c80 f93d 3e00 863d 16c7 ae3d e3c2 09bc
000001f0: 8981 1dbd a75b b1bd 8a87 d73d dcf9 e13d
00000200: 0130 1e3c d18f 993d f57a 89bb 1273 a13d
00000210: 8c48 cabb a5af 353c cf9b 873d 2ff9 cf3d
00000220: 87f6 cc3d ad5e 85bd c051 9ebd 3d3c d5bd
00000230: 8a87 943c b5b7 f73d 5026 893d 9709 1e3d
00000240: fcff 733d 1440 a73c 3b89 ddbd 10d1 a93d
00000250: 8a9e b6bd 0478 c03d 4a57 23bd 2608 5dbd
00000260: 911d c03c 8ef0 38bd e0d9 053e de6d 25bd
00000270: f9e2 033d ca30 d9bc bb90 a73d dd26 0ebd
00000280: bf0b bbbc 5c59 b13c e6d0 b13d 8014 58bd
00000290: 0dd3 373d bd30 c53d 3ba5 b5bc 8187 453d
000002a0: afb9 9bbb ea28 ffbd 0567 f23d d5a4 98bd
000002b0: cf38 4f3d 50f8 44bd 6d7a 77bd 1c84 ed3d
000002c0: 350a ccbd 4be5 bbbc c55a debd c692 a53d
000002d0: 7b22 753d 3474 323d a3cf ef3d ad8e 263d
000002e0: da5e 2f3d 06c0 2a3d 2510 323d b733 b6bc
000002f0: 85f9 adbd e770 d33d d2f8 d7bc 0c7d b63d
00000300: d744 503d dd2c 983d 5fad 9d3d 4083 d4bd
00000310: cd22 ff3b 02d1 5ebd cd88 eebd 652b 23bd
00000320: 6f3b c33d 9fe3 e13c 0df5 debc b027 4d3c
00000330: 36f7 213d 609a 433d 08a4 90bd 9810 b93c
00000340: 3749 d93b 8092 f4bc 6db7 473d 79b6 edbd
00000350: 0ee5 da3d bd76 0cbb c79b 933d 851d c03d
00000360: f13b cabd efb4 ab3d 3ad8 17bd ed2a b73d
00000370: efdb f7bd 5e37 ca3c 1ea3 c33d 0ccb c33d
00000380: 82e1 c83d 2954 85bd 9840 9ebd 0ddc 92bd
00000390: d336 ba3d 358f 02bd 024d 85bd b8d8 80bd
000003a0: 19be c5bd c2a2 923d 240c d1bd d30b d43d
000003b0: 431a b0bd c821 c63d 4c8f c73c 046a 8fbc
000003c0: 6f03 b2bd 0b45 5ebc 6e39 3e3d c58f 413d
000003d0: 21bf 123d ca0c b8bd a949 813d f974 ac3b
000003e0: 6dd6 17bc 605a d1bd 4d0c fabb 7dde 87bd
000003f0: 335e bb3d 1799 2bbb 780d 8cbb 80dd 12bc

bn1.weight f4 [8]
0.98501176 0.9850109 0.9850122 0.9850132 0.9850116 0.98501223 0.98501205 0.9850121
00000000: bb29 7c3f ad29 7c3f c229 7c3f d329 7c3f
00000010: b829 7c3f c329 7c3f c029 7c3f c129 7c3f

bn1.bias f4 [8]
-5.405688e-06 -1.8463197e-05 1.5884767e-05 2.7776445e-05 3.4477453e-05 5.7709956e-05 -3.3655153e-05 -7.881103e-05
00000000: 8262 b5b6 6ae1 9ab7 4740 8537 7601 e937
00000010: e29b 1038 980d 7238 f228 0db8 5947 a5b8

bn1.running_mean f4 [8]
0.00026511383 0.00026044462 0.00015858404 -6.353036e-05 -0.00020410468 -0.00016543358 -0.00010243059 -0.00035140692
00000000: fafe 8a39 498c 8839 9449 2639 9a3b 85b8
00000010: ef04 56b9 3d78 2db9 01d0 d6b8 0a3d b8b9

bn1.running_var f4 [8]
0.304831 0.5176901 0.37479514 0.33271798 0.407664 0.37026393 0.3853021 0.47831637
00000000: cf12 9c3e 5787 043f 26e5 bf3e 035a aa3e
00000010: 56b9 d03e 3c93 bd3e 5146 c53e e2e5 f43e

conv_spatial.weight f4 [16, 1, 3, 1]
0.2401773 -0.32324997 0.21498431 -0.41939434 -0.14465714 -0.47996962 -0.46869007 0.4578606
0.46899185 -0.072195455 -0.09415751 -0.13819346 0.34075508 -0.22185363 0.36399853 -0.25463882
-0.5669789 -0.19481473 0.46149796 -0.5385405 -0.57214475 0.093287975 -0.17719501 0.13994016
-0.028679306 0.30901885 0.22548635 -0.0811025 -0.17645939 -0.4449625 -0.25978354 0.42712143
0.28473532 -0.41892895 0.066743255 -0.5486348 0.3766458 0.4442907 0.3932004 0.4460117
0.19016683 0.42404446 0.47809896 -0.38950157 0.39702404 0.24836609 0.18909645 0.24289809
00000000: 0af1 753e 0581 a5be d924 5c3e dbba d6be
00000010: 0021 14be 94be f5be 25f8 efbe b46c ea3e
00000020: b31f f03e 36db 93bd a7d5 c0bd 9682 0dbe
00000030: 7377 ae3e 992d 63be 045e ba3e 0560 82be
00000040: 8725 11bf 837d 47be 7649 ec3e cadd 09bf
00000050: 1478 12bf c40d bf3d 9c72 35be 794c 0f3e
00000060: ddf0 eabc b837 9e3e e5e5 663e 1119 a6bd
00000070: c5b1 34be 20d2 e3be 5902 85be a9af da3e
00000080: d4c8 913e db7d d6be b0b0 883d 5573 0cbf
00000090: b8d7 c03e 127a e33e 9051 c93e a55b e43e
000000a0: 18bb 423e 5b1c d93e 63c9 f43e c06c c7be
000000b0: bc46 cb3e ae53 7e3e 80a2 413e 47ba 783e

bn2.weight f4 [16]
0.9970766 0.99299574 0.9979078 0.99905753 0.9984167 1.0008559 0.9985223 0.99263847
1.0006844 0.99192137 1.0071208 1.0073494 0.9924853 0.9920397 1.0106148 0.994061
00000000: 6940 7f3f f834 7e3f e376 7f3f 3cc2 7f3f
00000010: 3d98 7f3f 0c1c 803f 289f 7f3f 8e1d 7e3f
00000020: 6d16 803f 8fee 7d3f 56e9 803f d3f0 803f
00000030: 8413 7e3f 50f6 7d3f d35b 813f c87a 7e3f

bn2.bias f4 [16]
0.0002828472 -0.004216218 -0.0054827947 -0.0011331538 -0.0036179486 0.0047023105 0.003990103 0.0022041646
0.0029571736 0.004121173 0.0031434414 -0.001063504 0.012330323 -0.00086040475 -0.011271121 -0.00074536656
00000000: 1c4b 9439 3328 8abb 04a9 b3bb 5586 94ba
00000010: 1b1b 6dbb d715 9a3b 69bf 823b bf73 103b
00000020: 24cd 413b e80a 873b 3202 4e3b 4665 8bba
00000030: 2005 4a3c c98c 61ba 82aa 38bc b464 43ba

bn2.running_mean f4 [16]
7.991241e-05 -4.27365e-05 -0.00021933501 1.5076239e-06 5.8539892e-05 3.7433554e-05 -0.00023772052 -6.640845e-05
0.0002054356 -0.00013020477 6.6746274e-05 8.8892135e-05 4.9766663e-06 -7.735234e-05 -2.122221e-05 7.4093255e-06
00000000: a696 a738 f83f 33b8 4bfd 65b9 9059 ca35
00000010: bb88 7538 f901 1d38 9e44 79b9 c444 8bb8
00000020: 336a 5739 9487 08b9 22fa 8b38 9a6b ba38
00000030: 3dfd a636 3938 a2b8 5906 b2b7 9f9d f836

bn2.running_var f4 [16]
0.29933318 0.823192 0.44180816 0.25780144 0.43131256 0.7984801 0.5995247 0.23404445
0.35847694 0.5012094 0.37524325 0.75449556 0.99796045 0.8352187 0.5177572 0.4652346
00000000: 3342 993e b6bc 523f ae34 e23e 8dfe 833e
00000010: 00d5 dc3e 3169 4c3f 737a 193f 59a9 6f3e
00000020: 4a8a b73e 424f 003f e21f c03e 9f26 413f
00000030: 567a 7f3f e5d0 553f bc8b 043f 3b33 ee3e

conv_separable_depth.weight f4 [16, 1, 1, 16]
0.16702381 0.0072712116 -0.059289876 -0.10182381 0.22420338 -0.18602003 0.15283774 0.09281752
-0.027261896 -0.21673591 -0.12366803 -0.21235417 0.08328639 0.11460668 -0.07348246 0.08754047
0.2490235 -0.07877394 -0.07970946 0.22642848 0.04612676 -0.07207028 -0.11507327 -0.065097414
0.01007061 0.017792264 0.14396918 0.014980126 -0.1957739 -0.17194913 -0.024557415 0.16633718
-0.119473495 -0.10588866 0.14338742 -0.008545034 -0.03691996 -0.1741666 -0.051511854 0.01238902
0.17467229 0.13697806 -0.10966427 -0.009170183 -0.095042266 -0.08593277 0.18603757 -0.09812676
-0.20574439 0.1023521 -0.1657251 -0.014324921 -0.13439761 0.064182706 0.056272782 0.09374496
0.21259364 0.1793547 0.24361496 0.19262816 -0.14222819 -0.03733251 -0.02533608 0.0125831505
-0.078881636 -0.2186495 0.23377958 -0.17768936 -0.012133852 -0.13755988 0.046237126 0.08834916
0.02595984 0.1068883 -0.17304233 0.009414854 -0.23611382 -0.23151785 0.06145492 0.057897557
-0.1540405 0.20100348 0.19609919 0.12468327 -0.14202525 -0.16126859 0.23230553 -0.21317017
-0.064678356 0.17863247 0.015082244 -0.15980081 -0.16858907 -0.18893285 -0.17378214 0.22251306
0.027160715 0.19213572 -0.19587189 -0.05256716 -0.17416582 0.17999296 -0.037508283 0.050527714
0.12435134 0.0585933 -0.14874992 -0.21539253 -0.017962588 0.24437809 0.11032898 0.18490888
-0.2437488 -0.20953077 0.22597522 -0.12802915 -0.13946836 0.09606462 -0.11913667 -0.073070966
0.19975074 -0.2318586 -0.15899439 -0.17343958 -0.06473718 -0.0015566946 -0.012191867 0.10744428
-0.16329333 -0.0863367 -0.20580521 0.071227305 -0.11695359 0.112800404 -0.0516393 -0.22052607
0.0021130145 -0.017501868 0.248507 0.15584296 -0.05572255 0.18841104 0.059904423 -0.0012337138
-0.18001539 -0.17331193 -0.0965625 -0.11345286 -0.041935064 -0.20478646 0.04853463 0.15459363
-0.11239753 -0.019020975 -0.21471299 0.10578299 0.22182228 -0.21437798 -0.22383869 0.22580014
0.08405363 -0.15000929 -0.1669422 -0.15078448 -0.07929036 0.16760528 -0.1474068 -0.15563335
0.22166125 -0.17557126 -0.1632482 0.2184299 0.1869295 -0.09248622 0.12946522 0.24247602
-0.16132507 0.13642515 0.034135297 0.08734379 0.06115147 -0.090558514 0.17033055 -0.21457775
-0.12934949 0.0070724366 -0.034469094 -0.21867822 -0.022907007 0.15716341 -0.1058441 -0.09307428
-0.2116884 -0.04217347 -0.16270663 0.12839156 0.01197853 -0.118928455 -0.03429173 -0.21151598
0.08847352 0.11492324 0.12680629 -0.08724451 0.17496423 0.07205787 -0.19609432 -0.022274941
0.10435521 0.18906002 0.17084429 -0.18980996 0.03635832 -0.0025748534 -0.010183411 -0.11508955
0.03594799 0.088426225 0.19479056 -0.22719987 -0.16667321 0.120268114 -0.14826906 -0.19011621
0.17823695 -0.12959309 0.113158576 0.08485028 -0.23960415 -0.2307899 -0.16875316 0.043311954
-0.060305886 0.17322749 0.04677068 -0.11883421 -0.053918492 -0.047672644 -0.23477203 0.04590343
-0.10903643 0.20423938 0.0015493202 0.23177534 0.03200464 0.23054844 0.046445943 0.20080183
-0.016566856 -0.21018666 0.23522945 -0.017417055 -0.05580634 -0.13683741 -0.15274546 0.09369781
00000000: 4a08 2b3e 5843 ee3b f1d9 72bd 0089 d0bd
00000010: 9295 653e 097c 3ebe 7f81 1c3e 1d17 be3d
00000020: 5754 dfbc 05f0 5dbe aa45 fdbd 5f73 59be
00000030: 0e92 aa3d e8b6 ea3d f97d 96bd 6b48 b33d
00000040: 0400 7f3e 3b54 a1bd b73e a3bd dedc 673e
00000050: 6aef 3c3d 9599 93bd 89ab ebbd cb51 85bd
00000060: 33ff 243c 15c1 913c a86c 133e 346f 753c
00000070: f478 48be 6f13 30be a22c c9bc 4b54 2a3e
00000080: 85ae f4bd 27dc d8bd 27d4 123e 7800 0cbc
00000090: 6239 17bd bb58 32be 18fe 52bd 51fb 4a3c
000000a0: 4bdd 323e fa43 0c3e a997 e0bd 893e 16bc
000000b0: 85a5 c2bd 85fd afbd a280 3e3e aff6 c8bd
000000c0: a8ae 52be fa9d d13d d7b3 29be 13b3 6abc
000000d0: 879f 09be 3972 833d 4a7e 663d 5cfd bf3d
000000e0: 26b2 593e c2a8 373e 3376 793e 5140 453e
000000f0: 44a4 11be f9e9 18bd 9c8d cfbc 8f29 4e3c
00000100: b28c a1bd a8e5 5fbe ea63 6f3e 33f4 35be
00000110: 10cd 46bc 7fdc 0cbe 2463 3d3d 68f0 b43d
00000120: bba9 d43c 41e8 da3d 0232 31be c340 1a3c
00000130: d2c7 71be 0413 6dbe 27b8 7b3d fd25 6d3d
00000140: cbbc 1dbe dbd3 4d3e 3ace 483e f159 ff3d
00000150: 116f 11be 9823 25be 80e1 6d3e 4849 5abe
00000160: 1676 84bd 6eeb 363e 841b 773c d3a2 23be
00000170: 9da2 2cbe 9d77 41be f2f3 31be 77da 633e
00000180: 2680 de3c 3abf 443e a492 48be aa50 57bd
00000190: 8658 32be 1350 383e 49a2 19bd 26f6 4e3d
000001a0: eaab fe3d 87ff 6f3d e651 18be dc8f 5cbe
000001b0: 4726 93bc 403e 7a3e 29f4 e13d c158 3d3e
000001c0: 4999 79be 3c8f 56be 0c66 673e 131a 03be
000001d0: cbd0 0ebe 87bd c43d edfd f3bd 3ba6 95bd
000001e0: 758b 4c3e 576c 6dbe 6dcf 22be 259a 31be
000001f0: ed94 84bd 010a ccba 66c0 47bc bf0b dc3d
00000200: 5e36 27be 4cd1 b0bd 9abe 52be 9fdf 913d
00000210: 5d85 efbd e603 e73d bb83 53bd 96d1 61be
00000220: 807a 0a3b 1460 8fbc 9e78 7e3e 4c95 1f3e
00000230: 543d 64bd d3ee 403e 575e 753d 91b4 a1ba
00000240: f455 38be af78 31be 8fc2 c5bd f959 e8bd
00000250: 1ac4 2bbd 8bb3 51be 40cc 463d cb4d 1e3e
00000260: ad30 e6bd e0d1 9bbc b9dd 5bbe c1a4 d83d
00000270: 6125 633e e785 5bbe f835 65be 2738 673e
00000280: 4f24 ac3d 099c 19be e5f2 2abe 3f67 1abe
00000290: fc62 a2bd b8a0 2b3e cff1 16be 595e 1fbe
000002a0: 2bfb 623e f4c8 33be 892a 27be 16ac 5f3e
000002b0: 726a 3f3e 6a69 bdbd 8892 043e a24b 783e
000002c0: 6632 25be 09b3 0b3e 74d1 0b3d 4de1 b23d
000002d0: f779 7a3d be76 b9bd 226b 2e3e 45ba 5bbe
000002e0: 3174 04be e6bf e73b 772f 0dbd 2fed 5fbe
000002f0: 7aa7 bbbc 72ef 203e cbc4 d8bd ba9d bebd
00000300: d8c4 58be 17be 2cbd 919c 26be 1479 033e
00000310: 9941 443c c390 f3bd 7c75 0cbd a597 58be
00000320: 9b31 b53d e05c eb3d 82d9 013e 40ad b2bd
00000330: d329 333e 1493 933d f3cc 48be f079 b6bc
00000340: 2fb8 d53d f398 413e cef1 2e3e 8b5d 42be
00000350: 76ec 143d dfbe 28bb 52d8 26bc 12b4 ebbd
00000360: 333e 133d cf18 b53d 2d77 473e 15a7 68be
00000370: 62ac 2abe 214f f63d d8d3 17be d3ad 42be
00000380: bf83 363e 0db4 04be afbf e73d fcc5 ad3d
00000390: ca5a 75be 3054 6cbe a1cd 2cbe e067 313d
000003a0: 4e03 77bd 8c62 313e 9d92 3f3d 5a5f f3bd
000003b0: a3d9 5cbd 6444 43bd 1468 70be 3c05 3c3d
000003c0: 7e4e dfbd 2124 513e 8f12 cb3a 8456 6d3e
000003d0: 4c17 033d e414 6c3e 1a3e 3e3d ff9e 4d3e
000003e0: 37b7 87bc 2c3b 57be fddf 703e 36ae 8ebc
000003f0: 3095 64bd 1b1f 0cbe 4e69 1cbe a3e4 bf3d

conv_separable_point.weight f4 [16, 16, 1, 1]
0.1955511 0.12997445 -0.18776782 0.13307753 0.20581187 -0.20729864 0.005545601 0.2041164
0.12515362 -0.090667345 0.22829242 0.20673905 -0.25282502 0.025330827 0.10424019 -0.14634469
0.010662736 -0.20209251 -0.1830341 0.1375471 -0.06878753 0.03783699 -0.16737238 -0.20325911
0.07052347 0.15008844 0.11035921 0.086323604 -0.019806765 -0.037549898 0.16338189 0.12999056
-0.20896138 -0.13196285 0.2283129 0.102302484 -0.035629738 0.09349738 0.029991664 0.056468744
0.038585853 0.006577162 -0.20676856 -0.22683734 -0.15586057 0.1513271 0.07471818 0.20676322
0.089243814 0.10417991 -0.059102133 -0.16713774 -0.24681081 0.19177465 -0.17395402 -0.23537289
0.03252871 -0.22163337 -0.19883928 -0.15635224 -0.15532456 -0.22921945 -0.028709564 0.20726776
-0.08834967 0.040991846 0.116535835 0.040247943 -0.19460653 -0.10249692 -0.15042318 -0.048843533
-0.115433164 -0.050607383 0.16573219 -0.13151723 0.11650804 -0.13798544 -0.08973247 -0.12619884
0.2009599 -0.10697076 0.12594685 0.073962696 0.1971566 0.007727473 0.05085229 0.2370411
-0.086332574 -0.18503574 -0.028092826 0.012363819 -0.16461892 -0.03800575 0.17738162 -0.18926159
0.2235776 -0.16591433 -0.1571766 -0.21993636 0.03127985 -0.07553904 -0.1852755 0.16436553
0.022387182 -0.059808012 0.16285284 0.16979118 -0.17174636 0.20919971 -0.12417587 -0.20944045
-0.074291274 -0.051726464 -0.063954785 0.057815343 -0.0013781654 0.0014627313 -0.16655174 0.2531305
-0.10638581 -0.20663635 0.18071316 0.117111936 0.09341555 -0.12520649 0.08676882 0.06476812
-0.23359054 -0.14451706 -0.08276323 0.23457897 0.25712574 -0.10769948 0.15372162 -0.0841406
0.060999364 -0.20236163 0.007627712 0.08317733 -0.1896979 0.016579706 -0.16833277 0.17754196
-0.01564797 0.16249497 0.24826013 -0.046240278 -0.18261988 0.16860843 -0.123893455 -0.029258005
0.20730409 -0.17255323 0.048323985 -0.017622951 0.23318087 0.021518936 0.08853238 0.17767648
0.050805185 -0.10630529 0.18968488 0.19426003 0.027756227 0.057552867 0.12515399 0.22177096
0.23570642 0.14605504 -0.11383924 -0.21691547 0.16483249 0.21196577 -0.09213114 -0.035501663
-0.029602867 -0.17037804 -0.10348683 0.0652554 0.077667296 0.098920316 -0.011217505 -0.24121846
-0.12975061 0.049200665 0.18161534 -0.006725346 0.1370228 -0.25372773 0.22660884 0.25104472
0.1939425 -0.16903265 -0.23176543 -0.018374661 -0.04291156 0.063894756 0.07705795 0.0864807
-0.059879016 -0.19323717 -0.027381215 -0.16838847 -0.11314992 0.06922287 -0.0752273 0.18798093
-0.1737827 -0.027463622 0.055893436 0.22951624 0.0891662 0.12914161 -0.01656098 0.20430025
-0.00027120986 0.2220334 0.031816203 -0.04999051 0.15942392 0.07705348 -0.09778493 -0.13398279
0.14124988 0.1754362 -0.010500454 0.232033 -0.05157652 -0.20609906 0.23886847 -0.11271084
0.1906807 0.08045255 -0.23471147 0.15121625 -0.19923456 0.15689601 -0.23787668 0.15696235
0.13230105 -0.04662445 -0.19890852 0.2136957 0.052046236 -0.15925111 0.058021236 0.20261054
0.25374302 -0.18412961 -0.017855193 0.08952289 -0.23943406 0.11552586 0.18598935 -0.16782068
00000000: 8c3e 483e 0618 053e 3546 40be 7a45 083e
00000010: 59c0 523e 1846 54be dfb7 b53b e403 513e
00000020: 4528 003e cdaf b9bd 7dc5 693e 67b3 533e
00000030: 4872 81be 9882 cf3c e17b d53d 62db 15be
00000040: c2b2 2e3c 57f1 4ebe 4b6d 3bbe 26d9 0c3e
00000050: 7ae0 8cbd f6fa 1a3d aa63 2bbe 2823 50be
00000060: 9c6e 903d c9b0 193e 0204 e23d 6eca b03d
00000070: cc41 a2bc eccd 19bd 954d 273e 3f1c 053e
00000080: f9f9 55be 4521 07be dbca 693e f783 d13d
00000090: 7df0 11bd 8e7b bf3d 14b1 f53c c54b 673d
000000a0: 330c 1e3d 3c85 d73b 23bb 53be 0c48 68be
000000b0: ea99 1fbe 7ef5 1a3e d805 993d bdb9 533e
000000c0: 76c5 b63d 475c d53d 1415 72bd 2826 2bbe
000000d0: f9bb 7cbe 9360 443e 0121 32be 9705 71be
000000e0: d33c 053d dcf3 62be 869c 4bbe cd1a 20be
000000f0: 670d 1fbe 81b8 6abe 5230 ebbc 003e 543e
00000100: acf0 b4bd 11e7 273d 57aa ee3d 07db 243d
00000110: ef46 47be e8e9 d1bd 8908 1abe 2810 48bd
00000120: 3968 ecbd b049 4fbd b3b5 293e 74ac 06be
00000130: c49b ee3d 0e4c 0dbe a8c5 b7bd 453a 01be
00000140: 6fc8 4d3e 7c13 dbbd 36f8 003e c179 973d
00000150: 6be3 493e be36 fd3b 7e4a 503d e7ba 723e
00000160: 22cf b0bd 027a 3dbe ed22 e6bc 9e91 4a3c
00000170: dd91 28be ebab 1bbd 87a3 353e cacd 41be
00000180: 87f1 643e 72e5 29be e7f2 20be ff36 61be
00000190: 4d1f 003d 36b4 9abd dcb8 3dbe 704f 283e
000001a0: 5365 b73c 3ff9 74bd e5c2 263e bddd 2d3e
000001b0: 47de 2fbe 7338 563e eb4f febd 8f77 56be
000001c0: 0626 98bd 21df 53bd bafa 82bd c8cf 6c3d
000001d0: 8fa3 b4ba 1eb9 bf3a 8a8c 2abe 529a 813e
000001e0: cee0 d9bd 7b98 53be df0c 393e 62d8 ef3d
000001f0: a750 bf3d 2136 00be dab3 b13d 26a5 843d
00000200: 5c32 6fbe 48fc 13be c57f a9bd 7835 703e
00000210: fca5 833e 8c91 dcbd 3369 1d3e e851 acbd
00000220: 78da 793d e337 4fbe e3f1 f93b e058 aa3d
00000230: 2b40 42be 2ad2 873c 6d5f 2cbe 8fcd 353e
00000240: 2c30 80bc 1565 263e e737 7e3e 7266 3dbd
00000250: b500 3bbe b0a7 2c3e dabb fdbd 7cae efbc
00000260: 8647 543e cbb1 30be 5fef 453d 025e 90bc
00000270: f7c6 6e3e 7b48 b03c 7750 b53d d3f0 353e
00000280: 1919 503d 96b6 d9bd c13c 423e 1aec 463e
00000290: 0761 e33c 8ebc 6b3d 5e28 003e ed17 633e
000002a0: 065d 713e 748f 153e 8c24 e9bd 171f 5ebe
000002b0: d9c9 283e 8e0d 593e 40af bcbd 316a 11bd
000002c0: b681 f2bc 9577 2ebe e7f0 d3bd a0a4 853d
000002d0: 0810 9f3d bc96 ca3d a0c9 37bc f901 77be
000002e0: 58dd 04be a386 493d 5ff9 393e 4b60 dcbb
000002f0: b44f 0c3e 9ae8 81be 260c 683e ef88 803e
00000300: dd98 463e e516 2dbe eb53 6dbe 7586 96bc
00000310: 08c4 2fbd 41db 823d 8fd0 9d3d cb1c b13d
00000320: b343 75bd f7df 45be 924e e0bc 076e 2cbe
00000330: 25bb e7bd b8c4 8d3d c510 9abd 137e 403e
00000340: 18f4 31be 64fb e0bc 84f0 643d 4e06 6b3e
00000350: c59c b63d b33d 043e e4aa 87bc 1634 513e
00000360: 2c31 8eb9 b95c 633e b551 023d d9c2 4cbd
00000370: 0640 233e 37ce 9d3d 7743 c8bd c932 09be
00000380: cfa3 103e 8ca5 333e 190a 2cbc 0f9a 6d3e
00000390: e741 53bd a20b 53be f099 743e f1d4 e6bd
000003a0: cd41 433e 4ec4 a43d 3458 70be 6fd8 1a3e
000003b0: 2504 4cbe 59a9 203e f295 73be bdba 203e
000003c0: ed79 073e 47f9 3ebd adae 4bbe 0cd3 5a3e
000003d0: 6f2e 553d b912 23be ada7 6d3d 2379 4f3e
000003e0: 9bea 813e 798c 3cbe 0e45 92bc c757 b73d
000003f0: 342e 75be d298 ec3d fe73 3e3e 2fd9 2bbe

bn3.weight f4 [16]
1.000782 0.9937185 0.9931331 1.0067942 1.0038635 0.9977955 0.99547696 0.9955074
0.99289364 0.992455 1.0038315 1.0051332 1.0063597 1.0024952 1.0036442 0.9953682
00000000: a019 803f 5664 7e3f f93d 7e3f a2de 803f
00000010: 997e 803f 876f 7f3f 94d7 7e3f 93d9 7e3f
00000020: 472e 7e3f 8811 7e3f 8d7d 803f 34a8 803f
00000030: 65d0 803f c351 803f 6a77 803f 73d0 7e3f

bn3.bias f4 [16]
0.0011290483 -0.0020182063 -0.002325844 0.0030438753 0.0018141503 -0.0006318349 -0.002627003 -0.0015399224
-0.002831824 -0.0020422456 0.001403574 0.002697942 0.0015360459 0.0019157791 0.0022577618 -0.0011913105
00000000: 93fc 933a e243 04bb 306d 18bb c17b 473b
00000010: c8c8 ed3a b9a1 25ba cc29 2cbb 39d7 c9ba
00000020: 1f96 39bb 32d7 05bb 21f8 b73a f5cf 303b
00000030: 2655 c93a e11a fb3a f5f6 133b bf25 9cba

bn3.running_mean f4 [16]
-0.026936691 0.012092399 0.021549266 0.07772772 0.019112 -0.03388629 -0.035377685 -0.012229378
0.067734905 0.011072134 -0.037591524 0.016220449 0.04513298 -0.057060335 0.056861434 -0.0011802318
00000000: 56aa dcbc 331f 463c 1688 b03c b62f 9f3d
00000010: c590 9c3c 5acc 0abd 31e8 10bd bb5d 48bc
00000020: 99b8 8a3d e567 353c 92f9 19bd bfe0 843c
00000030: 5cdd 383d 19b8 69bd 89e7 683d 02b2 9aba

bn3.running_var f4 [16]
0.316162 0.27403414 0.28859863 0.34791648 0.24913086 0.29332557 0.2900393 0.26794907
0.31090873 0.30917063 0.31148306 0.29192072 0.26228252 0.28275856 0.32332233 0.3156135
00000000: fcdf a13e 344e 8c3e 33c3 933e 1c22 b23e
00000010: 291c 7f3e c52e 963e 0880 943e 9f30 893e
00000020: 6e2f 9f3e 9d4b 9e3e b57a 9f3e a276 953e
00000030: e549 863e bbc5 903e 818a a53e 1898 a13e

classifier.weight f4 [2, 16]
0.24659178 -0.20617093 -0.18585509 -0.084188074 -0.07554528 -0.08843128 -0.093071796 -0.24081714
-0.07907268 0.103587724 0.19423957 0.15594083 0.12751995 0.0552284 0.13757366 -0.018226344
0.2063447 -0.0136816 0.1555923 -0.13647965 -0.20947193 0.117568605 0.22686552 -0.09875972
-0.018317582 0.2014284 -0.24147248 0.101382114 -0.20257464 -0.18732792 0.07143482 0.16183913
00000000: 8e82 7c3e 791e 53be cc50 3ebe cc6a acbd
00000010: 7cb7 9abd 751b b5bd 6d9c bebd c598 76be
00000020: dbf0 a1bd cd25 d43d bde6 463e f4ae 1f3e
00000030: 9794 023e 2d37 623d 1ce0 0c3e 6a4f 95bc
00000040: 064c 533e ca28 60bc 9753 1f3e 52c1 0bbe
00000050: cf7f 56be cfc7 f03d 6f4f 683e 8942 cabd
00000060: c10e 96bc 3f43 4e3e 9044 77be 6da1 cf3d
00000070: ba6f 4fbe e4d2 3fbe 6b4c 923d 28b9 253e

classifier.bias f4 [2]
0.030631086 0.071370885
00000000: 0bee fa3c e62a 923d
