notebooks/outputs/temp_independent_test_B05_best.pth (torch, 13137 bytes, 18 tensors)

conv_temporal.weight f4 [8, 1, 1, 64]
000000 54 1c 04 bd 84 62 ea 3a c6 0e f2 bd e3 1a 85 bd
       -0.03225358 0.0017882143 -0.11819224 -0.06499269
000010 d8 84 ae 3d c4 bf 4e 3d 27 40 3b 3d 69 b1 6d 3d
       0.08521432 0.05047585 0.045715477 0.05803052
000020 f9 79 a2 bd af 46 ce 3d 15 dd e3 3d 1b da 4c 3d
       -0.07933421 0.100720756 0.111261524 0.05001269
000030 fb 26 58 bd 48 74 b1 bd 40 72 b6 3d 30 2c 9e 3c
       -0.05277155 -0.08664757 0.0890851 0.01930818
000040 78 7a a2 3d 3f 9b a1 bd 48 d5 54 bd 8b 20 98 bd
       0.07933515 -0.07890939 -0.051961213 -0.07428082
000050 11 9a 25 bd 57 1e 3b 3d 05 66 6f bd 6f fc f9 3d
       -0.040430132 0.04568323 -0.058446903 0.12206351
000060 ec 8d bb 3d dd 99 46 3d ba 93 00 3e 8b 7f 67 3d
       0.09157929 0.04848658 0.12556353 0.05651812
000070 fe 31 e0 3d 08 1d 39 3d a5 1a a4 3c df 45 cf bc
       0.10947035 0.045193702 0.020032236 -0.025301872
000080 8f 9b 2c 3d 34 67 76 3d 44 62 ba 3d 7c bf c9 bd
       0.04214054 0.060157016 0.09100774 -0.09850976
000090 69 eb 62 bd fc 98 d8 bc e0 de c5 bd f6 9f a3 3d
       -0.055400286 -0.026440136 -0.09661651 0.079894945
0000a0 61 d0 b2 3c 63 9f 97 3d ef 7d 82 bc af 11 0a 3b
       0.021827878 0.074034475 -0.01592919 0.002106767
0000b0 26 fd 19 bd 76 54 7c 3d 31 3b cd bd 96 e6 fa 3d
       -0.037594937 0.061603986 -0.100210555 0.12251012
0000c0 a9 8e 98 3c 53 ed 8e bd c1 07 55 3d e4 e2 ae bd
       0.018622713 -0.0697886 0.052009348 -0.0853937
0000d0 0f 60 8b 3d 26 7f 44 bd ce 53 21 bd ae a8 1e 3d
       0.06805431 -0.04797282 -0.039386563 0.038735084
0000e0 96 c9 ba bc b4 5e cd 3d 8b 70 9f bd db c0 0e ba
       -0.022801202 0.10027829 -0.07785138 -0.0005445608
0000f0 39 a8 b8 bc e7 31 24 3d 8d 43 0c bd ab e2 38 3d
       -0.022541152 0.040086653 -0.03424411 0.045138042
000100 57 d9 00 be ff 51 3c 3c 6e 5d 1b 3d db 76 04 3d
       -0.12582909 0.011494159 0.0379309 0.032339912
000110 9a a2 dc bd 3b 01 ec 3d 0b 00 26 bd 01 d4 a9 3d
       -0.10773201 0.11523672 -0.040527385 0.0829239
000120 99 e9 ab bd 10 77 e5 3d 6b d9 90 bd 8c 8d d3 3a
       -0.083941646 0.1120435 -0.07072719 0.0016140207
000130 48 d8 1c 3d d5 00 ef bd 02 2e 93 3d a7 cb ac b8
       0.0382922 -0.116700806 0.0718651 -8.239532e-05
000140 c0 ce ce 3d 8c 47 28 3d 71 94 95 3d db b7 db bc
       0.10098028 0.041083857 0.073037036 -0.026821068
000150 4b 22 13 3d 21 00 5e 3d 77 16 3d bd f5 e0 4a 3c
       0.035921376 0.05419934 -0.046164002 0.0123827355
000160 3f 0b 40 3a 9b 4f 89 bd 0c 81 10 bb c8 e2 28 3d
       0.00073258945 -0.06704637 -0.0022049574 0.0412319
000170 6a a2 da bc df a9 27 bd 56 4c 42 bd 57 f6 8c bd
       -0.026688773 -0.040933486 -0.04743608 -0.06882923
000180 a5 22 a1 bc c2 61 b5 bd a9 3d 9a 3d 4d 8b 5d 3d
       -0.01966984 -0.088565364 0.07531292 0.054087926
000190 17 4a 29 3d b0 1a ae 3d 81 3c b2 bc de 67 a7 3d
       0.041330423 0.08501184 -0.021757366 0.08174108
0001a0 5b 0c a7 bd a8 0a 54 bd 89 58 a3 bd 53 42 22 3d
       -0.081566535 -0.051767975 -0.07975871 0.039614033
0001b0 1b 6a b4 bd ba ed b9 bd 56 1d 00 bd 8f 8c 59 3d
       -0.088093005 -0.09078546 -0.031277977 0.053112563
0001c0 68 f5 c3 3c 14 4b c9 3d fe 73 a6 bd 9e 82 91 bb
       0.02392073 0.09828773 -0.081275925 -0.0044406196
0001d0 33 48 43 3d 8c 18 e6 3c 2a e1 8b bd 63 9a e8 3d
       0.047676276 0.028087877 -0.06830056 0.11357572
0001e0 d6 c7 38 3d 83 98 86 bd 5d 62 ed bd 26 4e 04 3d
       0.045112453 -0.06572058 -0.11591027 0.03230109
0001f0 14 5b 9c 3d d0 d2 d8 bc 26 9d 01 bd 09 ef d4 3d
       0.07634559 -0.02646771 -0.03164401 0.10397155
000200 94 10 2e bd 3e 36 b7 3d bd 45 9d bd 6f 80 8e bd
       -0.04249628 0.08945893 -0.07679317 -0.069580905
000210 51 3f be bc 57 c9 b8 3d c6 fd a1 3d c2 9c 62 bd
       -0.023223551 0.090227775 0.079097316 -0.055325277
000220 90 77 89 3d c1 16 e5 bd d4 7e e9 3d b7 e4 c1 3d
       0.06712258 -0.111859806 0.11401144 0.09467452
000230 4e d2 1f bc f9 ed dc bd b6 ff e2 3d 2a e5 8b 3c
       -0.00975473 -0.10787577 0.11083929 0.017077047
000240 44 d3 a0 bd dd 19 b0 3d 29 18 fd bd 25 55 b0 3d
       -0.07852796 0.08598683 -0.12358124 0.0860999
000250 e7 6d fe bd 1d ee d2 3d 6e 4f bc 3c 03 09 0b 3d
       -0.12423306 0.10299323 0.022987094 0.03394414
000260 7f d3 87 3c 4b 1f 98 3d 16 69 93 bd e3 fc a8 3d
       0.016580341 0.07427844 -0.07197778 0.08251359
000270 b1 8d e7 bd ac 0e 91 bd db e0 7b 3d 26 38 2b bd
       -0.11306322 -0.070828766 0.061493736 -0.041801594
000280 54 b4 9f 3d 05 e1 b7 bd f1 79 4c bd 26 c6 af bd
       0.07798067 -0.08978466 -0.04992098 -0.08582716
000290 99 03 e1 3b c2 65 bd bd 88 6e bb bd b4 a0 18 3d
       0.006866884 -0.092479244 -0.091519415 0.037262633
0002a0 e5 31 4a bd 30 85 a7 bd e7 96 2b bb 36 ee 29 bd
       -0.04936399 -0.081797004 -0.0026182474 -0.04148694
0002b0 60 e8 1e bd 2c d2 af 3d 05 05 c3 3d 8a 82 3b 3c
       -0.03879583 0.08585009 0.09522442 0.011444697
0002c0 7b 1b f9 3d 33 10 2c bd 4c 08 8b 3d 3a 3e a1 bd
       0.121634446 -0.042007636 0.06788692 -0.07873197
0002d0 ac f2 1e bd 4c d0 2e bd f9 e8 af 3d e5 5d 37 bb
       -0.03880565 -0.042679116 0.08589358 -0.002797955
0002e0 6d 17 56 bd d1 68 ec 3c 25 e5 5d bb 87 96 8a bd
       -0.052268434 0.028858574 -0.0033858505 -0.06766992
0002f0 69 5d e8 3d a8 c0 65 bd 35 a9 fd bd 66 f7 65 3d
       0.113459416 -0.056091934 -0.12385789 0.05614414
000300 69 65 3c 3d af d8 db bd 84 73 da 3d 79 b7 9d 3d
       0.04599515 -0.107346885 0.10666564 0.0770101
000310 26 e4 1d bd 42 5d 99 bd ef a9 d2 bd 62 df c7 3d
       -0.038547657 -0.07488491 -0.102863185 0.09759404
000320 a3 be b5 3c 48 ba ef bc ca 95 cd bd e6 65 fd bd
       0.02218563 -0.02926363 -0.100383356 -0.12372951
000330 57 34 72 bd b4 97 9e 3b 3e fb 79 3d 55 46 ad 3d
       -0.059131946 0.0048398618 0.06103062 0.084606804
000340 ec b2 96 3d 8b b9 f9 3d 40 3c 0b bd 01 ba 58 3d
       0.073583454 0.12193593 -0.033993006 0.052911762
000350 09 5e 8a bc 79 3d ce 3d 53 bd ad bc 85 ef 87 bd
       -0.016890543 0.10070319 -0.02120844 -0.066374816
000360 26 58 9b 3d 71 51 88 3c e1 23 95 bd 83 c4 c8 bd
       0.07585172 0.016640397 -0.07282234 -0.09803107
000370 28 5b 06 bc 96 7a bd 3c 33 54 94 3d d7 ee d2 3d
       -0.008200444 0.023129743 0.07242622 0.10299461
000380 21 bb 1f bd 47 78 2c bc 6b ad d6 bd f9 69 61 3d
       -0.03899682 -0.010526723 -0.104822956 0.055032704
000390 29 88 e7 bd a5 69 70 bd 13 c3 3a bd 7e bf 97 bd
       -0.11305267 -0.0586945 -0.045596194 -0.07409571
0003a0 59 e3 9e 3d 81 2a af bd 4d 25 81 3d 11 fd 62 bd
       0.07758207 -0.08553029 0.06305943 -0.055417124
0003b0 ab 78 c3 bd dd c3 7d bd 3d c2 00 bd 9a 56 82 bd
       -0.095445 -0.061954368 -0.03143524 -0.06364174
0003c0 50 51 05 3d e4 77 b0 3c 9d 46 ca bb 19 53 36 bd
       0.03254825 0.021541543 -0.0061729685 -0.04451284
0003d0 32 15 15 3d 2b 2f af 3c 5b e7 f4 3d 2b 4c 88 3d
       0.036397167 0.021384796 0.1195819 0.06655153
0003e0 0e 3d 9d 3d 83 2e 00 be b2 58 a5 3c 6e 34 e2 3c
       0.07677661 -0.12517743 0.020183895 0.027612891
0003f0 63 9e b8 3c 86 2f 51 3d aa fa c9 bd 0a 61 fd bd
       0.022536462 0.051070713 -0.098622635 -0.12372024

bn1.weight f4 [8]
000000 6b 3b 7f 3f 69 3b 7f 3f 6a 3b 7f 3f 6f 3b 7f 3f
       0.9970004 0.9970003 0.99700034 0.99700063
000010 6b 3b 7f 3f 6c 3b 7f 3f 5f 3b 7f 3f 6b 3b 7f 3f
       0.9970004 0.99700046 0.9969997 0.9970004

bn1.bias f4 [8]
000000 86 5f 54 b8 81 07 eb b7 e8 9c 34 38 df b3 23 38
       -5.0633702e-05 -2.8017677e-05 4.3061475e-05 3.9029746e-05
000010 a6 ab 32 38 b1 d3 b1 37 a2 d8 a5 37 e6 0b 1a 38
       4.2598367e-05 2.119862e-05 1.977041e-05 3.6727542e-05

bn1.running_mean f4 [8]
000000 d1 a2 01 37 b0 83 f2 37 8f 6e ee 37 c6 cb c0 37
       7.726908e-06 2.890997e-05 2.8423294e-05 2.2983073e-05
000010 fd 4f 9f 37 af cf 8f 37 a1 08 2c b8 a3 47 98 37
       1.8991524e-05 1.7143639e-05 -4.1016032e-05 1.815317e-05

bn1.running_var f4 [8]
000000 e0 8e 4e 3f c6 b7 47 3f 47 35 4b 3f 40 4b 52 3f
       0.8068676 0.7801479 0.7937817 0.8214607
000010 4b 4b 47 3f c0 5b 52 3f cd 31 4f 3f a6 8b 4d 3f
       0.7784926 0.8217125 0.80935365 0.8029121

conv_spatial.weight f4 [16, 1, 3, 1]
000000 84 c8 bd 3d 54 3f 66 3e 9d ef 46 3e 77 36 a0 be
       0.09266761 0.22485095 0.19427343 -0.31291553
000010 0c ce c0 be d5 12 dd 3e 7b 3e 00 3f c8 d6 f3 bd
       -0.376572 0.4317843 0.5009534 -0.11906201
000020 a3 f0 70 be 73 58 81 be 29 53 ef be 70 72 4d be
       -0.23529296 -0.25262794 -0.46743134 -0.20063186
000030 48 ba 93 3e d0 9e 65 3d 68 1d 82 be fb 97 17 3e
       0.2885306 0.05605966 -0.2541306 0.1480407
000040 fc 78 b0 be c3 38 dc 3e f1 f7 a3 be 20 43 86 bc
       -0.34467304 0.43012056 -0.32025102 -0.01638943
000050 a7 5f 64 3d 49 c5 ce 3c eb 96 a0 3d 1f c0 2e 3e
       0.055755284 0.025240557 0.07841285 0.17065476
000060 7f 3e cc be 45 6c ad be 1d e8 ae be 69 71 fe 3d
       -0.3989143 -0.33871666 -0.34161463 0.12423975
000070 64 d9 b4 3e 14 77 68 bd 83 f4 2c 3e 51 3a 2b 3e
       0.35322106 -0.056754187 0.16890149 0.16721465
000080 67 df b5 bd 05 3b c3 3e 6c c1 0c bf 91 52 d5 be
       -0.08880501 0.38130966 -0.5498264 -0.41664556
000090 f8 c2 a8 3d 90 4b 00 bd 7a d9 73 be 6f cd ce bc
       0.08240312 -0.031322062 -0.2381343 -0.025244443
0000a0 20 0d 87 3e f5 95 d8 3e 29 0c f3 be 2a 26 8b 3d
       0.263772 0.42301908 -0.47470215 0.067943886
0000b0 42 e4 ef 3e b9 06 04 bf 29 ef 97 be cb 18 11 3f
       0.46853834 -0.5157276 -0.29674652 0.56678456

bn2.weight f4 [16]
000000 3b 2e 80 3f 87 84 7f 3f 6c 08 80 3f d4 a0 7f 3f
       1.0014108 0.99811596 1.000257 0.9985478
000010 1b 70 7f 3f 6e 12 80 3f f8 2a 80 3f 5b c4 7f 3f
       0.99780434 1.0005624 1.0013113 0.9990899
000020 ea 3e 80 3f ac 7e 7f 3f 53 60 7f 3f de 98 7f 3f
       1.00192 0.9980266 0.99756354 0.9984263
000030 a0 09 80 3f f1 44 80 3f 36 cc 7f 3f 61 49 7f 3f
       1.0002937 1.0021039 0.99920976 0.9972134

bn2.bias f4 [16]
000000 67 69 9f b4 77 aa 08 bb 83 4b 96 ba 41 6c df ba
       -2.9692748e-07 -0.0020853558 -0.0011466596 -0.0017045812
000010 4f 9c 33 b9 73 60 29 3b 48 d3 ed 39 26 bd 11 3b
       -0.00017129 0.0025844842 0.0004536158 0.0022237985
000020 28 a5 a4 39 c7 b7 d4 ba a2 1d 0a ba 31 f7 ac 3a
       0.0003140357 -0.0016229086 -0.0005268698 0.0013196227
000030 4f 38 b8 ba 3b bb 2f 3b 79 3a 28 bb 43 6b 34 bb
       -0.0014054867 0.002681448 -0.0025669618 -0.0027529753

bn2.running_mean f4 [16]
000000 e4 8e 4e 36 ff 0a 42 b8 4e f4 b3 b7 46 cd 12 b7
       3.0779565e-06 -4.6263445e-05 -2.1452226e-05 -8.750072e-06
000010 95 f0 2f 34 fc dd 0d b7 9f 19 3d 36 60 62 20 b6
       1.6385668e-07 -8.45594e-06 2.8178108e-06 -2.389912e-06
000020 14 e3 4e 37 33 79 43 b7 45 e0 69 b6 64 d6 6b 37
       1.2331428e-05 -1.1651125e-05 -3.4850248e-06 1.4057008e-05
000030 7d 82 21 37 ff 5e d0 b7 47 3c 99 b7 8b de 31 b6
       9.6267295e-06 -2.4839768e-05 -1.826709e-05 -2.6504592e-06

bn2.running_var f4 [16]
000000 5e 01 47 3f 36 30 4c 3f 2d 95 43 3f 78 78 64 3f
       0.7773646 0.79761064 0.763995 0.8924632
000010 31 40 3f 3f e5 5a 49 3f 68 ea 40 3f 7c 57 3e 3f
       0.74707323 0.7865432 0.75357676 0.7435224
000020 49 e2 6f 3f 5d a7 46 3f 7c f5 3e 3f 3f 6d 56 3f
       0.9370466 0.77599126 0.7459333 0.83760446
000030 0b dc 3d 3f a5 4d 51 3f a6 08 47 3f 3d 58 53 3f
       0.74163884 0.817591 0.7774757 0.82556516

conv_separable_depth.weight f4 [16, 1, 1, 16]
000000 bd 2f 37 3e 17 b7 b5 3d 08 63 65 bc e4 aa ff 3c
       0.17889304 0.08872812 -0.014000662 0.031209417
000010 1a 4d e1 bd 92 c1 ab 3d e2 e5 cf bd 63 07 6b be
       -0.11001034 0.0838653 -0.101512685 -0.22952037
000020 32 42 25 be bf a0 73 bd ed 23 91 3d 97 ce 76 be
       -0.16138533 -0.05947947 0.070869304 -0.24102245
000030 32 fb 1d bd 93 b8 da 3d a3 56 c0 bd db 4e 04 3e
       -0.038569637 0.10679736 -0.09391525 0.12920706
000040 94 df a9 bd 67 1d 78 3d 93 7f c9 3d fb 9c cf bd
       -0.08294597 0.060574915 0.09838786 -0.101373635
000050 dc aa eb 3d 8d 0a 4a be 85 11 26 3e 1a 08 00 3e
       0.11507198 -0.19730587 0.1621762 0.1250309
000060 4c 96 51 3e 76 0e 7f be 82 1d 0e 3e 3d 3c 6d 3b
       0.2046749 -0.2490786 0.13878444 0.0036199235
000070 3b 90 74 be c0 67 d0 3d c0 a8 e3 bd 23 40 99 3c
       -0.23883145 0.10176039 -0.11116171 0.01870734
000080 87 47 68 be 61 1b 1e be 1c a2 72 3d c2 24 7c be
       -0.22683536 -0.15440132 0.05923663 -0.24623397
000090 3d ab 57 be 9c 9d c4 3d 24 67 15 3e cd 43 20 3e
       -0.21061416 0.09600374 0.14590126 0.15650864
0000a0 a2 d4 c6 bd 44 1e 5b be fe d3 68 be 70 ca 0a be
       -0.09708525 -0.21398264 -0.22737119 -0.13553786
0000b0 6e 37 32 3e 7f 3c 7d 3e d2 d0 fa 3c 9f f6 58 3e
       0.17403957 0.24730109 0.030617151 0.21187828
0000c0 f9 d6 3d 3e f5 18 5d 3d 7e 3b 20 3e 19 86 19 be
       0.18539037 0.05397888 0.15647694 -0.1499256
0000d0 fe f8 3e 3e d8 2b 86 bc f6 fb 67 be 22 4c 0d be
       0.1864967 -0.016378328 -0.22654709 -0.13798574
0000e0 5b 8d 2f 3e a1 04 bc 3d 70 09 5f 3d 72 9c e6 bd
       0.17143767 0.091805704 0.05445236 -0.11260308
0000f0 5d 6d 17 bd f3 5a 43 3d 8b 03 30 be c3 7a 43 3e
       -0.03696953 0.047694158 -0.17188852 0.19089799
000100 11 41 c1 bc 80 86 70 bd e2 4f 2e 3e 40 d2 39 3d
       -0.023590596 -0.05872202 0.1702266 0.045366526
000110 22 9d 02 3e b7 66 74 be 09 ba 03 3e fe 4b 40 bb
       0.12755254 -0.23867308 0.12863936 -0.002934217
000120 53 95 00 3e a3 09 5b be 40 3a 73 3d 9f b4 45 3e
       0.12556963 -0.21390395 0.059381723 0.19307183
000130 10 79 57 be 83 0f c9 3d 5e 60 77 3d fb 40 3e be
       -0.21042275 0.09817412 0.060394637 -0.18579476
000140 02 eb a8 bd 5b 6c 3a be 6d ab d8 3d 3b 08 7b be
       -0.08247949 -0.18205397 0.10579572 -0.24514858
000150 05 3c 4b 3d 0d c0 a5 bd 56 90 66 3e 38 1f 37 be
       0.049617786 -0.080932714 0.22515997 -0.17883003
000160 6c 1a 41 be b2 b2 12 3d a9 9b 7b be 48 7e 23 3e
       -0.18857735 0.03581495 -0.24571098 0.15966141
000170 58 38 d0 ba fe e9 42 3e 5b e9 6d 3d 3e ed b9 bc
       -0.0015885932 0.19034573 0.058083873 -0.022696134
000180 bd d7 51 3e df ef 90 bc a5 1b 18 3e 9b 36 59 bd
       0.20492454 -0.017692504 0.14854296 -0.05303059
000190 51 d8 ae 3d b3 4a 66 be a1 44 74 3e 07 92 c8 3c
       0.08537353 -0.22489433 0.23854305 0.024483694
0001a0 a1 45 f2 bc 8d a9 bc 3c 81 19 11 be 9f fd 98 bd
       -0.029574217 0.023030067 -0.14169885 -0.074702494
0001b0 d0 9e aa 3d 4e 9f 24 3e 71 2d f7 bb cc e6 91 3d
       0.08331072 0.16076395 -0.007543259 0.07124099
0001c0 d0 e8 d3 3b da 01 72 be 50 6e 3d bd 9a d9 6b 3e
       0.0064669624 -0.23633519 -0.04624778 0.23032227
0001d0 07 74 cb 3c aa 64 39 be 17 77 f4 3d b9 24 b3 3d
       0.0248356 -0.18104807 0.11936777 0.08747239
0001e0 4a a8 03 3c 9c af ff bd 71 df 79 be a9 89 c6 bd
       0.008035729 -0.12484667 -0.24401642 -0.09694225
0001f0 bf 9a a4 bc 96 90 15 bd aa 4f 53 be bf 0f 71 be
       -0.02009332 -0.03651484 -0.20635858 -0.23541163
000200 54 72 8a 3c e2 49 5d 3e 33 9e 11 3e d4 b3 c2 3b
       0.016900219 0.21610215 0.14220504 0.0059418473
000210 79 80 c4 3d 32 29 d5 3d 44 9c 75 be 43 0a 9b 3d
       0.09594817 0.10408248 -0.23985392 0.07570317
000220 1b aa 2c be f2 00 27 3e dc ff b6 3d 3d 3a 17 3e
       -0.16861765 0.16308954 0.0893552 0.1476831
000230 72 bc 17 bd d8 d8 11 3e fb eb a2 3d c8 26 79 3e
       -0.03704495 0.14242876 0.07955166 0.243312
000240 c3 dc bc bd ee ba 21 be 78 44 cf bd af 03 24 be
       -0.092217945 -0.15793964 -0.10120481 -0.1601703
000250 ca bd 10 3e 67 d8 65 3e 9e c7 9c 3d ee 14 1b 3e
       0.14134899 0.22445832 0.076552615 0.15144703
000260 61 20 68 be 03 d1 e7 3d af ac fb 3d c9 c3 62 be
       -0.22668602 0.11319163 0.12288796 -0.22144999
000270 8b ce 26 bd 4b 68 b5 bc 91 32 21 3e a2 2a 12 3d
       -0.04072432 -0.022144457 0.15741946 0.03568519
000280 d1 fa b4 bd c7 05 1c be 09 8a 58 3e 25 f5 52 bd
       -0.08836902 -0.15236579 0.21146406 -0.05150332
000290 6a 30 1b be 3d 92 f5 3d dc b0 37 3e 46 87 35 3e
       -0.15155187 0.11990783 0.1793856 0.17727384
0002a0 c4 36 40 be 97 44 5f 3e e3 37 32 be 52 39 21 be
       -0.18770891 0.21803509 -0.17404132 -0.15744522
0002b0 1e 78 c0 3d e3 26 e8 bd ab a0 74 be 77 91 ac 3c
       0.093979105 -0.11335542 -0.23889415 0.021065457
0002c0 97 dc 83 bd 43 df 63 be 56 cb 64 3e 62 17 69 3e
       -0.064385585 -0.22253136 0.22343192 0.22762826
0002d0 f1 b9 95 bd 99 fc 62 3e ac 71 e7 3d f4 88 00 3e
       -0.07310856 0.22166671 0.11300978 0.12552243
0002e0 3c 30 ce bd 3c 24 6d be 21 d0 47 3d 7d e8 07 3e
       -0.10067794 -0.23158354 0.04878247 0.13272281
0002f0 9b 08 0e be 5a 8a 36 be 65 fb 27 be f7 f8 2c be
       -0.1387047 -0.17826214 -0.16404493 -0.16891848
000300 af 5f 3b 3e 5d e6 f9 3d f0 c6 23 be 94 6f 39 3e
       0.18298219 0.122021414 -0.15993857 0.1810897
000310 fe a5 3d be 3b e3 12 be 8d e0 61 be cf 61 a4 3c
       -0.18520352 -0.14344494 -0.22058316 0.02006617
000320 61 ef bb bd 6e 36 79 be aa d9 41 3d 2a 41 fa 3d
       -0.09176517 -0.2433717 0.04732672 0.1221946
000330 29 e9 f4 bd a6 6c 2d 3d 6b 41 de bd ef 3b fc bd
       -0.11958534 0.042339943 -0.10852321 -0.12316119
000340 e6 e3 a0 3d a9 51 87 bd 0a 4b da 3d 09 19 c9 3b
       0.07855968 -0.06607372 0.10658844 0.0061370176
000350 4d 28 bc 3d 8a 3f e6 bd 04 05 9e 3d 16 5f a3 3c
       0.09187374 -0.11242588 0.077158004 0.019942801
000360 d6 37 13 3d 37 70 5b 3e 55 2b fe bd 98 67 33 3e
       0.03594192 0.21429525 -0.12410609 0.17519987
000370 7b 3b 31 be f0 c0 ff bd 96 6c 21 3e b6 72 df bd
       -0.17307846 -0.12487972 0.15764078 -0.10910551
000380 0b 74 33 be 93 82 38 3e 13 a2 74 3e 13 da 6c 3e
       -0.17524736 0.1801856 0.23889951 0.23130064
000390 d4 6b 00 be 7e cf 6f 3e 57 43 18 bd 24 1c 49 3b
       -0.12541133 0.23418996 -0.037173595 0.003068694
0003a0 c0 49 4a 3b ab 37 f9 bb c3 91 61 bd 74 9a c7 3d
       0.0030866712 -0.007605513 -0.05507065 0.097462565
0003b0 66 2d 4e be 39 70 f8 3d fd b9 39 3d 8f 03 14 be
       -0.20134506 0.1213078 0.045343388 -0.14454482
0003c0 b3 fe b7 bd 1f 16 6e be fb 8e 47 be 5d 8a 0a be
       -0.08984127 -0.23250626 -0.19488136 -0.13529344
0003d0 8c 86 1a 3e 1f 42 0d be 11 34 29 be 83 33 7d 3e
       0.15090388 -0.13794754 -0.16523768 0.24726681
0003e0 66 2b b9 bd c6 24 62 be 3b 61 26 3e 14 17 73 bd
       -0.09041481 -0.2208434 0.16248028 -0.05934818
0003f0 3f fb 31 3e 11 16 5f be 6e b6 27 be b5 19 99 bc
       0.17380999 -0.21785761 -0.16378185 -0.018689016

conv_separable_point.weight f4 [16, 16, 1, 1]
000000 b7 9a 96 3d 00 ca 33 bd 43 7b 7b 3e 3b 85 78 3e
       0.07353728 -0.043893814 0.2455874 0.24269573
000010 13 b6 6c 3e 6a bb 39 3d 1a 86 6b be 61 bb 31 be
       0.23116331 0.045344748 -0.23000374 -0.17356636
000020 aa e2 1d be 8e 1a bf bc e5 3d 6c bd 81 a6 13 be
       -0.15418497 -0.023328092 -0.057676215 -0.14418985
000030 1a 98 3d 3e 5c 2d 5c 3e fe 4b 34 bc d3 09 78 be
       0.18515053 0.21501678 -0.011004446 -0.24222498
000040 ef e1 2a bd 3e db e9 bd 6a 18 60 3d ec 47 38 bd
       -0.041719373 -0.1141877 0.054710783 -0.044990465
000050 ad 14 63 be 01 c8 00 3e e3 78 74 3e 32 38 67 3e
       -0.22175856 0.12576295 0.2387424 0.2258003
000060 3c 93 a7 3d 08 d0 1c be 26 17 36 3d 16 66 7e 3e
       0.081823796 -0.15313733 0.04445567 0.2484363
000070 15 85 2f 3e 47 e3 87 bd c4 61 6c 3e c8 ad 1c 3e
       0.1714061 -0.066351466 0.2308417 0.15300667
000080 20 11 70 bd 12 66 99 3d c8 3c 4c bb 8e f1 78 3e
       -0.05861008 0.074901715 -0.0031164158 0.24310896
000090 53 96 73 be 59 18 b4 bd 51 d1 d6 3d b7 36 70 be
       -0.23787813 -0.087937064 0.10489143 -0.23458372
0000a0 8e 59 c0 bd 4a cc 04 3e 9b fc 50 be 0e ff 95 bd
       -0.09392081 0.12968555 -0.20408861 -0.073240384
0000b0 54 de 51 3e 22 79 7b 3b af 20 35 3e fe ed 06 be
       0.20494968 0.0038371761 0.17688249 -0.13176724
0000c0 86 57 48 3e 99 17 6a 3e c2 57 18 bc 09 b2 01 be
       0.19564638 0.22860564 -0.009298267 -0.12665571
0000d0 3a 61 36 bd d8 31 6d 3e 74 8c 4d be 92 cc 37 bd
       -0.044526316 0.23163545 -0.2007311 -0.044872828
0000e0 33 78 25 be 26 38 e1 bd 9a 78 20 be f4 14 c1 3d
       -0.16159134 -0.109970376 -0.15671006 0.094278246
0000f0 30 3b 83 3d 23 52 6c bd 41 4d 65 bd 12 b7 11 be
       0.064077735 -0.05769552 -0.05598188 -0.14229992
000100 b1 fe a4 3d 44 e8 4d be 0e c2 4b 3e a7 9b 20 be
       0.08056391 -0.20108134 0.19898245 -0.15684377
000110 de 02 40 bd 08 96 36 3e f0 f8 81 39 3b 79 0b be
       -0.046877734 0.1783067 0.0002479027 -0.13620465
000120 95 17 91 bc 88 cf 31 be ad 9c 71 3d 34 b7 a4 3c
       -0.01771144 -0.17364323 0.05898731 0.02010689
000130 80 22 ef 3d 1d 5b 4a 3e f1 3a 32 3e db 15 9e bd
       0.11676502 0.1976132 0.17405297 -0.07719012
000140 c4 9c e4 3c eb 8d 31 be a8 0d 2a 3d 21 ba 04 bd
       0.027906783 -0.17339294 0.04151693 -0.03240407
000150 1b e9 34 3c 7f 32 05 bd e7 90 15 3e af 00 b1 3d
       0.011041905 -0.03251886 0.14606057 0.086427085
000160 0e 77 58 3d 22 35 f1 bd ed 38 f8 bd 5a 44 64 3e
       0.052847914 -0.117777124 -0.12120233 0.22291699
000170 e3 65 d9 3d ce 93 66 be d4 21 e2 bc ab d6 b0 bd
       0.106151365 -0.2251732 -0.027604021 -0.08634695
000180 68 2d 39 be 20 b6 14 be 58 f3 3a 3e c3 45 16 be
       -0.18083727 -0.145226 0.18256891 -0.1467505
000190 13 27 bc bd ed a4 5f 3e 71 73 24 be 49 0d 05 be
       -0.0918714 0.21840258 -0.16059662 -0.12993349
0001a0 18 ec 7f bd 71 69 32 be 27 1f 00 bd 0d 41 f8 3c
       -0.062481016 -0.17423035 -0.03127971 0.030304456
0001b0 13 6d 77 bd e0 d6 8f 3d e5 1a 69 be 54 46 70 3e
       -0.060406756 0.07023406 -0.22764166 0.23464328
0001c0 56 0d b0 bd e3 38 86 bd 35 25 3a 3d 50 07 8c bd
       -0.08596294 -0.06553819 0.04544564 -0.06837332
0001d0 18 9d 3c be a0 d7 68 be a9 57 b8 3c 61 3f f4 bd
       -0.18419302 -0.22738504 0.022502737 -0.11926151
0001e0 f2 ed bc bd 1a ab 5d bd 43 f7 3f 3e 4c ec 7b be
       -0.09225072 -0.054118253 0.18746667 -0.24601859
0001f0 8a bd 1c be 67 5d 99 3d 11 b5 f2 bd 27 12 5f 3d
       -0.15306678 0.07488518 -0.11850942 0.05446067
000200 f9 85 71 be f3 26 5b 3e 03 7e 51 be 3d 12 ad 3d
       -0.23586263 0.21401577 -0.20458226 0.08450744
000210 fc 2a 24 be ae 75 66 3d d1 86 5d be a5 95 fd 3d
       -0.16032022 0.05626457 -0.2163346 0.12382058
000220 63 74 04 be a9 d2 70 3e 3d 30 05 3d bf 7d 36 be
       -0.12935023 0.2351786 0.032516707 -0.17821406
000230 c5 ac 93 bd 4d 79 56 be b2 c9 1c 3b b2 04 37 be
       -0.072106875 -0.2094471 0.002392393 -0.17872885
000240 5d e1 71 3e 4a 6f aa bd b5 32 e1 bd b2 1c a1 bc
       0.23621126 -0.08322008 -0.10996 -0.019667003
000250 8f 53 87 bc bf 75 48 3e a6 de 98 bd 24 3e 38 3e
       -0.016519336 0.19576167 -0.07464342 0.17992455
000260 86 2c 19 3e 41 cc 09 3e 2c 0c 51 be eb 3b 7c 3d
       0.1495839 0.13456823 -0.204148 0.06158058
000270 2d 64 01 3e 7d 4c 37 be c8 83 91 3d c4 c7 58 3d
       0.1263587 -0.17900272 0.071052134 0.052924886
000280 bb e1 19 be d4 16 16 3e 8f fa 36 3d ec 06 6d be
       -0.15027516 0.14657146 0.044672545 -0.23147172
000290 dd 31 04 3e 0b 98 7e be 3b d8 3c be ea 2b db 3d
       0.12909646 -0.24862687 -0.1844186 0.10701735
0002a0 47 79 36 3e 96 0b 4a be be e1 f4 3d f7 2e 19 3c
       0.17819701 -0.19730982 0.119571194 0.009349576
0002b0 b8 2b d3 3b 17 d6 f7 3d 41 2b e9 bd 06 63 74 3d
       0.0064444207 0.12101381 -0.11385203 0.05966475
0002c0 b4 5d 29 3e a0 28 30 be a9 07 b4 bd bc ff 53 3d
       0.16539651 -0.17202997 -0.087905236 0.05175756
0002d0 57 16 70 be bd 39 45 be ef c2 9c bd d0 43 9f 3d
       -0.23446022 -0.19260307 -0.07654368 0.07776606
0002e0 8a 07 1a be 80 23 f4 3d 6e bd 53 bd 7e 80 70 3e
       -0.15041938 0.119208336 -0.051694326 0.23486516
0002f0 b1 ce eb 3d 86 f4 2d be 39 e6 d7 bd 86 f6 b1 3c
       0.11514033 -0.1698781 -0.10541958 0.021723997
000300 28 8e 14 bc 04 fb fe bd 7b 03 e0 bd fb d7 d1 bd
       -0.009067096 -0.12450221 -0.10938164 -0.10246273
000310 b2 3c 95 bd 25 10 1f be e0 1a 0a bd 04 de 53 3d
       -0.07286967 -0.15533502 -0.033717036 0.051725402
000320 de e2 fc bd 8e 2f 2a 3e 29 49 0e bd c9 50 75 3e
       -0.12347959 0.16619703 -0.03473774 0.23956598
000330 fd 2f 5f be 00 f5 0d bd 18 d8 4f be 65 26 21 be
       -0.2179565 -0.03465748 -0.20297277 -0.15737303
000340 be c9 f1 bd 7f 9f d5 bd 9b 39 95 3d d7 69 3e bd
       -0.118060574 -0.10430812 0.07286378 -0.046487655
000350 b0 43 92 bd 38 84 79 3e ba 5d a5 3d 71 a2 07 3e
       -0.071418166 0.24366844 0.080745175 0.1324556
000360 33 5c 86 bd 5b c9 71 3e 07 76 5d 3e 88 a2 3e 3d
       -0.06560554 0.23611967 0.21627055 0.04654172
000370 4e 3e 73 bd 6a 84 0a 3d 4a a5 82 3d 15 92 18 3c
       -0.05938559 0.033817686 0.06379183 0.009312172
000380 78 42 f9 3b cb ae 08 be db b1 40 be 37 28 2e be
       0.0076068006 -0.13347928 -0.18817846 -0.17007528
000390 6d 8e e6 bd f3 da 0f bd c5 9b 2a 3e fe 75 6a be
       -0.11257634 -0.035120916 0.16660984 -0.22896573
0003a0 cd d2 af bc 03 32 42 3e a0 ae 6c bd 49 22 f3 3d
       -0.021462822 0.1896439 -0.057783723 0.11871774
0003b0 68 04 3b be 4d 85 03 3e 42 b9 70 3d 95 c3 5b bb
       -0.182634 0.12843819 0.058770426 -0.0033533324
0003c0 0e d9 30 be 62 f3 de bc 9f e2 3e 3e 87 09 60 3e
       -0.172703 -0.027215663 0.18641137 0.21878634
0003d0 7a ff 44 3e b3 10 60 3c 89 39 a6 3d 19 98 f8 3d
       0.19238082 0.013675856 0.08116443 0.12138385
0003e0 32 fe 8c bd 2d 7f 01 3e 73 5d 31 be 35 ab 7c be
       -0.068844214 0.1264617 -0.17320804 -0.24674685
0003f0 7d 70 7e be 2e 5c 41 bc f2 4c 39 be 69 e6 2f 3e
       -0.24847598 -0.0118017625 -0.18095759 0.17177738

bn3.weight f4 [16]
000000 a5 81 7f 3f fe 73 7f 3f 06 08 80 3f 63 08 80 3f
       0.99807197 0.99786365 1.0002449 1.000256
000010 41 0c 80 3f 3f 08 80 3f 6b 07 80 3f f6 4a 7f 3f
       1.000374 1.0002517 1.0002264 0.99723756
000020 21 6a 7f 3f d4 05 80 3f 12 e2 7f 3f 7f 0e 80 3f
       0.99771315 1.0001779 0.9995433 1.0004424
000030 24 ea 7f 3f 2c f4 7f 3f 2a d8 7f 3f a0 df 7f 3f
       0.99966645 0.9998195 0.99939215 0.999506

bn3.bias f4 [16]
000000 c6 4d 8d 39 e2 e2 b1 b9 75 78 23 3a 69 f7 d2 39
       0.0002695156 -0.00033929112 0.0006235906 0.00040238656
000010 b7 b4 12 3a c8 05 cd 39 d3 79 80 39 7d f3 25 ba
       0.00055963866 0.00039104954 0.0002450483 -0.0006330533
000020 cd db 07 39 fe 03 01 3a d8 9b ff b9 08 fe 45 3a
       0.00012956485 0.00049215544 -0.00048753503 0.0007552807
000030 9b 28 a8 b9 c4 20 86 39 0c 9f ca b9 32 7b c1 b9
       -0.0003207371 0.00025582884 -0.00038646942 -0.00036903616

bn3.running_mean f4 [16]
000000 b9 7a dc 3a 08 f3 7f bc 3f 7e 8e 3c 08 85 66 bc
       0.0016821242 -0.015621908 0.017394183 -0.014069803
000010 e5 62 d5 ba 3c ab 2b bb 6d ab 92 bc 91 dc a2 3b
       -0.0016280083 -0.0026194593 -0.017904008 0.004970141
000020 99 8e 05 3a a9 28 44 bc 21 f0 ff b9 3e 5c 9c bc
       0.0005094796 -0.011972585 -0.000488163 -0.019086953
000030 f1 f0 ed 3a 17 05 3a bc 76 ae a1 3c ae 60 16 bb
       0.0018153471 -0.011353753 0.01973651 -0.002294581

bn3.running_var f4 [16]
000000 5a e1 43 3f 2e 64 42 3f cf 10 43 3f 20 7e 40 3f
       0.76515734 0.7593411 0.7619752 0.7519245
000010 d4 ad 40 3f 1f 8c 3e 3f fa 88 43 3f 78 64 40 3f
       0.7526524 0.7443256 0.76380885 0.75153303
000020 a3 f1 42 3f ec c4 40 3f b0 b6 40 3f 26 e3 40 3f
       0.7614996 0.7530048 0.7527876 0.753466
000030 9c 4b 41 3f 60 95 3f 3f ea 6b 42 3f c9 f6 43 3f
       0.75505996 0.74837303 0.75945914 0.7654844

classifier.weight f4 [2, 16]
000000 dd 61 d1 bd 5b 54 7f 3e c4 82 68 be c4 b9 7c be
       -0.10223744 0.24934523 -0.22706133 -0.24680239
000010 66 6d 95 3a 26 18 b7 bd 4b 01 02 be a3 df 12 be
       0.0011400401 -0.08940153 -0.12695806 -0.14343123
000020 35 b2 9b bd dd 96 e7 bd 4d 7c 14 bd 87 b6 cc 3c
       -0.0760235 -0.11308072 -0.036251355 0.02498938
000030 76 8b b5 3d 73 c6 07 3e 7e 70 52 3b 77 d0 d8 bd
       0.08864491 0.13259296 0.0032110508 -0.105866365
000040 47 d1 80 3a 7d 64 79 3e cf 79 4e be 29 b9 0b be
       0.0009827995 0.2435474 -0.20163654 -0.13644852
000050 b0 ae 03 3e fa 36 ed bb 4a ea 09 3e 2b 20 16 be
       0.12859607 -0.0072392197 0.1346828 -0.14660709
000060 a5 86 6c bd f6 56 88 bd f5 8d ff bd 57 5e 94 3d
       -0.057745595 -0.066572115 -0.12478248 0.072445564
000070 ae 4d 49 be 46 1a 15 3e a3 bb 03 be 0c 32 3d be
       -0.19658539 0.14560804 -0.12864546 -0.18476123

classifier.bias f4 [2]
000000 4b 32 a0 3c 27 52 ba 3d
       0.019555232 0.090977006
