notebooks/outputs/temp_B02_fold1_last.pth (torch, 12776 bytes, 18 tensors)

conv_temporal.weight f4 [8, 1, 1, 64]
000000 eb a6 81 3d cb d3 6e bb fa 7a a7 3b a4 11 ed bd
       0.06330665 -0.0036442156 0.0051110955 -0.1157563
000010 80 50 32 be 2f 03 89 ba 6d 22 bd bd b7 fb 3f 3d
       -0.17413521 -0.0010453219 -0.09235082 0.046870913
000020 04 f0 6d bd be 8b b4 3b 68 73 90 bd 5c 1e 55 bd
       -0.058090225 0.0055098226 -0.07053262 -0.052030906
000030 eb 22 06 bc 74 15 ac bd 6a 08 bd 3d 52 a9 b0 3c
       -0.008187036 -0.08402529 0.092301205 0.021565113
000040 c8 38 b6 3d 5d 48 02 3d 90 b4 28 39 6e da 8a bd
       0.08897549 0.031807292 0.00016088993 -0.067799434
000050 0b 49 3d 3d 76 97 ad 3c 12 51 51 3d 24 6c 7f bd
       0.046212237 0.021190386 0.051102705 -0.06235899
000060 05 65 c9 3d e3 6e a5 ba d3 f2 da 3d 08 57 69 3d
       0.09833721 -0.0012621548 0.10690846 0.056967765
000070 1f 4b a1 bd 3c b0 08 bd 42 5f 14 bd cd 28 9a bd
       -0.07875656 -0.033371195 -0.036223657 -0.075273134
000080 c7 59 25 3d 3b db 6e 3c e9 b6 f8 3d a2 9b f5 3b
       0.04036882 0.014578636 0.12144262 0.0074953595
000090 10 d4 85 3d 35 56 77 3d af 9d 62 3d df a0 90 bd
       0.06534588 0.060384948 0.05532616 -0.07061934
0000a0 ed 9f 01 3e 4e 1f 8f 3d 98 1e 97 3d 37 eb 58 bc
       0.12658663 0.06988393 0.07378882 -0.013239673
0000b0 4c f4 3c bc b8 2b 0b 3e 10 84 e6 3d e9 4b ff 3d
       -0.011532854 0.13590896 0.11255658 0.124656506
0000c0 71 8d 2a bd 6c 05 31 3c 0f fe 96 bc 4f 6e cc bc
       -0.041638795 0.010804515 -0.018431691 -0.024954943
0000d0 99 d2 d4 3d b5 b5 0d 3d 2f f6 d0 bc f7 bc 99 bb
       0.10391731 0.034597117 -0.025508014 -0.004691716
0000e0 75 37 60 bd ee 38 99 bc aa 3b f7 bd c3 a1 35 3c
       -0.054740388 -0.018703904 -0.12071927 0.01108593
0000f0 f7 73 ac 3d 93 18 c8 3d 60 bc 82 3d 07 61 89 bd
       0.08420556 0.09770312 0.06383586 -0.067079596
000100 2f 56 0e be a1 13 94 3d dc c1 64 3c 25 db 65 3d
       -0.13900064 0.072303064 0.013962235 0.056117196
000110 5b 38 ff 3d b6 47 61 3d 8c e4 aa bd f3 81 d6 3d
       0.12461921 0.05500003 -0.08344373 0.104740046
000120 45 cc 16 bd 04 83 be bc 9c 7a b9 3d c3 9b f8 ba
       -0.0368159 -0.023255832 0.09056589 -0.0018967319
000130 6a 08 8a 3c 28 75 02 3d e3 e4 8b 3d 01 69 84 bc
       0.016849715 0.03185001 0.06830766 -0.016163351
000140 d3 97 cf 3d 3b 72 2f bd 84 e8 89 bc e9 42 0d 3c
       0.1013638 -0.042833548 -0.016834505 0.00862191
000150 11 52 0c bd d4 89 0b bb c5 55 e3 3b 59 56 52 bc
       -0.034257952 -0.0021291869 0.0069377148 -0.01283797
000160 a7 c8 15 3e a6 f5 cd 3c fa a8 14 3e 17 d5 0e 3e
       0.14627324 0.025141548 0.14517584 0.13948475
000170 c2 ff 50 3d bd 63 b2 3d fb 09 8f bd 16 f4 c5 3c
       0.05102516 0.0871043 -0.069843255 0.02416424
000180 88 ee 0a 3e 3c 8a 30 bc f8 01 b4 bd 66 a1 fe bc
       0.13567555 -0.010775145 -0.08789438 -0.03108282
000190 fa 0e a5 bd 39 01 ee bd cc 2d fe 3c c9 fb cf 3b
       -0.08059497 -0.11621327 0.031027697 0.006347154
0001a0 b4 e4 5e 3c da 51 f8 bd 6f 1f fa bb 04 c4 ea 3d
       0.013604332 -0.12124987 -0.0076331417 0.11463168
0001b0 2e 62 88 3c 71 08 ea 3d 6d 3c 11 bd 1b ce f2 3b
       0.016648378 0.11427391 -0.035458017 0.0074098236
0001c0 c9 19 78 3d ee f5 c2 b8 52 16 62 3d 45 77 a0 3d
       0.060571466 -9.296449e-05 0.055197068 0.07835249
0001d0 f3 d7 f8 3c d2 0e 94 bb 67 96 08 3d 5a 6e 70 3d
       0.03037641 -0.0045183683 0.03334656 0.05869899
0001e0 7b 37 0e be 2b f6 82 3d 70 b5 76 3d 2d 6b 2f 3d
       -0.13888352 0.06394609 0.060231626 0.04282682
0001f0 14 74 b2 bd 6e dd bb 3d f4 bc 0e 3d 1b c4 58 3d
       -0.087135464 0.09173094 0.03484817 0.052921396
000200 e4 d3 ed bd 28 51 c8 3d 9e bf fd bd 4c e3 e1 3c
       -0.116126806 0.09781104 -0.12390064 0.027574204
000210 40 29 ce 3d 44 d7 75 3d 8c 82 9f bc 1a c8 f7 3b
       0.100664616 0.060019746 -0.01947143 0.0075616958
000220 a7 d0 e1 bc 22 a6 dd 38 91 18 34 3c fe a7 fb 3d
       -0.027565314 0.00010569046 0.010992185 0.12287901
000230 d7 55 cd 3d 0e b7 01 bd eb cb 07 3d 9c ae cd 3c
       0.10026138 -0.031668715 0.033153456 0.025107674
000240 8b 51 c0 bb 91 81 09 3e 5d 53 03 bd 8f f8 76 3d
       -0.0058690957 0.13428332 -0.032061923 0.060295638
000250 d5 08 17 3d d2 86 77 bc 2c 60 4e 3c 96 6f a9 3d
       0.036873657 -0.015107827 0.012596171 0.082732365
000260 6a a2 85 3d 3f e4 52 3c a1 bc 91 3d cf 56 ac 3d
       0.06525119 0.012871801 0.07116056 0.08414995
000270 c7 8d 90 bc eb 20 4e bd f8 ca f1 3d 35 5a 3b 3d
       -0.01764573 -0.05032436 0.11806291 0.045740325
000280 13 7d 08 3e 76 45 42 3d 1c a6 3b 3c ca 0e 37 3d
       0.13328962 0.047429524 0.011453178 0.04469184
000290 fb 00 e9 3d ff 1d 8f 3c ea 14 11 3e d6 ef 80 3d
       0.1137714 0.017470358 0.14168134 0.06295745
0002a0 84 2c e6 3d 21 1b cf bd 9c 0b 9e 3d ce 97 c1 3c
       0.112389594 -0.10112596 0.07717058 0.023631956
0002b0 87 0b 7a 3d 33 34 ce 3d 14 08 33 bc ee 08 08 3d
       0.06104615 0.1006855 -0.010927219 0.03321164
0002c0 97 da b4 bc 39 2c 4c 3d db d6 0d 3d fe a7 8d 3b
       -0.022076888 0.04984686 0.03462873 0.0043230047
0002d0 88 ba df bc 08 d5 f1 3d a6 4e ef 3d 6e af 84 bd
       -0.027310625 0.118082106 0.11684923 -0.06478773
0002e0 dc 2a 5c bd 0a 52 56 3b 82 8f 61 3d ed fd 21 3d
       -0.05375181 0.0032702708 0.0550685 0.039548803
0002f0 a1 6b 0d 3e 75 2f 37 bc 05 ab 58 bd 77 6c 26 3d
       0.13810588 -0.011180748 -0.052897472 0.040630784
000300 3f c6 b2 bd 32 15 d3 3c 7e 93 a3 bd d2 a6 af bd
       -0.08729219 0.025766943 -0.07987116 -0.0857674
000310 22 37 88 bc d3 b4 e8 bd 05 b0 ae 3d 36 76 30 3a
       -0.016627852 -0.113626145 0.08529667 0.0006731482
000320 9d f8 8a 3d 37 91 a9 3d ce 0e 47 bc 6b fd ef 3a
       0.067857005 0.08279651 -0.012149526 0.0018309777
000330 82 87 aa 3c b1 89 ce bc 37 ad cc 3d 94 09 77 bd
       0.020816568 -0.02521214 0.099939756 -0.06031187
000340 a8 9c e0 3d 6d 80 3b 3d 09 e1 03 bd 76 2e 0e 3d
       0.1096738 0.045776773 -0.032197032 0.034712277
000350 8f 87 ff bc 36 aa 28 3d 06 4c 02 be 46 7e 11 be
       -0.031192569 0.04117795 -0.12724313 -0.14208326
000360 c1 15 bc bd bd 99 46 3d 5f a2 56 3d 7d ab 2f bd
       -0.09183837 0.04848646 0.052400943 -0.042888153
000370 b7 01 1a bc 82 5a da 3d b4 aa 85 bd ea 43 ee 3d
       -0.009399823 0.10661794 -0.065267 0.11634047
000380 c6 3b 9d 3d b7 4d ba 3d 86 85 86 bd a4 5b 49 3d
       0.076774165 0.09096854 -0.06568436 0.04915966
000390 9a 0c 26 3d e2 44 c5 3d 69 d6 a7 3d 5e 5e 2f bd
       0.04053936 0.09632279 0.08195192 -0.042814605
0003a0 c5 cb 9c 3d 7f 7a 17 be e9 db 29 bd b9 ce 2b bd
       0.076560535 -0.14792822 -0.04146949 -0.041945193
0003b0 1b 6b 19 be 34 bf 8a 3c 79 e0 a4 3d da 7e 42 bd
       -0.14982264 0.016936876 0.08050627 -0.047484256
0003c0 d0 37 77 bd 48 f5 6b 3d b2 67 13 3e 8a 1f 13 bd
       -0.06035596 0.057606965 0.14395025 -0.03591875
0003d0 88 0f 5e bd 92 d9 04 3d b7 8e a6 3d 71 94 bf 3d
       -0.05421403 0.032434054 0.081326894 0.09354485
0003e0 bb 47 c8 3d ff dd ac 3d 00 44 94 3d 71 46 da bd
       0.097793065 0.0844078 0.072395325 -0.10657967
0003f0 b2 a1 01 3e ab 76 15 bd 3a 4c f4 bd 9b 7f ec bd
       0.12659338 -0.036490124 -0.119286016 -0.11547776

bn1.weight f4 [8]
000000 0d c3 35 3f e7 c1 35 3f 9f cb 35 3f ab d0 35 3f
       0.7100075 0.70998996 0.71013826 0.7102153
000010 17 c8 35 3f 66 bf 35 3f 35 b4 35 3f e4 c7 35 3f
       0.7100844 0.70995176 0.709781 0.71008134

bn1.bias f4 [8]
000000 9b 43 fd 36 41 7a 08 36 91 68 17 b8 1a 3f 9a 38
       7.547858e-06 2.033674e-06 -3.609859e-05 7.355046e-05
000010 c8 91 98 b7 16 1f 95 37 98 7a 88 37 c1 d9 da 35
       -1.8187697e-05 1.777666e-05 1.626955e-05 1.630564e-06

bn1.running_mean f4 [8]
000000 89 50 e3 b8 8f f3 a0 b9 1d 13 a9 b9 92 2f a5 38
       -0.00010839204 -0.00030699043 -0.00032248432 7.876674e-05
000010 b0 20 0e 39 84 14 f4 b9 19 d4 c0 39 bf 88 b7 38
       0.00013554352 -0.00046554592 0.0003677912 8.751591e-05

bn1.running_var f4 [8]
000000 75 f9 fb 3e 3e d0 c2 3e 22 e0 2f 3e 23 6e 0c 3f
       0.49213758 0.380495 0.17175344 0.54855555
000010 28 8e 49 3f 73 b5 d2 3e de c0 b4 3e b3 6d ae 3d
       0.7873254 0.4115406 0.35303396 0.08517017

conv_spatial.weight f4 [16, 1, 3, 1]
000000 e6 9a 3b 3d 13 01 a5 3e 66 a7 49 3e 77 04 53 be
       0.04580202 0.32227382 0.19692764 -0.20607172
000010 85 ce 1b bd a0 45 c6 be 85 ef 92 be 5b ab 03 3f
       -0.03803875 -0.38724995 -0.28698364 0.5143334
000020 ad c2 f2 3e d9 fa e1 be 80 38 88 be 9a 13 83 3e
       0.4741415 -0.44136694 -0.26605606 0.25600892
000030 d5 2d 11 bf 2a ec fc b8 89 25 c5 be 5c 8f c2 be
       -0.5671056 -0.000120602854 -0.385052 -0.38
000040 51 6a 1f be a4 73 fa bc 74 d5 22 be 49 5c bd be
       -0.155679 -0.03057272 -0.15901738 -0.3698447
000050 fa 80 81 3e 82 84 93 bd 9a 57 1d bf f9 4e 95 3e
       0.25293714 -0.07203008 -0.61461794 0.29161814
000060 d0 d6 8e 3e 9a d2 42 be 39 c2 a6 3d 9c b3 9a 3d
       0.27898264 -0.1902565 0.08142514 0.07553789
000070 52 6a ba bd 01 eb c5 bd 4a a6 d4 be f1 75 94 3e
       -0.0910231 -0.09663964 -0.41533118 0.28996232
000080 f0 61 2c bd de 95 a0 3e 26 8a 8f 3b 1a b3 59 be
       -0.042085588 0.3136434 0.0043804822 -0.21259728
000090 f5 e1 9c be ce d0 e1 3d 92 73 79 3e 19 5f 18 3f
       -0.30641142 0.110261545 0.24360493 0.5952011
0000a0 0b aa c7 3e 9b e6 d7 3e c8 37 f2 be d3 58 88 3d
       0.3899692 0.42168126 -0.47308183 0.06657567
0000b0 5d f5 f7 3e 34 5e 5f 3e 2f 49 96 3e dd 8c 07 3f
       0.48429385 0.2181328 0.2935271 0.52949315

bn2.weight f4 [16]
000000 f8 c8 73 3f fd fa 6b 3f 15 34 5a 3f c9 09 5c 3f
       0.9522853 0.9217985 0.8523572 0.8595243
000010 0d d3 8d 3f 18 dd 84 3f 39 12 65 3f 26 95 8e 3f
       1.1080033 1.0379972 0.8948093 1.1139266
000020 c1 c2 87 3f 82 c1 58 3f f7 04 74 3f d6 5f 56 3f
       1.0606309 0.8467027 0.95320076 0.83739984
000030 6e 5a 6a 3f a8 45 81 3f 20 ba 87 3f ec 9b 71 3f
       0.91544235 1.0099382 1.0603676 0.9437854

bn2.bias f4 [16]
000000 80 c6 94 bd 38 ae 8d bc 94 4b 66 bd 43 f9 89 bd
       -0.07264423 -0.017294988 -0.05622442 -0.06736996
000010 82 04 94 bd 40 4f b5 bd 72 d2 1d bd 39 ed 2b be
       -0.07227422 -0.08853006 -0.038530774 -0.16789712
000020 f4 cb fb bd 56 44 81 bd 89 a3 0a be 13 27 6e bd
       -0.1229476 -0.06311862 -0.13538946 -0.058142733
000030 1f 8e 9f bd be 70 f9 bd 75 ec 1c bd de 49 86 bd
       -0.07790779 -0.12179707 -0.03831144 -0.06557058

bn2.running_mean f4 [16]
000000 20 c3 9b 37 89 04 6e b5 1c 82 af 37 ee 09 54 b8
       1.8568302e-05 -8.866851e-07 2.0922213e-05 -5.0553987e-05
000010 e0 3b 24 39 fe b4 10 38 53 4f a6 38 3f f3 ef 38
       0.00015662564 3.4500838e-05 7.930272e-05 0.00011441716
000020 28 bb 3a 38 26 59 54 b6 b0 a9 cc 38 8e 94 f8 37
       4.452016e-05 -3.1642353e-06 9.759085e-05 2.963308e-05
000030 38 61 70 b8 eb 57 19 38 17 69 af 35 3d 69 bd 37
       -5.7311e-05 3.6559923e-05 1.3069101e-06 2.2579561e-05

bn2.running_var f4 [16]
000000 11 61 09 3e ed 3f 36 3e 07 3e 64 3e 57 7b 01 3e
       0.13415934 0.17797823 0.22289287 0.12644707
000010 6f 3f d0 3e 98 34 17 3e e2 f5 8d 3d a3 25 10 3e
       0.40673396 0.14766157 0.06931664 0.14076857
000020 9e 19 db 3c 67 24 ae 3b 7c ee 27 3d da 79 c5 3c
       0.026745614 0.005314398 0.04099892 0.024105955
000030 2b 9c 6f 3c 46 01 5d 3f cf e0 93 3d 5e 93 d9 3e
       0.014624636 0.8633007 0.07220613 0.42495245

conv_separable_depth.weight f4 [16, 1, 1, 16]
000000 90 4d 03 bd ea 11 1c 3e e1 9b 26 3e 32 45 db 3c
       -0.03205639 0.15241209 0.162704 0.026766393
000010 dd 4d 03 be 67 af 45 3d fc d4 33 3e 5d be f9 3c
       -0.12822671 0.04826298 0.17561716 0.03048628
000020 eb 7d 9a 3d c2 d0 5c 3d 8e c4 1e 3e 15 b6 06 3e
       0.07543548 0.053910024 0.15504667 0.13155396
000030 6a 69 3f bd 6d a6 a0 3c 7d 1b d6 bd 53 9d 9e 3c
       -0.04673139 0.019610608 -0.10454462 0.019362127
000040 36 b8 53 be 9a db 81 3d be 34 f7 3d 67 ed 64 be
       -0.2067574 0.06340714 0.12070607 -0.22356187
000050 6f 2e ed bc 97 b4 f8 bd 6a 8a 11 be c6 22 74 3d
       -0.028952805 -0.1214382 -0.14212957 0.059603475
000060 98 25 c5 3c 6b 6d d3 bd 61 13 12 3e a1 4b 6d 3d
       0.024065778 -0.10323604 0.14265205 0.057933453
000070 ce 06 02 be 0c 0e ca bc ad 62 0f be ca 82 4a be
       -0.12697908 -0.024664901 -0.14002486 -0.19776455
000080 38 dc 80 3e 3b 05 f0 b9 a1 e8 b2 bb 7d 97 97 bb
       0.25168014 -0.00045780264 -0.0054598604 -0.004626213
000090 ab 5b 4f bc 0b d1 1d be 8c 79 ec 3c a6 fa 4d bd
       -0.012656133 -0.15411775 0.028866552 -0.050287865
0000a0 ee 8a 00 3e 6b 9b c9 3c 95 97 44 be 9c b8 e0 bd
       0.12552997 0.024610242 -0.19198449 -0.109727114
0000b0 81 8c 16 be 6a 21 c5 3b 41 76 f5 3d 64 95 9c 3d
       -0.14702035 0.006015946 0.11985446 0.076456815
0000c0 de a2 1e 3d 17 76 0f 3e 02 55 b1 bb 91 d4 65 3e
       0.03872954 0.14009891 -0.005411745 0.22444369
0000d0 3d b3 04 be f8 a8 e7 bc 6b 9b bb 3b 53 08 17 be
       -0.12958999 -0.028278813 0.0057253144 -0.14749269
0000e0 95 d2 45 3d 3e b6 f4 3d df 99 15 3d 08 e2 a4 3b
       0.04829653 0.119488224 0.036523696 0.005031828
0000f0 88 c2 35 3e db a7 91 bd 68 24 53 bd e1 39 01 3d
       0.17749989 -0.07112094 -0.05154839 0.03154934
000100 b8 f1 62 bd 42 38 c4 bd d6 fb 69 3d 92 22 80 3e
       -0.055406302 -0.09581043 0.057124935 0.25026375
000110 e7 d2 98 bc 6d af 3b 3e e9 f7 d6 3d 46 5d aa 3e
       -0.018655254 0.18328638 0.10496504 0.33274287
000120 26 37 6c 3e 71 93 df bc 48 be 02 be c7 55 69 3e
       0.23067912 -0.027291985 -0.12767899 0.22786628
000130 79 13 f8 bd 6a 25 57 bd b7 fb a5 3e 99 68 2a 3e
       -0.12113089 -0.052525915 0.32418606 0.16641463
000140 0a dd 04 bd 96 b4 46 be 4c 35 c4 bd 65 ea 0b bd
       -0.03243736 -0.19404826 -0.09580478 -0.034159083
000150 2f 9f 92 3d 88 17 1a be 7c 6e d1 bd a4 05 1a bd
       0.07159268 -0.15048039 -0.10226151 -0.037603036
000160 3b 83 8a be 12 0b f8 bd be 44 7a be bf 62 04 be
       -0.27053246 -0.121114865 -0.24440286 -0.12928294
000170 61 bf 20 be ae 5a 89 3d 8d ed 2c be b2 03 77 be
       -0.15698005 0.06706749 -0.16887493 -0.24122503
000180 5d 6c 80 bd 3b 16 da bd b3 bc df bd 71 19 89 bd
       -0.06270669 -0.106487714 -0.109246634 -0.06694306
000190 82 cc 27 3d db 2f 60 be 9c b8 4e be e2 93 bf bc
       0.04096652 -0.21893255 -0.2018761 -0.023385946
0001a0 a2 9b 93 3d b5 10 02 3c 6a 37 37 3e 5c 18 86 3d
       0.07207419 0.007938554 0.17892233 0.06547615
0001b0 7f a9 2b be ce 9b d7 3d a0 b5 d3 bd 3f 1e 02 3e
       -0.16763876 0.10527764 -0.103373766 0.1270685
0001c0 ee 6f 38 be 2a 35 a3 3d e0 31 06 be 5a a7 05 be
       -0.18011448 0.079691246 -0.13104963 -0.13052121
0001d0 28 a6 8a be 9a 54 bc 3d a1 35 79 be 02 b6 40 be
       -0.27079892 0.09195824 -0.24336864 -0.1881943
0001e0 4d 45 57 be 15 05 9c be c7 27 66 be 71 1c 66 3d
       -0.2102253 -0.30472627 -0.22476111 0.056179468
0001f0 47 2f 1e 3d 7f fc 0f bd e1 f6 2b be a1 6c c1 bd
       0.038619306 -0.03515291 -0.16793396 -0.094445474
000200 c2 8f 83 3c 77 bd f3 bd e4 72 4c 3e 8e 2c 1d 3e
       0.01605976 -0.11901372 0.19965702 0.15349028
000210 df cd 60 3e 1c 86 25 be 61 64 bc 3d ca 5e 42 3e
       0.21953534 -0.1616444 0.09198833 0.18981472
000220 5f 10 6b 3d 2a 6b 2d 3e 7d d2 34 3e b5 df 74 bd
       0.05738866 0.16935411 0.1765842 -0.059783656
000230 62 21 52 3e f8 5e c8 3d 28 74 fe 3c 1f 4d 1e 3e
       0.20520547 0.09783739 0.031061247 0.15459107
000240 92 65 2a 3e c9 5b 13 3d 5e 71 d6 3d 8a 45 0e be
       0.16640308 0.035976205 0.10470842 -0.13893715
000250 36 46 c5 bd 07 d6 03 bd e9 f2 f6 3d 5b 5a c9 3d
       -0.09632532 -0.032186534 0.1205805 0.09831687
000260 11 89 b1 bd 72 f5 17 bd ab 7f 03 bd d3 a1 e1 bd
       -0.086687215 -0.03709931 -0.032104176 -0.11017194
000270 c2 47 25 3e a9 c0 a4 3d 8a 25 cb 3d 9e 91 d7 bd
       0.16140655 0.080445595 0.099192694 -0.10525821
000280 3b c5 f3 3b ee 84 11 be ca 59 5b 3e ec 5a 8d bc
       0.007439283 -0.14210865 0.2142097 -0.017255269
000290 64 5b 3d 3d c8 3c 82 bd bd 7a f8 3d d5 a7 3b 3e
       0.046229735 -0.06359249 0.121327855 0.18325742
0002a0 9f 1f 3e be 7c 09 41 3e d9 d4 52 3d 30 1a fa 3d
       -0.1856675 0.18851274 0.05147252 0.12212026
0002b0 86 f1 20 be 03 06 c8 3d 72 bd 86 3e 47 09 48 3e
       -0.15717134 0.09766772 0.2631641 0.19534789
0002c0 24 b5 b8 bd 5d 7c ac 3c 82 7b 1f be 52 0e b0 3d
       -0.09018925 0.021055395 -0.15574458 0.085964814
0002d0 3f 10 cd 3d 9f 15 dd 3d bb f7 3a be 5c d8 fd 3d
       0.10012864 0.107951395 -0.18258564 0.12394783
0002e0 ce 77 ab 3c e4 f1 ee bd 42 ff 1f bd b1 68 65 3e
       0.02093115 -0.11667231 -0.039061792 0.22403218
0002f0 ff 88 fd bd 41 77 30 3e 0f 7a 6d 3e 49 fb 26 be
       -0.123796456 0.17232992 0.23191093 -0.16306795
000300 df 9f 51 be aa ba 44 be d8 19 e1 bc 37 e0 52 be
       -0.20471142 -0.19211832 -0.027478144 -0.20593344
000310 0d 4d 26 3e 3a f8 24 3e e8 dc cf bc e8 5d fa 3d
       0.1624033 0.16110316 -0.025373891 0.122249424
000320 6e ec 34 3e d0 21 9c 3d 10 d2 e8 bd c0 bb b9 bc
       0.17668316 0.07623637 -0.11368191 -0.022672534
000330 00 e7 44 3e b8 92 11 ba 10 5e 9a 3d d4 64 c3 3c
       0.19228745 -0.0005553174 0.07537472 0.02385179
000340 19 8e 94 bd 8a e6 71 bd 11 91 1e be 8f 00 00 be
       -0.072536655 -0.05905775 -0.15485026 -0.12500213
000350 c6 66 1f 3e ee 28 e2 bd 2a 5d 94 bd 97 a3 14 3e
       0.15566549 -0.11042963 -0.07244332 0.1451553
000360 c2 47 22 3d 38 02 41 be 2c fb dc bd 7e f2 02 be
       0.039619215 -0.18848503 -0.10790095 -0.12787816
000370 73 fd 27 be 7a 1e 69 be d0 c9 a3 3d 32 b9 1a 3e
       -0.16405277 -0.22765532 0.07997477 0.15109709
000380 90 d8 fe bd cd 4c 8c 3e 8d f4 44 3e 43 94 83 3e
       -0.1244365 0.27402344 0.19233914 0.25699052
000390 7d 26 e2 bd c5 94 13 3e 3c 7c 65 3e 0e 6d 33 3e
       -0.11042497 0.1441222 0.22410673 0.1752207
0003a0 4d b0 5a bc dc 21 51 3e 09 2b 2c 3e 3a e8 92 bd
       -0.013347697 0.20423073 0.16813292 -0.071732
0003b0 60 46 31 3e 6f 91 77 bd cc be 4f 3e fc 5f 49 bd
       0.17312002 -0.06044143 0.20287627 -0.049163803
0003c0 93 f3 e3 bd 62 ca eb 3d f4 b9 c3 bd 8c 9d 3e bd
       -0.111304425 0.11513211 -0.09556952 -0.046536967
0003d0 ac 26 29 3e 23 30 56 3e d3 0e b6 3d cf 07 4e 3e
       0.16518658 0.209168 0.08889546 0.20120166
0003e0 15 d7 cc 3d fc 02 1e bd cd 9a 71 bd ca 22 91 bc
       0.10001961 -0.038577065 -0.05898552 -0.017716784
0003f0 3f a6 64 3d c2 af e2 3c ed 8e ba 3d a4 7d f3 3d
       0.055822607 0.027671698 0.09109292 0.118891984

conv_separable_point.weight f4 [16, 16, 1, 1]
000000 02 5e 06 be 0a a2 35 be c1 f9 22 3e 53 a5 e3 bd
       -0.13121799 -0.17737594 0.15915586 -0.111155175
000010 6c 6f 58 3e 51 b4 f7 3d 3a 40 07 be cc 4f b0 3d
       0.21136254 0.120949395 -0.13208094 0.0860897
000020 9c f1 35 bc b2 cf f3 bd 7f 8b a8 bd f0 59 e4 bd
       -0.011104967 -0.11904849 -0.08229732 -0.11149967
000030 3b 8c 6e be 7a 4f 0b be bb b3 95 3e ed 00 74 3e
       -0.23295681 -0.13604537 0.29238686 0.23828478
000040 89 cc 42 be 74 a8 91 3c 89 97 c5 bd 56 32 08 3e
       -0.19023336 0.01778052 -0.09648044 0.13300452
000050 89 13 15 be 96 b5 25 3d 03 ef 75 bd 87 18 5c be
       -0.14558233 0.040456377 -0.060042392 -0.21493731
000060 38 ba 6e 3e 8c bd 14 be ff 63 9e bd 01 a2 c3 bd
       0.23313224 -0.14525431 -0.077339165 -0.09552384
000070 2d c4 b1 bd f5 36 ff 3d 97 46 ff bc c6 d6 51 bd
       -0.08679996 0.12461654 -0.03116159 -0.051230215
000080 3b b4 45 3e 42 8a ba 3d 43 5d 82 3d 21 6f 47 3c
       0.19307034 0.09108402 0.063654445 0.012172491
000090 4c 7e aa 3b 77 3c ab be 8c 6a a6 3d 6b d1 3d 3e
       0.005203044 -0.3344457 0.08125791 0.18536918
0000a0 18 a3 a8 3d 5b 3f f3 bb 5e 36 1d bd d7 d6 27 3e
       0.08234233 -0.007423324 -0.038381927 0.16390549
0000b0 0d 34 59 be 94 42 cb 3d 9b 11 9a 3e 42 d8 37 3e
       -0.21211262 0.09924808 0.30091557 0.1795359
0000c0 4b f7 c5 3c 03 b1 a0 3d be 53 c6 3d 02 66 b9 bd
       0.02416577 0.07846262 0.09683941 -0.090526596
0000d0 d8 19 a3 bd aa b0 5f bd 74 25 ea 3c ec d9 2f be
       -0.07963914 -0.05461184 0.028582312 -0.17172974
0000e0 5f db 76 3e 7d f2 0e 3d 83 f7 39 3e bb 49 14 be
       0.24107121 0.034899224 0.18160824 -0.14481251
0000f0 4f bf 2d bd 5b 26 3f 3e 8e 1f df 3c 56 78 80 be
       -0.042418774 0.18666975 0.027236726 -0.2509181
000100 db b3 a5 bd 9d e3 14 3e 95 18 f4 3d ce 6f a6 3d
       -0.08090945 0.14539953 0.11918751 0.08126794
000110 43 6d b4 bd 1f 07 61 3e dc 53 36 3d 6b 6d 9c bd
       -0.088099025 0.21975373 0.04451357 -0.07638057
000120 30 b9 1b 3e 21 df d4 bd 08 f2 d9 bd 75 52 09 3e
       0.15207362 -0.10394121 -0.10641867 0.13410361
000130 b5 39 e2 bd 03 af ba bd ce c3 40 be 51 dd 1d 3e
       -0.11046163 -0.09115412 -0.18824694 0.15416457
000140 5a 15 a6 3d 6e cc 6e 3d 99 38 21 3e 23 96 57 be
       0.08109541 0.058300428 0.15744247 -0.21053366
000150 11 a7 28 be c5 ed 26 bc 52 54 4f 3e af 91 31 3e
       -0.16469981 -0.010188525 0.2024701 0.1734073
000160 45 e4 6e bd 74 6e 74 3e 23 65 ef bd a6 df 10 3e
       -0.058323164 0.2387026 -0.11689212 0.14147815
000170 51 e9 80 3e b6 4b 23 be 96 8c a8 3d f8 55 6d 3e
       0.25178006 -0.1594685 0.0822994 0.23177326
000180 c4 e5 66 3e 01 df c1 bd 9f 16 13 3e 92 97 23 be
       0.22548586 -0.09466363 0.14364098 -0.15975788
000190 90 43 7e 3d 2f 7c 6e bd f9 d4 aa 3d 00 e3 15 3e
       0.06207615 -0.0582239 0.083414026 0.14637375
0001a0 91 c7 f7 bc fb d7 15 3e 4e 7c 95 3d 63 6d c7 3d
       -0.030246528 0.14633171 0.072991 0.09737661
0001b0 34 98 40 3e cb d5 4c 3e d5 a7 83 3e 72 30 9d 3d
       0.18808061 0.2000343 0.25713983 0.07675256
0001c0 08 92 39 be 39 d8 04 3e 16 f5 6e bc fc 73 33 3e
       -0.18122113 0.12973107 -0.0145848 0.17524713
0001d0 bd 12 c2 bd b8 f9 a7 3d 18 05 67 be 43 e2 41 be
       -0.0947623 0.08201927 -0.22560537 -0.18933968
0001e0 a3 d2 5a 3e de e9 cb bd 2c 05 3d bd d9 2e 3b 3c
       0.21369414 -0.09956716 -0.04614751 0.011424744
0001f0 66 2f 1c bd 01 12 10 3e 7a 07 f1 bd 66 7f 36 3c
       -0.03813114 0.14069368 -0.11769004 0.011138773
000200 be bd 04 be 74 48 8b 3d 67 4e e4 3d 50 ad ad bd
       -0.12963006 0.06800929 0.111477666 -0.08480322
000210 5b f3 a3 3e 3e 5c f8 3d 4f 03 0a be 8e be e3 bd
       0.32021603 0.12126969 -0.13477825 -0.1112033
000220 43 26 80 3d 33 49 6f be ef 1e 5d 3c b3 bd 36 3d
       0.06257298 -0.23367767 0.013496145 0.044614505
000230 ab cb d7 3d 36 84 e2 3d 1f 45 ee bd e4 b3 95 3c
       0.105368935 0.110603735 -0.116342776 0.018274255
000240 51 29 ed bd 00 90 c3 3d c9 ee 29 3d 8e 56 1e 3e
       -0.11580146 0.0954895 0.04148749 0.15462705
000250 fe 5f 82 3e 6e ae 85 3b 01 7a ea 3d 49 97 d9 3d
       0.2546386 0.0040796315 0.11449052 0.106245585
000260 e5 69 4d be ab b3 9d bd c9 b5 d2 bd 86 35 c0 bd
       -0.20059927 -0.077002846 -0.10288579 -0.09385209
000270 b6 26 04 be 56 dd 9b be 39 f6 e6 3d e7 ec b8 bd
       -0.12905392 -0.30442303 0.11277432 -0.090295605
000280 c1 6f 41 be 5c 08 45 bd 07 bc 37 be 04 29 2f 3d
       -0.18890287 -0.048103675 -0.1794282 0.042763725
000290 e5 11 ff 3d 35 5c 68 3c a1 c0 3f 3e ec 4f 19 3e
       0.12454585 0.01418214 0.18725826 0.14971894
0002a0 1c ea 4e be 74 40 04 bd 6e 60 1d 3d 40 1e 1d be
       -0.20206493 -0.03228803 0.03842204 -0.1534357
0002b0 17 15 60 be 96 35 98 be 3a ee 0c be 37 d9 2c 3e
       -0.21883045 -0.29728383 -0.13762751 0.16879736
0002c0 35 b1 7d bd 93 23 01 3e f9 d3 a1 bd 2a bf 32 bd
       -0.061936576 0.12611227 -0.07901759 -0.04363934
0002d0 48 09 98 bd ed 7c 85 3e 85 fb db bb c1 47 82 be
       -0.07423645 0.26071873 -0.006713333 -0.2544537
0002e0 27 32 59 3e ee 9b 1c bc 9a 2a 47 3e ec 3a 0d 3c
       0.21210538 -0.009558661 0.19449845 0.008620005
0002f0 1e 62 01 be 64 ea 8f 3d 66 19 eb bd b2 54 25 be
       -0.12635085 0.07027128 -0.11479454 -0.1614559
000300 bc 91 2b bb b6 10 de 3d d9 7e e1 bd 14 9b 6c bd
       -0.0026179394 0.10843031 -0.110105224 -0.05776508
000310 4d 6c d1 bd da 2a 6d 3e b8 42 60 3d cc 31 33 be
       -0.10225735 0.23160878 0.054751128 -0.17499465
000320 29 50 bb bb 21 78 c0 bd 39 dc 08 3d 5b 8d 5d 3d
       -0.005716343 -0.09397913 0.033413146 0.054089885
000330 b9 32 9b bd 1a 79 1f bd dc 7d 0a be 77 e8 1c 3e
       -0.07578034 -0.03893385 -0.13524574 0.15323053
000340 ad 12 03 be 10 a3 85 3e f9 d5 da bc 42 b5 54 bd
       -0.12800093 0.2610097 -0.026713358 -0.051930673
000350 7b 87 e7 bd 6a 12 a9 3d e9 a8 ac bd 32 fe 86 bc
       -0.11305138 0.08255465 -0.084306546 -0.016478632
000360 82 7e 39 bd 0d 56 1b 3e 5f 32 c1 3d 34 e4 5b bd
       -0.045286663 0.15169545 0.09433436 -0.05368443
000370 ac 93 db bd e0 08 cb 3d 84 a5 30 bd 0c 6f 99 bd
       -0.107215255 0.09913802 -0.043126598 -0.07491884
000380 b8 fd 65 be dc ba 15 3e bb f4 b8 3b 37 22 fe 3d
       -0.22460067 0.14622062 0.0056444085 0.1240887
000390 84 24 04 be 97 7f 3c 3e b4 a7 00 3e b8 0e cc bc
       -0.12904555 0.18408047 0.12563974 -0.024909362
0003a0 48 53 78 3e 0b 33 2a be 8d f7 54 3e 62 d6 92 bd
       0.2425052 -0.16621034 0.20797558 -0.071697965
0003b0 09 61 26 bc 7d 1e 03 3e f1 6c b1 bc 32 92 34 bc
       -0.010154971 0.12804599 -0.021658393 -0.011021184
0003c0 eb 68 c4 3d e7 9a 4a 3e dd 20 11 be 44 de 35 3e
       0.09590324 0.19785653 -0.14172693 0.17760569
0003d0 a8 a8 9a 3d 90 5e b1 3c c8 d3 39 3d d5 55 22 3d
       0.075517 0.021651536 0.045367986 0.039632637
0003e0 80 7b b7 bd 70 9f 3b bd 37 0c 27 be 09 bc bb 3d
       -0.08959103 -0.04580635 -0.16313253 0.09166724
0003f0 37 1f 11 3e e9 8b 81 be 09 d2 56 3e 1d e1 ef bd
       0.14172064 -0.25302055 0.2097856 -0.11712859

bn3.weight f4 [16]
000000 da 3e 82 3f 70 c0 7e 3f 84 6f 83 3f 0c a4 82 3f
       1.0175431 0.99512386 1.0268407 1.0206313
000010 f7 88 80 3f 31 36 80 3f 40 11 83 3f c8 96 84 3f
       1.0041798 1.0016538 1.0239639 1.0358515
000020 3c 82 79 3f c2 8b 83 3f e1 e3 7d 3f 2d 48 85 3f
       0.97464347 1.0277026 0.9917584 1.0412651
000030 ef 0d 82 3f 2d 0d 82 3f 01 91 84 3f 54 49 79 3f
       1.0160502 1.0160271 1.0356752 0.97377515

bn3.bias f4 [16]
000000 86 96 b6 bb 42 0b 0f 3c 95 0b 08 bc ad 7f 20 3c
       -0.005572143 0.008730711 -0.008303543 0.009796065
000010 2a 2b 31 3b 4c d6 a6 bb ff 38 70 bb 37 14 39 3b
       0.0027033784 -0.005091464 -0.0036655066 0.0028240809
000020 42 90 27 bc 18 5a 1b bc f0 1e 70 bc 70 44 32 3c
       -0.010227265 -0.009481929 -0.014655814 0.010880575
000030 78 41 13 3c 8e 5d d6 3b 3e 1b e8 3b 59 3f 92 bb
       0.008987777 0.0065419143 0.0070833256 -0.004463118

bn3.running_mean f4 [16]
000000 28 aa ba 3d 05 10 4e bc 4b c4 ec 3d 37 6b 85 3c
       0.09114486 -0.012577062 0.115608774 0.016286476
000010 97 14 9e bd bc 09 c6 bc 1e e7 95 3d 47 b2 eb bc
       -0.07718771 -0.024174564 0.07319473 -0.028771533
000020 8a 33 6d 3c e9 18 70 3c 17 51 25 bd 76 a9 63 bd
       0.01447762 0.014654377 -0.040360536 -0.055581532
000030 42 ef 8e bd d5 5b b2 bd e0 10 84 bd ca 11 e7 3c
       -0.069792286 -0.08708922 -0.06448531 0.028206725

bn3.running_var f4 [16]
000000 06 01 ec 3d 03 77 88 3d 9a d3 e1 3d bc fc 87 3d
       0.11523633 0.06663325 0.11026688 0.06640002
000010 1a 96 87 3d 08 c1 bc 3d c9 6c a4 3d 95 8b 7d 3d
       0.066204265 0.09216505 0.080285616 0.061900694
000020 82 9b b1 3d da 49 ca 3d be 6a ce 3d 58 d7 cf 3d
       0.08672239 0.09877367 0.10078953 0.101484954
000030 20 ae 76 3d 48 ea 51 3d 8c 52 9c 3d c3 15 8a 3d
       0.060224652 0.05124882 0.07632932 0.06742432

classifier.weight f4 [2, 16]
000000 dd 50 10 be b9 5b 89 3e a6 a7 97 bd f8 d4 4c 3e
       -0.14093347 0.2682779 -0.07405023 0.20003116
000010 db 11 37 3e 2a 78 95 bb 8e a5 93 be ea a5 78 3e
       0.17877905 -0.004561444 -0.28837246 0.24282041
000020 da 25 8f bd 84 8e 54 be ea 2c cd bd 4e bf 8a 3e
       -0.069896415 -0.2075749 -0.10018332 0.2709908
000030 43 c6 b9 bc 71 d3 14 3e b8 51 b9 3d 08 f9 07 be
       -0.022677546 0.14533783 0.0904879 -0.13278592
000040 32 4b 98 3d b2 8a 11 3e 11 9e 82 3e 2a 3c 2a bd
       0.07436217 0.14213064 0.2551122 -0.041561283
000050 7a 35 43 bc ff c5 35 3e b7 df 2b bd 42 74 ed bd
       -0.011914605 0.17751311 -0.041961398 -0.1159444
000060 16 91 c3 3d 54 ea 60 3e 94 29 4c 3d 23 4b c2 bd
       0.09549157 0.21964389 0.04984434 -0.094869874
000070 0d b3 84 be 51 dc 72 bd 3b 8a 6a be 1b 22 10 bd
       -0.25917855 -0.05929214 -0.22904293 -0.035188776

classifier.bias f4 [2]
000000 94 38 ae 3a 7e aa b8 3d
       0.0013292008 0.09016894
