notebooks/outputs/temp_B03_fold5_best.pth (torch, 31912 bytes, 18 tensors)

firstconv.0.weight f4 [16, 1, 1, 125]
00000000: 0ed5 73bd 648b 7abc 5740 84bd e0a2 e33d
00000010: 5345 de3b 246d c13d b094 8abd afb0 d8bc
00000020: 003c afbd 1ccd 133d 3870 fdbd 94f8 ddbd
00000030: 945d 783c 1def 1d3d 28cf a5bd c6c1 a1bc
00000040: 2758 1cbd 2e4d aabc 1dd2 0cbd 027d 003d
00000050: e9f0 bd3d 0a24 b93d 8811 2fbd d7d7 8c3d
00000060: 5bbe 18bd 9bcd e63c 16d3 a13c 2c49 bf3c
00000070: af19 67bd 87aa 2cbd 95d5 92bd f0ff a93d
00000080: ce71 223d deac 003d 7672 3ebc 8721 b93c
00000090: a9b2 843c 6d15 1ebc 39f0 3dbd 7831 ed3c
000000a0: 0669 54bc bf53 57bd 5535 43bc bc79 ae3c
000000b0: cce0 a93d 83bf 65bc af73 743d 332d a6bc
000000c0: 44f5 c03c d8e3 153b 8985 75bc ee4f 353d
000000d0: 148f 803c ff3f 6f3d 4ca1 8dbd dae8 3dbd
000000e0: cfac 62bd 216d 9ebd 2d4e 39bc 8c11 4bbd
000000f0: 5c26 4cbc eaed adbd f263 7fbd 3abf 93bb
00000100: 5160 843d 7f4a bcbd 6596 57bd 2d6f 04bd
00000110: 67d0 aa3d 0b55 483d d20d 28bd ef25 993d
00000120: 30b2 fd3c 4a5f 23bd 7857 2fbd d2ed 86bd
00000130: 66bc 333d b274 78bd 54f3 583d 8230 523d
00000140: 3835 2d3d 5138 763d dc98 d53c f060 a63d
00000150: 958c 0abd de05 833c 52ec 21bd 7981 81bd
00000160: 47b3 ac3d d71c 743d 454f 70bd be0d ae3d
00000170: 2469 903d 5ac7 813d 1c62 5c3c a261 8ebd
00000180: b082 5f3d dabf 9b3d 69bf 3ebd 1500 98bd
00000190: a657 8abd db8d 5fbd e5d4 8bbd 4ea1 43bb
000001a0: 0a35 8a3d 9260 74bc 148e 45bd 04cc 68bc
000001b0: e8f4 a33d cc6d 3a3d b802 ce3b e2d5 933c
000001c0: e490 93bd b245 7fbd 55e3 b13d b0b0 90bd
000001d0: 7dde 1a3d 438e a3bd 3e59 303d fab9 733c
000001e0: ae80 55bc 53ab 4e3c 174d 92bc 70fb 95bd
000001f0: 485f 7cbd f540 163d d94d 583c 4182 23bd
00000200: 9ce9 c73d 1bf7 02bd c1d8 c13d e133 9f3d
00000210: 544f 56bb 0fe9 a83d a4ed a9bd 8c2f 423c
00000220: d87d d7bc df0b 06bd 1d3a 913d 0fce 8a3d
00000230: 3c46 55bd e00d 203c 0520 af3c 3966 08bd
00000240: 7b9f 45bc 7fb4 553d fde6 94bd 8bfc 3abd
00000250: a10c 403d 819c 143d 42c6 aa3b dda4 f2bc
00000260: 36f5 97bd a993 803d 95c5 5dbd c191 afbd
00000270: 1576 583d 6735 d6bd 82ea 44bd f344 39bd
00000280: e6f2 17bd 5094 3bbd 05e2 77bd 3150 5bbd
00000290: 7956 263d e6eb 9fbd bc8e 85bd 759e aa3d
000002a0: ab87 35bd 724c aebd 20d4 34bd 016b 243d
000002b0: 328e 98bd d40d a73d 4da1 ad3d f6a2 e9bc
000002c0: 379d 57bc 074d 113d 42fc 7b39 05c9 533d
000002d0: b9ea 9abd 44ff b13d 0901 473c 7f81 c6bc
000002e0: 2a33 843b b61c 93bc 41ec a1bb 42f3 6d3d
000002f0: edab 7b3c cf64 63bd fbec 87bd b9a7 12bd
00000300: e98b cdbc c072 15bd abe3 843d 43af ffbc
00000310: a1c2 d13d 094c 313d a2bf d5bb 89b9 863d
00000320: 9a62 b73d db63 a83d 3f1f e53c 34e3 813d
00000330: e35d 733d e03e b23d 80f6 dfbb 7882 55bd
00000340: 80e4 e83c bb9f 503d 2ea2 4e3d 9a90 80bd
00000350: 2b46 7f3c 2545 2a3d ff98 e4bc 55f5 d6bd
00000360: a5dd 683d 857c 4e3d 9eb0 94bd 8dbf 35bd
00000370: cdf8 a23a 0c2c 00bd 4ec9 b8bd 70af b2bc
00000380: c84f ea3c a1a8 fe3c 7651 3b3d d416 3bbd
00000390: 9e40 6dbc b7eb 723d ffb9 16bc ce73 84bc
000003a0: 087d 4d3c d58d 5abd 4fb7 13bc a1f3 8fbc
000003b0: bd3e 833d abe7 9bbc c8bb 69bd fc1f 6fbd
000003c0: 3a68 26bd 9467 0ebd 0793 30bc dbc0 423d
000003d0: 5d22 363d a160 763d 84d0 2cbc 751d 053c
000003e0: dd9f 733d 06eb 883d 0fd7 273d 141d e13b
000003f0: 82cc 51ba 9d1c 35bd cdbd f03c cfa6 c63c
-0.059529357 -0.015292022 -0.06457584 0.1111505 0.0067831664 0.09444645 -0.06766641 -0.026451437
-0.08556366 0.03608428 -0.1237492 -0.10838428 0.0151590295 0.038558114 -0.080961525 -0.019745719
-0.038170006 -0.020788755 -0.034380067 0.031369217 0.092744656 0.09040077 -0.04274133 0.06877106
-0.037290912 0.028174212 0.019753974 0.02335032 -0.05642098 -0.042154815 -0.07169644 0.08300769
0.039659314 0.03141486 -0.011623969 0.022598995 0.016198473 -0.009648663 -0.046371672 0.028954253
-0.012964493 -0.0525701 -0.011914571 0.021298282 0.0829483 -0.014022711 0.059680637 -0.020285225
0.023554452 0.00228714 -0.014985451 0.04426568 0.015693225 0.05841064 -0.069155306 -0.046364643
-0.055340584 -0.077356584 -0.011310142 -0.04957728 -0.012460317 -0.08492644 -0.062351175 -0.00450888
0.064636834 -0.091938965 -0.05263366 -0.032332588 0.08340531 0.04890923 -0.041028805 0.074779384
0.030968755 -0.039885797 -0.042808026 -0.065883294 0.043880843 -0.060658164 0.05296643 0.051315792
0.04228708 0.0601123 0.026073866 0.08123958 -0.033825476 0.015994009 -0.039532013 -0.06323523
0.08432632 0.059597816 -0.058669347 0.08498715 0.07051304 0.063368514 0.0134511255 -0.06952216
0.054567993 0.07604952 -0.04656926 -0.07421891 -0.06754999 -0.054578643 -0.06827716 -0.0029850784
0.06748398 -0.014915602 -0.0482312 -0.014208797 0.080056965 0.045514867 0.006286945 0.018046323
-0.0720537 -0.062322326 0.08685938 -0.070649505 0.037809838 -0.07986119 0.043053858 0.014875883
-0.013031168 0.012614089 -0.017859025 -0.073233485 -0.061614305 0.03668304 0.013202154 -0.03991914
0.09761354 -0.03197394 0.09465171 0.07773567 -0.0032701092 0.082475774 -0.082972795 0.011852156
-0.026305124 -0.032726165 0.07091162 0.06777584 -0.052068934 0.009768933 0.021377573 -0.033300612
-0.012061949 0.052174088 -0.0727062 -0.045651 0.046887044 0.036282066 0.0052116225 -0.029619629
-0.07419817 0.06278164 -0.054143507 -0.08572722 0.052846987 -0.104594044 -0.048075207 -0.04523177
-0.03709688 -0.04579574 -0.060518283 -0.053543273 0.04060981 -0.07808666 -0.06521365 0.083310045
-0.044318836 -0.085106745 -0.04414761 0.04014111 -0.074489966 0.081569344 0.08478031 -0.028520089
-0.0131600415 0.03547385 0.00024031199 0.05170538 -0.07564301 0.08691266 0.012146243 -0.02423167
0.0040344195 -0.017958026 -0.0049414937 0.058093317 0.0153608145 -0.05551606 -0.06636997 -0.035804484
-0.025091128 -0.036486387 0.06488737 -0.031211501 0.10242201 0.043285403 -0.0065230886 0.06578357
0.08954354 0.08222171 0.027969 0.06342164 0.05941571 0.08703399 -0.006834805 -0.052126378
0.02842927 0.05093358 0.050447635 -0.062775806 0.015580694 0.041569848 -0.027904985 -0.10496012
0.056852 0.05041172 -0.072602496 -0.04437213 0.0012433768 -0.031292006 -0.09022771 -0.02181217
0.028602496 0.031086268 0.045731984 -0.045676067 -0.014480738 0.059306826 -0.009199618 -0.016168501
0.012542017 -0.053357918 -0.009015872 -0.017572226 0.06408451 -0.019031366 -0.057063848 -0.058380112
-0.040626742 -0.03476675 -0.010777242 0.047547203 0.044466365 0.060150746 -0.010547761 0.008124699
0.05947863 0.06685452 0.04097658 0.0068699215 -0.00080031913 -0.04421674 0.029387379 0.024249462

firstconv.1.weight f4 [16]
00000000: d04e 7f3f cf40 7f3f 2c7b 7c3f f6bf 803f
00000010: 68b2 863f 2b3f 813f 0506 803f fff8 7f3f
00000020: f771 7f3f b374 7c3f 2094 823f 21bd 833f
00000030: 6edb 7c3f 1d5a 743f 7874 7c3f 4266 813f
0.99729633 0.99708265 0.98625445 1.0058582 1.0523195 1.0097402 1.0001837 0.9998931
0.9978327 0.9861557 1.0201454 1.0292093 0.98772323 0.9545 0.9861522 1.0109332

firstconv.1.bias f4 [16]
00000000: 29bb b13b 6f21 4b3b 5b9a 26bb d90b 3d3c
00000010: 6df7 a138 c4ae 12bb 05a1 733b e438 04bc
00000020: ee51 40bb 6839 4cbb f13e 6b3b f54a 893a
00000030: 8cee cd3b 753d a3bb be4e 583b d8f0 d63b
0.0054239226 0.003099527 -0.0025421593 0.011538469 7.723165e-05 -0.0022382 0.0037174833 -0.008070204
-0.002934571 -0.0031162146 0.003589567 0.001047461 0.0062845405 -0.0049816915 0.0033005918 0.0065594725

firstconv.1.running_mean f4 [16]
00000000: 4197 4830 cd73 9caf 26a0 08af 5602 7130
00000010: 6e13 82b0 1d9f 5130 404b 1230 822c 13b0
00000020: 415a 96b0 07c1 3630 67e9 7c30 6a9e efb0
00000030: 6984 3e2e 9d2d b92f 85cd 03af 4599 8130
7.297452e-10 -2.8458516e-10 -1.2426024e-10 8.767861e-10 -9.464267e-10 7.625987e-10 5.322143e-10 -5.354154e-10
-1.0939588e-09 6.648552e-10 9.200875e-10 -1.7434563e-09 4.3318602e-11 3.3683714e-10 -1.1987396e-10 9.429547e-10

firstconv.1.running_var f4 [16]
00000000: f9b5 5836 0db6 5836 f0b5 5836 f9b5 5836
00000010: 3ab6 5836 03b6 5836 f4b5 5836 09b6 5836
00000020: e9b5 5836 f3b5 5836 1fb6 5836 28b6 5836
00000030: f8b5 5836 dfb5 5836 e6b5 5836 fcb5 5836
3.229243e-06 3.2292476e-06 3.229241e-06 3.229243e-06 3.2292578e-06 3.2292453e-06 3.2292419e-06 3.2292467e-06
3.2292394e-06 3.2292417e-06 3.2292517e-06 3.2292537e-06 3.2292428e-06 3.229237e-06 3.2292387e-06 3.2292437e-06

depthwiseConv.0.weight f4 [32, 1, 3, 1]
00000000: f9fe 3c3e f857 90be ce94 c43e d0c8 a5be
00000010: a399 7dbe b249 f2be ecf5 15be 04b4 093f
00000020: bfa3 c83e 3304 823e 6ae6 0dbf 6e97 063f
00000030: f364 0ebf 4e1d dabd eabf 0a3e 5876 ec3d
00000040: df0a 5bbe e7d1 d6be 8ed6 8d3e a73b 073f
00000050: a1ec c13d 0c17 0fbf 1ba5 263e 3e03 e13e
00000060: 6530 5dbd c56f 063f 6e1d a9be 2ab6 b43e
00000070: 88b0 0cbf 6054 0abe 745b c3bd fb92 d13e
00000080: bb0b d2be 5237 7dbe 6c2d 11bc ed60 a53e
00000090: 2c29 87bd 5700 50be 6868 f83e 090c 023d
000000a0: 1900 053f 4140 14be 897d 02bb 5a58 913e
000000b0: 3bc4 11bf 1879 0e3f 94cc ed3b 2aa1 6f3d
000000c0: 842f b03e 3b9a 053f 27af 0c3f 0a52 e3be
000000d0: 4daf 8cbe 024f 1d3e 13d9 783e 0697 d23e
000000e0: 4364 c73e 4000 01be 5fcb 2dbe a580 dfbd
000000f0: 4406 893e c4f4 603d 081e 01bd 39e0 ff3d
00000100: beea 64be 679b 2d3e 0d07 353e 5a70 f43d
00000110: 3ede b5be 5730 973d 1d5d 03bf aa53 a33e
00000120: 81f7 dbbe 7e73 03bf 298a d6bd fa1c 313e
00000130: c547 dcbd 9099 8c3d 8180 d53e 2e64 a93e
00000140: 8c51 033f 23d6 653e 0232 c13d ac05 0ebe
00000150: 90fa ba3e 5743 eabe 9058 b3be c768 e43e
00000160: 4619 a83e 0229 95be f22b 6b3e 5ae5 163f
00000170: 8cfa eabe ebe7 6c3d e7dd 983e 7681 b33d
0.1845664 -0.28192115 0.3839478 -0.3237977 -0.24765639 -0.4732185 -0.14644593 0.5379031
0.39187428 0.2539383 -0.5542971 0.52574813 -0.55622786 -0.10650121 0.13549772 0.1154601
-0.21390866 -0.41957018 0.27702755 0.528254 0.094689615 -0.5589454 0.1627392 0.43947786
-0.05400123 0.52514297 -0.33030266 0.3529523 -0.54956865 -0.13508749 -0.09538928 0.4093245
-0.41024575 -0.24728134 -0.008860927 0.3230051 -0.0659965 -0.2031263 0.48517156 0.03174976
0.51953274 -0.14477636 -0.001991125 0.2838772 -0.5694005 0.55653524 0.0072570536 0.058503307
0.34411252 0.5218846 0.5495476 -0.44398528 -0.27477494 0.1536217 0.24301557 0.41130847
0.3894368 -0.12597752 -0.16972111 -0.10913209 0.26762593 0.054920927 -0.03152278 0.12493939
-0.22355172 0.16953813 0.17678471 0.11935492 -0.3552112 0.07382267 -0.51313955 0.31899768
-0.42962268 -0.513481 -0.10475571 0.1729621 -0.107558765 0.06865227 0.41699603 0.33084244
0.51296306 0.22444968 0.09433366 -0.13869351 0.3651929 -0.457545 -0.35028505 0.4461119
0.32831782 -0.2913285 0.22965983 0.5894371 -0.45894277 0.05783836 0.29856798 0.08764927

depthwiseConv.1.weight f4 [32]
00000000: 6daf 823f 1696 7b3f b2b2 7e3f 251d 803f
00000010: 9cd9 7c3f 9707 793f 8f05 803f 5b34 813f
00000020: 646f 863f d3e3 823f 6c24 833f 2330 7b3f
00000030: bb4f 813f f554 7e3f 6f22 823f 92e5 7c3f
00000040: b8af 803f a9d8 7e3f 756e 7c3f c395 7e3f
00000050: 4ec9 803f 893d 843f 3adc 833f 8759 813f
00000060: 8c33 7c3f bb00 813f 1d34 763f 5df7 753f
00000070: e9c7 773f f269 7e3f 0026 823f b687 803f
1.0209786 0.9827589 0.9949142 1.0008894 0.98769546 0.97277206 1.0001696 1.0094103
1.0502744 1.0225776 1.024549 0.98120326 1.0102457 0.99348384 1.0166758 0.98787796
1.0053625 0.9954935 0.98606044 0.9944727 1.0061433 1.0331279 1.0301583 1.0105447
0.98516154 1.0078348 0.9617327 0.9608057 0.96789414 0.9938041 1.0167847 1.0041416

depthwiseConv.1.bias f4 [32]
00000000: 20a4 28bb e347 3ebc ce14 92bb c5d3 363a
00000010: 23e6 8dbc 779f 093c b83c 7fbb e907 20bc
00000020: 1aba 9d3c fa53 713c 597f 293c eedb a43b
00000030: 6685 543c a247 0b3c 60ad 2abc edac 663a
00000040: 7ccf 98bc 665e f53a 9052 31bc d91e 9b3b
00000050: 54f1 a03c 188e 41bb 024c d33b 253f 8aba
00000060: 8e2a da3a 57e2 343c 6559 c2bc 29f2 453c
00000070: eefb 1e3a 3504 0bbc 1f05 1f3b 6966 36bc
-0.0025732592 -0.011613819 -0.0044580465 0.0006974305 -0.017321652 0.008399836 -0.0038946103 -0.009767511
0.01925378 0.014729494 0.010345303 0.0050311005 0.012971258 0.008500965 -0.010417312 0.00087995717
-0.018653624 0.001872015 -0.010822907 0.004733902 0.019646324 -0.0029534157 0.00644827 -0.0010547383
0.0016644762 0.011040292 -0.023724267 0.012081661 0.0006064762 -0.00848489 0.0024264527 -0.011132815

depthwiseConv.1.running_mean f4 [32]
00000000: 3652 d63a e218 c2bb e29b 4c3b cb03 6a3a
00000010: 1541 d13a 9725 d13a f67b 343c 5581 0d3a
00000020: 80b6 88b9 9ed5 173a 09d9 3639 9be3 06b9
00000030: ebd4 3f3a 3106 bb3a c64e 273b 34c1 b0bb
00000040: c118 b9bb 89ff 133b 47af 35bb 9917 8e3a
00000050: b167 8c3a 7399 8e39 0ce6 7138 76d4 2939
00000060: 59d8 cdbb bb8c 423a c476 7cbb 8729 11ba
00000070: 53a4 27bb 62bc 373b 390f ea39 6067 0f3a
0.0016351405 -0.0059233764 0.0031220843 0.0008926957 0.001596483 0.0015956637 0.011015883 0.0005397995
-0.00026075915 0.00057920243 0.00017437724 -0.00012864025 0.0007317799 0.0014268813 0.002552913 -0.0053941254
-0.005648703 0.002258273 -0.0027722882 0.0010840773 0.0010712055 0.0002719868 5.7673125e-05 0.00016196244
-0.006281894 0.0007421483 -0.0038522938 -0.0005537499 -0.0025580123 0.002803587 0.000446433 0.0005470421

depthwiseConv.1.running_var f4 [32]
00000000: d990 6036 fd11 8036 721a 6636 33e5 6a36
00000010: 81ed 7036 a8a0 5b36 480f 7736 6653 6836
00000020: 9ef9 6336 28e1 6b36 8dae 5e36 f7d3 5c36
00000030: 2494 5b36 bbd9 5e36 6f3d 6036 a281 8636
00000040: 0beb 7a36 1bc2 6736 1c5b 7436 9db8 5d36
00000050: f932 6b36 65af 5c36 8aa9 5e36 7cf4 6136
00000060: 1563 8336 b935 5b36 f1cb 6436 54d0 5936
00000070: 6e34 5b36 5a1a 6436 3c77 6a36 aec0 5e36
3.3462914e-06 3.8167914e-06 3.4288064e-06 3.5002129e-06 3.5901032e-06 3.2727057e-06 3.6814763e-06 3.4619238e-06
3.3970932e-06 3.5148787e-06 3.318218e-06 3.2905934e-06 3.2719772e-06 3.3207314e-06 3.341436e-06 4.0086024e-06
3.7389716e-06 3.4534667e-06 3.6411866e-06 3.3039025e-06 3.5047399e-06 3.2884648e-06 3.3179263e-06 3.3669921e-06
3.915639e-06 3.2664814e-06 3.4093357e-06 3.2456783e-06 3.266406e-06 3.3989986e-06 3.493812e-06 3.3192732e-06

separableConv.0.weight f4 [32, 1, 1, 16]
00000000: e320 15be dbd7 12be 807f a13d f286 f1bc
00000010: 7e35 2ebe d920 863d 768c cb3b b75c 68be
00000020: 08ab e6bd d658 48be 56c3 cfbc b29c 233e
00000030: 6dfb 0e3b eda8 23be 4ca6 be3d 318d 803e
00000040: 504c 4bbe cd28 10be 8091 1a3e 72ec 6cbe
00000050: 5168 573e e36a 6ebe 0731 71be bb12 9cbd
00000060: c7a0 273d 175f 223e 44a4 51be 5bb8 2ebb
00000070: 1da4 743d f337 ad3d 6264 e2ba 4fcf 263e
00000080: 160d 4b3d 0b30 91bc 4421 b53c a952 f0bd
00000090: ce04 743d efc8 e1bc c2a3 283e 516b 483d
000000a0: 8bac 013e 3f1d 40be eb86 32be 0d97 c9bd
000000b0: 75aa 64be c65d 6bbe 7a2b f7bd 4fc5 5dbd
000000c0: b9ad bebd 1de5 eb3d c487 c4bc 9ac5 293e
000000d0: 2e37 883d d4e4 333d cce4 5ebe 18ba 59be
000000e0: d778 51be 4d15 453e bc9e e0bd 2d16 e93c
000000f0: aded dbbd 845c 48be ba26 c7bd 023f 5f3e
00000100: a17b e1bd 2d4d fcbd 9265 ce3d ab03 e03d
00000110: 1e16 82be ec41 02bd ae62 6f3e 7ccf 943d
00000120: 356c 35be c9f9 b23d c394 47be d367 403e
00000130: 27dd 923d 589c 443e e4ad 0abe cd51 3b3e
00000140: eaff f2bd d2c2 cd3d ac74 b03d 43af 3ebe
00000150: 0558 d53c af3b 823d 0d51 9dbd 4f33 c9bd
00000160: 66d2 c93c aae2 c4bd c579 dbbb 0e78 03bd
00000170: f05a 963d 3d98 bcbc d0ef 693e 71a0 61be
00000180: d7ca f93d 2f15 5bbe f526 f1bd 09ef 3ebd
00000190: 6d71 00be 7230 2dbe b4cb 20bd 13db 4b3e
000001a0: 17a1 2a3d d7dd 67be 7d7b 6b3d 5eca 17be
000001b0: 93e8 ccbd 22c7 f43d f76a 80be 9355 27be
000001c0: a457 12ba ee53 21be 6085 3fbe d55d 67be
000001d0: 2a1c b43d ab87 2bbe 8c81 0b3d d479 d4bd
000001e0: 29dc 253d 1ea0 3bbe 9122 6f3e fa02 4cbd
000001f0: 7288 a3bd 5d49 1bbe dee9 263e d3b3 f03d
00000200: a000 76bd 0312 283b e5df 83be 52c5 843d
00000210: 0aa2 3ebd 2262 41be aaed 153b 0fd4 58bd
00000220: cedc 7dbe fbba 98bd b6c7 523d 2be1 69bc
00000230: a4bd 983e 84b7 7dbd 622b 913e 7098 813e
00000240: 38e1 6e3e 61e0 acbd ced2 1f3e c56e 4b3e
00000250: fac7 dc3a 448a 073e bcdf cc3d 8f25 14be
00000260: 41f5 663e 892b 643c 9e1e 37be dc15 833d
00000270: be47 d23d b5c1 9cbd fe61 81be 56a0 863d
00000280: 4415 9d3d 317b aebc fab8 88bd d093 34be
00000290: b98b 67bc ddb8 f23d 5686 38be 781c c0bc
000002a0: 4b34 85bd 8522 1b3e 5e19 e33d 146f 5b3e
000002b0: 9d3a 95bd 4d58 d1bd d760 36bd 0d73 2abe
000002c0: 0de2 aebd cb1a 76bd 52de a2bc 3b37 853d
000002d0: 2701 543e 90d1 45be 8c31 ee3d 3932 463e
000002e0: 8fca 8b3d 7a4c 2d3e 2c9d f5bc c054 573e
000002f0: 72bf 443e d953 d03d eddd 3a3e 710f 09be
00000300: 1c99 7fbd 91ab 563d 0f8d 333e 6a51 413e
00000310: c345 7f3e 9992 8a3c 2b5a b03d f767 423d
00000320: 6e07 093d 34d1 413e b1ee f63d c17d 7b3e
00000330: bb8c 89bb aead 033d 1935 4bbe 529d ad3d
00000340: 1f6f 4abe ac94 2b3e 83d0 5abe 6f90 043e
00000350: 7aa2 203e 72fa f83d 9e60 5ebe 360a 5a3e
00000360: 6bf2 50be 2b52 013e 44a4 fa3d 1a67 11be
00000370: 66da 5d3e 0560 7a3e 63c0 593e 75d0 2f3e
00000380: 6079 173d dbde 9fbd 1af4 d23d 3b28 f1bd
00000390: 5773 09be 3e2d 11be d425 38be 82d4 efbd
000003a0: edae 1abe a6ce 083d bb90 303e 9e05 863d
000003b0: e91c 963e d55d c9bd 9be5 f13d 4671 22be
000003c0: bdcf 433e 6832 72bd 5038 523e 4a1d 80be
000003d0: b4fd febc 8b29 0abd 1c06 23bd 76aa 6bbe
000003e0: 57a7 bf3d bfb8 dbbd d9ea 6f3d 6296 9f3d
000003f0: 0b20 1dbe c902 a2bc fc1b 733e bd95 583e
-0.14563327 -0.14340155 0.07885647 -0.029483292 -0.17012593 0.06549234 0.0062118126 -0.22691618
-0.1126309 -0.19565138 -0.025361698 0.15977743 0.0021817342 -0.15982409 0.09309062 0.2510772
-0.1985333 -0.14078064 0.15094566 -0.23137072 0.21035887 -0.23282962 -0.23553859 -0.0762076
0.040924814 0.15856586 -0.20472819 -0.0026660177 0.059726823 0.08457937 -0.0017272348 0.1629002
0.049573027 -0.017723104 0.022110589 -0.11734516 0.059574895 -0.027561633 0.16468719 0.04893047
0.12663476 -0.18761156 -0.1743428 -0.09843264 -0.22330649 -0.2298499 -0.12068839 -0.054143246
-0.09310479 0.11518309 -0.02399052 0.16579285 0.0665115 0.0439194 -0.21766967 -0.21262395
-0.20456253 0.19246407 -0.10967776 0.028452957 -0.107386924 -0.19566542 -0.097241834 0.2180138
-0.110099085 -0.123194076 0.10077967 0.109381996 -0.254075 -0.03180115 0.23377487 0.07266137
-0.17717059 0.08739049 -0.19490342 0.18789606 0.07171088 0.19200265 -0.13542897 0.18292923
-0.11865218 0.10046925 0.086160034 -0.18621545 0.026042948 0.0635904 -0.07681475 -0.098242395
0.024636459 -0.09613545 -0.0066978657 -0.032096915 0.07341564 -0.023021812 0.22845387 -0.2203386
0.12196892 -0.213948 -0.117750086 -0.04661468 -0.12543269 -0.16913012 -0.039256766 0.19907789
0.041657533 -0.22643219 0.057490814 -0.1482329 -0.100052975 0.11952044 -0.25081608 -0.16341238
-0.00055825175 -0.15754673 -0.18703222 -0.22594388 0.08794434 -0.16750972 0.034059092 -0.10374799
0.040493164 -0.18322799 0.2335303 -0.049807526 -0.07985009 -0.15164705 0.16300151 0.11753049
-0.06005919 0.0025645501 -0.25756755 0.06482948 -0.04654125 -0.18885091 0.0022877255 -0.05293661
-0.24791262 -0.07457539 0.05145999 -0.014274876 0.29832184 -0.061942592 0.2835341 0.25311613
0.23328102 -0.084412344 0.1560776 0.19866474 0.0016844266 0.13236338 0.100036114 -0.14467452
0.22554494 0.013926395 -0.17882773 0.06400654 0.1026759 -0.07654134 -0.25270075 0.065735504
0.07670072 -0.021298977 -0.066759065 -0.17634511 -0.014132434 0.11851666 -0.18019995 -0.023451075
-0.06504115 0.15149887 0.11088823 0.21429092 -0.0728657 -0.1022192 -0.044525947 -0.16645451
-0.085392095 -0.060084146 -0.019881401 0.06504675 0.20703565 -0.19318223 0.11630544 0.19355096
0.06825744 0.16923705 -0.029982172 0.21028423 0.19213656 0.10172243 0.1824872 -0.13384797
-0.062401876 0.052409712 0.17534278 0.18878713 0.24928956 0.016915606 0.08610948 0.04746243
0.03345435 0.18927461 0.120572455 0.2455969 -0.0041976846 0.032148056 -0.19844474 0.08477272
-0.19768952 0.16755933 -0.21368603 0.12945722 0.1568698 0.12157144 -0.21716544 0.21292958
-0.20404975 0.12629001 0.122383624 -0.14199486 0.21665344 0.24450691 0.21264796 0.17169364
0.036980987 -0.07806178 0.10300465 -0.117752515 -0.13422905 -0.14177415 -0.1798318 -0.117104545
-0.15105791 0.0334002 0.1724271 0.0654404 0.29318932 -0.0983235 0.11811372 -0.15863523
0.19122215 -0.059130102 0.20529294 -0.25022346 -0.031126834 -0.033731025 -0.03980075 -0.23014244
0.093580894 -0.10728597 0.058573578 0.07792355 -0.15344255 -0.019776719 0.23741144 0.2115087

separableConv.1.weight f4 [32, 32, 1, 1]
00000000: 8344 22be ed9b 1f3e 9463 d0bd 432d 38bd
00000010: 41a6 0c3d d79b 0b3d 234b 49bb 562f 03bc
00000020: c734 6bbd 1622 00be d22e 5c3d 4ef6 313e
00000030: 95d4 063e 05fa c73d 2cfa 163e 19a6 8bbd
00000040: ca67 643d 1771 ee3d c781 3bbe fc36 d03d
00000050: ec8f bf3d 6c25 0ebe dd48 edbc 4176 313e
00000060: 79b8 c73d 76f2 033e 5594 1b3e ff95 0ebc
00000070: 55f0 8a3b afc7 afbd 97c2 143e d69f 8bbc
00000080: 9196 aabd 9aa7 debd 525c 1abd 9d1b 513d
00000090: 68f2 dabd b7f8 83bd 42fd 5fbd e0c7 2cbd
000000a0: 50ac 69bb f583 533c 2883 143d df51 003e
000000b0: 9406 b2bd 596d 193b ff1d fe3c 8025 18be
000000c0: 3436 74bd 5865 2ebc 059f febc 0784 013b
000000d0: 7803 b4bd 21b4 d7bd 96d7 f93d 2bbd 293e
000000e0: b5f8 f33c fb0d 20be 230e c63d a83c 313d
000000f0: 32c6 0d3e 5fdb f0bd bda4 b7bd c1c2 40be
00000100: c8f2 ef3d 9b65 03be 4c8a 62bd eb38 48bb
00000110: cd06 96bd 5d49 303c c89b 0e3c 99ae c7bc
00000120: 1673 62be 5c27 27be e305 22bd c607 a0ba
00000130: d7be 9f3d e8a3 04be 188c 49be fec4 b5bd
00000140: b5aa 083d 36cf bebd 5ceb f3bd 0128 c93c
00000150: fd21 e23c b404 05be 1ce7 49bc 2586 a6bc
00000160: b611 7a3d d3a5 4dbd b8b3 eabc 009e 8bbd
00000170: 1129 f93c d48d acbd c3b6 373e 2ec1 853d
00000180: eed4 12bd a075 093d 0114 f03d aef1 e23c
00000190: 916c 803d 6523 32bd a352 b0bd 65eb 373d
000001a0: ba9e 223e c4c2 11bc bfc8 40bd 4b18 e53d
000001b0: 6521 d6bd e703 1c3d 384c 1b3e f6bc ddbd
000001c0: 9665 33be 7b98 d0bc b2ae 08be db55 e73d
000001d0: 3547 b63d c554 3bbe 42fb 143e ec49 60bd
000001e0: f84b 7dbd 0018 66bd 492b 8ebd 2335 8dbd
000001f0: d638 7e3c 7605 bc3d cb31 94bd 5e13 a93d
00000200: 9c92 fe3c f755 253e 554c 02bc 4e0b af3d
00000210: d86b 8fbd 6390 54bd dd29 d93d 586a 213e
00000220: 0dc7 7fbd 6c5f c53d 9778 393d 1740 26be
00000230: 93cc 2bbe 6073 253e 5c6a 3dbd 1a01 e8bd
00000240: c667 f6bc 9f3e b8bb c172 673d b1d1 19b9
00000250: dc98 053e 8999 34be 4d1a 88bd e037 5c3e
00000260: 8612 8abd 2be1 f03d 58f9 80bd 3aee 0e3d
00000270: 99e6 12be 5553 f0bd c4b2 aabd 0066 3a3a
00000280: 0d8c 0c3e 6f8e d23c e674 93bd 36ab 3c3e
00000290: 517c 063b 86f8 103e 680f 5cbc f991 27be
000002a0: 949e 003d b4e8 42bc 7f74 b2bd 0d94 173b
000002b0: 558a f93d 3a90 073d 54b7 4d3c 7367 cdbd
000002c0: 334e c5bd 0047 73bd 3d23 0f3e 8e43 d73d
000002d0: b0ee 0f3e 23e8 023e b5f8 ca3d a0dd 29bd
000002e0: 2d93 383e d86c 823d 799a 0f3e 4744 a7bd
000002f0: 659b 76bd 3ade 1c3e 7f48 ce3d 2a54 473d
00000300: 94f6 073e def7 353e db60 1ebe 06f4 f53d
00000310: e25e 38be 6048 e23d faed 0e3e 176d 683d
00000320: 1443 5a3d a0c5 bb3d 8b08 dcbd ce33 553a
00000330: 6f19 98bb 32a8 17be 6ebe 7c3d 1110 e6bd
00000340: e401 bbbd f75b 1abe 260d c53d 527c 803d
00000350: 8243 15bd 08a0 97bc f7e9 46bd 5bf7 d23d
00000360: 122a fb3d 243c 123e f9f9 683d de2f 033d
00000370: 098f cd3d c7cb 24be a680 203d fb16 dcbc
00000380: 025d 983c 1ba9 6ebc be23 59be b347 633d
00000390: 7baa 30bd a35f 36be 6a18 c9bd de59 5d3d
000003a0: 7401 2f3e ac2a f53c 8d9d eb3d c0cb 033d
000003b0: a501 103e 45fe dbbd 4282 bebd 0105 a2bd
000003c0: e3e7 113e ef94 9d3d 56c1 853d 5e51 443d
000003d0: acf5 13be 0a24 ec3d 6e49 2bbe b82a c23d
000003e0: f346 d73d 1b48 b03d 5ded e4bd 96ca aebd
000003f0: e73f 793c 469b b03d 296e 00be b71c 79bd
-0.15846448 0.15586825 -0.10175243 -0.04496504 0.03433824 0.034084167 -0.003071495 -0.008006891
-0.05742338 -0.12513003 0.05375559 0.17379114 0.13167031 0.09764484 0.1474387 -0.0681879
0.055763043 0.11642664 -0.18311225 0.101667374 0.09353623 -0.13881463 -0.028965408 0.17330267
0.09751982 0.1288546 0.15193303 -0.008702754 0.0042400756 -0.085830085 0.14527355 -0.01704399
-0.083294995 -0.10871811 -0.0376857 0.051051725 -0.106907666 -0.06443923 -0.054684885 -0.042182803
-0.0035655685 0.012909879 0.036257893 0.12531231 -0.08692661 0.0023411124 0.031020163 -0.14858055
-0.059622005 -0.010644279 -0.031081686 0.0019762532 -0.08789724 -0.10532404 0.12199323 0.16576068
0.029781679 -0.15630333 0.09670665 0.043270737 0.13845137 -0.11760592 -0.08966968 -0.18824293
0.11716229 -0.12831728 -0.05530767 -0.0030551504 -0.07325516 0.010759679 0.008704133 -0.024375247
-0.22114214 -0.16323608 -0.039556395 -0.0012209348 0.07800072 -0.1295315 -0.19682348 -0.08875464
0.033365924 -0.09316866 -0.119101256 0.024555208 0.027604098 -0.12990075 -0.012323167 -0.020327637
0.061052047 -0.05020697 -0.02865015 -0.068172455 0.03041509 -0.08425489 0.17940812 0.06530987
-0.035847597 0.03355944 0.117225654 0.027703132 0.062707074 -0.043490786 -0.08609512 0.044902224
0.15880862 -0.008896533 -0.047066446 0.11186274 -0.10455588 0.03808966 0.15165794 -0.10827057
-0.1751922 -0.025463333 -0.13347891 0.112956725 0.089003004 -0.18294056 0.14548972 -0.054757997
-0.061840028 -0.056175232 -0.0694185 -0.06894901 0.01551648 0.09180729 -0.0723606 0.08255647
0.031075768 0.16146074 -0.007952769 0.08547078 -0.070029914 -0.05189551 0.10603688 0.15763223
-0.06244569 0.09637341 0.04528102 -0.16235386 -0.16777258 0.16157293 -0.04624401 -0.11328335
-0.03007878 -0.0056226994 0.056505922 -0.00014669333 0.13046592 -0.17636694 -0.066456415 0.2150569
-0.06741814 0.117616974 -0.062975585 0.03489516 -0.14345779 -0.11734644 -0.08334878 0.0007110536
0.137253 0.025702683 -0.07200031 0.18424687 0.0020520876 0.14157304 -0.0134314075 -0.16364278
0.031401232 -0.011896301 -0.08713626 0.0023129017 0.12184588 0.03309653 0.012555916 -0.10029497
-0.09634056 -0.059393883 0.13978286 0.10510932 0.14055896 0.12783866 0.09910718 -0.041471124
0.18024893 0.063684165 0.1402377 -0.0816732 -0.06020679 0.15319148 0.10072421 0.04866425
0.13277656 0.17770335 -0.15466635 0.120094344 -0.18004945 0.11048961 0.13957968 0.05674466
0.053286627 0.09168553 -0.10743817 0.00081330247 -0.004641704 -0.14810255 0.061705045 -0.11233533
-0.0913122 -0.15074144 0.096216485 0.06273712 -0.036441334 -0.018508926 -0.04856297 0.103010856
0.12263884 0.14280754 0.056879018 0.03202807 0.100370474 -0.1609336 0.03918519 -0.026866427
0.018599037 -0.014566685 -0.21205041 0.0554883 -0.043131333 -0.1780992 -0.0981911 0.054040782
0.17090398 0.029927574 0.1150466 0.032176733 0.14063127 -0.107418574 -0.093021885 -0.07911111
0.14248614 0.076944225 0.065310165 0.04792916 -0.14449185 0.115303114 -0.1672723 0.09480804
0.10511579 0.08607503 -0.11178086 -0.08534734 0.015212989 0.08623366 -0.12542023 -0.0608184

separableConv.2.weight f4 [32]
00000000: a42a 833f 423c 823f c491 823f 0cc0 843f
00000010: 0466 7f3f 1db7 813f 8f5c 823f 8d2d 843f
00000020: 31fd 803f fd55 7e3f c21d 863f 211b 833f
00000030: 8454 833f 8ee2 813f 574d 813f 8cbd 823f
00000040: 0936 823f cf85 803f 3e88 7e3f 7c52 7c3f
00000050: f70a 823f 9abf 843f 19f6 803f f4ce 823f
00000060: 29fd 803f 97a7 823f 7b0f 813f 985c 823f
00000070: 8852 7f3f dae3 813f 63e6 833f a54b 823f
1.0247388 1.0174639 1.0200734 1.0371108 0.9976504 1.0134007 1.0184497 1.0326401
1.0077268 0.9934996 1.0477831 1.0242654 1.0260167 1.0147264 1.0101727 1.0214095
1.017274 1.0040835 0.9942664 0.9856336 1.0159596 1.0370972 1.0075103 1.0219407
1.0077258 1.0207394 1.0082849 1.0184507 0.9973531 1.014766 1.0304683 1.0179335

separableConv.2.bias f4 [32]
00000000: 3fe3 a9bc c306 fcbc 7549 edbc 1934 d13b
00000010: 8e5d 42bc 421c b3bb 59bd 16bd 485f 01bd
00000020: 8096 cebc 76ab 70bb 0f1c 2d3c 88b5 803c
00000030: df7c f7bc 8dff 483c fb1b 843c 2ca7 2dbd
00000040: 4382 2abb c3c7 483c c628 8cbc face 21bd
00000050: c8d5 8bbc 7dff 603c f882 6f3a 0855 d4bc
00000060: a5a3 ddbc e545 2dbd 093a bbbb 64de ce3b
00000070: f0da e8bc 19f5 d0bc ee47 863c aeb9 86bc
-0.020738242 -0.030764943 -0.028965691 0.0063843844 -0.0118631255 -0.005466015 -0.03680167 -0.031585008
-0.025218248 -0.0036723292 0.010565772 0.01571156 -0.03021091 0.012267959 0.016126623 -0.042395756
-0.0026017583 0.012254658 -0.017109286 -0.03950403 -0.017069712 0.013732788 0.00091366423 -0.025919452
-0.02705557 -0.042302985 -0.0057137054 0.006313132 -0.02842471 -0.025507497 0.01639172 -0.01644596

separableConv.2.running_mean f4 [32]
00000000: a933 1eba 1492 ccb9 37d7 a0bb 2f51 efba
00000010: af38 f3b9 2b23 d8ba 5f72 b8ba 6387 4e3b
00000020: d94e 8f3b 2158 b2b9 9e29 4bbb 5992 10b8
00000030: 74c2 80ba b608 b5bb c274 02bb 2ff2 4dbb
00000040: 79e2 ed3a 9168 c33a 18a4 1d3a 105c 17bb
00000050: 40aa c2ba 4424 d83a 1735 25bb 36f4 463b
00000060: 39f1 67bb 319f 0eba 4b17 f2bb beb0 753b
00000070: c124 443a b491 f53a a586 1039 082d e53a
-0.00060349196 -0.0003901875 -0.004908468 -0.0018258448 -0.00046390804 -0.0016489973 -0.0014072171 0.0031513802
0.004373413 -0.00034016467 -0.0031000148 -3.4468572e-05 -0.0009823577 -0.00552472 -0.001990602 -0.003142487
0.0018149159 0.0014908483 0.00060135266 -0.0023095645 -0.0014851764 0.00164903 -0.0025208646 0.0030357963
-0.0035391583 -0.00054405915 -0.0073880306 0.003748938 0.00074822834 0.001873544 0.00013783069 0.0017484734

separableConv.2.running_var f4 [32]
00000000: 4506 733b c307 233b f517 833b 31d2 5f3b
00000010: 203a 5e3b 026a 883b 86e1 b13b ca5b 8d3b
00000020: 1121 6d3b dcf7 863b ba70 6a3b d7ce 963b
00000030: 6e82 473b 795c 903b b7cb 683b 7851 3a3b
00000040: ba0a 503b c35d 8e3b 8845 313b da45 663b
00000050: 0739 733b 7b17 393b 3b57 a03b 10f3 b33b
00000060: 6981 5c3b 07f8 4d3b 3c53 383b f8b8 703b
00000070: 118e 973b c8e4 833b b3fe 6e3b 6db5 a73b
0.0037082594 0.0024876453 0.0040006586 0.0034152383 0.0033909157 0.0041630277 0.005428496 0.0043139206
0.003618304 0.0041189026 0.0035772757 0.004602294 0.0030442732 0.004405555 0.0035521814 0.0028429907
0.0031744675 0.0043446734 0.00270495 0.003513685 0.0037112848 0.0028242755 0.004893211 0.005491622
0.003364647 0.0031428353 0.0028125783 0.0036731344 0.00462509 0.0040250756 0.003646773 0.005118063

classify.weight f4 [2, 992]
00000000: cc8f 303d 9bbc 48bc a642 5d3d b6fc 5bbb
00000010: f458 3e3c 3925 a5bc e152 a73c 8ace 083d
00000020: 1f45 793d ee0a b0bc de4e 083d c718 8a3c
00000030: 81b6 323c e1a0 993c 8256 053d e014 cbb8
00000040: fe34 d3bb 7cfc 573c 5e6a 73bc d040 d8ba
00000050: e63a 173c 9c5b e7bc 0a4a 93bc ff1c ce3c
00000060: 05f1 27bd 8bfd 843c 3dbd 93bc a152 21bc
00000070: 0393 e23c b88f 5c3c ba4e 5dbd fed7 363d
00000080: 372f c63c 68ce 953c a5e3 913c b35a b1bc
00000090: 86e1 fa3c 0aac a63c d6b4 923c 6521 e03b
000000a0: 3acc 443c 1608 e3bc 0ad4 103d 09fe 27bd
000000b0: 1f3f d6bb 1694 673c 4485 03bb 1a07 4e3d
000000c0: f888 e5bc fc25 433c 6903 1b3d 2403 8c3c
000000d0: 105d 423d 7162 f5bb 569d 283d 49d0 813c
000000e0: 6adf d73c cbd4 bf3c 3dd2 eb3c 43c8 0ebc
000000f0: 99bf de3b 3023 7fbd 6a36 84bc 06b4 c63c
00000100: 5ed0 743d cfe0 95bd 354a 7c3c 5d31 92ba
00000110: c966 933c 0cb2 883b 9fa5 903c 9148 b23b
00000120: f563 493d 8522 cdbc 1c60 283c 84e7 8b3c
00000130: 0cea 243d 2c0e 043d 1fa1 a53b d63a 633c
00000140: bb30 28bc 7f8b a2b8 1e87 0dbc fa76 ee3c
00000150: 48a0 7b3b a7c6 2ebd 0a4c 483d fb03 793c
00000160: dbcc 843c 945e 20bc 6abf 22bc e539 42bc
00000170: eb05 ceba 0267 a2ba d1f6 15bc 3493 c53b
00000180: cadf af3d d5ed 66bd 5633 9b3c 6d5d c3bc
00000190: a9f3 553a fb32 143b 1e04 01bc ce38 86bc
000001a0: 51aa 6d3c ccc0 c43c 0897 c63a 9d20 8c3c
000001b0: 3e41 1d3d 7860 b9bc 03b1 a2bc 153a 6f3c
000001c0: 63ab 223b 4ab1 c5bc b2f3 b3bc 9182 c4bc
000001d0: f996 b93c 22aa 7f3c d6f1 15bd 37c2 d93a
000001e0: 30c0 9fba de2c 5d3d 750b d7bb b69a bb3b
000001f0: 8f91 183d 9c53 3e3b 176a 7dbc dcd9 5c3c
00000200: aa48 82bc c4b1 aa3a 24bb b13c d6bd 97b9
00000210: 7838 563c dc78 36bd e8aa adbc 518d a43c
00000220: 2c49 67bc 812b 313d fabe a8bc e397 0b3d
00000230: 5a10 e83c 18af bf3c ab24 7fba 59e6 08bd
00000240: 1d80 1b3d 5a60 fe3b 063b 9fbc 8d9c 1939
00000250: 6682 773b 9b00 2bbd fd8d c83b ab40 d73b
00000260: 61aa 56bc 882c 82bc f22b 943c a8a0 ce3b
00000270: e6c0 713d 8719 5bbc ebf1 e3bb 2922 28bd
00000280: 46fe ddbb 3aa5 6b3c 9241 15bc b7de 8e3b
00000290: 53fc 43bc b217 c83c 6cae 28bd bde0 c9bb
000002a0: d18d e1bb bcf0 6fbb 16e0 0d3c 8e2d 05bd
000002b0: a369 af3c d44e e43a 4489 01bd 984d b8bc
000002c0: cc97 f7bc f930 1d3d 6d26 093c 6111 c5bc
000002d0: ae0f b13b 4078 59bc 2c5f 053d 3275 f03c
000002e0: e395 f1bb 88fd 8fbc 563a 20bc 98f1 273d
000002f0: a79c 23bd 20a9 83bb 0653 8f3b 14ba 363c
00000300: b0cc 563d d5e8 e1bc b95d 353d 6446 fdbc
00000310: b2a7 e8bc 9ba3 2e3c 577c b0bc 673f d8ba
00000320: e21a 29bc 59cf b6bc 90ea 37bc 22d7 2e3d
00000330: 4f2e 1bbb c4a6 8fbb 8f08 5bbc a063 633c
00000340: c3b5 1bbc a179 4ebc 4046 d9b9 346d 013d
00000350: 2c4f b23b 3fee 14bd f949 11bd bfc7 973c
00000360: 71a3 a7bc 2f54 023d 5474 a6bc 7278 00bd
00000370: 1689 4b3d bfa9 d3bc 9532 37bd 1f3d 1a3d
00000380: 054d 3cbc a54f 503d 0f6e 46bb c003 b23c
00000390: 9ebe 933c 8623 6a3c 1b6a 03bd 623d 803d
000003a0: 400e 7c3c e25f 133d bdfb c33c 2642 89bb
000003b0: 9f10 343d cc98 2b3d 9678 8c3c 21de 0cbc
000003c0: 9f24 00bb ad2b 513c d90b e3bb 0637 d33b
000003d0: eaa8 a6bc 325d 0f3c f781 5b3d ca14 14bc
000003e0: 5563 353c 84a9 b03c 0769 5a3c bf62 243d
000003f0: a1c3 2b3b f7f8 26bd f302 3b3d 51a4 d93b
0.043105885 -0.012251998 0.05401864 -0.0033567376 0.011617888 -0.02015935 0.020425262 0.033400096
0.060856935 -0.021489587 0.03327834 0.016857518 0.01090777 0.01875347 0.032553203 -9.6836826e-05
-0.006445526 0.013182756 -0.014856903 -0.0016498808 0.009230351 -0.028241925 -0.01797964 0.02516031
-0.04100134 0.01623418 -0.018034572 -0.00984636 0.027657991 0.013462 -0.054030158 0.04463958
0.024192436 0.018286899 0.017808745 -0.021649694 0.030625116 0.020345706 0.017908495 0.0068399184
0.012011582 -0.027713817 0.035358466 -0.04101375 -0.0065382863 0.0141344275 -0.0020068446 0.05029974
-0.028019413 0.011910912 0.03784505 0.017091341 0.047452033 -0.007488542 0.041165672 0.015846388
0.02635165 0.023416897 0.028786773 -0.008714738 0.0067977426 -0.062289417 -0.016139228 0.024255764
0.059769027 -0.073182695 0.015398552 -0.0011153627 0.017993348 0.0041716155 0.0176571 0.0054407795
0.049167592 -0.025040874 0.0102768205 0.017078169 0.040262267 0.032240078 0.0050546075 0.013869008
-0.0102655245 -7.750745e-05 -0.0086381715 0.029109467 0.0038395096 -0.04266992 0.04890064 0.015198703
0.016210964 -0.009788174 -0.009933332 -0.011854623 -0.0015718316 -0.0012390318 -0.009153084 0.006029511
0.08587606 -0.056379158 0.018945377 -0.02384826 0.00081616134 0.0022613395 -0.007874517 -0.016384508
0.014505939 0.024017714 0.0015151212 0.017105395 0.038392298 -0.022629008 -0.019859796 0.01460125
0.0024821393 -0.02413239 -0.021966789 -0.02398804 0.022654997 0.015604528 -0.036607586 0.0016613667
-0.0012188014 0.053997867 -0.006562645 0.00572523 0.03724819 0.0029041534 -0.015467188 0.013479676
-0.01590379 0.0013022949 0.02169568 -0.00028942403 0.013074987 -0.044548854 -0.021199659 0.020086916
-0.014116567 0.04325438 -0.020598877 0.034080397 0.02832811 0.02339892 -0.0009732942 -0.0334228
0.037963975 0.007762951 -0.019437324 0.00014649537 0.0037766933 -0.041748624 0.006120442 0.0065689883
-0.013102145 -0.015890375 0.018087361 0.006305773 0.059021853 -0.013372785 -0.006956329 -0.041048203
-0.0067746965 0.014382655 -0.009109871 0.004360046 -0.011962014 0.024425361 -0.041181967 -0.006160824
-0.006883361 -0.0036611995 0.008659383 -0.032514147 0.021412676 0.0017418512 -0.031625047 -0.022497937
-0.03022375 0.038376782 0.008370978 -0.024056138 0.0054034805 -0.013273299 0.032561466 0.029352758
-0.007372604 -0.017576948 -0.009779533 0.041001886 -0.039944317 -0.004017964 0.004373911 0.011152763
0.0524413 -0.027576843 0.044278834 -0.030917354 -0.028400276 0.010659124 -0.021543665 -0.0016498388
-0.010321351 -0.022315668 -0.011225358 0.042685635 -0.0023678725 -0.0043838937 -0.01336874 0.013878733
-0.009503785 -0.012602241 -0.00041441806 0.031598285 0.005441567 -0.03636002 -0.035470936 0.018527864
-0.020463677 0.031818565 -0.020319141 -0.031364866 0.049691282 -0.025837777 -0.044725973 0.037655946
-0.011492972 0.050857205 -0.0030278002 0.021730304 0.01803523 0.014290696 -0.032083612 0.06261708
0.015384257 0.035980113 0.02392375 -0.0041887937 0.043961164 0.041893765 0.017147344 -0.0085978815
-0.0019553078 0.012766761 -0.0069289026 0.0064457683 -0.020344216 0.008750247 0.05359074 -0.00903816
0.011071046 0.021565206 0.0133307045 0.040133234 0.0026209133 -0.040764775 0.04565711 0.0066419025

classify.bias f4 [2]
00000000: 00d0 39bd 915d 2c3c
-0.04536438 0.010520355
