notebooks/outputs/temp_B01_fold2_last.pth (torch, 12776 bytes, 18 tensors)

conv_temporal.weight f4 [8, 1, 1, 64]
00000000: 93f3 81bb b802 b13d 5df8 a2bc 9b98 253e
00000010: ec1b b23c 9de2 a73b c111 763d 0efa c03a
00000020: 05b5 f43c c101 34bc 6081 883b d5b8 dbbc
00000030: 4973 a4bd 85c3 b1bd 74ce 59bd 3ed9 d2bd
00000040: 1cf2 22be 5cf5 303d aeae 93bc 685d d7bc
00000050: 09ed f83c f503 293d 78be ae3b fe6e 5b3d
00000060: 4e09 cf3c 4419 103e 8db9 fc3d d06d 35bc
00000070: c984 d13d db29 13bd 3d20 f83d 76b1 613b
00000080: 2be4 31bd 7911 ffbd c362 16bd d64e 4bbd
00000090: e333 1fbd 0104 17be 09ab a7bd bd73 9bbd
000000a0: 8551 23bd 44f5 d1bc 7672 87bd 657f 1a3e
000000b0: d3d9 97bd d464 f73c 4cbb ac3d c0ae 123d
000000c0: 7d59 303d 7ad6 f23d 8126 223c 3a8d 8f3b
000000d0: af46 ec3d dbef 46bd f3eb 96bc 0d5c 6e3d
000000e0: edea 55bd e068 e8bd 3c91 c73d 3309 c2bd
000000f0: 2231 f2bd 022a afbd d97d 18bd f1c1 ba3c
00000100: 5964 dd3b 5bc1 ce3c 3f51 2c3e ce41 023e
00000110: 3d19 883d 0e4d a2bd 2778 db3d b257 463d
00000120: 1b7f e6bc 8af3 253e efef eebc 54a3 733d
00000130: e62c 43bd 263c de3d f08d 39bb 7cd7 2fbd
00000140: 69d1 5b3d 778d c33d bf36 d3bc f257 8e3d
00000150: 936d 49bd fdf7 81bd 5cf0 5bbd ff50 cabd
00000160: 1c27 053e cd0f 423d c723 b0bd 6409 02be
00000170: 78df 183d feba 2cbd 2dac 00be e976 21bd
00000180: 9217 6cbd 271c 353c 5197 78bd c29f 9dbd
00000190: 0136 d5bd 37dd c3bd 7b48 46bd 0499 e53b
000001a0: c885 d3bc e5cc 063d edcf 8cbd 745e 4fbd
000001b0: 6dd2 7fbd 9b4c a9bd 2481 5bbd 9b10 6fbc
000001c0: 03c9 de3d e4b3 16be 7b0a 3f3d 897a f03a
000001d0: 3f79 27bc a352 eebb 1eb4 333b 4a63 753d
000001e0: 87ac 953c e55f 1abd 7f96 283d 8309 90bc
000001f0: a44d 96bd 5644 003d 68c5 fe3d dc68 023e
00000200: 7547 90bd 4c3d 733a 6d35 9b3d 9aed c23d
00000210: 8443 d2bd c701 03bc a5c3 87bd b7e3 593d
00000220: 6e33 e2bc 0a8d cdbd 1aad 71bd f5f5 cf3d
00000230: 5001 e3bc e3b5 023d 43a4 e63d e991 e7bd
00000240: 6939 b1bc 04d8 01be b82c 49bd d02e 3f3d
00000250: 4103 703c 7441 b73d 9848 4cbd fca3 a93d
00000260: 8b80 4fbd 2db7 4e3d d187 b2bd 9bfa 2e3d
00000270: 37e2 f5bc f68d 123d a810 8ebd 3c94 6c3d
00000280: 837f 013e c6b4 8abd ce89 e13d 8213 6b3d
00000290: 315b 36bd 7a5c 9dbd 43cd 903d 0e33 57bd
000002a0: 9ff8 453d ca6e a73c 789b 0f3e 0b41 4dbd
000002b0: cbf9 6f3c f062 963d ca28 63bd 3447 13bd
000002c0: 7c42 eabc becb 053e 3db5 a43d 58ea 9cbd
000002d0: 8855 8e3d e3bc f03d 472c 213d 140f 553d
000002e0: db51 e1bd 341a a0bd 2715 533d 371b a33d
000002f0: 5295 14bd 180d 453d 5b34 173d c840 173e
00000300: 2c59 08bd bb96 e63b 5f13 8a3d f992 033b
00000310: 25bd 1fbd ea76 f63d 80a6 10bd 137e a43d
00000320: 1512 d7bc e84c f7bd a330 aebd 4d8c ef3c
00000330: bec7 a73d fc8f 00bd bd65 683d f396 2abc
00000340: f270 553c 764c a73d 9b51 373d a1a4 613d
00000350: e216 fabd 7adf 04be 34d5 7c3d de9b a63d
00000360: 79d7 fa3c 92ef 523c b029 8ebd fa8c 083b
00000370: 993c d0bd bef8 46bd 43fa 913d 8b0c f6bd
00000380: dcef 14be 9b38 3ebd d9c0 193d 1df9 03be
00000390: c6b9 8f3d 5d55 b9ba 9b20 b33b 8b9c 7e3d
000003a0: a110 2f3d 7031 04bd bcfc 16be 6414 8e3d
000003b0: 3e5a 8bbd d891 adbd 5e39 0b3d 58bd a13d
000003c0: f16d 2d3c 1a47 a9bd 9c31 00be 8ec0 453d
000003d0: 8564 543d e7e0 c33d 8648 1d3e a2a7 18bd
000003e0: 1ce9 833d b8c8 173e 9ef0 dd3c 250b f0bb
000003f0: bb75 44bd 2271 783d af85 963b dc20 23bc
-0.003965804 0.08643097 -0.01989382 0.16171496 0.02174183 0.00512345 0.060075525 0.001472296
0.029871473 -0.010986746 0.0041658133 -0.026821533 -0.080298014 -0.086798705 -0.053175405 -0.10295342
-0.1591267 0.043202743 -0.01802763 -0.026289657 0.030386465 0.04126354 0.0053327642 0.053572647
0.025272992 0.14072138 0.123400785 -0.011073545 0.10230405 -0.03592859 0.12115524 0.003443805
-0.04343049 -0.124545045 -0.03671528 -0.04963573 -0.038867842 -0.14747621 -0.08186919 -0.07590435
-0.039872665 -0.025629647 -0.066136286 0.1508766 -0.074145935 0.030199446 0.084341615 0.035811186
0.043054093 0.118573144 0.009896875 0.004380849 0.11536919 -0.048568588 -0.018423056 0.058193255
-0.052225996 -0.11348128 0.09744498 -0.09474411 -0.118257776 -0.08552934 -0.037229393 0.022797557
0.006756347 0.025238683 0.16827868 0.12720415 0.06645439 -0.07924853 0.107162766 0.048423477
-0.02813678 0.16206184 -0.029167144 0.059481934 -0.04765024 0.10851316 -0.002831336 -0.04293011
0.053666506 0.09548467 -0.02578294 0.06950368 -0.049176764 -0.06346128 -0.05369602 -0.0987873
0.130032 0.04737835 -0.08600574 -0.12698895 0.03732249 -0.042170517 -0.1256568 -0.039420042
-0.057639666 0.011054075 -0.06069118 -0.07696487 -0.10410691 -0.09563678 -0.048408967 0.0070067663
-0.025820628 0.032910246 -0.06875596 -0.050627187 -0.062456537 -0.082665645 -0.053589955 -0.014591361
0.10878184 -0.1471706 0.046640854 0.0018347065 -0.010221778 -0.0072730347 0.002742059 0.059909143
0.018270744 -0.03768911 0.04115915 -0.01758266 -0.073390275 0.03131517 0.12439996 0.12735313
-0.07044879 0.00092788483 0.075785495 0.09517975 -0.10266784 -0.007996029 -0.06629113 0.05319568
-0.027612414 -0.10036667 -0.059002973 0.101543345 -0.027710587 0.031911742 0.11261799 -0.11307127
-0.02163382 -0.1268006 -0.049114913 0.046675503 0.014649213 0.08948031 -0.04987392 0.08283231
-0.050659698 0.05046766 -0.08717311 0.042719465 -0.030015094 0.035779916 -0.06936771 0.057758555
0.12646298 -0.06772761 0.11012612 0.05739165 -0.04452056 -0.07683654 0.070704006 -0.052538924
0.048332807 0.02043857 0.1402415 -0.050110858 0.014646958 0.073430896 -0.05545882 -0.035956576
-0.028596155 0.13066003 0.08042381 -0.07661885 0.069499075 0.11754777 0.039348867 0.052016333
-0.11001941 -0.07817498 0.051533844 0.07964175 -0.036275215 0.04810819 0.036915164 0.14770806
-0.033288166 0.0070370114 0.06741976 0.0020076616 -0.03899874 0.120344 -0.035315037 0.08031859
-0.02625374 -0.120752156 -0.085053705 0.029241705 0.08192395 -0.031387314 0.05673765 -0.010411966
0.013027417 0.08168881 0.04475556 0.055088643 -0.12211396 -0.12975875 0.061726764 0.08135198
0.030620323 0.012874501 -0.06941545 0.0020835982 -0.10167808 -0.048577063 0.07127812 -0.12014111
-0.14544624 -0.046440702 0.03753743 -0.12887998 0.07017855 -0.001413982 0.0054665334 0.06216101
0.042740468 -0.03227371 -0.14744848 0.06937483 -0.06804322 -0.08475083 0.033990256 0.078974426
0.010585294 -0.08265515 -0.12518924 0.048279338 0.051853675 0.09564381 0.15359697 -0.037269242
0.064409465 0.14822662 0.027092274 -0.0073255473 -0.04796384 0.060654767 0.004593573 -0.009956565

bn1.weight f4 [8]
00000000: bebf 2d3f 2f71 2d3f c9a4 2d3f 447d 2d3f
00000010: 6493 2d3f 786f 2d3f f071 2d3f dc8d 2d3f
0.678707 0.6775083 0.6782957 0.67769265 0.67803025 0.6774821 0.6775198 0.67794585

bn1.bias f4 [8]
00000000: 2705 91b7 d341 e836 2d98 0f37 279c 13b6
00000010: af2a dc36 81bb 42b7 fc48 c835 093f 2eb7
-1.7287746e-05 6.9218017e-06 8.558895e-06 -2.19956e-06 6.56148e-06 -1.1606958e-05 1.4922402e-06 -1.0385885e-05

bn1.running_mean f4 [8]
00000000: 6aaa 8e38 ddc7 e139 78d9 16b9 76b1 4538
00000010: bb42 2ab9 084b b639 4ca3 9db9 0045 6db8
6.80283e-05 0.00043064254 -0.00014386128 4.7133733e-05 -0.00016237322 0.00034769648 -0.0003006704 -5.6569465e-05

bn1.running_var f4 [8]
00000000: 257e 933f 8227 403f ae55 3f3e 00c6 bf3e
00000010: 82ab 4f3f 28a8 f23e 1cc1 7d3e ddf7 3b3e
1.1522871 0.75060284 0.18685028 0.3745575 0.81121075 0.47393918 0.24780697 0.18356271

conv_spatial.weight f4 [16, 1, 3, 1]
00000000: dbbd 0cbf 37f8 9abe 5f7b a63e 8a3e a83d
00000010: 8c9d cfbe d52f 053d 17f6 e8be f12f a63d
00000020: 9ba4 bdbe 7e0e 643e 90ad b3be b26e 38bd
00000030: 0549 78be 1b47 a13e 281d 00bf 9475 963e
00000040: 2b66 e23e b171 9dbe 7fe9 b33e 2ecb c13e
00000050: 7c73 cdbe b9b3 823c f79d 1e3e 4eed abbd
00000060: d8fb dc3e 7c5b 4abe cae3 e1bd 3d31 01be
00000070: 0095 97bc 6b80 183f a08b e9be a02e b6be
00000080: f131 06be 6c3a 16be 6941 76be 4d19 91be
00000090: ded6 9bbe fc07 e1be 694c 7bbe 857f 623e
000000a0: 6c1b ac3e 17fc 77be c70e eb3e 8e71 f93c
000000b0: 8d48 08bf b02b 433e 6e9f ddbd a611 053f
-0.54977196 -0.30267498 0.32516 0.082150534 -0.40549886 0.03251632 -0.45500252 0.08114613
-0.37039647 0.22271153 -0.35093355 -0.045027442 -0.24246605 0.31499562 -0.5004449 0.2938658
0.44218573 -0.30750802 0.3513908 0.37850326 -0.4012717 0.015954839 0.15489946 -0.08394872
0.43160892 -0.19761461 -0.110297754 -0.12616439 -0.018503666 0.5957095 -0.45614338 -0.35582447
-0.13104989 -0.14670724 -0.2404839 -0.28339615 -0.30437368 -0.43951404 -0.24540867 0.22118957
0.3361467 -0.24217258 0.45909712 0.030449655 -0.53235704 0.19059634 -0.108214244 0.51980054

bn2.weight f4 [16]
00000000: 79ea 733f 8ce6 953f 8583 553f 2720 823f
00000010: d6f0 853f ef55 973f 4a3e 563f 4dc9 643f
00000020: fc36 773f 6efe 8e3f df51 8a3f 91bb 623f
00000030: f262 823f 5bbc 583f 541f 6c3f e4ae 913f
0.9527965 1.1710982 0.8340381 1.0166062 1.0464122 1.18231 0.83688796 0.8936966
0.96568274 1.1171396 1.0806235 0.88567454 1.0186446 0.8466241 0.922353 1.1381497

bn2.bias f4 [16]
00000000: 67d5 cabd 588a 82be 780d 45bd 4a21 0abe
00000010: 84dd 2dbe 8172 50be b43c 0cbd 2d70 a0bd
00000020: fbb4 39be ac42 8bbe 6440 e5bd de3a 67bd
00000030: 1755 22be 4627 9cbd 3ccf 93bd 8135 4dbe
-0.099039845 -0.25496173 -0.048108548 -0.13489261 -0.16979033 -0.2035618 -0.03423758 -0.07833896
-0.18135445 -0.27199304 -0.11193922 -0.056452624 -0.15852772 -0.07624678 -0.07217261 -0.20039941

bn2.running_mean f4 [16]
00000000: 991b 4e38 c20e b237 ab80 b9b7 fa2e 3cb7
00000010: 31bf 4039 244f 2d39 b31c 5e38 c7bb 6c37
00000020: e7a3 1638 51c1 08b8 2df8 d538 4114 abb7
00000030: a363 86b7 4310 c538 9f1e 72b6 a9f3 a837
4.913993e-05 2.1226126e-05 -2.2113634e-05 -1.1216611e-05 0.00018381771 0.00016528048 5.2955653e-05 1.41104165e-05
3.5915433e-05 -3.2604967e-05 0.00010202858 -2.039422e-05 -1.6020442e-05 9.396721e-05 -3.6078634e-06 2.0140624e-05

bn2.running_var f4 [16]
00000000: 764a 393e fb86 3b3d ccfa 3b3e 5ad9 563d
00000010: 2219 073e ffb2 f73d d85a de3d 9694 0b3c
00000020: 3646 6c3d 2041 0b3e 40da 953e 2db8 2a3e
00000030: e689 a13e 9953 ab3d a6f8 033e 813c 293e
0.18094811 0.045783024 0.1835739 0.052453376 0.13193181 0.12094688 0.10857171 0.008519312
0.057684146 0.13599062 0.29268074 0.1667182 0.3155052 0.08365554 0.1288782 0.16526987

conv_separable_depth.weight f4 [16, 1, 1, 16]
00000000: 3ef0 1cbd b4d9 b1bd a4c1 ff3d 5a4b 2dbe
00000010: 412c 933d 45ee 48be f24e a3bd 5ce4 64bd
00000020: 587b 53be 86ef 0dbe b205 d9bd 2e2e 26bd
00000030: d64f 6f3b 5a2a 33be 105f bd3d 7ee4 bebc
00000040: c0de ccbd 78bd 7bbd 2c32 4abe b733 aebd
00000050: 86a1 83be 17c7 bb3d 96a7 52be b5e0 8ebe
00000060: b347 a6bd 8ccb 54be 2a81 7fbe 2178 81be
00000070: 15a3 13be aa2d c8bc 1bca 7dbe 0b16 d0bd
00000080: 5b14 83bd 8a01 bdbd 81af 813d d427 fe3d
00000090: 932d 113d c9e2 86bd 09b1 6d3d 8ea1 9cbd
000000a0: 2cd1 ffbb 3469 d43d 8d87 64bd 100f 043e
000000b0: a33b 093e 083f b13c 5199 00bd 1e59 1bbd
000000c0: ad14 423e e2fa 013e 263e c2bd 919b 05be
000000d0: 7828 3b3d 3097 c73d cc88 353e a538 3b3e
000000e0: eccc bc3d d5bc 2b3e 8e48 383e a987 abbd
000000f0: 7f9e 8f3e 84cc 963b b33f eabc aa04 f83d
00000100: fb17 5ebd 15e3 c93d 6251 9a3d bd65 ef3d
00000110: 79bf 20bd 25c5 193e ab18 723e 534f d03d
00000120: 73ea 393e 5be4 f93b 7893 363e dd00 20bc
00000130: 2106 a33c b68e 4c3d 2030 f43d a03d 893e
00000140: 6f12 1e3e 6c33 a33e bcdf 313e 2fdf 883d
00000150: 2cda 9e3d 6a28 ea3d b845 a03b 85fe 463e
00000160: 4715 8a3e cb2e 673e 592b 683e 4177 9a3e
00000170: f7fd 0e3e 8736 c13d c21a 763d 39d8 29bd
00000180: 93a5 a5bd 7c56 7d3d b046 ccbd 088e babd
00000190: 1b60 f33c 16d5 aebd e44d bbbd 8709 90bd
000001a0: 673e ff3d 005d 733d 929e 13be e5c2 cfbd
000001b0: de25 b03d 709c 2b3e 5f12 ba3d c28d 1a3e
000001c0: a6c4 24bd a2e5 4f3d 1b8c 693d 866c 08be
000001d0: 44f7 3b3d d805 00be e55c e13a 9445 5abe
000001e0: fe55 f2bd 86b9 0dbe bc26 efbd 6ae2 0c3e
000001f0: 7261 fbbd 5270 023d 86dc 12bd 5372 013d
00000200: d93e 21be e573 37be 31d1 6cbe 03cd 39bd
00000210: ab68 75be d9d6 71be 2819 d73d c5de 3e3c
00000220: 95d9 dbbd 1b02 27be 3ba7 e63d 8603 9dbd
00000230: 134b 77be 756e 593d 93fd c53d ef8f 56bd
00000240: f088 973e b9c6 3fbd a72a 1b3e 26ef b93e
00000250: 7d72 91bd 641d b1bd 0a2c 0d3e bff5 443e
00000260: 66fb 2e3e ef93 2c3d 0332 963e cff0 863e
00000270: c72f e2bd 0b8b 9abd 61ee 9b3e 97de 1e3c
00000280: cc69 00bd 109c 633c 5dd5 123c d2e6 06be
00000290: 1e69 2bbe 2f54 52be 8e76 e43c 9b0b b4bd
000002a0: 802f 33be 3ef4 58be bef1 523d 2a3c 40bd
000002b0: 7c89 92be e311 acbd 2da4 07be 1cc3 b0bd
000002c0: 30b9 7a3c 8ce3 a13d 10ab 44be 32e9 1d3d
000002d0: 18cf fc3d 4308 84bd 9232 113e 0bf3 1d3e
000002e0: b24d c73b 62c2 253e 2473 223d 144a 27be
000002f0: ca9d dc3d ff7d bfbd 02c9 22be d7c2 41be
00000300: 81a7 953d 3433 693e 0517 69bc 9bbf be3d
00000310: a19f 063e 6ef2 373e 5e22 793e 302f 453e
00000320: 1995 ad3c 3899 dc3d a426 ccbd 6310 a0bd
00000330: e7fa cabc 3431 3f3e 4b5a c73d 26cf 3e3d
00000340: 400b 223e 4dab 953c e3ab 133e 7f5f 2d3e
00000350: c151 fbbd c05a 2f3e 4b50 073e 7fd7 493c
00000360: 24c1 ab3d db97 cfbd c661 04bd e646 04bd
00000370: 49fa 97bd c303 293c 5193 1bbe 0e2e 1439
00000380: 6120 f13d 62c4 04be 3142 cbbd d35c a1bc
00000390: f195 dfbd 7041 abbc bbf5 5abe c33e 083d
000003a0: 3b2b 2c3e 448d 80bc c1e0 3a3e 0052 64be
000003b0: 6386 0ebe 733f d3bd f05d 1e3e 5953 57be
000003c0: 7883 36be 0f09 7bbe dd35 fdbd 71c5 86be
000003d0: 8774 85be f204 8bbe 0133 12be c568 46bd
000003e0: c322 abbd 0c78 85be ab36 943a a9f5 dcbd
000003f0: eea9 babd 44c7 60be f280 45be 7ceb 95be
-0.03831505 -0.08684102 0.12488106 -0.16923276 0.07186175 -0.19622143 -0.07974042 -0.055881843
-0.2065252 -0.13860902 -0.105967894 -0.040571384 0.0036516092 -0.17496625 0.09246647 -0.023302313
-0.10003424 -0.06145999 -0.19745702 -0.085059576 -0.2570917 0.09168833 -0.20571741 -0.27905813
-0.08119144 -0.20780772 -0.24951616 -0.25286964 -0.1441768 -0.024435837 -0.24784128 -0.10160454
-0.06400367 -0.09228809 0.06332303 0.1240994 0.035443854 -0.065862246 0.058030162 -0.076480016
-0.0078069177 0.103716284 -0.055793334 0.12896371 0.13401656 0.021636501 -0.031396214 -0.037926786
0.189532 0.1269336 -0.0948451 -0.13047625 0.04569289 0.097456336 0.17727965 0.18283327
0.09218773 0.16771252 0.17996427 -0.083754845 0.2805061 0.004602017 -0.028594827 0.121102646
-0.05422209 0.098577656 0.07535054 0.11689327 -0.039245103 0.15016611 0.23642223 0.1017138
0.18155842 0.007626099 0.17829692 -0.009765831 0.019900383 0.049940787 0.119232416 0.2680483
0.1543672 0.3187517 0.17370504 0.06683194 0.07756457 0.114334896 0.0048911236 0.19433029
0.26969358 0.22576444 0.22672786 0.3016911 0.13964067 0.094342284 0.060084112 -0.04146597
-0.080882214 0.061850056 -0.0997442 -0.091091216 0.029708913 -0.08536737 -0.09145716 -0.07033067
0.12463074 0.059414864 -0.14415959 -0.10144595 0.086009726 0.16758895 0.09085535 0.15093139
-0.0402266 0.050756104 0.05701838 -0.13322648 0.045890108 -0.12502229 0.0017193822 -0.21315604
-0.11832808 -0.13840303 -0.1167731 0.13758245 -0.122744456 0.0318454 -0.03585484 0.03160317
-0.1574663 -0.17915304 -0.23126675 -0.04536153 -0.23965709 -0.23617114 0.10502845 0.011649792
-0.1073486 -0.16309397 0.112623654 -0.07666688 -0.24149732 0.053083856 0.09667506 -0.05238336
0.29596663 -0.046820376 0.1515299 0.36315268 -0.07101915 -0.08648184 0.13786331 0.1923437
0.17088088 0.042133268 0.2933503 0.26355597 -0.11044269 -0.075460516 0.30455306 0.009696624
-0.031350896 0.013892189 0.008962003 -0.13173988 -0.16739318 -0.20539926 0.027888563 -0.08791276
-0.17498589 -0.21186921 0.051500075 -0.046932377 -0.28620517 -0.08401849 -0.13246222 -0.08630964
0.015302941 0.07904729 -0.1920588 0.03855247 0.123441875 -0.06446888 0.14179447 0.15424745
0.00608226 0.16187432 0.039660588 -0.16336852 0.107722834 -0.09350204 -0.15896991 -0.18921982
0.073073395 0.22773439 -0.01422668 0.093138896 0.13146831 0.17963573 0.24329516 0.19256282
0.02118926 0.10771412 -0.099683076 -0.078156255 -0.024777843 0.18671113 0.09734019 0.04658427
0.15824604 0.01827016 0.14421038 0.1693096 -0.12271453 0.17124462 0.13214223 0.012319445
0.08386448 -0.10136386 -0.032319807 -0.032294177 -0.07420785 0.010315838 -0.15192915 0.00014131537
0.11773754 -0.12965539 -0.099247344 -0.019697582 -0.10917271 -0.020905226 -0.21382801 0.03326298
0.16813366 -0.01569236 0.182498 -0.22296906 -0.13918452 -0.10314836 0.15465522 -0.21027888
-0.17823589 -0.24515174 -0.12363789 -0.2632251 -0.26065466 -0.2715221 -0.14277269 -0.04843976
-0.0835624 -0.2606815 0.0011307796 -0.107890435 -0.09114443 -0.21951014 -0.1928747 -0.29281223

conv_separable_point.weight f4 [16, 16, 1, 1]
00000000: 8a85 cdbd 0440 8b3c 2e95 aa3d 9881 3ebd
00000010: 457d 7abe 3d50 633e b851 f3bd 9fcd 62be
00000020: 0a93 553e d312 1ebe 0aed 99be e484 143e
00000030: 1fa2 5b3e 4107 e5bd 3c20 263e 0fa9 c4bc
00000040: fd4a f8bc 5568 9b3d f50c 47bd 5f73 333e
00000050: d05d 31be 8379 863e 6240 013d ba50 d0bd
00000060: 7790 ec3b b8a0 153e 767a 8ebd c0a4 22be
00000070: 3a15 5c3e 4684 2a3e 5e17 cd3d 4300 303e
00000080: 6058 46be 0d90 64be 3559 48bd 544f bebc
00000090: ae38 293e 5772 a9bd 6076 e8bd 6938 10bd
000000a0: 898e fbbd 6e5e f5bd 5199 bf3d ccc1 af3c
000000b0: 0cae e8bd b884 debd 603b a3bd 9fbc 68be
000000c0: 7f7b f83d 8ab8 0e3c 505f 16be 53ba d13d
000000d0: b1c3 a1bd 9ebb 02bd 1b85 883b 7d22 dc3b
000000e0: f951 923d ca93 693e 9bef 42be f43a 48be
000000f0: a186 2c3e 9568 7f3e 747a 033e ea5e 5b3e
00000100: 57d3 ef3d 7037 bbbd e545 00be c8bb 10bd
00000110: 3967 9dbd d48a 80be a11c 913d 7d02 0bbd
00000120: 7350 4ebe e6c5 a33b 0ae2 d83d 3873 1e3e
00000130: 434e 63bd 7550 30ba 5a71 203c 74d5 44be
00000140: f29f c6bd 8b46 433d 8ba1 e2bd ee9e d9bd
00000150: 6483 723e e32f afbd ca42 b13d 63a6 fbbc
00000160: cc44 a13d e105 58be 6a9e b0bc 1423 d4bd
00000170: 9db1 1cbe e49a 2e3d a7d2 e03d 724d 9b3c
00000180: 397a e23d 4934 233e a771 c23d 469d 153e
00000190: fc64 0bbe 88c8 6b3e 439d 993d 7e43 2e3d
000001a0: 1d2f 953c 88cf 8f3e 3164 bdbd 252c 26be
000001b0: 0a6a 8f3a 2610 5a39 a05a 853d 2aed 223e
000001c0: 40d2 9e3d bafa 313e 8053 8d3d 8647 63bd
000001d0: bd7d 00be ce51 f33d 2db2 98bd fd23 02be
000001e0: ce18 51bb 31ca 8d3e 623f 81be 9021 e13b
000001f0: 62e9 d53d 8ca4 71bd d2b3 4ebc 88d6 793d
00000200: 53dd 69be b3e2 92be ea58 d53d e862 5ebd
00000210: a89a 9e3d b306 d9bd a261 07be dbae a63c
00000220: ae90 3dbe 6931 a4bd 4db6 0a3d 225f 1fbd
00000230: d28d a7bc be8d 91bd 0ac1 c2bd e2f3 5cbe
00000240: 0a2e c4bd 5f18 82be 27dc 16be 0329 0cbd
00000250: 28a5 3d3e 36ce 25be 73df a4bd c6ad bf3d
00000260: 3c51 31be 2e20 13be 0982 67bd 94e0 6d3d
00000270: 48e4 89bc 1573 c23d 6795 39bd 149d 88be
00000280: 1063 0e3e 2e44 203e 97f3 7ebd 52ec c3bd
00000290: 625c 5dbd d8a2 ce3d 74b3 9ebc 5ac4 80bd
000002a0: a92e 8c3b 4890 963e 7de1 5ebd ec1c 7f3d
000002b0: 8bba 2bbd d479 bdbc 1f9c 8f3b 0df1 383e
000002c0: 63c4 58bd e4c4 bbbe 7cf0 05be dc6f 483d
000002d0: 241b 953e 687f 56bd 93fe 88bd 5f98 3abd
000002e0: c61d 8dbc c41c 33be be4d 9f3d ffea ca3c
000002f0: bb7a c5bc 7d21 663d a240 03bd 6e0c 37ba
00000300: 40ee dbbd 34fd d73c 73d9 a0bd b512 363e
00000310: 9c2c 4bbe 455e 843e 8335 fabd b8ec 93bd
00000320: 3e00 023e 4b2d 963e cc29 41bc 885c 28bd
00000330: d519 583e 4758 ad3c 7d26 ba3d 58d4 383e
00000340: d2c6 d13c 74d9 5d3e a8bd 483d 0b02 923e
00000350: dd0d 4e3d e015 513e afcd 08be 113d e4bd
00000360: 912f 0b3d 469f 973d 19f3 80bd 1904 503e
00000370: e5b6 573e a772 4d3d 6e89 cb3d 3412 143d
00000380: 7d8d e93d 31cd 843e 2847 613d 1cf3 913d
00000390: a233 663d 9e57 9abd a633 f33d 5d39 52bd
000003a0: 6ff8 00be 16ad a23e 6d28 0abe f03c 02be
000003b0: 67c0 aebd a1c4 4fbd 7102 79bc b528 6ebd
000003c0: 5a5c d03d 877d d53d e9f1 8bbb f9fc 733e
000003d0: 017b cfbd a719 413d 7cd1 f0bd aa4a aabd
000003e0: e250 6b3c fb60 453e 6025 6abd eff1 be3c
000003f0: 50f0 3d3c 9ba6 16be d4b9 cf3c 6d1d 183e
-0.10035236 0.016998298 0.08329235 -0.04651031 -0.24461849 0.22198577 -0.11880821 -0.2214875
0.20856872 -0.15436868 -0.3006366 0.14503819 0.21448563 -0.11183024 0.16223234 -0.024006395
-0.030309195 0.07588259 -0.04859634 0.1752448 -0.17320943 0.2626458 0.03155554 -0.10171647
0.00721937 0.1461209 -0.06956951 -0.1588316 0.21492472 0.16652021 0.100142226 0.171876
-0.1936965 -0.22320576 -0.0489132 -0.023231186 0.16525528 -0.08273762 -0.11350703 -0.035210047
-0.12283046 -0.11980902 0.09355415 0.021454714 -0.11361322 -0.10865158 -0.07970309 -0.22728203
0.1213293 0.00871099 -0.14684796 0.10240617 -0.07898653 -0.031917207 0.004166258 0.0067179785
0.07144541 0.22810283 -0.19036715 -0.19553739 0.16848232 0.24942239 0.12839681 0.21422926
0.11710232 -0.09141433 -0.12526663 -0.035335332 -0.07685704 -0.25105917 0.07085539 -0.03393792
-0.20147876 0.0049979566 0.105899885 0.1547364 -0.055494558 -0.0006725856 0.00979265 -0.19222051
-0.09698476 0.047674697 -0.11065968 -0.106260166 0.23682934 -0.085540555 0.08655317 -0.030718988
0.0787445 -0.21095993 -0.021559913 -0.10358253 -0.15302129 0.042628184 0.10977679 0.018957827
0.11058468 0.15937914 0.09494334 0.14610776 -0.13612741 0.23025715 0.075006984 0.042544834
0.018210942 0.2808802 -0.092476256 -0.16227777 0.0010941636 0.00020796116 0.06511426 0.15910783
0.07754946 0.17380801 0.06900692 -0.055488132 -0.12547965 0.118808374 -0.07455859 -0.12709041
-0.0031905654 0.27693322 -0.2524367 0.006870456 0.10444905 -0.058994815 -0.012616115 0.06099561
-0.22838335 -0.28688583 0.1041735 -0.054293543 0.07744342 -0.10596981 -0.13220838 0.02034705
-0.18512222 -0.08017237 0.03386526 -0.038909085 -0.020453367 -0.07107113 -0.095094755 -0.21577409
-0.09579094 -0.2540922 -0.14732419 -0.0342188 0.18520033 -0.16191944 -0.08050432 0.093593165
-0.17316145 -0.14367744 -0.056520496 0.058075503 -0.016832486 0.094946064 -0.045308497 -0.2668234
0.13904977 0.15651008 -0.062244024 -0.09566559 -0.05404318 0.10089654 -0.01937268 -0.06287451
0.0042780233 0.29406953 -0.05441426 0.06228344 -0.041925948 -0.023129381 0.0043826248 0.18060704
-0.052921664 -0.36673653 -0.13080019 0.048934802 0.2912227 -0.052367598 -0.06689181 -0.04555547
-0.017226111 -0.17491442 0.077785 0.024770258 -0.024106374 0.05618428 -0.03204406 -0.0006982748
-0.10738802 0.026365854 -0.07853975 0.17780574 -0.19841236 0.25853172 -0.12217238 -0.07222885
0.12695405 0.2933143 -0.01178975 -0.04110387 0.21103604 0.021160258 0.09089372 0.18049753
0.0256075 0.21664983 0.049008995 0.28517184 0.05030619 0.20418501 -0.13359712 -0.1114446
0.03398091 0.07403426 -0.06296367 0.20314063 0.21065862 0.05015817 0.09938322 0.036150172
0.1140394 0.259378 0.0549995 0.071264476 0.056201585 -0.07536243 0.118750855 -0.051324237
-0.1259477 0.3177268 -0.13491984 -0.12718558 -0.085327916 -0.05072463 -0.015198336 -0.05814429
0.10173865 0.10424333 -0.0042707813 0.2382697 -0.10130883 0.047143605 -0.11758706 -0.08315022
0.014362546 0.19275276 -0.05716455 0.023308722 0.0115929395 -0.14711992 0.025357164 0.14854975

bn3.weight f4 [16]
00000000: 0c43 803f 7457 883f ad2a 923f 5e1d 823f
00000010: 0681 843f 0525 633f 2bf8 883f 02ab 873f
00000020: 3ce9 8f3f b98f 923f d868 803f ade9 8a3f
00000030: 248f 883f d4b6 843f e991 7a3f 39b3 873f
1.0020461 1.0651689 1.1419274 1.0165212 1.0351875 0.8872836 1.0700735 1.0599062
1.1243052 1.1450111 1.0031996 1.0852562 1.0668683 1.0368295 0.9787889 1.060157

bn3.bias f4 [16]
00000000: 164b 21bd 2015 adbc 8a2b 353d a0cc f7bc
00000010: f2da 483d 772e 083d 7470 c5bc 9170 f3bc
00000020: 2ff2 0a3d 282a 443d d3e0 9ebc e5d2 113d
00000030: 112f eebc 9b9e d4bc 8c0f f0bc a753 ebbc
-0.03937825 -0.021128237 0.044230975 -0.03024894 0.049036928 0.033247437 -0.024101473 -0.029716762
0.03392237 0.047891766 -0.019394314 0.035601515 -0.029075177 -0.025954535 -0.029304288 -0.028726412

bn3.running_mean f4 [16]
00000000: 6c67 aa3d ab73 0a3d 918c 163d 165e acbc
00000010: 6727 24bd 2136 17bb 2195 8fbb 2375 a43c
00000020: 5e29 2d3d 8d02 463d 2427 2dbd 3f74 dc3c
00000030: 0cfe 673c c0d6 743d 0c78 01bc 26cd 82bc
0.083205074 0.033801716 0.03675515 -0.021040957 -0.04007664 -0.0023073035 -0.004381791 0.020075386
0.04227578 0.048342276 -0.042273656 0.0269109 0.014159691 0.059775114 -0.007902157 -0.015966963

bn3.running_var f4 [16]
00000000: 844d 1d3e 02e7 c63d 2d44 b33d 3c31 c63d
00000010: 4a80 8f3d b7b9 8f3d dc62 e43d 74a2 d93d
00000020: 921c d23d 5900 e53d 470d b33d 3915 e53d
00000030: b25b 103e 1a9d 063e 24db e63d da5f 923d
0.15361601 0.0971203 0.08753238 0.096773595 0.07006891 0.07017844 0.111516684 0.106266886
0.102593556 0.11181707 0.08742767 0.111856885 0.14097479 0.13145867 0.112722665 0.071471885

classifier.weight f4 [2, 16]
00000000: a45f 07be b970 53be f070 e53d be65 8abe
00000010: 14c0 a53e cb65 4d3e 475f a0be fb3a b2be
00000020: e6a3 b53e 804f b93e e706 9bbe 61b0 1a3e
00000030: 6737 88be 7ede 88be 954c 4abe 2fb0 d8bd
00000040: 1afa 783e 3457 6f3e 88e0 c5be 8839 3a3e
00000050: c173 0a3e 1695 1e3e b01c b93e 0401 0dbd
00000060: 5e6a 87be 6881 84bc 6c52 f0bd 24c7 2cbe
00000070: 13c2 923e 5943 243e 71cd 2dbd c771 5a3e
-0.13220078 -0.20648469 0.11203182 -0.27030748 0.32373106 0.20058362 -0.3132269 -0.34810624
0.35476607 0.36193466 -0.30278704 0.15106346 -0.2660477 -0.26732248 -0.19755776 -0.10580479
0.24314156 0.23373109 -0.38647866 0.18186009 0.13520719 0.1548656 0.361547 -0.034424797
-0.2644834 -0.016174987 -0.11734471 -0.16872841 0.28663692 0.16041316 -0.042432252 0.21332465

classifier.bias f4 [2]
00000000: dd20 aebd 2236 22be
-0.08502362 -0.15840963
