notebooks/outputs/temp_B02_fold2_best.pth (torch, 12776 bytes, 18 tensors)

conv_temporal.weight f4 [8, 1, 1, 64]
0	0xbdc04c41	-0.09389544
1	0x3db92346	0.09039931
2	0x3d12016c	0.035645887
3	0x3df5511c	0.11978361
4	0x3d4e7978	0.05040881
5	0xbd18cb4b	-0.03730325
6	0xbddcdc0f	-0.1078416
7	0xbccde8cd	-0.025135422
8	0x3d7352f6	0.05940529
9	0x3ca94995	0.02066497
10	0xbd71d828	-0.059044033
11	0xbaf5be81	-0.0018748791
12	0xbd8fff0d	-0.07031069
13	0x3d09ad64	0.033612624
14	0xbda9fbdb	-0.08299991
15	0xbc3cf5fc	-0.011533257
16	0x3d0c7af3	0.03429694
17	0xbda2e0d3	-0.07953038
18	0xbd2315af	-0.0398156
19	0xbddbeb2a	-0.10738213
20	0xbc72187e	-0.014776347
21	0x3ccb99e8	0.024853662
22	0xbd72eee6	-0.059309863
23	0x3d988187	0.074465804
24	0xbd93a0de	-0.07208417
25	0x3daac8f6	0.083391115
26	0x3da41f76	0.08013813
27	0xbc96ff7f	-0.018432377
28	0x3db59a55	0.08867327
29	0x3dd9b12a	0.106294945
30	0xbd16909e	-0.03675901
31	0x3cd94d2b	0.026526054
32	0x3df9ddd4	0.122005135
33	0x3dbbff4d	0.09179554
34	0xbc0b6c60	-0.008509725
35	0x3d878fab	0.06619199
36	0x3d57ae24	0.052656308
37	0x3d1bc0d3	0.03802569
38	0xbd269116	-0.04066571
39	0xbe0dc122	-0.13843206
40	0x3d15e076	0.036591016
41	0xbbecfa08	-0.0072319545
42	0xbd944392	-0.072394505
43	0xbdfc9a93	-0.1233417
44	0xbdd2990f	-0.102831
45	0xbda69012	-0.08132948
46	0xbcd3492f	-0.025791733
47	0xbd848160	-0.06469989
48	0xbd7f9400	-0.062397003
49	0xbcc67801	-0.024227144
50	0x3c86149b	0.016367247
51	0x3d46a9e9	0.048501883
52	0x3dccf88c	0.10008344
53	0x3d87e5c1	0.06635619
54	0xbd8e79a9	-0.069567986
55	0x3d70956f	0.05873626
56	0x3d8524b8	0.06501144
57	0x3daa9ffc	0.08331296
58	0x3bb4f6bd	0.0055225776
59	0x3db31205	0.08743671
60	0x3cd8c7e8	0.02646251
61	0xbd150bb5	-0.036388118
62	0xbe0b8354	-0.13624316
63	0xbd2f5756	-0.0428079
64	0x3d2fbeac	0.04290645
65	0x3d84da37	0.06486934
66	0xbda6362c	-0.08115801
67	0xbc002135	-0.007820417
68	0x3dbb72d3	0.0915276
69	0xbdda3692	-0.1065494
70	0x3d14e4c7	0.03635099
71	0x3bf88c91	0.007585116
72	0x3bd5f0e6	0.0065289615
73	0x3d526c75	0.051372964
74	0x3d5bec53	0.053692173
75	0xbd97f610	-0.074199796
76	0x3d36113b	0.044450026
77	0xbe007b94	-0.12547141
78	0x3d572284	0.05252315
79	0x3c7ff3dd	0.015622106
80	0xbc83235e	-0.016008075
81	0x3db8ba06	0.09019856
82	0x3d66267b	0.05618904
83	0xbcca98dc	-0.024731092
84	0xbcd2ac90	-0.02571705
85	0x3dad186d	0.084519245
86	0x3d93d641	0.072186
87	0xbd08abe9	-0.03336707
88	0x3d21ca8c	0.039499804
89	0xbddfe965	-0.10933188
90	0x3dc1da4b	0.09465464
91	0xbd798745	-0.06092002
92	0xbdcf7168	-0.101290524
93	0x3db8dfc3	0.09027054
94	0xbd71c5a4	-0.059026375
95	0x3de4d760	0.11173892
96	0x3d9c6d06	0.07637982
97	0xbd917d4d	-0.07103977
98	0x3c98f3d7	0.01867096
99	0x3ddd4ace	0.108052835
100	0xbda6089d	-0.081071116
101	0x3caefaad	0.021359766
102	0x3c571dc8	0.013129659
103	0xbda547cb	-0.08070334
104	0x3d73ca0b	0.059518855
105	0x3dfaaab7	0.122395925
106	0x3dcaaa6a	0.09895785
107	0x3d743249	0.05961827
108	0x3c5f39bc	0.013624605
109	0xbd0360c0	-0.03207469
110	0x3d2136cb	0.039358895
111	0x3c95d01f	0.018287716
112	0x3dc47557	0.09592693
113	0xbd8c4e82	-0.06850912
114	0xbcdb5e1b	-0.026778271
115	0xbdd22900	-0.102617264
116	0x3d891026	0.06692533
117	0x3d545ce0	0.051846385
118	0xbe02bd68	-0.12767565
119	0xbc3ef78f	-0.011655702
120	0x3d9db4bb	0.07700487
121	0xbc889dd6	-0.016676825
122	0x3df77b59	0.120840736
123	0xbcba5275	-0.022744397
124	0x3de9add7	0.114101104
125	0x3bfc8d33	0.007707262
126	0x3db6fa76	0.089344904
127	0xbdba6eca	-0.091031626
128	0x3e02e49a	0.12782517
129	0x3c42c407	0.011887557
130	0x3d926e58	0.07149953
131	0x3d421fc8	0.04739359
132	0x3d7113e4	0.05885686
133	0xbd1abf0c	-0.037779853
134	0xbdfcaf9b	-0.123381816
135	0x3d8ebae1	0.06969238
136	0xbdbe442a	-0.09290345
137	0x3d2d693f	0.0423367
138	0x3da3c92d	0.079973556
139	0xbd264379	-0.04059169
140	0x3dee065b	0.11622306
141	0xbd5dda7c	-0.05416344
142	0xbde2ba19	-0.110706516
143	0xbda83f9b	-0.08215257
144	0xbcd500a6	-0.026001286
145	0x3d5eb1a9	0.05436865
146	0xbd6872fa	-0.056750275
147	0x3c0b9684	0.008519772
148	0x3b2f6f89	0.002676936
149	0x3dcc4c00	0.09975433
150	0xbd9b8fdc	-0.075957984
151	0x3d05f986	0.032708667
152	0x3deb4c4f	0.11489164
153	0xbc8b7989	-0.017025726
154	0x3aaa8157	0.0013008517
155	0x3dd84c66	0.10561447
156	0x3dbeb388	0.093115866
157	0x3d91069f	0.07081341
158	0xbdde9d13	-0.10869803
159	0xbc4e8562	-0.012605043
160	0xbdf76971	-0.12080658
161	0xbd85f6f0	-0.0654124
162	0xbd5a18c8	-0.05324629
163	0x3c9f4b55	0.0194451
164	0x3de801fe	0.11328505
165	0x3dc22fd7	0.09481781
166	0xbddfcd8f	-0.10927879
167	0x3d4fa95e	0.05069863
168	0xbd73de59	-0.05953822
169	0xbdae96dd	-0.08524869
170	0x3ddeb48b	0.108742796
171	0x3e09a14a	0.13440433
172	0xbd6c2420	-0.05765164
173	0xbdb5c5fa	-0.08875652
174	0x3d9bef47	0.07613998
175	0x3dd8f3d3	0.10593381
176	0x3d598bb4	0.053111747
177	0x3d81ebe2	0.06343819
178	0xbde1811f	-0.11010956
179	0x3d539a7b	0.051660996
180	0xbd136211	-0.035982195
181	0xbcf5fb8d	-0.030027175
182	0xbde61ed3	-0.11236348
183	0x3dde34d7	0.10849922
184	0x3dd120fc	0.102113694
185	0xbd4e34d1	-0.05034334
186	0x3d7257c4	0.05916573
187	0x3d9ccdea	0.076564625
188	0x3c82a29e	0.015946683
189	0xbda64c6e	-0.081200466
190	0x3c0eaee0	0.008708686
191	0xbd0a9e40	-0.033842325
192	0x3dc2d6cd	0.09513626
193	0xbd38f631	-0.04515666
194	0xbdbc7ac9	-0.09203107
195	0xbdd07369	-0.10178263
196	0xbcd62ad9	-0.026143478
197	0xbd2fea90	-0.042948306
198	0xbcb20242	-0.021729592
199	0xbc4356cf	-0.011922552
200	0xbd9f6860	-0.0778358
201	0xbd0a550a	-0.033772506
202	0x3cb31b6b	0.02186366
203	0x3db1d377	0.08682912
204	0x3e03ad0a	0.12858978
205	0x3cf8d606	0.030375492
206	0x3ce46c8d	0.027883792
207	0xbcfcdd5b	-0.03086727
208	0x3da12b43	0.0786958
209	0x3dab8824	0.08375576
210	0xbd9834bc	-0.07431933
211	0xbd76bcc8	-0.06023863
212	0xbd983cf2	-0.074334994
213	0xbd4a09a9	-0.04932562
214	0xbd81df3b	-0.06341406
215	0x3d2413c6	0.04005792
216	0xbd91dee7	-0.071225934
217	0xbdf09f31	-0.11749113
218	0xbcc8af85	-0.024497757
219	0xbb97603b	-0.004619626
220	0x3d431419	0.04762659
221	0xbddb209f	-0.10699581
222	0xbc0cfa28	-0.008604564
223	0x3dd80240	0.10547304
224	0x3dd52133	0.10406723
225	0x3db43276	0.08798687
226	0xbcd73d0c	-0.026274227
227	0xbd390877	-0.04517409
228	0x3dcc2488	0.09967905
229	0x3dd470f8	0.103731096
230	0x3d902b78	0.07039541
231	0x3d03b20b	0.032152217
232	0x3c3c2420	0.011483222
233	0xbd9a4749	-0.07533128
234	0x3d972fa3	0.07382133
235	0xbd0fd2f3	-0.035113286
236	0xbe063add	-0.13108392
237	0x3b31f90e	0.0027156505
238	0x3cc08817	0.023502393
239	0x3d2993b7	0.041400637
240	0xbcc60a63	-0.024174875
241	0x3cde9fe8	0.027175859
242	0x3d0e3c95	0.034725744
243	0xbc2c8b3a	-0.010531241
244	0xbd9cf113	-0.07663169
245	0x3e1118a9	0.14169563
246	0x3d9a57ed	0.07536302
247	0x3d573816	0.052543722
248	0xbd971397	-0.07376783
249	0x3d211843	0.03932978
250	0x3c921f61	0.017837228
251	0x3d8c2f5c	0.068449706
252	0x3de66e30	0.11251485
253	0xbd412506	-0.04715445
254	0xbe0cd729	-0.13753952
255	0xbddb0f32	-0.10696258

bn1.weight f4 [8]
0	0x3f69cca9	0.9132791
1	0x3f69cd54	0.9132893
2	0x3f69cd6b	0.9132907
3	0x3f69ce75	0.91330653
4	0x3f69cd4b	0.9132888
5	0x3f69cda6	0.9132942
6	0x3f69cdd2	0.9132968
7	0x3f69ccae	0.9132794

bn1.bias f4 [8]
0	0xb4cbe722	-3.7979868e-07
1	0x3775113c	1.4607151e-05
2	0xb69eb7ed	-4.7301787e-06
3	0xb8abbe6c	-8.189384e-05
4	0x3783914d	1.5684078e-05
5	0xb7c466e1	-2.3412927e-05
6	0x34f39e49	4.5377445e-07
7	0x36397f44	2.7641227e-06

bn1.running_mean f4 [8]
0	0x397fd7a7	0.00024399032
1	0x38f161e1	0.00011510007
2	0x38badc7d	8.91024e-05
3	0x38deb846	0.000106201085
4	0x389763fd	7.218865e-05
5	0xb8679512	-5.5213524e-05
6	0xb83fe0ad	-4.5747194e-05
7	0xb7b39c7e	-2.1411335e-05

bn1.running_var f4 [8]
0	0x3f44c51c	0.76863265
1	0x3e0aaa05	0.1354142
2	0x3e850f12	0.2598806
3	0x3ef5beb7	0.47997066
4	0x3eb1479b	0.34624943
5	0x3f37f2b7	0.7185473
6	0x3ec425d8	0.38310122
7	0x3e7c303e	0.24627778

conv_spatial.weight f4 [16, 1, 3, 1]
0	0xbf13e493	-0.5777065
1	0x3e11fdd4	0.14256984
2	0x3e68df7b	0.22741501
3	0xbe391501	-0.18074419
4	0x3f0264d8	0.50935125
5	0x3d2eb467	0.042652514
6	0xbcb13fe8	-0.021636918
7	0xbe022dfb	-0.12712853
8	0x3f09f0ee	0.53883255
9	0x3e97363c	0.29533565
10	0xbee0ab8c	-0.4388088
11	0xbed19d12	-0.40940148
12	0xbeef939a	-0.467923
13	0x3f087462	0.53302586
14	0x3ee33224	0.44374192
15	0x3e996d42	0.2996617
16	0x3e89e465	0.26932064
17	0xbec610ea	-0.3868478
18	0x3ecfe5e4	0.4060508
19	0xbccb08cd	-0.02478447
20	0xbc25d6bb	-0.0101219965
21	0x3da7d237	0.08194392
22	0xbe2aeab5	-0.16691096
23	0x3f05ac3b	0.5221593
24	0x3dc47de1	0.09594322
25	0x3eca6275	0.39528242
26	0xbea8b6ee	-0.32952064
27	0xbefba206	-0.49147052
28	0xbe501a1d	-0.20322461
29	0x3e26f2f0	0.16303611
30	0xbec7d864	-0.3903228
31	0xbea1c8ef	-0.31598613
32	0x3e33d1f7	0.17560564
33	0x3f0f4d2b	0.55977124
34	0x3f0189cd	0.5060089
35	0x3efdc5a9	0.49564865
36	0xbdbf952f	-0.093546264
37	0xbec873fb	-0.39150986
38	0x3e62a8c5	0.22134693
39	0xbeb3afce	-0.35095066
40	0x3f063843	0.524296
41	0x3de14d82	0.110011116
42	0xbf064bd3	-0.5245945
43	0xbc78db3b	-0.015188987
44	0xbeabcb50	-0.33553553
45	0x3e5b599c	0.21420902
46	0xbe946ab4	-0.28987658
47	0xbba50485	-0.005035939

bn2.weight f4 [16]
0	0x3f7dcaca	0.99137557
1	0x3f819da5	1.0126234
2	0x3f7571dc	0.9587686
3	0x3f802494	1.0011163
4	0x3f77a884	0.9674151
5	0x3f7ff91a	0.99989474
6	0x3f767f08	0.96287584
7	0x3f851b3a	1.0398934
8	0x3f7751f3	0.9660942
9	0x3f8032a6	1.0015457
10	0x3f795b46	0.974049
11	0x3f76c6c2	0.9639703
12	0x3f845477	1.0338277
13	0x3f753e70	0.957984
14	0x3f772b2e	0.9655026
15	0x3f7dcc1d	0.9913958

bn2.bias f4 [16]
0	0x3bbbc1c7	0.005729887
1	0x3a6cba6b	0.0009030464
2	0xbba8bea4	-0.0051496793
3	0xbc9a035d	-0.018800432
4	0xbaedd7a2	-0.0018145929
5	0x3b713fd3	0.0036811724
6	0xbba49077	-0.0050221044
7	0xbd4059f7	-0.046960797
8	0xbadd7dfe	-0.001689851
9	0xbccb8dca	-0.024847884
10	0xb95063a0	-0.00019873539
11	0xbc736d2b	-0.014857571
12	0x3cba560c	0.022746108
13	0xbc3634df	-0.011121004
14	0x3bc7f4da	0.0061021866
15	0x3b5d6499	0.0033781885

bn2.running_mean f4 [16]
0	0xb805680c	-3.1806572e-05
1	0xb8423884	-4.630584e-05
2	0xb9437486	-0.00018640058
3	0x388d56b7	6.739556e-05
4	0xb845c046	-4.714753e-05
5	0x390e1f31	0.00013553795
6	0x3699241f	4.5639604e-06
7	0x38c95306	9.599891e-05
8	0xb625348e	-2.4617507e-06
9	0x380249da	3.1063195e-05
10	0xb6de74a1	-6.629693e-06
11	0xb781f782	-1.5493253e-05
12	0x3879621f	5.945761e-05
13	0xb9268406	-0.00015880176
14	0x3805a538	3.1863543e-05
15	0xb7fb3835	-2.9947705e-05

bn2.running_var f4 [16]
0	0x3db0b56c	0.086283535
1	0x3e086b4d	0.13322182
2	0x3e535686	0.20638475
3	0x3e84d061	0.2594023
4	0x3e8b946a	0.27261668
5	0x3e02a082	0.12756541
6	0x3ded5c9c	0.115899295
7	0x3e70b55c	0.23506683
8	0x3dad7a18	0.08470553
9	0x3e866dcb	0.2625564
10	0x3e87afbc	0.26501262
11	0x3fe11150	1.7583408
12	0x3de5cdea	0.112209156
13	0x3def1eda	0.11675806
14	0x3f0eddc2	0.55807126
15	0x3ce9ddf1	0.028548213

conv_separable_depth.weight f4 [16, 1, 1, 16]
0	0x3e38fe1f	0.1806569
1	0xbe29f5fd	-0.16597743
2	0x3e42f0a8	0.19037116
3	0x3e1ff6d8	0.15621507
4	0x3c5474f6	0.012967339
5	0x3e539d9f	0.20665596
6	0xbe25bff4	-0.16186506
7	0xbe33238b	-0.17494027
8	0xbd807930	-0.06273115
9	0x3e6e6326	0.2328001
10	0xbe13e28b	-0.14441888
11	0x3dbf26a1	0.0933354
12	0xbe29e6b2	-0.1659191
13	0x3cde296c	0.02711936
14	0x3e62da58	0.22153604
15	0x3e378f0a	0.17925659
16	0x3dbe8ccf	0.09304201
17	0xbdfaa919	-0.12239284
18	0x3de1013b	0.10986563
19	0x3e50d493	0.2039359
20	0xbe842665	-0.25810543
21	0x3d3eb387	0.04655793
22	0xbe0a317d	-0.13495441
23	0x3dfc11d9	0.12308092
24	0xbc6bef34	-0.014400292
25	0xbd8aa218	-0.06769198
26	0xbe455255	-0.19269688
27	0xbe395d4f	-0.18102
28	0x3d2dbcda	0.04241643
29	0x3d9aa43d	0.07550857
30	0xbcac8525	-0.021059582
31	0x3e4424e3	0.19154696
32	0x3c9677e5	0.018367717
33	0xbe25aabd	-0.16178413
34	0x3dae523b	0.08511778
35	0xbe33247f	-0.17494391
36	0x3e646592	0.22304371
37	0x3d796c70	0.06089443
38	0x3c1aa771	0.009439335
39	0x3d946821	0.072464235
40	0x3de335ac	0.110942215
41	0xbe4458a8	-0.19174445
42	0xbdac85d6	-0.08423965
43	0xbd8de0ec	-0.06927666
44	0xbb4c6637	-0.0031188854
45	0x3dcc3d14	0.09972587
46	0xbdd619bc	-0.10454127
47	0x3dcb7919	0.09935207
48	0x3c475e97	0.012168548
49	0xbe5cd1c3	-0.21564393
50	0x3dde88bb	0.10865923
51	0xbb0a541e	-0.0021107267
52	0xbe339f8f	-0.17541336
53	0x3d18b666	0.037283324
54	0xbe062e4e	-0.13103601
55	0xbbc1dc99	-0.00591619
56	0xbe6bb1ee	-0.23017094
57	0x3e394e9c	0.18096393
58	0xbcff1a6d	-0.03114053
59	0x3e69bb5d	0.2282538
60	0x3e2d2217	0.16907535
61	0xbe71cd47	-0.23613463
62	0xbe839d99	-0.25706175
63	0x3e081c80	0.13292122
64	0xbdc2e956	-0.095171615
65	0x3e07ea4b	0.1327297
66	0x3d14d2a3	0.03633369
67	0x3db0ac71	0.086266406
68	0x3e0b2a63	0.13590388
69	0x3d949b2a	0.07256158
70	0x3e51d8eb	0.20492904
71	0xbcfd6ea4	-0.030936547
72	0x3e3c35aa	0.18379846
73	0xbe5993c1	-0.2124777
74	0xbe81dbcb	-0.25363
75	0xbe4255c9	-0.18978037
76	0x3db476c3	0.088117145
77	0xbe679cee	-0.22618458
78	0x3db9b320	0.090673685
79	0x3dca6973	0.09883394
80	0xbe3d21bc	-0.184699
81	0xbe439756	-0.19100699
82	0xbd627c34	-0.05529423
83	0xbe1b6e1f	-0.15178727
84	0xbdb8030e	-0.08984958
85	0xbcbcd1df	-0.023049293
86	0x3d952bc4	0.07283738
87	0xbe059158	-0.13043725
88	0xbe385a45	-0.18003185
89	0xbe64e3a7	-0.22352467
90	0x3dac8ba6	0.08425073
91	0xbdc338af	-0.09532296
92	0x3e5a8ec5	0.21343525
93	0xbcdc8a70	-0.02692148
94	0xbbc89e7e	-0.0061224094
95	0xbd7405ac	-0.05957572
96	0xbe16c036	-0.1472176
97	0x3e243901	0.1603737
98	0x3e6424d9	0.22279681
99	0xbe089f0e	-0.13341925
100	0x3e0bddac	0.1365878
101	0xb9f1b9a8	-0.00046105427
102	0xbe53f841	-0.2070017
103	0x3c3759d2	0.011190848
104	0xbd058c18	-0.032604307
105	0xbd2698f7	-0.040673222
106	0xbe1a1d6c	-0.15050286
107	0xbbff2732	-0.007786655
108	0x3e89d4b8	0.26920104
109	0x3d74e1f4	0.0597858
110	0xbe5c874d	-0.21535988
111	0x3ceac76a	0.028659541
112	0xbe664d0d	-0.2249033
113	0x3d8bc17a	0.06824012
114	0x3e41a7bd	0.18911643
115	0x3dbf2045	0.09332327
116	0xbc5cbb69	-0.013472416
117	0xbddfa786	-0.109206244
118	0xbde78480	-0.11304569
119	0xbe7e8063	-0.24853663
120	0xbe05bc86	-0.13060197
121	0xbe1961c7	-0.14978705
122	0xbe008566	-0.12550887
123	0xbe358672	-0.17727068
124	0xbdbd614b	-0.09247073
125	0xbe2fa9d9	-0.17154635
126	0xbd10ea25	-0.035379548
127	0xbd831b78	-0.064017236
128	0xbe0691a9	-0.13141502
129	0xbe5d547e	-0.21614262
130	0x3de534e9	0.111917324
131	0x3e413dee	0.1887128
132	0xbdfd5fe7	-0.123718075
133	0xbe035b23	-0.12827735
134	0x3e29ebe1	0.16593887
135	0x3be53d78	0.006995853
136	0xbce1a53f	-0.027544616
137	0x3e6565b2	0.22402075
138	0xbd291a18	-0.04128465
139	0x3e15c7d7	0.14627014
140	0x3daf04be	0.085458264
141	0x3df510af	0.11966073
142	0x3d218d42	0.039441355
143	0x3c362bd2	0.011118846
144	0xbe503d1b	-0.2033581
145	0xbd99f6ea	-0.07517798
146	0xbe74fadd	-0.23923822
147	0x3cbb35b3	0.022852754
148	0x3e149db3	0.14513282
149	0xbcf10886	-0.02942301
150	0x3cf6589b	0.030071547
151	0xbcbcba5d	-0.023038084
152	0xbd68e3ea	-0.05685798
153	0xbe500660	-0.20314932
154	0xbceab3c8	-0.02865018
155	0xbe5a623a	-0.21326533
156	0x3e1ba363	0.15199046
157	0xbe2082d0	-0.15674901
158	0xbb93344d	-0.0044923187
159	0xbcb8984f	-0.022533564
160	0x3e48c972	0.19608095
161	0xbe71726c	-0.23578805
162	0x3e675647	0.22591506
163	0x3e034404	0.12818915
164	0xbe2da1e1	-0.16956283
165	0xbc87d6de	-0.016581949
166	0x3e6bcfee	0.23028538
167	0x3ddca8c8	0.1077438
168	0xbc302baa	-0.010752598
169	0x3e44eca9	0.19230904
170	0x3db42f87	0.087981276
171	0x3e55ff96	0.2089828
172	0x3e298d41	0.1655779
173	0x3dd1c1a2	0.10242011
174	0x3ce2e0c4	0.027695067
175	0xbdb229a3	-0.08699348
176	0xbe03600e	-0.1282961
177	0xbd76b1f9	-0.06022832
178	0x3e072331	0.13197018
179	0xbe1b2616	-0.15151247
180	0x3e8426c5	0.2581083
181	0xbd3668fd	-0.04453372
182	0xbe2e8893	-0.17044286
183	0xbe50053f	-0.20314501
184	0xbd7defac	-0.061996147
185	0x3e848908	0.25885797
186	0xbe1c9589	-0.15291418
187	0xbe451119	-0.19244803
188	0xbe63525e	-0.2219939
189	0xbe0433ec	-0.12910432
190	0x3e351f0c	0.17687625
191	0x3e495aab	0.19663493
192	0x3da8a912	0.082353726
193	0xbdbbf680	-0.091778755
194	0x3e7ea77e	0.2486858
195	0xbddee248	-0.108830035
196	0xbe727954	-0.23679096
197	0x3e233e29	0.15941681
198	0x3e8cae20	0.27476597
199	0xbdecfc91	-0.11571611
200	0xbdf75b73	-0.120779894
201	0xbd9bc1e0	-0.07605338
202	0xbe0f2830	-0.13980174
203	0x3e32bdaf	0.17455171
204	0xbd5f3a07	-0.0544987
205	0x3bf97f1e	0.0076140305
206	0x3c21281f	0.009836226
207	0x3e12c52c	0.14333028
208	0xbda99388	-0.082800925
209	0xbdd96d17	-0.1061651
210	0xbc09be77	-0.008407227
211	0x3d3d2945	0.046181936
212	0x3d9f6cd2	0.07784428
213	0xbe2b9423	-0.16755728
214	0x3c9bb669	0.019007878
215	0x3e3e3447	0.1857463
216	0xbde36e8d	-0.1110507
217	0x3d0ea497	0.034824934
218	0xbd9dd6c4	-0.07706979
219	0x3e4a063b	0.19728939
220	0xbe802507	-0.2502825
221	0x3d0c1843	0.034202825
222	0x3d891b68	0.066946805
223	0x3c5012c5	0.0126997875
224	0x3e1283bb	0.14308064
225	0x3e3618ec	0.17782944
226	0xbe4bbc72	-0.19896105
227	0xbde943ba	-0.11389871
228	0xbda346f9	-0.07972521
229	0xbdb7ec26	-0.089805886
230	0xbe67bb5b	-0.22630064
231	0x3e276c1c	0.16349834
232	0xbe42d588	-0.19026768
233	0xbd019a7c	-0.03164147
234	0xbe614555	-0.21999104
235	0x3dae7498	0.08518332
236	0x3e4add6c	0.19811028
237	0xbdd19aec	-0.10234627
238	0xbdcfab12	-0.10140051
239	0xbcfa9318	-0.030587718
240	0xbdc76bfb	-0.097373925
241	0xbd501042	-0.050796755
242	0x3da33dcf	0.079707734
243	0xbe1285d5	-0.14308865
244	0xbdb699f4	-0.08916083
245	0xbe455682	-0.19271281
246	0x3e35b32e	0.17744133
247	0x3d746a4c	0.059671685
248	0x3cd73505	0.026270399
249	0xbb74b3e0	-0.003733866
250	0x3e69b3c2	0.22822478
251	0x3e69b9ed	0.22824831
252	0x3e4ac08e	0.19800016
253	0xbe0a0703	-0.13479237
254	0x3e6ec882	0.23318675
255	0x3e3f172b	0.18661182

conv_separable_point.weight f4 [16, 16, 1, 1]
0	0xbe56fc43	-0.20994668
1	0xbe47835c	-0.19483703
2	0xbe7beb64	-0.24601513
3	0xbde26441	-0.11054278
4	0xbe5f0c50	-0.2178204
5	0xbe3f5f8b	-0.1868879
6	0xbe3b389e	-0.18283316
7	0x3e479fff	0.19494627
8	0xbde54b32	-0.11195983
9	0xbd702c35	-0.05863591
10	0x3e4ea980	0.20181847
11	0x3d1e2a09	0.038614307
12	0xbab7b3a4	-0.0014015329
13	0xbddf6514	-0.10907951
14	0x3e2cf89a	0.16891709
15	0xbe3ee5ae	-0.18642303
16	0x3d7ff843	0.06249262
17	0x3ce380e9	0.02777143
18	0x3e000bd2	0.12504509
19	0xbdf424aa	-0.119210556
20	0x3e0cdb78	0.13755596
21	0x3e174ea8	0.14776099
22	0xbe306948	-0.17227662
23	0x3e863b6b	0.26217207
24	0xbc9598ce	-0.01826134
25	0x3e2b21c0	0.16712093
26	0xbe0620ed	-0.13098498
27	0x3d235c4c	0.039882943
28	0xbe3f49e7	-0.18680535
29	0xbe1b18d8	-0.15146196
30	0x3d31b186	0.04338219
31	0x3e03ffa7	0.12890492
32	0x3e67377b	0.22579758
33	0xbe8b2711	-0.27178243
34	0x3e276528	0.16347182
35	0x3de05a5f	0.10954737
36	0x3e629b35	0.2212952
37	0x3c6a6b2b	0.014307777
38	0x3b1ca414	0.002390151
39	0xbe4c7f1e	-0.19970366
40	0x3e03cd16	0.12871203
41	0xbcab8296	-0.020936292
42	0xbdb13667	-0.086529545
43	0xbd2c84bf	-0.042118784
44	0xbe5b337e	-0.21406361
45	0xbd988e09	-0.07448966
46	0x3dbcfc11	0.09227765
47	0x3e343397	0.17597805
48	0xbe2c24e5	-0.16810949
49	0xbe80f2ec	-0.25185335
50	0x3d472203	0.04861642
51	0x3e4fcfb7	0.2029408
52	0xbc260ee1	-0.010135383
53	0xbcd96a01	-0.026539804
54	0xbdeddc55	-0.116142906
55	0x3c3eac41	0.011637748
56	0xbe15f841	-0.14645483
57	0x3e0afa3e	0.13572022
58	0xbc988bba	-0.018621314
59	0xbc83faf0	-0.016110867
60	0xbe184192	-0.14868763
61	0x3dfebc04	0.12438205
62	0xbe3b7bc3	-0.1830893
63	0x3e6a0ca3	0.22856383
64	0xbded7b73	-0.11595812
65	0xbe31a194	-0.17346793
66	0x3c73b3c9	0.014874407
67	0x3e7cc4e4	0.24684483
68	0xbdd7a4ca	-0.10529478
69	0x3e363670	0.17794204
70	0xbc4cfbb2	-0.012511181
71	0xbe29c953	-0.16580705
72	0xbc00f842	-0.007871689
73	0x3d9f7f97	0.07788008
74	0x3e10e2a0	0.1414895
75	0xbd3be41d	-0.045871843
76	0xbe3d3151	-0.18475844
77	0xbd867ea3	-0.06567123
78	0x3e130030	0.1435554
79	0x3d47d4ae	0.04878681
80	0xbd4e346b	-0.05034296
81	0x3d71d32b	0.059039276
82	0xbde1fd06	-0.110345885
83	0xbbbe5947	-0.0058089825
84	0x3d74b63c	0.059744105
85	0xb80ba661	-3.3295135e-05
86	0x3e035e6e	0.12828991
87	0xbe662605	-0.22475441
88	0x3e3171c7	0.17328559
89	0x3c1c8d51	0.009555177
90	0xbe21d411	-0.15803553
91	0xbc0b6d19	-0.008509898
92	0xbde89a5b	-0.11357566
93	0xbd7a5726	-0.061118267
94	0x3abc67be	0.0014374179
95	0x3ca5e400	0.02025032
96	0xbe5636af	-0.20919298
97	0x3e60bda8	0.21947348
98	0xbcf95301	-0.030435087
99	0x3dd861e7	0.105655484
100	0xbdeb768f	-0.11497223
101	0x3dca17a2	0.09867789
102	0xbd372f18	-0.044722646
103	0x3e574a10	0.21024346
104	0x3d14e2fe	0.03634929
105	0xbdc79c91	-0.097466595
106	0xbc561429	-0.01306633
107	0xbdef9373	-0.116980456
108	0x3e6a8b93	0.22904806
109	0xbe2bf933	-0.1679428
110	0xbdc80770	-0.097670436
111	0x3e0f1de6	0.13976249
112	0x3bbbd11f	0.0057317163
113	0x3e02bc73	0.127672
114	0xbd0d3379	-0.034472916
115	0x3e4f1901	0.20224382
116	0xbd9a3874	-0.07530299
117	0x3c87c374	0.016572692
118	0x3e3774e3	0.17915682
119	0x3d7761fb	0.060396176
120	0x3dc19c87	0.09453683
121	0x3e02e0d2	0.12781075
122	0xbe7d228b	-0.24720208
123	0x3e58348f	0.211138
124	0x3e07750d	0.13228245
125	0xbcc2c93e	-0.0237776
126	0xbdc7e19a	-0.09759827
127	0xbdf9af53	-0.121916436
128	0x3cf0c46d	0.029390538
129	0x3ddc5fe6	0.10760479
130	0xbd98e2aa	-0.07465108
131	0xbd817e00	-0.06322861
132	0x3dd50d68	0.10402948
133	0xbe2c9997	-0.16855465
134	0xbc9d6252	-0.019211922
135	0x3e68663a	0.22695246
136	0x3d293bed	0.041316915
137	0x3e3948f0	0.1809423
138	0xbd15aeb0	-0.036543548
139	0x3e7d4081	0.24731638
140	0xbde506c8	-0.11182934
141	0xbe6e6765	-0.2328163
142	0xbda4afe0	-0.08041358
143	0xbd680dfa	-0.056653954
144	0xbd938ce2	-0.07204606
145	0xbd4dbd15	-0.05022915
146	0x3d18e2a3	0.037325513
147	0x3de63f39	0.112425275
148	0xbe6753bf	-0.2259054
149	0xbcc61096	-0.02417783
150	0x3b60b61b	0.003428823
151	0x3e0a36a8	0.13497412
152	0x3e7aa9d5	0.24478848
153	0xbe17b2b2	-0.1481426
154	0xbdf498ba	-0.11943193
155	0xbe51007e	-0.20410344
156	0xbe4a4418	-0.19752538
157	0xbe0acfa0	-0.13555765
158	0xbe304e49	-0.17217363
159	0x3e06317a	0.13104811
160	0xbdf8d018	-0.12149066
161	0xbe6d94d8	-0.2320131
162	0x3d4701bf	0.04858565
163	0x3dc51a34	0.096241385
164	0xbbb437a9	-0.0054997993
165	0x3d38407e	0.04498338
166	0xbd4d7bae	-0.05016678
167	0x3e28fc38	0.16502464
168	0xbe062944	-0.13101679
169	0xbdaa515e	-0.08316301
170	0xbe433ecf	-0.19066928
171	0xbe154353	-0.14576463
172	0x3e89bffd	0.26904288
173	0x3da54230	0.08069265
174	0x3ced4206	0.028962146
175	0xbe46563a	-0.1936883
176	0x3e2be21c	0.16785473
177	0xbe3d26ef	-0.18471883
178	0xbd534ce6	-0.051587008
179	0x3c976f12	0.01848558
180	0xbdb68325	-0.089117326
181	0x3d5aa962	0.053384192
182	0xbdbba1f2	-0.09161748
183	0x3e68f197	0.22748409
184	0xbe47603f	-0.19470309
185	0x3e6445f9	0.22292317
186	0x3d70bec6	0.058775686
187	0xbdb0149d	-0.08597682
188	0x3e36a20c	0.17835253
189	0xbc076046	-0.0082626995
190	0xbd7019aa	-0.058618225
191	0x3e78043b	0.24220364
192	0x3e5025bf	0.20326899
193	0xbe048b8e	-0.12943861
194	0xbe0cf9ce	-0.13767168
195	0x3e15190f	0.1456034
196	0x3e3a90c3	0.18219285
197	0x3d13d6d9	0.036093567
198	0xbd90b44a	-0.070656374
199	0xbe5a7d6b	-0.21336906
200	0x3d87e67d	0.06635759
201	0xbc9fd31f	-0.01950985
202	0x3e4b66fb	0.19863503
203	0x3e11ca36	0.14237294
204	0x3e39711c	0.18109554
205	0xbdbcffd1	-0.092284806
206	0x3e511abd	0.20420356
207	0xbdbe87da	-0.093032554
208	0x3dfcffe3	0.12353494
209	0x3b08a643	0.0020851053
210	0x3e529c3d	0.20567413
211	0xbe11f5af	-0.14253877
212	0x3e2b6aae	0.16739914
213	0x3d7a9ca8	0.061184555
214	0xbd437819	-0.047721956
215	0xbe416032	-0.18884352
216	0x3e3e40ae	0.18579361
217	0x3e199de4	0.15001637
218	0x3d428113	0.047486376
219	0x3e3f0b50	0.18656659
220	0x3cb22a43	0.021748668
221	0xbde23407	-0.1104508
222	0xbda57d81	-0.080805786
223	0x3e40a44b	0.18812673
224	0x3e6bb323	0.23017554
225	0xbcb1c476	-0.021700125
226	0x3e770f5b	0.24126951
227	0x3e336169	0.17517628
228	0xbe39cb80	-0.18144035
229	0xbe33e7da	-0.17568913
230	0x3e4ca96e	0.19986507
231	0x3e1f2cd3	0.15544443
232	0x3e70d8e5	0.23520239
233	0xbcd851ea	-0.026406247
234	0xbce4d785	-0.027934799
235	0xbe2c165c	-0.16805404
236	0xbdac5d90	-0.08416283
237	0x3d0da2d9	0.03457913
238	0xbe7a3fce	-0.24438402
239	0x3e081350	0.13288617
240	0xbd21b766	-0.039481543
241	0x3e49f434	0.19722062
242	0x3e4a77ab	0.19772212
243	0xbe3cbd69	-0.18431629
244	0x3cc2a2ff	0.023759363
245	0x3e5daedd	0.21648736
246	0xbb33ee8f	-0.0027455424
247	0xbe7fe4f9	-0.2498969
248	0x3d26690e	0.04062753
249	0xbe3fb0c9	-0.18719782
250	0xbe447cd2	-0.1918824
251	0x3e0dd86a	0.13852087
252	0xbd01affe	-0.03166198
253	0x3e06938e	0.13142225
254	0x3e3a71a1	0.18207408
255	0x3e38e4b2	0.1805599

bn3.weight f4 [16]
0	0x3f7f92a5	0.99833137
1	0x3f80011c	1.0000339
2	0x3f7d1f06	0.98875463
3	0x3f7d4dfb	0.98947114
4	0x3f7e10c1	0.99244314
5	0x3f6ca284	0.9243548
6	0x3f7df258	0.9919791
7	0x3f7e6fa2	0.9938909
8	0x3f804d0e	1.0023515
9	0x3f7e9fda	0.99462664
10	0x3f7e138b	0.9924857
11	0x3f7b7c35	0.982364
12	0x3f78396b	0.9696261
13	0x3f812959	1.0090743
14	0x3f7f7fe5	0.99804527
15	0x3f801337	1.0005864

bn3.bias f4 [16]
0	0x3a60f545	0.000858147
1	0xba52581b	-0.0008023993
2	0xbb9e1334	-0.0048240665
3	0xbb7985cd	-0.0038074136
4	0xbb0bef26	-0.002135226
5	0xbc2ffc2e	-0.010741277
6	0xbb8d38a1	-0.004309729
7	0x3b2250ff	0.0024767516
8	0x3b1e231c	0.0024129814
9	0xba52b7fe	-0.0008038281
10	0xbb96b65c	-0.0045993757
11	0xbbc039ed	-0.0058662803
12	0xbacd936a	-0.0015684192
13	0x3b01a8d5	0.001978447
14	0xba3fe08f	-0.00073195336
15	0x3b3005a4	0.002685883

bn3.running_mean f4 [16]
0	0xbcb68620	-0.022280753
1	0xbdb7f059	-0.089813896
2	0x3d7253a0	0.059161782
3	0xbc7f4722	-0.015580924
4	0xbcca2a7d	-0.024678463
5	0x3c3c296e	0.011484487
6	0xbce0ba4c	-0.027432583
7	0xbdc000f5	-0.093751825
8	0xbd2c82b3	-0.042116832
9	0x3c9a7723	0.018855637
10	0xbdb0b066	-0.08627395
11	0xbc788907	-0.015169389
12	0x3d5fccf3	0.054638814
13	0x3d80e914	0.06294456
14	0x3d8e1489	0.069375105
15	0xbbf30bec	-0.0074171927

bn3.running_var f4 [16]
0	0x3e096cb6	0.13420376
1	0x3dc46a0b	0.095905386
2	0x3e0fd122	0.14044622
3	0x3debcf78	0.11514181
4	0x3dccc768	0.09998971
5	0x3d52d7f3	0.051475476
6	0x3e00c48d	0.12574978
7	0x3dbce519	0.092233844
8	0x3dcfaf52	0.101408616
9	0x3e0180bb	0.12646763
10	0x3e053b10	0.13010812
11	0x3dbe5981	0.09294415
12	0x3e0fd039	0.14044274
13	0x3dcd0598	0.100108325
14	0x3e13c2d0	0.14429784
15	0x3dd0663c	0.1017575

classifier.weight f4 [2, 16]
0	0x3c91d103	0.01779986
1	0x3e5dddf5	0.21666701
2	0x3e06d794	0.13168174
3	0x3da67cf7	0.08129304
4	0x3e70bbae	0.23509094
5	0xbd5de939	-0.054177497
6	0x3e1dd031	0.1541145
7	0x3d3d2664	0.04617919
8	0x3e7c7212	0.2465289
9	0x3c867a2f	0.016415684
10	0x3e67f0bf	0.22650431
11	0x3d99122f	0.07474171
12	0x3e47bceb	0.1950566
13	0xbe2f75b0	-0.17134738
14	0xbe765f98	-0.24059904
15	0xbe6f8e4a	-0.23394123
16	0x3e07afd8	0.13250673
17	0xbdf80c31	-0.121117
18	0xbdde9da2	-0.1086991
19	0x3b816a84	0.003949465
20	0xbe347757	-0.1762365
21	0xbd188b44	-0.03724219
22	0xbe09f045	-0.13470562
23	0x3e443efd	0.19164653
24	0xbde5bbe1	-0.11217476
25	0xbe2635af	-0.16231416
26	0x3d2833c4	0.041064993
27	0x3cb0a8a3	0.021564787
28	0x3e6cb9fa	0.2311782
29	0x3c8f5936	0.017498594
30	0xbdd5b505	-0.10434917
31	0x3b9458fc	0.0045272093

classifier.bias f4 [2]
0	0xbe2f037d	-0.17091174
1	0x3ccdba8f	0.025113372
