notebooks/outputs/temp_B02_fold5_best.pth (torch, 31912 bytes, 18 tensors)

firstconv.0.weight f4 [16, 1, 1, 125]
-0.040908985 -0.04467845 -0.08703042 0.0077459803 -0.044836964 -0.04970678 -0.07922653 0.06738278
0.060750324 -0.09407621 -0.12348721 -0.033556174 -0.05927162 -0.07913993 -0.07428385 -0.09748123
-0.07052344 -0.057288382 -0.048693404 0.014849679 -0.08119136 -0.0682156 -0.043973032 -0.08078191
-0.10809186 -0.041086487 -0.05920149 0.020243704 0.052799195 -0.046496455 -0.053545997 0.056102913
-0.052826367 -0.035396364 0.017141527 -0.047559563 0.015683804 0.10853118 -0.046716064 0.098877385
0.10454747 0.065492354 0.0484316 -0.015613511 0.102537274 0.012997413 -0.058953267 0.01124344
0.044894435 0.097602785 0.004931555 0.0026136413 0.07518441 -0.01058593 0.05457874 -0.017714124
-0.04686691 0.07908731 -0.0035691892 -0.026751397 0.037617102 -0.024828596 -0.023131128 -0.07081536
-0.029060593 -0.0054126526 0.0671983 0.02271993 -0.10358363 -0.08984624 -0.030385643 -0.04228678
-0.053324524 0.013330493 -0.03074143 -0.00757796 -0.06071405 0.04202969 0.029200947 0.053768132
-0.0413317 0.065116175 0.06141162 -0.04393335 0.0606606 0.061292455 -0.010405233 -0.04690087
-0.03625702 0.082543515 0.036013596 0.05906571 0.050735973 0.058649912 0.07198615 0.01777094
0.039586868 -0.05788054 0.061827086 -0.049847007 -0.05572093 -0.021034226 -0.043722987 -0.027750326
-0.06814972 -0.048642244 -0.06278663 -0.041328996 -0.021180632 0.0023663314 -0.050074745 0.046115667
0.08192009 0.04701231 0.047057644 0.033361092 0.054861717 -0.030631026 -0.054256935 0.045198552
0.005003974 -0.0361309 0.03798178 -0.086710416 0.020021604 -0.008540072 0.10038269 0.033505697
-0.063532576 0.03694184 -0.07044454 0.0075651975 -0.018727884 -0.045718804 0.002144157 0.069810584
-0.034915645 -0.039341457 0.08752823 0.069932945 0.021192 -0.057795268 0.015764443 0.054936945
0.07205266 0.01646703 0.039876945 0.054665457 -0.0070309713 -0.072954156 -0.014829288 -0.0766237
0.015222247 0.03884387 -0.077996485 -0.008073125 0.0011098414 -0.06990367 -0.05378924 0.019004026
-0.056807183 0.06321693 -0.016974924 -0.06692042 0.049290568 -0.014647364 0.028957319 0.022579374
0.044933476 -0.051460735 -0.055548787 0.04144005 -0.0921477 0.07569321 -0.09948729 -0.079021275
-0.0131395925 -0.064330064 0.042252485 -0.014077416 -0.06707767 0.052052986 -0.039575603 -0.011454548
0.047893055 -0.0114989225 -0.050895832 0.052405883 -0.05158822 0.074248575 0.026932115 -0.03397213
-0.040944394 0.066611655 0.013435785 0.0056823343 0.031682223 -0.02074052 0.0018782067 0.008820879
-0.046445373 -0.061267003 0.08390139 0.0021779917 -0.08807926 -0.011629461 -0.045894988 0.047431044
-0.046178736 -0.07208534 -0.018041246 0.025012886 -0.076514855 -0.013634204 -0.054798163 -0.061947174
-0.04735778 -0.074333675 -0.035859793 -0.01070225 -0.011371032 -0.06490353 0.023307266 -0.06368233
0.07231062 0.068261765 0.056829818 -0.027733175 0.05634286 0.06792513 0.06210233 0.051089115
0.053272434 0.042914912 -0.07369143 -0.08382309 -0.016186794 -0.059485417 -0.091308415 0.020643102
-0.07251763 0.06257305 -0.035769574 0.054262977 -0.09613448 0.04003052 0.030645022 0.025213586
0.012404679 0.009233552 -0.055189945 0.016225588 0.070412084 0.07283757 0.07269184 0.018510567
00000000: 2e90 27bd c000 37bd 013d b2bd fed1 fd3b
00000010: f7a6 37bd 5699 4bbd 8541 a2bd fcff 893d
00000020: 55d5 783d 07ab c0bd dde6 fcbd 3372 09bd
00000030: ccc6 72bd 1e14 a2bd 2222 98bd 3da4 c7bd
00000040: 986e 90bd 39a7 6abd bc72 47bd 114c 733c
00000050: a847 a6bd 9fb4 8bbd 111d 34bd fc70 a5bd
00000060: 445f ddbd 4e4a 28bd 437d 72bd 20d6 a53c
00000070: f843 583d 1173 3ebd 0c53 5bbd 2bcc 653d
00000080: 7660 58bd c7fb 10bd 636c 8c3c d1cd 42bd
00000090: 527b 803c 9845 de3d 5859 3fbd 3a80 ca3d
000000a0: fc1c d63d db20 863d 3760 463d d0cf 7fbc
000000b0: 10ff d13d 1af3 543c fb78 71bd 6836 383c
000000c0: 3ae3 373d f8e3 c73d e298 a13b a049 2b3b
000000d0: 49fa 993d 9c70 2dbc f58d 5f3d 361d 91bc
000000e0: 84f7 3fbd 87f8 a13d 0fe9 69bb bf25 dbbc
000000f0: 6414 1a3d 5765 cbbc 7e7d bdbc a507 91bd
00000100: 7b10 eebc 9f5c b1bb 439f 893d 261f ba3c
00000110: a723 d4bd 4e01 b8bd 50eb f8bc e734 2dbd
00000120: d16a 5abd 2468 5a3c 74d5 fbbc 8950 f8bb
00000130: 4caf 78bd 5327 2c3d d336 ef3c f93b 5c3d
00000140: 6e4b 29bd a15b 853d c08a 7b3d 75f3 33bd
00000150: 4077 783d cc0d 7b3d b67a 2abc 201b 40bd
00000160: 3e82 14bd 930c a93d fe82 133d e3ee 713d
00000170: 86d0 4f3d e43a 703d 7a6d 933d 5d94 913c
00000180: d725 223d 2514 6dbd 663e 7d3d 602c 4cbd
00000190: a13b 64bd f84f acbc e016 33bd a754 e3bc
000001a0: 1592 8bbd 173d 47bd 4796 80bd 9848 29bd
000001b0: 0183 adbc 7414 1b3b 2d1b 4dbd c8e3 3c3d
000001c0: b8c5 a73d fb8f 403d 84bf 403d a4a5 083d
000001d0: aeb6 603d ebed fabc 853c 5ebd 1e22 393d
000001e0: 60f8 a33b fffd 13bd c892 1b3d 3b95 b1bd
000001f0: 5904 a43c a8eb 0bbc 7195 cd3d 453d 093d
00000200: 5e1d 82bd 5450 173d 3a45 90bd 7ae5 f73b
00000210: 386b 99bc a443 3bbd fc84 0c3b daf8 8e3d
00000220: b503 0fbd 8224 21bd 0042 b33d 0139 8f3d
00000230: d89a ad3c bbba 6cbd 6f24 813c 9005 613d
00000240: 5890 933d dde5 863c 0256 233d e3e8 5f3d
00000250: 1064 e6bb fd68 95bd 8bf6 72bc e3ec 9cbd
00000260: bb66 793c c01a 1f3d 9fbc 9fbd 2445 04bc
00000270: 1978 913a a829 8fbd 1b52 5cbd 55ae 9b3c
00000280: a6ae 68bd e177 813d ff0e 8bbc 930d 89bd
00000290: e8e4 493d 7ffb 6fbc e637 ed3c 61f8 b83c
000002a0: 2a0c 383d 7ec8 52bd 2087 63bd 0bbd 293d
000002b0: efb7 bcbd 0b05 9b3d febf cbbd e8d5 a1bd
000002c0: 7247 57bc 7bbf 83bd f110 2d3d f6a4 66bc
000002d0: 0460 89bd 8335 553d 071a 22bd dbab 3bbc
000002e0: 822b 443d fa65 3cbc 2678 50bd 8da7 563d
000002f0: 2b4e 53bd a30f 983d bda0 dc3c 5c26 0bbd
00000300: 4fb5 27bd b16b 883d c421 5c3c e032 ba3b
00000310: 38c5 013d 06e8 a9bc 292e f63a 7385 103c
00000320: 813d 3ebd 1cf3 7abd 7ed4 ab3d a3bc 0e3b
00000330: e662 b4bd 7f89 3ebc 62fc 3bbd 0e47 423d
00000340: ea25 3dbd 7ba1 93bd 3ccb 93bc d3e7 cc3c
00000350: d2b3 9cbd ff61 5fbc 0a74 60bd 52bc 7dbd
00000360: 3bfa 41bd 413c 98bd b8e1 12bd 7d58 2fbc
00000370: 914d 3abc 24ec 84bd e1ee be3c e26b 82bd
00000380: 9717 943d d3cc 8b3d 62c6 683d af30 e3bc
00000390: c5c7 663d 551c 8b3d 035f 7e3d d242 513d
000003a0: 3234 5a3d 8cc7 2f3d 88eb 96bd 71ab abbd
000003b0: 2b9a 84bc fba6 73bd e8ff babd b91b a93c
000003c0: 2084 94bd 4d26 803d 1e83 12bd db42 5e3d
000003d0: 27e2 c4bd 0bf7 233d 450b fb3c b98c ce3c
000003e0: ff3c 4b3c 5348 173c da0e 62bd 86eb 843c
000003f0: 3634 903d dd2b 953d 76df 943d 79a3 973c

firstconv.1.weight f4 [16]
1.03031 0.9907848 0.9928036 0.9859943 1.0036908 1.026482 0.9717899 1.0318092
0.9943088 0.9815193 0.99725807 1.0221628 1.0282658 1.0360732 0.9813971 0.9927454
00000000: 33e1 833f 13a4 7d3f 6028 7e3f 1f6a 7c3f
00000010: f178 803f c363 833f 39c7 783f 5312 843f
00000020: 068b 7e3f d944 7b3f 4e4c 7f3f 3bd6 823f
00000030: 379e 833f 0c9e 843f d73c 7b3f 9024 7e3f

firstconv.1.bias f4 [16]
8.237007e-05 -0.0030977316 -0.00092626695 -0.0060908967 -0.005897967 0.00091353554 0.00017495757 -0.00096403406
-0.005060226 -0.00051652594 0.0011581725 0.00017040518 -0.012080297 0.00274489 -0.0019127948 -0.0037639437
00000000: 18be ac38 5003 4bbb b9d0 72ba 2596 c7bb
00000010: bc43 c1bb 557a 6f3a d174 3739 3bb7 7cba
00000020: 41d0 a5bb 7867 07ba d2cd 973a cbae 3239
00000030: 70ec 45bc 9de3 333b beb6 faba 7fac 76bb

firstconv.1.running_mean f4 [16]
2.0615059e-09 4.648581e-10 -2.787434e-10 5.994877e-10 1.4311778e-09 1.275263e-09 -1.0877498e-09 -2.7842706e-10
7.235743e-10 -4.4111645e-10 4.7311693e-10 -1.6951929e-09 -1.9809239e-10 -1.0303538e-09 1.5450032e-10 1.3531577e-09
00000000: 65aa 0d31 f68e ff2f a53d 99af 32c9 2430
00000010: 18b3 c430 5445 af30 cb7f 95b0 2011 99af
00000020: 04e5 4630 9f81 f2af a50c 0230 4cfc e8b0
00000030: 0dce 59af 5a9c 8db0 f9df 292f 01fa b930

firstconv.1.running_var f4 [16]
3.8125276e-09 3.8093098e-09 3.809238e-09 3.808789e-09 3.808967e-09 3.810744e-09 3.8087764e-09 3.811723e-09
3.8092054e-09 3.808557e-09 3.8088084e-09 3.8094674e-09 3.809028e-09 3.8105457e-09 3.8081764e-09 3.808823e-09
00000000: 59ff 8231 0be3 8231 69e2 8231 76de 8231
00000010: 07e0 8231 a9ef 8231 5ade 8231 45f8 8231
00000020: 20e2 8231 6cdc 8231 a2de 8231 6ee4 8231
00000030: 91e0 8231 eaed 8231 13d9 8231 c3de 8231

depthwiseConv.0.weight f4 [32, 1, 3, 1]
0.09399505 -0.36023557 0.13447523 -0.36402544 -0.090384796 0.58499 0.09681433 0.22032341
-0.08832399 0.2779096 0.06917776 -0.16704004 0.50831145 0.4795909 -0.35604638 -0.42213055
-0.24309205 -0.14557827 -0.2029101 -0.32259753 -0.36982235 0.25010735 0.214931 -0.31094182
0.23845062 0.3051717 0.052285492 -0.33448735 -0.44148228 0.04095546 0.24401806 -0.42081955
-0.14118949 -0.27100182 0.23734881 0.3774959 0.5528718 0.41372567 0.22353192 -0.5353844
-0.26237804 -0.14082375 0.18551518 0.16435407 -0.34181663 -0.21432507 0.13525131 -0.3832417
-0.31718868 -0.5105458 0.072769694 -0.16034435 0.5549889 0.3979247 -0.5038764 -0.20616093
-0.515524 -0.31253648 0.18945925 -0.5511533 0.19423342 0.4178508 -0.12710807 0.3632869
0.5405219 -0.20817141 -0.42139474 -0.47268444 0.49198478 0.4239238 0.25354263 0.14835681
0.08834988 0.5968468 -0.15035245 -0.15211345 -0.027189407 0.34897068 -0.23524489 -0.37485704
-0.3365196 -0.08695177 0.5705897 -0.21192099 0.25306997 -0.38363123 -0.24643987 0.5315521
-0.31256422 0.5347026 -0.4652898 -0.003949822 -0.3950489 0.41617855 -0.017132185 -0.15623474
00000000: 7a80 c03d cc70 b8be e0b3 093e 8b61 babe
00000010: aa1b b9bd e8c1 153f 9746 c63d 769c 613e
00000020: 35e3 b4bd 2b4a 8e3e 12ad 8d3d 8b0c 2bbe
00000030: b320 023f f08c f53e b64b b6be 7f21 d8be
00000040: 1fed 78be 7812 15be aac7 4fbe 812b a5be
00000050: 5b59 bdbe 120e 803e df16 5c3e c433 9fbe
00000060: 662c 743e 773f 9c3e 5029 563d ed41 abbe
00000070: f709 e2be eac0 273d dfdf 793e a975 d7be
00000080: fa93 10be c0c0 8abe 910b 733e 2547 c13e
00000090: 0289 0d3f dad3 d33e 8de5 643e f40e 09bf
000000a0: 6a56 86be 1a34 10be b1f7 3d3e 6f4c 283e
000000b0: 9702 afbe 0878 5bbe 527f 0a3e 4238 c4be
000000c0: 8e66 a2be 21b3 02bf 4708 953d 4f31 24be
000000d0: c113 0e3f c9bc cb3e 0bfe 00bf da1b 53be
000000e0: 62f9 03bf c804 a0be 9b01 423e 6218 0dbf
000000f0: 20e5 463e 8af0 d53e 9e28 02be be00 ba3e
00000100: a55f 0a3f e32a 55be 0dc1 d7be b203 f2be
00000110: 6ee5 fb3e 8a0c d93e 57d0 813e d9ea 173e
00000120: c8f0 b43d f4ca 183f fef5 19be a1c3 1bbe
00000130: 52bc debc 49ac b23e 09e4 70be 43ed bfbe
00000140: 4c4c acbe c513 b2bd 2b12 123f d101 59be
00000150: 6392 813e 506b c4be bc5a 7cbe cc13 083f
00000160: 6b08 a0be 45e2 083f 773a eebe 826d 81bb
00000170: d943 cabe 5b15 d53e cc58 8cbc 00fc 1fbe

depthwiseConv.1.weight f4 [32]
0.97588646 1.0372951 0.99317205 0.9845967 1.0156361 0.98101676 0.9780248 1.0061431
1.0074105 0.99752384 1.0164545 1.0131296 0.9754781 0.9766689 1.0749522 0.98651713
1.0058423 0.984049 0.98431164 0.98865646 0.99673104 0.99340487 1.0534247 0.9771355
1.0254772 1.0078647 1.024679 1.0205698 0.99391794 0.97677195 0.9850232 1.0154712
00000000: b2d3 793f 16c6 843f 8640 7e3f 880e 7c3f
00000010: 5d00 823f ea23 7b3f d55f 7a3f 4cc9 803f
00000020: d4f2 803f b95d 7f3f 2e1b 823f 3bae 813f
00000030: efb8 793f f906 7a3f 0998 893f 638c 7c3f
00000040: 71bf 803f a3ea 7b3f d9fb 7b3f 9718 7d3f
00000050: c429 7f3f c84f 7e3f 9fd6 863f 8d25 7a3f
00000060: d642 833f b601 813f ae28 833f 08a2 823f
00000070: 6871 7e3f ba0d 7a3f 7b2a 7c3f f6fa 813f

depthwiseConv.1.bias f4 [32]
-0.008769077 -0.016056765 -0.0038262554 -0.0023204882 -0.00034799485 -0.0043240176 0.0018504161 0.0046668756
-0.0020937228 0.0024533863 -0.0021160285 -0.0020334336 -0.0025236488 -0.017344411 -0.014009994 -0.008957667
0.016210234 0.013857884 -0.0017046239 -0.001958455 0.0119674355 -0.00036030798 0.0020186675 -0.009804278
-0.0126006715 0.0007022504 -0.010168741 -0.0036123397 0.0009346251 -0.0065085073 -0.010467623 -0.0017534524
00000000: 2dac 0fbc 7a89 83bc eac1 7abb 5513 18bb
00000010: 1473 b6b9 7db0 8dbb a989 f23a 97ec 983b
00000020: d736 09bb fec8 203b 11ad 0abb 5b43 05bb
00000030: cd63 25bb de15 8ebc 2d8a 65bc 2ec3 12bc
00000040: 53cb 843c 2e0c 633c b06d dfba 6c59 00bb
00000050: 1013 443c b8e7 bcb9 9f4b 043b 1fa2 20bc
00000060: 0c73 4ebc 3a17 383a cb9a 26bc 01bd 6cbb
00000070: a101 753a 5145 d5bb 6580 2bbc 19d4 e5ba

depthwiseConv.1.running_mean f4 [32]
5.7762605e-05 -5.3991505e-05 -0.00077067915 -0.00062221574 -0.00029142495 0.00037433254 0.005152693 -0.0008959216
-0.0034469247 0.004243261 -0.0005946673 0.0006488958 -0.00016186458 0.00012885006 -1.9385005e-05 0.0006016968
0.004015466 -0.004205896 -0.000107960106 -6.258292e-05 0.0009888299 0.0014143011 0.00026695334 -0.0005246363
-0.006411762 -0.0020112272 -0.0020645282 0.00059501594 0.0007203336 -0.0014521151 0.002840573 -0.0008004955
00000000: 2046 7238 f074 62b8 6707 4aba 311c 23ba
00000010: 65ca 98b9 1042 c439 ecd7 a83b 48dc 6aba
00000020: cde5 61bb 0e0b 8b3b 72e3 1bba a91a 2a3a
00000030: 31ba 29b9 ed1b 0739 fb9c a2b7 30bb 1d3a
00000040: 2c94 833b 9dd1 89bb a468 e2b8 f33e 83b8
00000050: a09b 813a 1260 b93a dff5 8b39 bf87 09ba
00000060: c219 d2bb cbce 03bb 094d 07bb d8fa 1b3a
00000070: c5d4 3c3a e654 beba e828 3a3b 58d8 51ba

depthwiseConv.1.running_var f4 [32]
2.0553829e-08 6.1958964e-08 1.4653056e-08 1.8522735e-08 1.09635984e-07 1.2038586e-07 9.0081656e-08 1.762723e-08
5.5068593e-08 8.746277e-08 2.886954e-08 3.4651052e-08 1.750737e-07 1.1861833e-07 2.7588921e-08 1.1506197e-07
1.0242412e-07 7.773389e-08 1.6139735e-07 6.422798e-08 3.8507714e-08 7.981615e-08 8.56653e-08 1.4376707e-07
5.1622493e-08 1.1566514e-08 2.401874e-07 4.6979956e-08 1.2485627e-08 6.3485444e-08 1.1431906e-07 2.5038892e-08
00000000: 598e b032 4d0e 8533 d2bc 7b32 ed1b 9f32
00000010: 0571 eb33 6a43 0134 ea72 c133 b06a 9732
00000020: 8f84 6c33 2bd3 bb33 cafc f732 3cd3 1433
00000030: e4fb 3b34 1ebb fe33 aefc ec32 fd17 f733
00000040: 41f4 db33 a8ee a633 914c 2d34 b5ed 8933
00000050: ae63 2533 6467 ab33 fff6 b733 645e 1a34
00000060: 88b7 5d33 11b6 4632 1bf3 8034 02c7 4933
00000070: 5e80 5632 7e55 8833 917f f533 1b15 d732

separableConv.0.weight f4 [32, 1, 1, 16]
-0.19051278 0.14290991 -0.14633986 0.1949048 0.16152205 -0.18319224 -0.21127136 -0.13762246
-0.17483962 -0.0040282086 0.005590888 -0.026962867 0.16569366 -0.14341736 0.09736649 -0.13544282
-0.20460951 -0.16542569 -0.16864994 0.1841901 0.10735403 0.19482617 -0.16977568 0.14096029
0.13644172 -0.049871948 -0.015412505 0.059103392 -0.05188356 -0.10829693 -0.24192858 -0.24107993
0.17780334 0.16602258 0.17844008 0.06775419 0.011286692 -0.10149848 -0.1536838 -0.06546917
0.08958955 0.13812956 0.13823728 -0.032971717 0.0014143243 -0.20348167 0.13440657 -0.18209322
-0.14584284 -0.16882245 0.006309087 -0.0054067844 -0.01225412 -0.16876996 -0.13978209 -0.15271845
-0.16682626 -0.17389607 0.04377726 0.017511977 0.1351966 0.030730784 -0.22517183 0.11112289
-0.011893506 -0.2613321 -0.14645413 0.052488368 -0.23558454 0.23992045 -0.17902571 -0.018624641
-0.10720006 -0.100785986 0.09053282 -0.17327327 0.2068594 -0.085087165 -0.09661002 -0.21535371
-0.12594351 -0.14741412 -0.091192864 0.009981977 -0.10847304 -0.079154246 0.173325 0.07798759
0.08813804 -0.119175784 -0.2034903 -0.2302401 -0.21211353 0.16606937 -0.10561776 -0.217787
-0.018730588 -0.041197248 0.12519228 0.19098844 -0.24253157 0.14046413 -0.22206831 -0.12018739
-0.11268715 0.017672198 0.18991204 0.07630549 0.20025237 -0.038023807 -0.040626314 -0.105077356
0.055322226 -0.100167364 -0.18971108 -0.10004599 -0.058471963 0.1731003 -0.14217046 0.10708066
-0.16707164 -0.16537096 0.1361174 0.10959643 0.18117084 0.062894404 0.23748182 0.021070963
0.20047231 0.15560836 0.24468045 -0.17057775 -0.07577867 -0.12881958 -0.2512801 0.15522172
0.0010715327 0.24831173 -0.1562106 -0.22917292 -0.27144015 0.18737935 -0.19645579 -0.11777234
-0.015371378 -0.18965198 0.24318725 -0.12061657 0.022426903 -0.17409916 0.2539513 -0.01086008
0.021974757 0.1799052 -0.25174716 0.20955664 0.23249075 0.22797123 0.1583673 0.17077903
-0.123692304 0.089683354 -0.08103582 0.027290305 0.061354008 0.0676593 0.039510168 0.048839055
-0.25238988 -0.24272375 -0.01227528 0.020386664 0.18043794 0.0043187384 -0.11982251 -0.031737067
-0.1545919 -0.0693756 0.031334564 -0.09433526 0.21750829 0.22882152 -0.08267243 -0.08566747
-0.06794181 -0.24043289 0.24012035 0.08357985 0.21558549 0.056269728 -0.001746339 -0.08703366
0.24514237 -0.23478732 -0.093776286 0.21890111 0.1805894 0.21284015 -0.027928064 0.1501147
-0.057417575 -0.096366525 -0.20725195 -0.012420573 0.17777605 -0.1016053 0.084414504 -0.1745137
-0.06304146 0.017842336 0.2517114 -0.10012038 0.15444528 -0.0037156716 -0.21273679 -0.07996095
0.19577001 -0.0877439 0.061816953 0.11727474 -0.10517707 -0.23301229 0.07431033 0.20409499
0.1853377 -0.14435013 0.05595207 -0.24764024 0.059024297 -0.20987476 0.12738657 0.03770937
-0.065698564 0.2683268 0.15077227 0.14648075 -0.13578384 -0.15693668 -0.20480427 -0.05410083
-0.15928039 0.063280985 -0.14886414 -0.06559045 0.2142854 -0.030832589 -0.19455066 -0.051359583
-0.2115705 0.08284013 -0.17969772 0.10739108 -0.060253646 0.05733287 0.040302273 0.237568
00000000: c815 43be fa56 123e 1eda 15be 2095 473e
00000010: 0966 253e bf96 3bbe 8557 58be e7ec 0cbe
00000020: 2809 33be 10ff 83bb c533 b73b 3be1 dcbc
00000030: 99ab 293e 00dc 12be 1568 c73d 86b1 0abe
00000040: 2885 51be 5a65 29be 92b2 2cbe 549c 3c3e
00000050: 6edc db3d 8380 473e add9 2dbe e557 103e
00000060: 61b7 0b3e 8746 4cbd bb84 7cbc 6616 723d
00000070: db83 54bd c8ca ddbd 20bc 77be a8dd 76be
00000080: 1412 363e d301 2a3e ffb8 363e b5c2 8a3d
00000090: d1eb 383c 6fde cfbd 495f 1dbe b314 86bd
000000a0: ba7a b73d d671 0d3e 138e 0d3e 5a0d 07bd
000000b0: d960 b93a 805d 50be e0a1 093e a576 3abe
000000c0: d357 15be cbdf 2cbe 75bc ce3b 652b b1bb
000000d0: 81c5 48bc 08d2 2cbe 0923 0fbe 3a62 1cbe
000000e0: 81d4 2abe d011 32be c94f 333d 4775 8f3c
000000f0: fa70 0a3e 20bf fb3c 7293 66be 6694 e33d
00000100: fbdc 42bc 52cd 85be 12f8 15be 0bfe 563d
00000110: 133d 71be b5ad 753e 8452 37be b492 98bc
00000120: b48b dbbd e268 cebd 4569 b93d 8c6e 31be
00000130: f3d2 533e 2e42 aebd 79db c5bd af85 5cbe
00000140: 56f7 00be baf3 16be 53c3 babd 728b 233c
00000150: 1d27 debd 9f1b a2bd 1c7c 313e f5b7 9f3d
00000160: b781 b43d 6f12 f4bd c35f 50be 10c4 6bbe
00000170: 4a34 59be 170e 2a3e 204e d8bd 8e03 5fbe
00000180: e470 99bc 72be 28bd 6832 003e 7992 433e
00000190: 325a 78be d4d5 0f3e e065 63be ce24 f6bd
000001a0: 85c8 e6bd 49c5 903c 4d78 423e 0e46 9c3d
000001b0: f50e 4d3e dabe 1bbd c767 26bd cc32 d7bd
000001c0: 8f99 623d 8c24 cdbd 9f43 42be e9e4 ccbd
000001d0: 4c80 6fbd 3441 313e 2295 11be 1b4d db3d
000001e0: d414 2bbe 0157 29be 5c62 0b3e 1874 e03d
000001f0: d984 393e c8ce 803d 6f2e 733e 039d ac3c
00000200: 9d48 4d3e cc57 1f3e 838d 7a3e efab 2ebe
00000210: d931 9bbd 48e9 03be c9a7 80be 71f2 1e3e
00000220: ac72 8c3a 6e45 7e3e acf5 1fbe 4eac 6abe
00000230: 34fa 8abe 5fe0 3f3e b52b 49be a032 f1bd
00000240: 3bd8 7bbc 2134 42be 1406 793e d205 f7bd
00000250: a0b8 b73c 0d47 32be e805 823e 7aee 31bc
00000260: 6804 b43c 1239 383e 01e5 80be 0496 563e
00000270: 0e12 6e3e 4a71 693e 0a2b 223e b3e0 2e3e
00000280: 6452 fdbd e8ab b73d 1cf6 a5bd eb8f df3c
00000290: 574e 7b3d f690 8a3d 6ad5 213d 760b 483d
000002a0: 3f39 81be 938c 78be 421e 49bc ef01 a73c
000002b0: b9c4 383e 3484 8d3b 8165 f5bd bafe 01bd
000002c0: 574d 1ebe cb14 8ebd ac58 003d d832 c1bd
000002d0: 7eba 5e3e 3050 6a3e 2a50 a9bd 6d72 afbd
000002e0: 1325 8bbd 0a34 76be 1ce2 753e ea2b ab3d
000002f0: 71c2 5c3e 167b 663d 6ae5 e4ba b43e b2bd
00000300: 9a06 7b3e 166c 70be c80d c0bd 9d27 603e
00000310: 6dec 383e c5f2 593e 65c9 e4bc abb7 193e
00000320: b12e 6bbd d05b c5bd db39 54be a97f 4bbc
00000330: ed0a 363e 7116 d0bd 83e1 ac3d b8b3 32be
00000340: e21b 81bd 172a 923c 51e0 803e ea0b cdbd
00000350: e726 1e3e a082 73bb acd7 59be 91c2 a3bd
00000360: ef77 483e 13b3 b3bd c633 7d3d bd2d f03d
00000370: 1367 d7bd c69a 6ebe 0430 983d 47fe 503e
00000380: 2bc9 3d3e 85d0 13be ff2d 653d 6795 7dbe
00000390: 76c3 713d 69e9 56be a071 023e 2475 1a3d
000003a0: f88c 86bd 2162 893e 0c64 1a3e 0dff 153e
000003b0: eb0a 0bbe 02b4 20be 36b8 51be d598 5dbd
000003c0: 661a 23be 7699 813d d76f 18be 4954 86bd
000003d0: a26d 5b3e a094 fcbc 4a38 47be 6d5e 52bd
000003e0: f0a5 58be 16a8 a93d ae02 38be dbef db3d
000003f0: 87cc 76bd dfd5 6a3d ff13 253d 0745 733e

separableConv.1.weight f4 [32, 32, 1, 1]
-0.12144557 0.19370975 -0.14774242 -0.017797897 0.11827979 -0.07626296 0.14578252 0.15742499
-0.025044613 0.09814364 -0.039911374 0.08258181 -0.16600323 -0.012372945 -0.10496704 -0.1013457
-0.08216189 0.12328485 0.15295659 0.012679394 0.11567939 -0.13636324 -0.011372043 -0.033977773
0.04550932 -0.08654522 0.06225616 -0.04645299 -0.09900274 0.033219796 -0.08024191 -0.052653138
-0.100014485 -0.11587905 0.14089496 -0.06353471 -0.00028709686 -0.1715445 -0.07140287 -0.12947683
0.024637947 0.06274387 0.1445401 -0.103444315 -0.02546062 0.10158983 0.016847793 -0.15628487
-0.01461567 -0.025784113 -0.032946154 -0.09211466 0.16483094 0.12937337 -0.11935305 -0.009656937
-0.055122826 -0.08848614 -0.005859657 0.016657699 0.15000133 -0.12362464 -0.03767771 -0.15279715
-0.098914355 -0.09252378 0.102304645 0.10209838 -0.131734 0.0068121804 -0.06255203 -0.010547883
-0.11505937 -0.029154612 -0.02780042 -0.12022512 0.18148762 -0.07659037 -0.14608821 0.051188327
0.13472058 0.013849027 0.09073251 0.014780448 0.117941715 0.051312305 0.014123818 -0.0024833505
-0.1919325 0.040070675 -0.039124917 0.0034135228 0.081285834 0.03816098 -0.042714007 0.0549262
-0.03543085 0.061933998 -0.08696703 -0.11012246 0.058733787 -0.1443042 0.14117572 -0.07736842
-0.01613909 -0.13460828 -0.1489989 -0.08827801 0.10243628 0.12779234 0.14647754 -0.0907767
-0.19084883 -0.15017284 0.089254476 0.14313272 0.18415697 -0.1557915 -0.018155135 0.06582891
-0.09502519 -0.17430149 -0.13125983 0.07626041 0.017938059 -0.1287039 -0.15684098 -0.15146804
-0.05700117 -0.10783163 0.11620194 -0.008636266 -0.012756737 0.12560919 -0.16059859 0.013716892
0.08678619 0.1538238 -0.11246218 0.04068715 -0.11949202 0.1577516 0.18089248 0.033625633
0.11681866 0.059347685 -0.033598017 0.12680478 0.08638804 -0.008859118 -0.059279963 -0.10881249
-0.09887913 -0.079654485 0.05522235 0.08167985 -0.14700477 -0.0801121 -0.007073569 0.0622593
-0.071215615 0.12966119 -0.08795083 0.10023188 -0.06921633 -0.022719206 0.06343787 -0.08661017
0.19331397 -0.012509817 0.06297641 0.03325167 0.044625107 0.038053226 -0.011091382 0.09498257
0.08755224 0.06980814 -0.13437931 -0.1374544 0.037358966 -0.054724984 0.02336846 0.12057582
0.11673611 -0.006478893 -0.17908274 -0.120579 -0.08008536 0.01912305 -0.14056061 0.09745438
-0.14606494 -0.06251137 0.08458631 0.050785385 0.07512732 -0.08629845 -0.04223815 0.048610087
-0.0011468659 -0.17026389 0.071954675 0.034191243 0.13844351 0.15605694 -0.07479414 -0.1503902
-0.08263159 0.080868006 0.08863119 0.023620633 -0.101052165 -0.08699709 -0.0827882 0.040168077
-0.12137891 -0.12676239 -0.13400738 0.08511944 -0.042155042 0.037783645 0.008722473 0.041746628
-0.13567294 0.12697886 0.080901146 -0.03833149 -0.08266963 0.077755086 -0.12882327 -0.1035676
-0.16948667 -0.09411245 -0.16033886 -0.05669396 -0.13863836 0.07048171 -0.0057436 0.068696745
0.17801408 0.111894876 0.11935446 -0.118415534 0.1642944 0.022305029 0.19174297 -0.028999733
0.13967368 0.12448839 -0.050967935 0.097968765 0.03006378 0.062292308 -0.17611314 -0.17148034
00000000: 74b8 f8bd d95b 463e ca49 17be e5cc 91bc
00000010: ad3c f23d c12f 9cbd 0348 153e 0434 213e
00000020: 5c2a cdbc 88ff c83d 1c7a 23bd a720 a93d
00000030: c0fc 29be e5b7 4abc f6f8 d6bd 568e cfbd
00000040: 7e44 a8bd c47c fc3d a7a0 1c3e 3cbd 4f3c
00000050: 51e9 ec3d cea2 0bbe ce51 3abc 472c 0bbd
00000060: fb67 3a3d 9f3e b1bd 5100 7f3d 7e45 3ebd
00000070: f3c1 cabd 7b11 083d df55 a4bd d1aa 57bd
00000080: 65d4 ccbd ff51 edbd c546 103e 7c1e 82bd
00000090: 7d85 96b9 5da9 2fbe ab3b 92bd 9395 04be
000000a0: 85d5 c93c dc7f 803d 5202 143e 9dda d3bd
000000b0: ca92 d0bc 540e d03d 6204 8a3c 2409 20be
000000c0: 9076 6fbc 3439 d3bc 8cf2 06bd 9ca6 bcbd
000000d0: 71c9 283e 747a 043e 5f6f f4bd 2138 1ebc
000000e0: 79c8 61bd 3938 b5bd 5e02 c0bb ba75 883c
000000f0: f399 193e ea2e fdbd f153 1abd db76 1cbe
00000100: 9c93 cabd 1c7d bdbd 1985 d13d f518 d13d
00000110: 47e5 06be b638 df3b 471b 80bd 07d1 2cbc
00000120: 3fa4 ebbd a7d5 eebc b5bd e3bc 9638 f6bd
00000130: e4d7 393e 69db 9cbd 2698 15be daaa 513d
00000140: 31f4 093e 08e7 623c f7d1 b93d b129 723c
00000150: 6d8b f13d da2c 523d 9667 673c b5bf 22bb
00000160: f489 44be 2621 243d 7341 20bd 69b5 5f3b
00000170: 3079 a63d b04e 1c3d e2f4 2ebd 4cfa 603d
00000180: f01f 11bd 81ae 7d3d c51b b2bd e287 e1bd
00000190: d792 703d 7bc4 13be 5e90 103e 5673 9ebd
000001a0: 2036 84bc c1d6 09be 2b93 18be 1acb b4bd
000001b0: 1dca d13d ffdb 023e 35fe 153e 22e9 b9bd
000001c0: e06d 43be e9c6 19be 0dcb b63d 6291 123e
000001d0: a593 3c3e cf87 1fbe 14ba 94bc 4fd1 863d
000001e0: 919c c2bd 177c 32be fa68 06be 6b2e 9c3d
000001f0: d6f2 923c f5ca 03be ec9a 20be 701a 1bbe
00000200: 0f7a 69bd d4d6 dcbd 48fb ed3d 207f 0dbc
00000210: a201 51bc b29f 003e f573 24be d1bc 603c
00000220: f5bc b13d fc83 1d3e 9252 e6bd 92a7 263d
00000230: 3bb8 f4bd a389 213e e13b 393e 08bb 093d
00000240: 9f3e ef3d 8f16 733d 139e 09bd 1dd9 013e
00000250: 36ec b03d d625 11bc 8ccf 72bd 15d9 debd
00000260: 2481 cabd e421 a3bd d530 623d c447 a73d
00000270: 6b88 16be d011 a4bd 66c9 e7bb 9c03 7f3d
00000280: 7ed9 91bd e7c5 043e 911f b4bd 5f46 cd3d
00000290: 4bc1 8dbd a11d babc b7eb 813d ac60 b1bd
000002a0: 19f4 453e faf5 4cbc c7f9 803d e732 083d
000002b0: d1c8 363d b3dd 1b3d a1b8 35bc 3986 c23d
000002c0: 974e b33d 92f7 8e3d bb9a 09be d9c0 0cbe
000002d0: b705 193d 4e27 60bd 366f bf3c 75f0 f63d
000002e0: 5713 ef3d e54c d4bb 7761 37be 1ff2 f6bd
000002f0: cb03 a4bd f1a7 9c3c 1fef 0fbe 2996 c73d
00000300: 0c92 15be f605 80bd 963b ad3d 5604 503d
00000310: 5adc 993d 3ebd b0bd e901 2dbd 5f1b 473d
00000320: 6f52 96ba a859 2ebe f95c 933d 1e0c 0c3d
00000330: 23c4 0d3e 64cd 1f3e ac2d 99bd e3ff 19be
00000340: c03a a9bd 209e a53d 4584 b53d 0f80 c13c
00000350: 70f4 cebd 882b b2bd dc8c a9bd 4887 243d
00000360: 8295 f8bd 00ce 01be 3b39 09be 1a53 ae3d
00000370: c4aa 2cbd 06c3 1a3d b4e8 0e3c 83fe 2a3d
00000380: d9ed 0abe bf06 023e 80af a53d 7b01 1dbd
00000390: b24e a9bd 0f3e 9f3d 3fea 03be 401b d4bd
000003a0: ea8d 2dbe 07be c0bd df2f 24be ed37 68bd
000003b0: 37f7 0dbe b758 903d cf34 bcbb e1b0 8c3d
000003c0: 5349 363e 2429 e53d 1c70 f43d d883 f2bd
000003d0: cb3c 283e 09b9 b63c 4558 443e d990 edbc
000003e0: 9e06 0f3e c5f3 fe3d c1c3 50bd d9a3 c83d
000003f0: 5148 f63c 3826 7f3d 0157 34be 8b98 2fbe

separableConv.2.weight f4 [32]
1.0148532 1.0107061 0.98883677 0.9869989 1.0284929 1.0158434 1.0242136 0.99400973
1.0075103 1.0116887 0.9985829 1.0064083 0.9922808 0.997091 1.0121943 1.0264022
1.0003816 1.0058728 1.0033433 0.9991787 1.0094883 1.0011338 1.0231231 1.0059009
1.0114338 1.0068277 1.021672 1.0083548 1.0105174 1.0257328 0.98768884 1.0163538
00000000: b6e6 813f d15e 813f 6824 7d3f f6ab 7c3f
00000010: a8a5 833f 2807 823f 6e19 833f 6c77 7e3f
00000020: 19f6 803f 047f 813f 21a3 7f3f fdd1 803f
00000030: 1d06 7e3f 5b41 7f3f 958f 813f 2661 833f
00000040: 810c 803f 71c0 803f 8e6d 803f 2dca 7f3f
00000050: ea36 813f 2725 803f b3f5 823f 5cc1 803f
00000060: aa76 813f bbdf 803f 26c6 823f c511 813f
00000070: a258 813f 364b 833f 2dd9 7c3f e217 823f

separableConv.2.bias f4 [32]
-0.0152043365 -0.017584072 -0.01927339 0.0063293604 -0.014342154 -0.022224657 -0.012032655 0.006102046
-0.018637147 -0.017485404 -0.004460257 -0.0017955891 -0.010275743 -0.003724677 -0.013475823 -0.020733347
-0.012171784 0.00024756603 0.004835684 -0.012869027 0.0070998473 -0.0027965526 -0.017203657 -0.019166267
0.0025399206 -0.012291066 -0.017450092 -0.0066069122 -0.015284081 -0.008264437 -0.017652443 -0.035488095
00000000: 9c1b 79bc 790c 90bc 3ae3 9dbc 8666 cf3b
00000010: 5bfb 6abc 7c10 b6bc 9d24 45bc acf3 c73b
00000020: eeac 98bc 8d3d 8fbc 5927 92bb f959 ebba
00000030: 975b 28bc b619 74bb b3c9 5cbc fbd8 a9bc
00000040: 2a6c 47bc c0cb 8139 a874 9e3b 9dd8 52bc
00000050: d6a5 e83b 5e46 37bb afee 8cbc 9302 9dbc
00000060: cc74 263b 7860 49bc 7ff3 8ebc cc7e d8bb
00000070: 156a 7abc 9067 07bc db9b 90bc f75b 11bd

separableConv.2.running_mean f4 [32]
0.00014586162 -0.0014515666 0.0013707839 -0.0003559168 0.0008888251 0.0005644005 -0.0025812688 -0.00021849033
4.6049277e-05 -0.0046689925 -0.0015706031 -0.0008177359 0.0026512644 0.0018678639 -0.0014929242 0.0032783232
-0.00031852623 -0.0020728426 -0.00045549337 -0.00044281525 -0.0011762001 -0.0007301287 -0.001424977 0.0025299622
0.0003992705 -0.0009718811 -0.00053671293 0.0018589174 0.0003962195 0.00065050524 -0.001302716 -0.00080097554
00000000: 6ef2 1839 7e42 beba e0ab b33a 589a bab9
00000010: 0b00 693a 47f4 133a 812a 29bb 8d1a 65b9
00000020: 0925 4138 59fe 98bb b2dc cdba 545d 56ba
00000030: d6c0 2d3b 1dd3 f43a 39ae c3ba 23d9 563b
00000040: deff a6b9 87d8 07bb 49cf eeb9 a829 e8b9
00000050: ba2a 9aba 1c66 3fba 4bc6 baba b9cd 253b
00000060: 2e55 d139 d6c5 7eba 32b2 0cba eba6 f33a
00000070: aebb cf39 ab86 2a3a e5bf aaba 8ff8 51ba

separableConv.2.running_var f4 [32]
0.0018511056 0.0010001237 0.0012906091 0.002032444 0.0013196497 0.0018436888 0.0016177377 0.0020478556
0.0015783906 0.0020552687 0.0019433284 0.0012272564 0.002120939 0.0014729687 0.0022894128 0.0021549533
0.0025285927 0.0025433335 0.0015515666 0.0013327994 0.0024549458 0.0016457206 0.0016827489 0.0017049194
0.0015121466 0.0016054268 0.0012023823 0.0018191474 0.0014833508 0.0015154991 0.0022699656 0.0022712923
00000000: cca0 f23a 9516 833a a829 a93a c132 053b
00000010: 19f8 ac3a eea7 f13a 450a d43a 5135 063b
00000020: 00e2 ce3a b0b1 063b 48b7 fe3a e4db a03a
00000030: 74ff 0a3b a110 c13a f909 163b 1e3a 0d3b
00000040: bfb6 253b 0eae 263b f05d cb3a 54b1 ae3a
00000050: 28e3 203b 38b5 d73a af8f dc3a 9a77 df3a
00000060: 3833 c63a 2f6d d23a 4199 9d3a 7570 ee3a
00000070: fe6c c23a b6a3 c63a b4c3 143b f6d9 143b

classify.weight f4 [2, 992]
0.0077078957 0.005529587 -0.0125093805 0.035059206 -0.026558023 0.04858811 -0.04584315 0.023325672
-0.0042641684 0.044572808 -0.056178194 -0.004032206 0.010333195 0.010866061 0.013201918 -0.024077348
-0.007306959 0.021143066 0.018711312 -0.021573922 -0.021127347 -0.010209664 0.03064396 -0.00927384
0.00081965764 0.04502495 -0.031036275 0.008494378 0.011540313 0.016720532 -0.029891523 0.03392892
-0.02545364 0.037152287 0.0031753487 0.010443284 -0.0048651407 -0.0027289803 0.0072010728 0.0021907538
-0.020591224 0.0013495416 -0.035401348 0.0023001137 0.018194068 0.006388073 0.026335895 -0.006855669
0.022990175 -0.023689488 -0.045492597 -0.02908245 -0.013041128 -0.021755783 0.025788924 -0.034141067
-0.03901214 0.0038248736 -0.018015116 -0.029250452 -0.019286042 0.009983767 0.050173964 -0.029841403
0.012367299 -0.020134471 -0.012934142 0.015217756 0.042572543 0.0059738318 -0.012537559 0.00498149
0.0038057368 -0.006974853 -0.023586242 -0.00055238354 0.0209469 -0.019620342 -0.012190776 -0.015603545
-0.0023656746 -0.0068042725 -0.0074213976 -0.015532718 -0.00074338866 -0.006342893 0.015783632 0.0033342112
-0.036833163 -0.017729351 -0.005237452 0.021447498 0.016798833 0.031409163 0.026282687 0.0016905505
0.018604867 0.005223434 0.0051890663 -0.0031566515 0.003465335 -0.010191327 0.03452713 0.013013004
-0.018132186 0.019506807 -0.032671206 -0.0053526694 0.00710959 0.0026081672 0.0037801538 0.017585715
-0.0038976264 0.010672532 0.009352627 -0.010652957 -0.016724834 -0.01331258 -0.016575603 -0.0107516935
0.0065694586 0.00559021 0.022298854 0.01818576 -0.015939357 0.012287897 0.0028984775 -0.016025336
0.045607593 -0.014049739 0.008341848 -0.0017352107 0.007758889 0.027676078 -0.009989452 -0.051611803
0.0012373084 -0.008399832 -0.0020696314 0.036884286 0.011940952 -0.01800659 0.012200499 -0.040530547
0.017038379 0.046875305 0.005806671 -0.016384564 -0.022317735 0.02567365 -0.027130358 0.00015486268
0.018498052 0.0111185275 0.0050558024 -0.017916448 -0.014492593 0.02222485 0.008252509 -0.0077492665
0.010190549 0.009964501 0.0071446067 -0.0063590533 0.008994256 -0.016605252 0.017901128 0.015104974
-0.015896276 -0.01586306 0.011995094 0.015041069 -0.009962718 -0.010501337 -0.011534972 0.0016481251
-0.004793736 0.027174665 0.0057650693 -0.020174496 -0.03057143 -0.026176723 -0.035809014 0.023326863
0.03166226 -0.016895274 0.053356837 -0.011165575 -0.002939989 0.025967998 0.0276776 0.006638373
-0.010978624 -0.010558043 -0.0262016 0.023014158 -1.9886125e-05 0.006638112 -0.02336347 -0.0399014
-0.023859467 6.678743e-05 -0.03424797 0.014247417 -0.0035439017 0.013403579 -0.03759728 -0.018198378
-0.011235611 0.03593867 -0.032375436 -0.015599546 -0.011683919 0.015130214 -0.02461808 0.0050841197
-0.01011099 0.0014483326 0.014489695 0.0024985038 -0.0012312882 0.008058558 0.025394464 0.0297639
0.034249455 0.008863609 0.01174798 -0.041642647 -0.013667261 0.028020047 0.0030714814 0.023126816
-0.023095936 -0.02806688 0.01484256 -0.004271423 -0.02382986 -0.009148713 0.01845802 -0.004626558
0.01630912 0.0015602664 -0.03029583 -0.032597784 -0.005995154 0.02044592 -0.0042425557 0.009736877
0.0031166587 -0.009426921 -0.00040206203 0.012059098 -0.010263766 0.028284144 -0.00942183 0.01718733
00000000: 8492 fc3b 8a31 b53b 25f4 4cbc 3e9a 0f3d
00000010: 3690 d9bc 5304 473d 07c6 3bbd 7b15 bf3c
00000020: 70ba 8bbb fa91 363d 1b1b 66bd 9820 84bb
00000030: 904c 293c 9007 323c dc4c 583c dc3d c5bc
00000040: 376f efbb 3934 ad3c 7748 993c cbbb b0bc
00000050: 4213 adbc 6f46 27bc 0b09 fb3c 4ef1 17bc
00000060: 4bde 563a 156c 383d c93f febc 012c 0b3c
00000070: 9513 3d3c 7ff9 883c 11df f4bc 0df9 0a3d
00000080: 2784 d0bc ff2c 183d 8319 503b 4f1a 2b3c
00000090: c26b 9fbb b1d8 32bb faf6 eb3b c092 0f3b
000000a0: edae a8bc 1ae3 b03a 0101 11bd 81bd 163b
000000b0: ba0b 953c 0a53 d13b 60be d73c 85a5 e0bb
000000c0: e455 bc3c 7510 c2bc 7256 3abd 513e eebc
000000d0: 75aa 55bc 2f39 b2bc 4b43 d33c 81d7 0bbd
000000e0: 32cb 1fbd bbaa 7a3b 7094 93bc a59e efbc
000000f0: c3fd 9dbc f492 233c 3783 4d3d f575 f4bc
00000100: 36a0 4a3c 0cf1 a4bc b9e9 53bc e553 793c
00000110: 8c60 2e3d 22c0 c33b 556a 4dbc c43b a33b
00000120: ab69 793b 4f8d e4bb ef37 c1bc d5cd 10ba
00000130: d598 ab3c d7ba a0bc d2bb 47bc 03a6 7fbc
00000140: 6f09 1bbb 60f6 debb 322f f3bb f17c 7ebc
00000150: f8df 42ba 0bd8 cfbb ad4c 813c c882 5a3b
00000160: 5fde 16bd 253d 91bc ef9e abbb aab2 af3c
00000170: b59d 893c e5a6 003d ca4e d73c 7695 dd3a
00000180: 3c69 983c 5729 ab3b 0b09 aa3b d3df 4ebb
00000190: ac1a 633b 86f9 26bc 526c 0d3d 7f34 553c
000001a0: f389 94bc bdcc 9f3c 3ed2 05bd 7265 afbb
000001b0: 90f7 e83b c9ed 2a3b 75bc 773b eb0f 903c
000001c0: 526f 7fbb d8db 2e3c c33b 193c bd89 2ebc
000001d0: 8502 89bc 021d 5abc 8fc9 87bc df27 30bc
000001e0: 9d44 d73b 152e b73b 16ac b63c 4efa 943c
000001f0: 4193 82bc 2d53 493c 62f4 3d3b 9147 83bc
00000200: 07cf 3a3d e030 66bc 3fac 083c 0270 e3ba
00000210: 473e fe3b f1b8 e23c ccaa 23bc e666 53bd
00000220: 2e2d a23a 739f 09bc a7a2 07bb fa13 173d
00000230: fca3 433c 8e82 93bc 9ae4 473c 5c03 26bd
00000240: 1294 8b3c 5200 403d e345 be3b ec38 86bc
00000250: afd3 b6bc 8c51 d23c 7c40 debc a262 2239
00000260: 3a89 973c 7c2a 363c 25ab a53b 84c5 92bc
00000270: 5772 6dbc e310 b63c 8835 073c 8fed fdbb
00000280: 43f6 263c 2542 233c 4e1d ea3b 9b5f d0bb
00000290: a55c 133c bd07 88bc 63a5 923c da7a 773c
000002a0: e838 82bc 3ff3 81bc 1287 443c d16e 763c
000002b0: ab3a 23bc cd0d 2cbc 2efd 3cbc e705 d83a
000002c0: c614 9dbb 679d de3c e8e8 bc3b fc44 a5bc
000002d0: f070 fabc 9170 d6bc 79ac 12bd fa17 bf3c
000002e0: 49b0 013d f567 8abc b38c 5a3d d1ef 36bc
000002f0: d5ac 40bb d7ba d43c 22bc e23c b586 d93b
00000300: b0df 33bc a4fb 2cbc bda4 d6bc 3088 bc3c
00000310: 21d1 a6b7 8584 d93b bf64 bfbc a76f 23bd
00000320: ee74 c3bc 3a10 8c38 9947 0cbd 006e 693c
00000330: ce40 68bb af9a 5b3c 9bff 19bd c414 95bc
00000340: 9115 38bc 6d34 133d 1b9c 04bd 3d95 7fbc
00000350: e86d 3fbc b8e4 773c dbab c9bc b098 a63b
00000360: 91a8 25bc fad5 bd3a 3066 6d3c f0bd 233b
00000370: 2d63 a1ba 0b08 043c 0d08 d03c 6cd3 f33c
00000380: 2849 0c3d ac38 113c 997a 403c 7b91 2abd
00000390: a6ec 5fbc 4c8a e53c e84a 493b 7374 bd3c
000003a0: b033 bdbc 83ec e5bc 352e 733c 4bf7 8bbb
000003b0: d736 c3bc 7ce4 15bc 4635 973c 629a 97bb
000003c0: b49a 853c da81 cc3a f62e f8bc 4185 05bd
000003d0: ff72 c4bb 347e a73c 2305 8bbb 6c87 1f3c
000003e0: db40 4c3b 5f73 1abc dacb d2b9 8693 453c
000003f0: 5b29 28bc 26b4 e73c 055e 1abc 72cc 8c3c

classify.bias f4 [2]
0.0027844594 -0.045225378
00000000: 7a7b 363b 3f3e 39bd
