notebooks/outputs/temp_independent_test_B08_best.pth (torch, 13137 bytes, 18 tensors)

conv_temporal.weight f4 [8, 1, 1, 64]
0	0xbd218b5b	-0.03943954
1	0xbcc76435	-0.024339775
2	0x3db9b0e1	0.0906694
3	0x3cf2c351	0.02963415
4	0xbdbc4482	-0.09192754
5	0x3dbdc768	0.09266549
6	0xba9b69b0	-0.0011857059
7	0xbda84f38	-0.08218235
8	0x3dd2c26c	0.10290989
9	0x3d1a98bc	0.037743315
10	0x3a7c7c2f	0.0009631542
11	0x3dc62b5f	0.09676241
12	0xbd7af40c	-0.061267897
13	0x3d36bdcd	0.044614602
14	0xbd1998e2	-0.037499316
15	0xbd3e700f	-0.046493586
16	0x3da0b7f3	0.078475855
17	0x3d9189e8	0.07106382
18	0xbc64b3ae	-0.013958855
19	0xbd96ead9	-0.073690124
20	0x3d9456d0	0.07243121
21	0xbd49099f	-0.04908144
22	0xbdede2f9	-0.11615557
23	0xbd9fda7f	-0.07805347
24	0x3dc92f7e	0.098235115
25	0xba49ad13	-0.00076933316
26	0xbd430fd4	-0.047622517
27	0xbd3adf96	-0.045623384
28	0xbc851d1d	-0.016249234
29	0xbdf4074b	-0.119154535
30	0xbdbfc532	-0.09363784
31	0xbdfa2aa4	-0.12215164
32	0xbda9cb4c	-0.08290729
33	0x3d36e6c1	0.044653658
34	0x3dbc996e	0.09208952
35	0xbda332b8	-0.07968658
36	0x3dadd424	0.08487728
37	0x3df358e3	0.11882188
38	0xbd9907f6	-0.074722216
39	0x3db30d54	0.087427765
40	0xbdfd15ce	-0.123576745
41	0x3d3083df	0.043094512
42	0xbdb1cace	-0.0868126
43	0xbc12bc99	-0.008956098
44	0x3c182c41	0.009287895
45	0x3d97f1a7	0.074191384
46	0x3d5d6026	0.054046772
47	0x3d596ec1	0.05308414
48	0x3de40fb6	0.11135809
49	0x3dbf5b40	0.093435764
50	0x3df29352	0.11844505
51	0x3ccb00ab	0.024780592
52	0x3dde9997	0.10869139
53	0x3dec41fd	0.11536024
54	0xbdc281e8	-0.09497434
55	0xbc8b1d0a	-0.01698162
56	0xbd909482	-0.070595756
57	0x3ddf396f	0.108996265
58	0x3de9284c	0.11384639
59	0xbc843b92	-0.016141687
60	0xbd8d342f	-0.06894719
61	0x3c8a5d83	0.016890293
62	0x3d9df504	0.07712749
63	0x3c84cea5	0.016211817
64	0xbcda9094	-0.026680268
65	0xbd7f95f0	-0.06239885
66	0xbdda9bc3	-0.106742404
67	0xbd0f621a	-0.035005666
68	0x3dd2e81b	0.10298177
69	0xbd8712ee	-0.065954074
70	0xbc81e243	-0.01585496
71	0xbe002c9b	-0.12517016
72	0xbe0756fa	-0.13216773
73	0x3d6294fa	0.055317856
74	0x3d015af6	0.031580888
75	0x3c8118ec	0.015758954
76	0xbd05d429	-0.032673035
77	0x3d8c1b6d	0.068411686
78	0x3decbf0f	0.11559879
79	0xbcc27689	-0.023738163
80	0x3ce302ec	0.027711354
81	0xbb0b104f	-0.0021219437
82	0xbb82af27	-0.003988165
83	0xbd40e2f2	-0.047091432
84	0xbda38b82	-0.079855934
85	0x3d90e207	0.07074361
86	0xbdcfef6b	-0.10153087
87	0x3d8b6e16	0.068081066
88	0xbd1e37a4	-0.03862728
89	0x3b97d79a	0.004633856
90	0x3d4c80ba	0.04992745
91	0x3d40a052	0.047027893
92	0xbd40d930	-0.047082126
93	0xbd6371d4	-0.055528477
94	0x3d787f59	0.060668323
95	0xbd2964e8	-0.041355997
96	0xbc86fee0	-0.016478956
97	0x3da81352	0.0820681
98	0xbd5d4ca2	-0.05402816
99	0xbd989927	-0.074510865
100	0x3d9c983b	0.07646223
101	0xbdd3f634	-0.10349694
102	0x3dd7e594	0.105418354
103	0xbdedc022	-0.11608912
104	0x3c44d07b	0.012012596
105	0xbda635d3	-0.08115735
106	0xbc9ebca6	-0.019377064
107	0xbdafc695	-0.085827984
108	0x3dbe0091	0.09277452
109	0x3dba1976	0.090868875
110	0xbd60cf22	-0.054885037
111	0xbd8a34bc	-0.067483395
112	0xbd809356	-0.06278102
113	0xbcef39c0	-0.029202342
114	0x3db00a9a	0.08595772
115	0xbcb87d00	-0.022520542
116	0x3c3d0cd0	0.011538699
117	0x3da49b74	0.08037463
118	0x3bac2508	0.005253438
119	0x3dc0d51e	0.09415649
120	0xbda5f1d4	-0.08102766
121	0x3dc458b6	0.09587233
122	0x3d99f665	0.07517699
123	0x3dd27373	0.102759264
124	0x3cc5c89f	0.024143515
125	0xbce1e036	-0.027572732
126	0xbd2729ce	-0.040811352
127	0xbd531c77	-0.051540818
128	0xbc1b605d	-0.009483424
129	0x3d39a76c	0.04532568
130	0x3de97a8d	0.11400328
131	0xbdf094cf	-0.11747133
132	0x3dfe1db8	0.12408012
133	0xbde64303	-0.1124325
134	0x3bdbf097	0.00671203
135	0xbd67a5f1	-0.05655474
136	0x3dd66784	0.10468963
137	0x3b9171fc	0.004438637
138	0xbd93892f	-0.072039
139	0x3da066f2	0.07832135
140	0x3dd73e8b	0.10509976
141	0xbd00f502	-0.031483658
142	0xbdbd169b	-0.09232827
143	0xbdb72fb2	-0.08944644
144	0x3b429fdb	0.0029697332
145	0xbd33d8dc	-0.043907985
146	0x3be7247c	0.00705391
147	0x3de2635a	0.11054106
148	0x3df1a931	0.11799849
149	0xbd41be25	-0.047300477
150	0xbd512a79	-0.051065896
151	0x3d38ef31	0.045149986
152	0x3a2ae691	0.00065193424
153	0x3e045e12	0.1292651
154	0xbc62839c	-0.013825323
155	0xbd21c491	-0.0394941
156	0xbbcb4967	-0.0062038186
157	0xbdce85ef	-0.100841396
158	0x3db740e0	0.08947921
159	0xbda79208	-0.0818215
160	0xbcc06997	-0.02348785
161	0xbdf15d8f	-0.11785423
162	0xbd3fc199	-0.04681549
163	0xbd1cd48c	-0.038288638
164	0x3c1e6c78	0.009669416
165	0xbdd8a39b	-0.1057808
166	0xbc8eda51	-0.017438086
167	0xbd1fbaa1	-0.038996343
168	0x3c4a211f	0.012336998
169	0x3dd8e479	0.10590453
170	0x3dd1f50c	0.10251817
171	0xbd645a14	-0.055749968
172	0xbdd6b88e	-0.1048442
173	0xbd81e204	-0.06341937
174	0xbe033a9f	-0.12815331
175	0xbda5803d	-0.080811
176	0xbd95577a	-0.072920755
177	0xbdfe371b	-0.12412854
178	0xbcc6cb28	-0.024266794
179	0x3d812ae9	0.063070126
180	0xbdc78e02	-0.09743883
181	0x3d3b822f	0.04577845
182	0xbdfc8f59	-0.12332029
183	0xbde013f5	-0.109413065
184	0x3da03cc7	0.07824092
185	0x3dba8a81	0.09108449
186	0x3cc55154	0.024086632
187	0x3db398b7	0.087693624
188	0xbc1a6b4e	-0.0094249975
189	0xbcfa175b	-0.030528715
190	0x3ca599e2	0.020214979
191	0xbd1e1a67	-0.038599398
192	0xbd272ad2	-0.04081232
193	0xbd019662	-0.031637557
194	0xbd373426	-0.044727467
195	0x3bebbabf	0.0071938927
196	0x3c2d5444	0.0105791725
197	0x3dca3f2f	0.098753326
198	0xbdbfd72b	-0.09367212
199	0x3c0355a4	0.008016024
200	0xbd35ece0	-0.044415355
201	0x3deb1fe2	0.114806905
202	0xbd559818	-0.052147
203	0xbd872942	-0.06599666
204	0x3d31e921	0.04343522
205	0xbc61fc65	-0.013793086
206	0x3d40fea0	0.04711783
207	0x3dbce465	0.0922325
208	0x3c9ba4fb	0.018999567
209	0xbd9cdb00	-0.076589584
210	0x3de7968b	0.11308011
211	0x3dd6b4cf	0.10483705
212	0xbde4026d	-0.11133275
213	0xbda2a287	-0.07941156
214	0xbd35bbee	-0.044368677
215	0xbd452bfd	-0.048137654
216	0xbc9e784c	-0.019344471
217	0x3de9729a	0.11398812
218	0x3da28d92	0.07937159
219	0xbdaae25e	-0.08343957
220	0xbd8c85bc	-0.06861445
221	0x3a5b1015	0.00083565834
222	0x3dd84a03	0.105609916
223	0xbdcfbc70	-0.101433635
224	0xbd234a04	-0.03986551
225	0x3dfcee4a	0.123501375
226	0xbde377b9	-0.1110682
227	0x3d415403	0.04719926
228	0x3d8e53cf	0.06949579
229	0x3bf1e570	0.0073820874
230	0x3d197c0c	0.037471816
231	0x3d60026c	0.05468981
232	0x3de21ad8	0.11040276
233	0xbcdf4b13	-0.027257478
234	0xbcdd5409	-0.02701761
235	0xbded876c	-0.11598095
236	0xbce57adb	-0.028012684
237	0x3de8a443	0.113594554
238	0xbc98e498	-0.01866369
239	0xbdfa2867	-0.122147374
240	0xbde8e2a1	-0.11371351
241	0xbd6745dd	-0.05646311
242	0xbbb52915	-0.005528579
243	0xbdf7ecca	-0.12105711
244	0xbcb267ad	-0.021777952
245	0xbde41328	-0.11136466
246	0xbd89c309	-0.06726653
247	0x3da8fa14	0.082508236
248	0xbd8f737d	-0.070044495
249	0x3dda2e2b	0.10653337
250	0x3db957c8	0.09049946
251	0x3da27fa8	0.07934505
252	0xbd655a38	-0.055994242
253	0xbdbcec20	-0.09224725
254	0x3b8e7ff0	0.0043487474
255	0x3dad315a	0.08456679

bn1.weight f4 [8]
0	0x3f7b6595	0.98201877
1	0x3f7b658e	0.98201835
2	0x3f7b6596	0.9820188
3	0x3f7b6595	0.98201877
4	0x3f7b65a4	0.98201966
5	0x3f7b65a9	0.98201996
6	0x3f7b65a6	0.9820198
7	0x3f7b65b6	0.98202074

bn1.bias f4 [8]
0	0xb7f06667	-2.8657914e-05
1	0x3844aa1a	4.688846e-05
2	0xb62b865d	-2.5559195e-06
3	0x37cd4fdc	2.4475092e-05
4	0xb6ae947d	-5.2028904e-06
5	0xb69128d2	-4.326089e-06
6	0x37384452	1.0983162e-05
7	0x38fd81b4	0.00012088139

bn1.running_mean f4 [8]
0	0x394f3354	0.0001976018
1	0xb99613be	-0.0002862494
2	0x39183380	0.00014515035
3	0xb7f7b4c0	-2.9528863e-05
4	0x39d95672	0.00041453872
5	0x37938d32	1.7589515e-05
6	0xb9f2c499	-0.00046304314
7	0xb8edc076	-0.00011336889

bn1.running_var f4 [8]
0	0x3f25ebc7	0.6481289
1	0x3eb7cdb3	0.35899124
2	0x3ee4099a	0.44538575
3	0x3ef1355f	0.4711103
4	0x3ed935d0	0.42423868
5	0x3f0a2e8a	0.5397726
6	0x3ec79160	0.389781
7	0x3e9658e1	0.29364684

conv_spatial.weight f4 [16, 1, 3, 1]
0	0xbea8e291	-0.32985356
1	0xbe786cce	-0.24260256
2	0xbd4a5c79	-0.049404595
3	0xbe8cf4d7	-0.27530548
4	0x3da9ea0a	0.082965925
5	0x3ee5bcb6	0.44870538
6	0xbef89ec7	-0.48558637
7	0x3e8dac93	0.27670726
8	0x3e28ec70	0.16496444
9	0x3ed55e62	0.4167357
10	0x3e9317a9	0.2872899
11	0x3e762f9f	0.24041604
12	0x3cdde8a8	0.027088478
13	0x3e340b56	0.1758245
14	0xbe8f3517	-0.27970192
15	0xbe945e05	-0.2897798
16	0xbd5e03ba	-0.054202773
17	0x3e9c4492	0.30521065
18	0xbe4c250f	-0.19936012
19	0x3eb6da80	0.35713577
20	0xbe7abf23	-0.24486975
21	0xbeba80dd	-0.3642644
22	0xbea3a5f7	-0.3196256
23	0xbe91183e	-0.28338808
24	0xbf0f9645	-0.5608867
25	0x3ebe277b	0.37139496
26	0xbf08dec3	-0.5346491
27	0x3d8f6714	0.070020825
28	0x3e7bebf6	0.2460173
29	0x3f118e52	0.5685779
30	0xbf0993a0	-0.5374088
31	0xbe0b8130	-0.136235
32	0xbf0a162b	-0.53940076
33	0x3e90eb5c	0.28304565
34	0x3f05faa2	0.5233556
35	0xbef3f7c2	-0.47649962
36	0x3db105c3	0.08643677
37	0x3e0a6dea	0.13518491
38	0x3f099f63	0.5375883
39	0x3ca5a599	0.020220565
40	0x3e9e73af	0.30947635
41	0x3d41fcaa	0.0473601
42	0x3ee8a55c	0.4543866
43	0xbec752c9	-0.38930348
44	0x3f092d4d	0.5358475
45	0x3dfb1367	0.1225956
46	0x3ea8a19a	0.32935792
47	0x3e1cb663	0.1530395

bn2.weight f4 [16]
0	0x3f7e4410	0.99322605
1	0x3f816c0d	1.01111
2	0x3f80e2b2	1.0069182
3	0x3f80de61	1.0067865
4	0x3f7e64f5	0.993728
5	0x3f818313	1.0118126
6	0x3f812bed	1.009153
7	0x3f80dda4	1.0067639
8	0x3f7df2a9	0.99198395
9	0x3f81494d	1.0100495
10	0x3f7daf39	0.99095494
11	0x3f7c5685	0.9856952
12	0x3f812c7b	1.0091699
13	0x3f7eddd3	0.99557227
14	0x3f7de667	0.9917969
15	0x3f7d6757	0.9898581

bn2.bias f4 [16]
0	0x3bb6ebed	0.0055823238
1	0xbb470a6e	-0.0030371207
2	0xbba6138e	-0.005068249
3	0x3b5b8cad	0.0033500597
4	0x3c055752	0.008138495
5	0x3beb99b0	0.007189952
6	0x3ad5b231	0.0016303716
7	0x3acfa28a	0.0015841287
8	0x3b85fd96	0.0040890677
9	0xba8bda8d	-0.0010669992
10	0x3bd07314	0.0063613746
11	0xb92efc17	-0.00016687844
12	0x3ad90008	0.0016555795
13	0x3bb47766	0.0055073975
14	0xb952a42a	-0.00020088317
15	0x3c3e3218	0.011608623

bn2.running_mean f4 [16]
0	0x36ac984e	5.14373e-06
1	0x36b62aa2	5.428986e-06
2	0xb7a81f17	-2.0041638e-05
3	0x3703ac56	7.848334e-06
4	0x3759dafa	1.2985192e-05
5	0x352a0d41	6.334922e-07
6	0xb833301e	-4.272174e-05
7	0x36aa7ac8	5.0806884e-06
8	0xb8768706	-5.877672e-05
9	0x386c74f5	5.637571e-05
10	0x380ead60	3.4016906e-05
11	0x380ec7e9	3.404162e-05
12	0xb8af74a4	-8.366376e-05
13	0x37be95a1	2.2719441e-05
14	0xb88ed34b	-6.810444e-05
15	0x375e00de	1.3232433e-05

bn2.running_var f4 [16]
0	0x3edc4a4c	0.43025434
1	0x3e76865f	0.24074696
2	0x3e67e8d0	0.22647405
3	0x3f3a7dd2	0.72848237
4	0x3e43cdd0	0.1912148
5	0x3e4a16c1	0.19735242
6	0x3e6fa449	0.23402514
7	0x3f405a9b	0.7513825
8	0x3f34ea8a	0.7067038
9	0x3f2c71b9	0.67361027
10	0x3f99acdc	1.2005877
11	0x3eaffef7	0.3437421
12	0x3f09cc5e	0.53827465
13	0x3e82fb72	0.25582463
14	0x3f12b648	0.5730939
15	0x3ec4bd7a	0.3842581

conv_separable_depth.weight f4 [16, 1, 1, 16]
0	0xbde78e99	-0.11306495
1	0x3e7b48e1	0.2453952
2	0x3e81b1d2	0.2533098
3	0xbe200982	-0.15628627
4	0xbd94c908	-0.07264906
5	0x3e7216f9	0.23641576
6	0xbe60ded8	-0.21960008
7	0x3e7aa639	0.24477471
8	0xbdedc5de	-0.11610006
9	0xbe09f43c	-0.13472074
10	0xbe35bc25	-0.17747553
11	0xbdb5aa29	-0.08870346
12	0xbdcd6bb0	-0.100303054
13	0xbd0da454	-0.034580544
14	0xbe6aef0a	-0.22942749
15	0x3d9163c7	0.07099109
16	0x3e6cb60c	0.2311632
17	0x3e3bc92d	0.18338461
18	0xbd77e2dd	-0.060519088
19	0xbe739799	-0.23788299
20	0xbdf98bc2	-0.1218486
21	0x3a64eea7	0.0008733072
22	0x3dc3d141	0.095613964
23	0xbe20e16e	-0.15710995
24	0xbd88b3b2	-0.06674899
25	0x3e0bf2cc	0.13666838
26	0xbe73facf	-0.23826145
27	0xbd5f3390	-0.054492533
28	0x3dd3a9da	0.10335131
29	0xbce2d5d4	-0.027689852
30	0xbe50203f	-0.20324801
31	0x3e1c5e34	0.1527031
32	0x3decace1	0.115564115
33	0x3e60fee4	0.21972233
34	0xbd89a897	-0.06721609
35	0x3e516f26	0.20452556
36	0x3d5b8256	0.053591095
37	0xbe4de06b	-0.2010514
38	0xbe6c94e3	-0.23103671
39	0xbe694fbc	-0.22784323
40	0xbe58e598	-0.21181333
41	0xbe5038d5	-0.2033418
42	0x3e02689f	0.12735222
43	0x3c9fee35	0.019522766
44	0x3d031289	0.0320001
45	0x3d53a638	0.05167219
46	0x3d9f0141	0.07763911
47	0xbbde1efe	-0.006778597
48	0xbe61a3d8	-0.22035158
49	0xbd6dc91d	-0.058053125
50	0xbd9842fb	-0.074346505
51	0xbcee80e9	-0.029114204
52	0x3d65992b	0.056054275
53	0xbdcdc1b3	-0.10046711
54	0x3dab6b38	0.0837006
55	0x3e5cec07	0.21574412
56	0x3e064fd2	0.13116387
57	0xbe694745	-0.22781093
58	0x3bc6abdd	0.006062968
59	0xbdd10c6b	-0.10207447
60	0xbdf3428d	-0.11877928
61	0xbe54c710	-0.20779061
62	0xbcce18ee	-0.025158372
63	0x3d3214b0	0.04347676
64	0xbc40b0ba	-0.011760885
65	0xbe10ee53	-0.14153413
66	0x3d0f37d1	0.03496534
67	0xbe0ffc85	-0.14061172
68	0x3d835681	0.06412984
69	0xbdcdde5a	-0.10052176
70	0x3d93578d	0.07194433
71	0x3e4d59d3	0.20053796
72	0xbe18cff6	-0.14923081
73	0x3e7e7d13	0.248524
74	0xbe47f68e	-0.19527647
75	0x3e7acbd6	0.2449182
76	0xbe104e6b	-0.14092414
77	0xbe72b2cb	-0.23701017
78	0xbdf8841a	-0.121345714
79	0xbe348574	-0.17629033
80	0x3e6a7590	0.22896409
81	0xbcc219b5	-0.023693899
82	0xbe78b247	-0.24286757
83	0xbe6939ee	-0.22776005
84	0xbd9af16d	-0.075655796
85	0x3ddc0826	0.10743742
86	0xbdd058e9	-0.10173208
87	0x3d3db5fe	0.04631614
88	0xbe01aafe	-0.12662885
89	0x3e54a298	0.2076515
90	0x3e4d1dec	0.20030946
91	0xbe5c9226	-0.21540126
92	0xbdaee45c	-0.0853965
93	0x3e604d5a	0.21904507
94	0xbe5aff3c	-0.21386427
95	0xbe31f3a7	-0.17378102
96	0xbda46ed6	-0.08028953
97	0xbd1248d6	-0.035713993
98	0x3d8239a8	0.06358653
99	0x3be4ac4f	0.0069785486
100	0x3e6854e2	0.2268863
101	0x3deb91f7	0.1150245
102	0xbe308a83	-0.17240338
103	0xbd17e7cf	-0.037086304
104	0xbe2593c0	-0.16169643
105	0xbd7c10cd	-0.06153946
106	0x3c308d24	0.010775838
107	0x3d90a6c7	0.0706306
108	0xbe611573	-0.21980838
109	0xbe07e842	-0.13272193
110	0xbe5452e4	-0.20734745
111	0x3e37b081	0.17938425
112	0x3e39f86a	0.18161169
113	0xbd1c8c64	-0.038219824
114	0xbe7462a4	-0.23865753
115	0xba2ac510	-0.000651435
116	0xbc9b0e8a	-0.018927831
117	0xbdcc5ff5	-0.0997924
118	0x3d0771c6	0.033067487
119	0xbddbb2c5	-0.10727457
120	0x3c9202cb	0.017823597
121	0x3e7a19be	0.24423882
122	0x3d9c1493	0.07621112
123	0x3e50db84	0.20396239
124	0x3d9c47f2	0.0763091
125	0x3c603965	0.013685559
126	0x3e40ef88	0.18841374
127	0xbdfde1ba	-0.123965696
128	0xbe54ad76	-0.20769295
129	0x3df62079	0.120179124
130	0xbda4e150	-0.080507874
131	0x3e489863	0.19589381
132	0x3e39ee33	0.18157272
133	0xbdfa14d2	-0.122110024
134	0x3e19ede0	0.15032148
135	0xbe1578dc	-0.14596885
136	0xbe0133d2	-0.12617424
137	0x3d0746b6	0.03302642
138	0x3e6111c6	0.21979436
139	0xbe1c3254	-0.15253574
140	0xbe251650	-0.16121793
141	0x3dc8a5fb	0.09797283
142	0xbb53e3d0	-0.0032331832
143	0x3d5b20f0	0.05349821
144	0xbd5a0fa8	-0.053237587
145	0x3c832778	0.016010031
146	0x3e74f6c6	0.23922262
147	0xbe1e51ab	-0.15460841
148	0x3d9f0bd0	0.07765925
149	0xbdaf79d1	-0.085681565
150	0xbdc66c63	-0.09688642
151	0xbc112b46	-0.008860415
152	0xbdae0bf0	-0.08498371
153	0x3e2eaf63	0.17059092
154	0xbe4fff9a	-0.20312348
155	0x3ccd97a5	0.025096724
156	0xbe5347bc	-0.20632833
157	0x3e3b4604	0.18288428
158	0xbe8338d6	-0.256293
159	0x3c93d9be	0.018048164
160	0xbe6782bf	-0.2260847
161	0x3d8e1809	0.06938178
162	0xbe43c6a3	-0.19118743
163	0xbdce8ef4	-0.1008586
164	0x3e4645b3	0.19362526
165	0xbe3ed862	-0.18637231
166	0xbc995a3a	-0.018719781
167	0xbe20f062	-0.15716699
168	0x3da92dd3	0.082606934
169	0xbc9ec6d0	-0.01938191
170	0xbe46894d	-0.19388314
171	0x3e56e79a	0.20986786
172	0xbe4e0230	-0.20118022
173	0xbd9ad78e	-0.07560645
174	0xbe054c95	-0.13017495
175	0x3e4aac99	0.19792403
176	0xbd466da8	-0.04844442
177	0xbd045ebf	-0.03231692
178	0xbdb34279	-0.08752913
179	0xbe6cfd49	-0.23143496
180	0x3d1c6e99	0.03819141
181	0xbe75b73a	-0.23995677
182	0xbb44eed6	-0.0030049584
183	0xbe07b52b	-0.13252704
184	0xbe4ae5a1	-0.19814159
185	0x3e2c9cb0	0.16856647
186	0xbe6f4469	-0.2336594
187	0x3c8f330b	0.017480394
188	0xbe1c2330	-0.15247798
189	0xbe00aae8	-0.12565196
190	0xbe510e22	-0.20415547
191	0x3e361986	0.17783174
192	0x3e5cec42	0.215745
193	0x3e4037fc	0.18771356
194	0xbe220ec4	-0.15825945
195	0x3e111ad7	0.14170395
196	0x3c31dc7a	0.010855788
197	0xbe331567	-0.17488633
198	0x3e82e907	0.2556841
199	0xbd965e71	-0.07342232
200	0xbe356670	-0.17714858
201	0xbd05d34d	-0.032672215
202	0xbe195e15	-0.14977296
203	0x3e11c30c	0.1423456
204	0x3e1cf09f	0.15326165
205	0xba831502	-0.0010000768
206	0xbd95df5e	-0.073179945
207	0x3e7fe04b	0.24987905
208	0xbe49ad33	-0.19694977
209	0xbe201e18	-0.1563648
210	0xbdc44495	-0.095833935
211	0x3e0674c9	0.13130488
212	0x3da8b96b	0.08238491
213	0xbddc2680	-0.10749531
214	0x3e1f54f2	0.15559748
215	0x3dc620df	0.096742384
216	0x3db38bf0	0.08766925
217	0x3ddd280a	0.107986525
218	0xbdaa1942	-0.08305599
219	0xbdd9df6f	-0.1063832
220	0xbe1ebd65	-0.15501936
221	0xbdc4e6ed	-0.09614358
222	0x3ddd6621	0.10810495
223	0x3e78ad4b	0.24284856
224	0xbe0957e9	-0.13412441
225	0x3df38cb1	0.11892069
226	0xbe575c73	-0.2103136
227	0xbe1b86fe	-0.15188214
228	0x3d575397	0.05256995
229	0xbc4eab09	-0.01261402
230	0x3e0e0bde	0.13871714
231	0xbe158fe0	-0.14605665
232	0xbdb9d9ea	-0.09074767
233	0x3e72687a	0.23672667
234	0xbe448dab	-0.19194667
235	0x3e5cfc22	0.21580556
236	0xbd6f81de	-0.05847346
237	0xbe13da89	-0.14438833
238	0xbd6a52e7	-0.057207968
239	0xbc94278b	-0.018085262
240	0xbe40b79b	-0.1882004
241	0xbdbc4391	-0.09192575
242	0xbdb61b33	-0.088919066
243	0xbdbe6945	-0.09297422
244	0xbe55a01a	-0.20861855
245	0xbe4d448d	-0.20045681
246	0xbdcfa445	-0.10138754
247	0xbe2e16fd	-0.17000957
248	0xbd806205	-0.06268696
249	0xbe6c420a	-0.23072067
250	0xbba626ca	-0.005070542
251	0xbd8a0760	-0.06739688
252	0x3e325dc6	0.17418584
253	0x3bf58abb	0.0074933446
254	0x3e7ab892	0.2448447
255	0xbdacc570	-0.08436096

conv_separable_point.weight f4 [16, 16, 1, 1]
0	0x3d4baf09	0.049727473
1	0x3c1a25e7	0.009408451
2	0xbe2abb1e	-0.16672942
3	0x3bd1c44f	0.0064015756
4	0x3e32f900	0.17477798
5	0x3e26ac66	0.16276702
6	0xbe251bd6	-0.161239
7	0xbd73a451	-0.059482876
8	0xbe6bf0d1	-0.23041083
9	0x3db588c0	0.088639736
10	0x3e7d22da	0.24720326
11	0xbd7dbf70	-0.061950147
12	0xbe7a7ca4	-0.24461609
13	0xbe288154	-0.16455585
14	0xbe45f3a7	-0.19331227
15	0x3c9c9eb2	0.01911864
16	0xbe4dfa89	-0.20115103
17	0xbdd925c7	-0.106029086
18	0x3e6f9505	0.2339669
19	0x3e83d456	0.25747937
20	0xbde0f373	-0.10983934
21	0x3e668a1c	0.22513622
22	0x3c2fb6bf	0.010724722
23	0xbe80700d	-0.25085488
24	0x3e004a66	0.12528381
25	0x3d891ff4	0.06695548
26	0xbe5c93c6	-0.21540746
27	0xbd80c5f3	-0.06287756
28	0xbe042639	-0.12905206
29	0xbd74a9df	-0.059732314
30	0x3e3e36b5	0.18575557
31	0xbcfc35c2	-0.030787352
32	0x3da6178e	0.081099615
33	0x3e4e4ba6	0.20146045
34	0xbabe6e2d	-0.0014528685
35	0x3ce67de3	0.0281362
36	0xbe0ee0c9	-0.13952936
37	0xbd5b1780	-0.05348921
38	0x3e2d02b0	0.16895556
39	0xbce35298	-0.027749345
40	0x3e0d4d44	0.13799006
41	0x3d8b6df9	0.06808085
42	0x3e132a43	0.1437159
43	0x3e4a6c9f	0.19767998
44	0x3e6c4511	0.23073222
45	0xbd859581	-0.06522656
46	0xbe624a17	-0.22098576
47	0x3e055550	0.13020825
48	0x3d56a3ea	0.052402414
49	0x3dae6576	0.08515446
50	0xbc8b1dd3	-0.016981995
51	0x3e522d4b	0.2052509
52	0xbdc99f5d	-0.09844849
53	0x3dce1998	0.10063475
54	0x3e12aad7	0.14322983
55	0xbde4d274	-0.11172953
56	0x3d961f96	0.07330243
57	0x3e695855	0.22787602
58	0x3caffa5f	0.02148169
59	0x3d36782c	0.0445482
60	0x3e420c86	0.1895009
61	0xbcf7b636	-0.030238252
62	0x3bfacf7f	0.00765413
63	0xbd4370d8	-0.047715038
64	0xbe35208f	-0.17688201
65	0x3e4ba31e	0.19886443
66	0x3e6d5ed1	0.23180701
67	0x3cfd04ca	0.030886073
68	0xbe72c320	-0.23707247
69	0xbddd8f94	-0.10818401
70	0x3e19f008	0.15032971
71	0xbcb95df5	-0.02262781
72	0x3d985f6b	0.074400745
73	0x3e4fa36c	0.20277184
74	0x3e4390a2	0.19098142
75	0xbe1058d6	-0.14096388
76	0xbd6e82c7	-0.058230188
77	0xbd5cc730	-0.053900898
78	0xbc906652	-0.017626915
79	0xbe51344a	-0.20430103
80	0xbc360f8f	-0.011112108
81	0x3d38a535	0.04507943
82	0x3e4f7c0f	0.20262168
83	0x3e2e4ecc	0.17022246
84	0xbe46fdd2	-0.19432762
85	0x3d138ac4	0.03602101
86	0x3e464311	0.19361521
87	0xbdfa60e3	-0.12225511
88	0x3da47a83	0.0803118
89	0x3e75a229	0.2398764
90	0x3deefa94	0.11668888
91	0x3e833a06	0.25630206
92	0xbd89aa4f	-0.06721937
93	0x3e437b96	0.19090113
94	0x3e078e84	0.13237959
95	0xbd92cfa6	-0.07168512
96	0xbdbdfa05	-0.09276203
97	0xbe7e11da	-0.24811497
98	0xbdefec14	-0.1171495
99	0x3e049c11	0.1295016
100	0xbda96f0b	-0.08273133
101	0x3d10e6bb	0.03537629
102	0xbe43e29a	-0.1912941
103	0xbdcd3fe3	-0.10021951
104	0x3de2ad61	0.11068226
105	0x3e67c596	0.22633967
106	0x3d9e61fa	0.07733531
107	0x3c811513	0.01575712
108	0xbe708ed6	-0.23491988
109	0x3e12f82a	0.1435248
110	0x3e3788f1	0.17923333
111	0x3e265195	0.16242059
112	0xbe4aad0f	-0.19792579
113	0xbdcc0652	-0.09962143
114	0x3e0e7dae	0.1391513
115	0xbe375073	-0.17901783
116	0x3e63b4b2	0.22236899
117	0xbe1d32dd	-0.15351434
118	0x3de013cc	0.10941276
119	0x3e12e343	0.14344506
120	0x3dd9c96c	0.10634121
121	0xbda58c82	-0.0808344
122	0x3e3b6047	0.18298446
123	0x3dda687b	0.10664459
124	0xbe46f78a	-0.19430366
125	0x3c01a6b5	0.007913281
126	0xbd4dc3dc	-0.050235614
127	0x3d625bd9	0.055263374
128	0xbc524c9b	-0.012835647
129	0x3d69542b	0.056965034
130	0xbc964983	-0.0183456
131	0xbe092977	-0.13394724
132	0x3c998373	0.018739438
133	0x3d3e6a74	0.04648824
134	0x3e442ab8	0.19156921
135	0xbcd30f3d	-0.025764102
136	0x3cfcea09	0.030873315
137	0x3e02b592	0.12764576
138	0xbe1f3e84	-0.15551192
139	0xbdd1d2b0	-0.102452636
140	0x3cf04bb5	0.029332975
141	0x3e3237c1	0.17404081
142	0xbe13ae63	-0.14421992
143	0xbe1692cb	-0.14704435
144	0x3d25e6ed	0.04050343
145	0xbe0a47c2	-0.13503936
146	0xbdbd928c	-0.09256467
147	0xbe6a482c	-0.22879094
148	0xbe83e4e6	-0.25760573
149	0x3e5caaaa	0.21549478
150	0xbe193417	-0.14961277
151	0x3e5762e2	0.21033815
152	0x3d49d97d	0.04927968
153	0x3dbd433d	0.0924134
154	0x3cfc2b62	0.030782405
155	0x3e706f37	0.23479925
156	0xbe30107a	-0.17193785
157	0xbdcb593f	-0.09929132
158	0xbe53c26d	-0.20679636
159	0xbdf9933f	-0.12186288
160	0xbded4e90	-0.1158725
161	0xbdfb24b5	-0.12262861
162	0x3e52fd1f	0.2060437
163	0xbdd20749	-0.10255296
164	0xbc5f3d0d	-0.0136253955
165	0xbba55a64	-0.005046176
166	0x3cdff9c8	0.027340785
167	0xbb932ca8	-0.0044914074
168	0xbe3945f6	-0.18093094
169	0xbccbe073	-0.0248873
170	0xbc6f9f9e	-0.014625458
171	0xbd07d210	-0.033159316
172	0xbe6224cd	-0.22084351
173	0xbe634856	-0.22195563
174	0xba033691	-0.00050053844
175	0x3ccb3241	0.024804236
176	0xbd720686	-0.059088252
177	0x3e57d013	0.21075468
178	0x3e6ff1bb	0.23432057
179	0x3e4ccbd4	0.1999963
180	0xbdb04689	-0.086072035
181	0xbe07d9a0	-0.13266611
182	0xbdd07cd2	-0.101800576
183	0xbe52ed26	-0.20598277
184	0x3dda34c6	0.10654597
185	0xbd0223db	-0.031772476
186	0xbd9b11f8	-0.07571787
187	0xbd5fd282	-0.054644115
188	0x3c0083ea	0.007843951
189	0x3e5e0e65	0.21685179
190	0x3e6a6753	0.22890978
191	0xbe5e762b	-0.21724765
192	0xbe6b8ec6	-0.23003682
193	0xbe365334	-0.17805177
194	0xbdd4b468	-0.10385972
195	0xbdb1c66a	-0.086804226
196	0x3e08a46f	0.13343976
197	0xbe731b7d	-0.23740955
198	0x3e777cf4	0.2416876
199	0xbdbd4877	-0.09242337
200	0x3e70ec07	0.23527537
201	0x3e518aa3	0.20463042
202	0xbd6db4ed	-0.058033872
203	0x3e2691d0	0.1626656
204	0x3cbebf10	0.023284465
205	0x3e74af45	0.23894985
206	0x3e498085	0.19677933
207	0xbe25a796	-0.1617721
208	0x3e81b004	0.25329602
209	0xbe4350f1	-0.19073845
210	0x3e3544a2	0.17701963
211	0x3e454c26	0.1926733
212	0x3e845e92	0.258534
213	0x3ca57da9	0.020201521
214	0xbdfe3ce6	-0.12413959
215	0xbd0222a2	-0.03177131
216	0xbe1a3b6a	-0.15061727
217	0x3d840ac4	0.06447366
218	0xbe47c554	-0.19508868
219	0x3e09a24e	0.1344082
220	0xbd5f8dcf	-0.0545786
221	0x3e5a4865	0.21316679
222	0xbe2f5d35	-0.171254
223	0xbe287cf9	-0.16453923
224	0x3e150645	0.14553173
225	0xbe5bc2e1	-0.21461059
226	0x3e0ffcae	0.14061233
227	0x3e6155f0	0.22005439
228	0xbe2cd8a5	-0.16879518
229	0x3d74b977	0.059747186
230	0x3e1e4433	0.15455703
231	0x3e37b8f2	0.17941645
232	0xbd7ce531	-0.06174201
233	0x3e2768b8	0.16348541
234	0x3e6d7f90	0.23193192
235	0xbe3cae6f	-0.18425916
236	0x3d67333e	0.056445353
237	0x3e4031d9	0.18769015
238	0xbe12b3a4	-0.1432634
239	0x3d4d9d40	0.050198793
240	0x3d9b3941	0.0757928
241	0xbd035141	-0.03205991
242	0xbe0f88d2	-0.14017037
243	0x3d08c38f	0.033389624
244	0xbe2ce750	-0.16885114
245	0xbdfe4233	-0.1241497
246	0x3d65af32	0.056075282
247	0xbe217b5f	-0.15769719
248	0x3e28aa8c	0.16471308
249	0xbe08c43b	-0.13356106
250	0xbe68d704	-0.22738272
251	0xbe7509a6	-0.23929462
252	0xbd7a502b	-0.06111161
253	0x3e607144	0.21918207
254	0xbe4f9ff9	-0.20275868
255	0x3e42d23e	0.19025514

bn3.weight f4 [16]
0	0x3f7cc987	0.98745006
1	0x3f7c8e45	0.98654586
2	0x3f81501e	1.0102575
3	0x3f817961	1.0115167
4	0x3f7c6d3d	0.98604184
5	0x3f7d0216	0.9883131
6	0x3f81808c	1.0117354
7	0x3f816c50	1.0111179
8	0x3f7c4c4b	0.98553914
9	0x3f818676	1.0119159
10	0x3f806228	1.0029955
11	0x3f7d968f	0.9905786
12	0x3f81a4c9	1.0128413
13	0x3f7c8fb3	0.9865677
14	0x3f81a456	1.0128276
15	0x3f81a528	1.0128527

bn3.bias f4 [16]
0	0xbc395e47	-0.011313981
1	0xbc34b9ae	-0.011030598
2	0x3c296faf	0.010341569
3	0x3c27e2da	0.010246957
4	0xbc3d7fd8	-0.011566125
5	0xbc31790c	-0.0108320825
6	0x3c2fa209	0.010719785
7	0x3c432201	0.011909963
8	0xbc3e5af4	-0.011618365
9	0x3c2c2a44	0.010508124
10	0x3c485501	0.012227298
11	0xba11839b	-0.0005550922
12	0x3c43e5bc	0.011956628
13	0xbc34d062	-0.01103601
14	0x3c3fa1e5	0.0116963135
15	0x3c35630c	0.011070978

bn3.running_mean f4 [16]
0	0xbd190f57	-0.037368145
1	0xbc6c7143	-0.014431301
2	0xbd5dc68b	-0.054144423
3	0xbd1a6912	-0.03769786
4	0x3d17313d	0.03691219
5	0xbdb3b1f9	-0.0877418
6	0xbd78e94d	-0.060769368
7	0xbd0f984a	-0.035057344
8	0x3d63721a	0.055528738
9	0x3c8c39e9	0.017117457
10	0xbaee6ead	-0.0018190943
11	0x3cb963fa	0.02263068
12	0xbbeed6a0	-0.007288769
13	0xbc562f50	-0.013072804
14	0xbc2456c6	-0.010030454
15	0x3d4ccdd4	0.05000098

bn3.running_var f4 [16]
0	0x3e84f330	0.25966787
1	0x3e93cc85	0.28866974
2	0x3e751767	0.23934709
3	0x3e578b95	0.2104934
4	0x3e8224ae	0.2541861
5	0x3e8467bf	0.25860402
6	0x3e7da70c	0.24770755
7	0x3e7c612f	0.24646448
8	0x3e4b5ec6	0.19860372
9	0x3e8be01c	0.2731942
10	0x3e5cfb0d	0.21580143
11	0x3e89f2db	0.26943097
12	0x3e9b80fa	0.3037184
13	0x3e9789c5	0.29597297
14	0x3e8fe4d5	0.28104272
15	0x3e815481	0.25259784

classifier.weight f4 [2, 16]
0	0x3c5692f7	0.013096563
1	0x3e16680c	0.14688128
2	0x3d816ad9	0.06319208
3	0xbe44d0d4	-0.19220287
4	0x3e4b3895	0.19845803
5	0x3d7e69c4	0.062112585
6	0xbe25329c	-0.16132587
7	0x3cb55b52	0.022138271
8	0x3e6a7c7e	0.22899053
9	0xbe6856ed	-0.2268941
10	0xbe4fccc7	-0.2029296
11	0x3d2fd2b9	0.04292557
12	0x3b90be2f	0.004417203
13	0x3d6c6fb2	0.05772371
14	0xbe6d9e7b	-0.23204987
15	0xbe72d1bc	-0.2371282
16	0xbdb0b9fb	-0.08629223
17	0xbe17076b	-0.14748923
18	0x3e3fd1e5	0.18732412
19	0xbe013550	-0.12617993
20	0xbe0b0a26	-0.1357809
21	0xbd99e033	-0.07513466
22	0x3e08ee70	0.13372207
23	0x3d854a2c	0.06508288
24	0x3de2fd98	0.110835254
25	0xbe346470	-0.17616439
26	0xbe33860e	-0.17531607
27	0x3d814812	0.063125744
28	0x3e8474ae	0.2587027
29	0xbe128641	-0.14309026
30	0xbe1d4567	-0.15358506
31	0x3c3064dc	0.010766234

classifier.bias f4 [2]
0	0xbd98ca60	-0.07460475
1	0xbe35132c	-0.17683095
