notebooks/outputs/temp_B01_fold1_last.pth (torch, 12776 bytes, 18 tensors)

conv_temporal.weight f4 [8, 1, 1, 64]
000000 5a 8d c4 3d 49 00 9c bd a2 6b a1 bc 1b d4 ed bc
       0.09597273 -0.07617242 -0.019704644 -0.029031804
000010 9a e7 50 3d 47 c0 20 bd c9 ae ed 3d 91 04 d2 bd
       0.051002122 -0.03924587 0.11605603 -0.10254777
000020 4f 56 8c bd 19 54 fb 3d 1b 7f b0 bd ba 69 7f b8
       -0.068523996 0.122719 -0.086179934 -6.0895203e-05
000030 96 e7 8a 3d 22 9e 44 3d 12 38 8f bd d8 33 0e be
       0.06782453 0.04800237 -0.069931164 -0.13886964
000040 fc 6e a0 3d 45 42 b9 bd bd 0a 10 3e ef bd bf 3c
       0.078336686 -0.09045843 0.14066596 0.023405997
000050 1d 6b aa bd 85 fb ae bc cc 14 31 bd ff 5e e6 bd
       -0.083212115 -0.021360168 -0.043232724 -0.11248588
000060 16 c4 09 3e a0 a9 ff bc ab 48 d1 3b 75 74 82 bd
       0.13453707 -0.031208813 0.0063868365 -0.06369869
000070 f2 bd 6c 3c ba e9 c5 bd 8d ab c3 3d df 0b 42 bd
       0.014449583 -0.096637204 0.09554205 -0.047374602
000080 33 33 ac 3d aa 18 3c bd df 8e 83 bd f5 ff 01 be
       0.08408203 -0.04592196 -0.06423735 -0.12695296
000090 78 06 d1 3d b5 f2 4d 3d ec a5 47 bd 87 7e af 3d
       0.10206312 0.05028029 -0.04874222 0.08569055
0000a0 97 9a 97 3c a2 9e a2 bd 31 48 9c bd 68 d7 0b bc
       0.018506331 -0.07940413 -0.07630957 -0.008535244
0000b0 bb 1b af 3d d9 ec 77 3d 79 60 9e bd 28 d3 e0 bd
       0.08550211 0.06052861 -0.077332444 -0.10977775
0000c0 02 15 94 3d ed b4 33 3b 8f 4b 53 3d 4c 58 00 be
       0.072305694 0.0027421073 0.05158573 -0.12533683
0000d0 e9 91 cd 3c 3d 33 04 3d 6d 8e dc bd 2e 44 1c 3b
       0.02509399 0.032275427 -0.10769353 0.002384435
0000e0 60 c5 02 bd 1e e0 c4 bb e4 e4 74 3d 07 67 f5 bc
       -0.031926513 -0.006008162 0.0597886 -0.029956354
0000f0 ff 50 df bc 09 01 85 bd 36 ae 7c bc de 7e c1 bc
       -0.027260302 -0.06494338 -0.0154223945 -0.023620065
000100 be e7 2d bd 90 9c 97 3d 92 2e 86 bd 4a ac 99 3d
       -0.042457335 0.07402909 -0.06551851 0.07503565
000110 3f 2e 42 3c 05 30 cb bb 16 a0 70 bc 6e d2 1d bb
       0.011851846 -0.0062007927 -0.014686605 -0.0024081725
000120 bc 8c 49 bd fb 31 fb 3c 06 bc 9f 3c d3 56 80 3d
       -0.04920648 0.030663481 0.019498836 0.062665604
000130 67 7b 2b 3d 3a fe 84 bc fe ce 96 bd 7b 64 c4 bd
       0.041865733 -0.016234506 -0.073636994 -0.09589478
000140 7d 09 9b 3a fa 53 a0 bd ed 3d 0e be 0d d7 0d 3d
       0.0011828389 -0.07828517 -0.1389081 0.034628917
000150 6c 52 67 3d 2d 12 c4 3c 59 76 47 3c c5 39 68 3d
       0.056475088 0.023934448 0.012174212 0.05669572
000160 5b b7 87 3d 37 76 77 3d 44 27 ba bd 01 a0 ab bd
       0.06626769 0.060415473 -0.090895206 -0.08380128
000170 04 bb 43 bd 7f 95 67 3d 05 fc 6e 3d 55 0f 02 3e
       -0.047785774 0.056539055 0.058345813 0.12701161
000180 ff 5a f3 bc 08 1a 32 3e 32 be 2a 3c 3a cd c4 bd
       -0.029706476 0.17392743 0.010421323 -0.09609456
000190 b5 63 b3 bd 03 8a a1 bb 44 87 8b bd df 1b 62 3d
       -0.08759252 -0.0049297824 -0.06812909 0.05520236
0001a0 01 74 2e bc 81 fd be 3d 17 c7 12 3e ad 34 00 3b
       -0.010647775 0.09325696 0.14333759 0.0019562647
0001b0 81 e7 31 3d 40 e1 49 bb 2b a9 93 bd 36 c9 05 be
       0.04343367 -0.0030804425 -0.072100006 -0.13065037
0001c0 0e d1 71 bd 94 e4 c1 3d 0b b7 00 3d 37 04 5e bd
       -0.05903726 0.09467426 0.031424563 -0.05420324
0001d0 84 10 6c 3d 76 98 fd 3c b4 ce a5 bc 26 7c 4e 3d
       0.057632938 0.030956488 -0.020240165 0.050411366
0001e0 d2 c6 fe bd 93 c0 3b bd fa 2f db 3c 07 83 e3 bc
       -0.12440266 -0.04583795 0.026756275 -0.02777244
0001f0 dc fe dd 3d 9e 03 40 3d 18 60 43 3e f6 13 d1 3c
       0.10839626 0.04687845 0.19079626 0.025522213
000200 b0 16 18 be 91 bc 4f 3d 62 90 b9 3d 9e 37 84 3d
       -0.14852405 0.05071694 0.09060742 0.06455921
000210 57 98 02 be 99 13 d9 bd e7 16 8d 3a dd 96 4d 3d
       -0.12753426 -0.10599441 0.0010764272 0.050192703
000220 15 cb af 3c e7 9b 23 be 3e 6f a8 bd a4 0d 06 bd
       0.021459142 -0.15977441 -0.08224343 -0.032727852
000230 82 97 3e 3d 8d 1c cb bd 38 1b cd 3c 13 96 93 bd
       0.046531208 -0.09917555 0.025037393 -0.07206359
000240 2c a8 9f bc 6c 58 a8 bd b3 da 85 3d c3 35 4c bd
       -0.01948937 -0.0821999 0.06535854 -0.04985596
000250 8e 58 82 bd 42 98 9a bc a3 f1 4e bd 3c 12 bb bd
       -0.06364547 -0.01887143 -0.05052341 -0.09134337
000260 01 44 ab 3d 5e 64 ac bd 92 63 a0 bd c3 8c cf bd
       0.0836258 -0.08417581 -0.078314915 -0.1013427
000270 39 2e 30 bd ab ac 14 3d bf ce 5a bd 9e de 46 bc
       -0.04301283 0.03629748 -0.053419825 -0.012138037
000280 a8 0d 51 bd d8 9b ae 3d 1f c6 1e bd 11 13 80 3d
       -0.051038414 0.085258186 -0.03876316 0.06253637
000290 2d 3e 67 bd 14 db 55 bd 1f db a6 bd e9 9d c8 bd
       -0.05645578 -0.052210882 -0.08147263 -0.09795744
0002a0 1c 47 32 3d 77 29 1a be f1 8e 4b bc b4 de 97 3d
       0.043524846 -0.1505488 -0.012424217 0.07415524
0002b0 e9 d4 d6 bd 24 26 5d 3d c9 0c 1a 3d 88 79 0f 3c
       -0.10489828 0.05399145 0.03760985 0.008757003
0002c0 7e d4 c3 3d fd a4 fd bd 9a 64 ec 3c 4d 86 c4 bd
       0.09562014 -0.12384985 0.028856564 -0.09595928
0002d0 63 ff 67 3d de d3 54 3c 0f 58 e1 3c 84 e6 9d bd
       0.05664004 0.012989966 0.02750781 -0.07709983
0002e0 61 3d 52 3d 95 b2 36 bd 10 b2 4d bd 7f ec f4 3d
       0.051328067 -0.044603903 -0.05021864 0.119591706
0002f0 6d 79 06 3d 76 31 ca bc b1 ef be bc 52 15 e0 3d
       0.032830644 -0.024681788 -0.023307653 0.109415665
000300 50 d2 a1 3d 14 47 23 bb 60 b2 37 3e 7c 7f f5 bc
       0.07901442 -0.0024914192 0.17939138 -0.029968016
000310 f2 d6 de 3d e7 10 e4 3d aa 27 28 3d 2e 3c 91 bd
       0.10880841 0.11136036 0.04105345 -0.070915565
000320 8a 8e d9 3c 31 8b d5 bc 83 6d 1b bd 81 5a 36 bd
       0.026557226 -0.026067348 -0.037946235 -0.044519905
000330 a9 fb 3a bd 3f 94 da bd 15 e7 54 bd 51 d0 6a bd
       -0.045650158 -0.10672807 -0.05197819 -0.057327572
000340 90 7c 16 bd e5 f5 d1 bc f8 66 a9 bd 03 d7 41 3c
       -0.036739886 -0.025629947 -0.08271593 0.011831048
000350 c7 59 5b bb 91 93 52 bd a2 19 bd 3d 59 68 27 3d
       -0.003347026 -0.05141026 0.09233405 0.040870998
000360 c6 20 9f 3d ec f4 af 3d e1 97 c1 bc 72 68 aa 3d
       0.07769923 0.08591637 -0.023631992 0.083207026
000370 54 0f c4 3d 58 c1 18 bd c3 f2 1e 3e 19 84 e1 bc
       0.09573236 -0.037293762 0.15522294 -0.02752881
000380 f8 05 de 3c 12 65 bb bd 56 08 c0 bd 41 41 75 3d
       0.027102455 -0.09150137 -0.0937659 0.059876684
000390 32 ed 33 be 70 58 e1 bb 75 b7 86 bd 6d f8 c8 bb
       -0.17570952 -0.0068769976 -0.065779604 -0.0061331303
0003a0 f2 db 1a be 7b dc 1e be 22 db 9b 3d 91 6d 6f bd
       -0.15122965 -0.15513794 0.07610156 -0.0584541
0003b0 c0 8a 62 bc a1 ca f7 3d 43 cf 2b bd 57 5b a5 bc
       -0.013827026 0.12099195 -0.041945707 -0.020185156
0003c0 18 ab ce 3d 7e c8 12 3e a0 bd 02 3d 6a f9 6e 3c
       0.10091227 0.14334294 0.03191912 0.014585832
0003d0 4e 43 a8 3d 1d 38 97 bd 8f 10 70 3d 82 ee c9 3c
       0.08215962 -0.0738375 0.05860954 0.024649862
0003e0 1b de ef bc a5 b2 d2 bd e3 bd aa 3d 61 5c 4d bd
       -0.029280713 -0.1028798 0.08336999 -0.050136928
0003f0 24 46 a4 bd f4 28 6c bd 29 3c 14 bd 82 17 4f be
       -0.08021191 -0.057656243 -0.036190186 -0.20223811

bn1.weight f4 [8]
000000 e8 91 1a 3f dd 76 1a 3f a6 7f 1a 3f 42 5f 1a 3f
       0.60378885 0.6033762 0.60351026 0.603016
000010 78 89 1a 3f 20 a0 1a 3f cb 64 1a 3f 0d 6b 1a 3f
       0.6036601 0.6040058 0.6031005 0.60319597

bn1.bias f4 [8]
000000 d2 57 9f 37 73 ef 26 38 08 9c a9 38 30 3d e9 37
       1.8995172e-05 3.980049e-05 8.087611e-05 2.7804257e-05
000010 ed 06 78 38 73 81 87 b8 94 99 ab b7 fa 0b 84 b8
       5.9134258e-05 -6.4614134e-05 -2.0456304e-05 -6.296481e-05

bn1.running_mean f4 [8]
000000 c7 a1 12 b8 5f 99 ce 38 35 29 3c b9 0b 2e 80 38
       -3.495978e-05 9.851413e-05 -0.00017944428 6.112092e-05
000010 0e 2b 76 b8 ab 6c 1a 38 e4 2c 66 b9 56 a6 2c b8
       -5.869107e-05 3.6817666e-05 -0.00021951232 -4.1162908e-05

bn1.running_var f4 [8]
000000 d8 db 4d 3d 50 7e bc 3e 95 9f 30 3e d8 5b 97 3f
       0.050258487 0.3681512 0.17248376 1.1824903
000010 6f 05 42 3f 79 fc e4 3e 3a df 28 3f 96 be d9 3e
       0.7578954 0.4472387 0.65965617 0.42528218

conv_spatial.weight f4 [16, 1, 3, 1]
000000 c7 21 9e be a8 cd 0c be e3 46 08 bf f9 1a 39 3d
       -0.30885145 -0.13750327 -0.53233165 0.04519174
000010 e7 5b 0f 3e fd e1 0f bf 46 0b a1 3e 8c 1a 53 be
       0.13999902 -0.56204206 0.31453913 -0.20615596
000020 20 c4 00 3f 26 e5 31 be 5e 10 56 3e 35 49 2a 3f
       0.50299263 -0.1737257 0.20904681 0.66517955
000030 ab 17 b2 be c2 0f f8 be 46 5a 41 be 09 5f f9 3d
       -0.34783682 -0.48449522 -0.18882093 0.1217633
000040 9b 4f f8 be ab f8 95 3c 2e 85 9f 3d 8c c2 30 3e
       -0.48498234 0.01830705 0.07789074 0.17261714
000050 2c 2e fc 3e 99 bc ad 3e 08 ab 8d 3e 43 b4 6a be
       0.49253976 0.3393295 0.2766955 -0.22920327
000060 c9 c3 2c be aa 1e 16 3e 36 de 56 3f a0 59 a6 be
       -0.16871561 0.14660135 0.83932817 -0.32490253
000070 a6 49 40 3f 4f dd 02 3d b5 37 18 be cc d0 0f bf
       0.7511238 0.031949338 -0.14865 -0.56177974
000080 76 75 87 3e 2d ee 13 3e e6 5b e5 3e 71 59 7f be
       0.26456803 0.14446326 0.44796675 -0.24936463
000090 00 3b 1d 3e 39 96 22 bf 13 d8 c8 3e 28 a2 ae 3e
       0.15354538 -0.6351047 0.39227352 0.3410809
0000a0 cf 2f 3b bf 46 90 42 be 55 61 1c be 91 8f cd 3d
       -0.73119825 -0.19000348 -0.15271504 0.10037149
0000b0 b9 8b 24 3f 72 45 95 3e db a9 c2 be e4 29 4a 3e
       0.642757 0.29154545 -0.38020214 0.19742543

bn2.weight f4 [16]
000000 e6 b1 5d 3f 4c 59 84 3f 5e d4 88 3f cf d3 7c 3f
       0.86599576 1.0339751 1.0689809 0.98760694
000010 3f df 7b 3f 99 b5 8a 3f ec 86 4f 3f 29 19 85 3f
       0.9838752 1.0836669 0.8106525 1.0398303
000020 9b 62 90 3f 30 4d 95 3f f1 69 94 3f b9 e6 91 3f
       1.1280092 1.1664181 1.1594831 1.1398536
000030 91 55 6b 3f 74 b5 7c 3f 8b 09 8f 3f 1c 1e 4e 3f
       0.9192744 0.98714375 1.1174787 0.80514693

bn2.bias f4 [16]
000000 fa 5c c5 bd 58 46 65 be 96 b5 40 be 04 64 47 be
       -0.096368745 -0.22390115 -0.1881927 -0.19471747
000010 e6 cb 2d be 8c b9 31 be b3 4a 32 bd 55 75 09 be
       -0.16972312 -0.17355937 -0.04352827 -0.13423665
000020 cc 4b 6b be 15 03 a3 be 59 86 8b be be 3a 69 be
       -0.22978133 -0.3183829 -0.27250937 -0.22776315
000030 86 f2 74 bd e4 1a 3b be 49 31 70 be 07 c7 07 be
       -0.0598016 -0.18271977 -0.23456301 -0.13259517

bn2.running_mean f4 [16]
000000 8a 4b 16 b7 a5 54 8b b7 39 d6 32 38 7c 24 81 38
       -8.9582845e-06 -1.6609507e-05 4.2638017e-05 6.157995e-05
000010 92 97 c4 b8 a6 f9 0c b9 ca ac 2c 37 44 86 bc 37
       -9.3742405e-05 -0.00013444442 1.02922295e-05 2.2473869e-05
000020 2f 82 e9 38 a3 df b2 38 91 94 66 38 c0 c8 3e b8
       0.000111345544 8.529357e-05 5.4974636e-05 -4.5486493e-05
000030 11 30 3b b8 9d ec 08 b8 5d db 19 b7 d7 2b 04 37
       -4.462904e-05 -3.264529e-05 -9.170585e-06 7.87802e-06

bn2.running_var f4 [16]
000000 21 ba 73 3e 59 f7 b5 3d 7e 78 19 3e b8 13 33 3e
       0.23801471 0.088850684 0.1498737 0.17487991
000010 19 6c 94 3e 8e bd a0 3d 69 6c 1a 3e 73 d8 93 3d
       0.28988722 0.07848655 0.15080418 0.07219019
000020 19 0e 83 3e a8 d9 ef 3d 0b 6d ea 3d 4e 0d 9c 3d
       0.25596693 0.117114365 0.114465795 0.07619725
000030 ed ef e8 3d d5 6d 09 3e e4 c0 14 3e 14 33 54 3d
       0.11373887 0.13420804 0.14526707 0.051806524

conv_separable_depth.weight f4 [16, 1, 1, 16]
000000 28 a0 ed bd e7 d9 b7 bd c3 fe eb 3b ea 94 f9 3c
       -0.11602813 -0.089771084 0.007202001 0.030466516
000010 af 01 19 be a4 42 d6 bc fa a5 1f be d5 9e 29 be
       -0.14942048 -0.026154824 -0.15590659 -0.16564496
000020 38 6a 76 bc de 40 8d bc 41 00 34 3d d1 ef 0a 3e
       -0.015039973 -0.017242845 0.043945555 0.13568045
000030 fb fa 29 be 37 71 e8 bd 27 00 25 bd 95 50 cf bd
       -0.16599648 -0.11349719 -0.04028335 -0.10122792
000040 02 02 93 3d 64 bc a9 3d d4 7b 98 be f8 0f 80 be
       0.07178117 0.08287886 -0.29781973 -0.25012183
000050 7a 5c 3b be d2 77 17 be 38 54 a3 bd d4 7a 9c be
       -0.18296996 -0.14791802 -0.07975048 -0.3056246
000060 e1 c5 22 be a0 96 86 be 88 9f a9 3d 19 7b 69 be
       -0.15895797 -0.26286793 0.08282381 -0.22800864
000070 4b 64 e1 bd 66 ad 45 3d 86 26 9a be 68 7c f4 bd
       -0.110054575 0.04826107 -0.30107516 -0.11937791
000080 a4 d9 52 3d b1 d4 dd bd 5c 6c 4f be 1f b9 39 be
       0.05147709 -0.10831583 -0.2025618 -0.18137024
000090 fa 15 76 be 69 db 5e be 25 8f 4c be 0b a9 d5 3b
       -0.24031821 -0.21763386 -0.1997648 0.0065203956
0000a0 75 58 73 bc 53 e8 2b be 59 43 fb 3c a4 13 52 be
       -0.014852633 -0.16787843 0.030671762 -0.20515305
0000b0 c3 5a 95 bc 05 00 6e be 69 09 f4 bc 19 22 b3 be
       -0.018231755 -0.23242195 -0.029789643 -0.34986952
0000c0 e7 5a 03 bc 0f bd 04 be b5 87 53 be 7e f6 a5 3d
       -0.008017278 -0.12962745 -0.20657237 0.08103655
0000d0 55 a7 49 bd 18 aa 51 be 52 d6 9f bd 70 0e 59 be
       -0.049231846 -0.20475042 -0.0780455 -0.21196914
0000e0 24 ff 6c be c0 dc b4 bd db ff ee bd e2 46 79 be
       -0.23144203 -0.08831167 -0.11669894 -0.24343446
0000f0 6d 0e 22 bc db 3e a7 bd e6 c5 5a be e5 cc b6 bc
       -0.009891135 -0.081662856 -0.21364555 -0.022314498
000100 dc 05 40 3e 50 28 58 3e 03 e0 6f 3d 60 ad 12 3d
       0.18752235 0.21109128 0.058563244 0.035809875
000110 c0 db 9d 3d 2e ac fc 3c 3d c9 1c 3e 8a 98 34 bd
       0.077079296 0.03084382 0.15311141 -0.044090785
000120 05 53 f9 3d b2 0c 4c 3e d9 aa e2 3d d7 3f 2b 3e
       0.12174038 0.19926718 0.11067743 0.16723572
000130 36 fa a6 bd 6c ee 05 3e 69 f5 95 bd c5 a3 72 3d
       -0.08153193 0.13079232 -0.07322199 0.059238214
000140 ab 95 e4 3d b3 c9 94 3e 0c f0 e1 3c 64 a2 35 3e
       0.111613594 0.29060134 0.027580284 0.17737728
000150 a2 62 11 3e c6 49 88 3d 64 70 23 3e 60 91 31 3e
       0.14197782 0.06654696 0.15960842 0.17340612
000160 db ec 8e bc e2 b0 9d bd c0 b5 d7 3d 22 6e 2c 3e
       -0.017446926 -0.07699753 0.10532713 0.16838887
000170 f0 1b 01 3e 4e b8 82 3e 1c ec 35 3d 55 0a 06 3e
       0.12608314 0.25531238 0.044414625 0.13089879
000180 80 55 14 be 93 0b 52 3e af aa e9 3b 9f 83 45 3d
       -0.1448574 0.20512228 0.007130943 0.048221227
000190 28 13 eb bd 75 88 cc 3d 01 d7 93 bd e5 98 91 bd
       -0.11478263 0.099869646 -0.07218743 -0.071092404
0001a0 1c db bd bb a9 9f 42 3d 03 8e ce bd 9c 8b ea 3c
       -0.005793942 0.047515545 -0.1008568 0.028631024
0001b0 d4 47 d5 3c ef 80 5b 3e 86 d1 e8 3d a8 5c 26 3d
       0.026035227 0.21435903 0.113680884 0.040615708
0001c0 fa e7 28 bd 53 9b 01 3e 9f 8b 03 3e 0c de 09 3d
       -0.041236855 0.12656908 0.1284623 0.033659026
0001d0 e6 a1 96 3d 2e 4b 54 3d 30 9d 80 3d 5d 1d dd bd
       0.073550984 0.05182951 0.06279981 -0.10796616
0001e0 3b eb 96 3d 3c 75 19 3e d3 8b 07 3e 8f 91 2e 3e
       0.073690854 0.14986128 0.13236932 0.17047714
0001f0 09 9e 79 3e a9 71 2b 3e 1d 92 2d 3d 7e 6f fd 3d
       0.24376692 0.16742577 0.042375673 0.12374781
000200 c7 1c 90 3d e2 5a 89 bd 63 30 40 be e5 63 83 be
       0.07036739 -0.06706788 -0.18768458 -0.2566215
000210 bb c3 26 be cb 0f a0 bb 62 a8 4f be 5a 2e 7f be
       -0.16285603 -0.004884695 -0.20279077 -0.24920025
000220 a9 35 01 be 76 13 75 bd 2b dd 44 3d 67 85 ba 3d
       -0.12618126 -0.059833013 0.048062485 0.09107476
000230 75 6d 76 be c9 9d c6 bd 4c a9 5e be da 2a 0a bd
       -0.24065192 -0.09698064 -0.21744269 -0.033732273
000240 41 28 8b be 37 d5 98 be 54 8e 2b be a7 a3 1a bd
       -0.2717915 -0.2985017 -0.16753513 -0.037753727
000250 32 97 b4 be 5c c4 9c be b2 6f c1 bd f9 e7 9d 3d
       -0.35271603 -0.3061856 -0.09445132 0.07710261
000260 fa 4b 4b be 7e 74 eb 3c ac 0e e7 3c 7e 2b 6f be
       -0.19853202 0.028742071 0.028205238 -0.23356435
000270 8b 56 b1 bd c5 d7 e8 3b 68 1b 95 be fb 70 96 bd
       -0.08659085 0.0071058 -0.29122472 -0.07345768
000280 5f 3e 57 3e 0a db f4 3d 6f 8a 0d bd e7 2e cc 3d
       0.21019886 0.11955841 -0.03455585 0.099698834
000290 f7 b7 81 3c 2a b0 02 3e 84 84 03 3e c6 7b 1e 3d
       0.015834792 0.12762514 0.1284352 0.03869226
0002a0 43 14 6a 3e 6b f4 65 3c 46 2f 68 3e b2 95 61 3e
       0.22859292 0.014035325 0.22674283 0.2202976
0002b0 22 f7 8f 3e e2 60 0b 3e d7 60 76 3e 49 6c 90 3d
       0.28118235 0.13611177 0.24060379 0.07051904
0002c0 c5 3e 8e bd 66 a6 ad 3c 3e 56 87 be f6 ad 76 be
       -0.06945566 0.021197509 -0.26432985 -0.24089798
0002d0 b4 d1 0f bd eb 13 22 be da ad 19 be e1 7a 3d be
       -0.035112098 -0.1582791 -0.15007725 -0.18503906
0002e0 af 3e 2e be 86 2e 2d be 56 d9 f2 3c e2 b2 32 bd
       -0.170161 -0.16912279 0.02964465 -0.043627627
0002f0 fc 27 b2 bd 1f ca be bd 77 0e 57 be 3a a6 1d be
       -0.08699033 -0.09315895 -0.21001612 -0.15395442
000300 5b b9 20 3e 03 da 1b 3e f9 1b 22 bd de 0a 0b be
       0.15695707 0.15219884 -0.039577458 -0.13578364
000310 d2 04 fe 3c d7 1e 0b 3e cf 24 af 3d df aa 93 bd
       0.031008158 0.13585983 0.085519426 -0.072103254
000320 e4 9c 07 3d 21 73 a6 bd 44 86 f3 3d 74 25 77 3e
       0.033108607 -0.08127428 0.118908435 0.24135381
000330 7c 31 60 3e b0 21 a0 bd da 54 81 bc a1 97 15 bd
       0.21893877 -0.078189254 -0.01578753 -0.036521558
000340 e9 cf 19 be 0d 92 64 be 22 2d 08 be c5 5b 0c bd
       -0.15020718 -0.22321339 -0.13298467 -0.034267206
000350 47 b3 44 bd 1a e9 68 bd c3 69 9d be 3e f8 73 3c
       -0.048022535 -0.056862928 -0.30744752 0.0148907285
000360 49 43 55 3e 74 0d f8 bd ff 6e 33 be 45 fa cb bd
       0.20826449 -0.12111941 -0.1752281 -0.099598445
000370 d0 9f 61 be c5 3d e2 bc 27 2a 24 be f7 c8 11 bd
       -0.2203362 -0.027617345 -0.16031705 -0.035592046
000380 73 f4 81 3e 91 b9 56 3e 9e 11 0f 3e da ef 5c 3e
       0.25381812 0.20969225 0.13971564 0.21575871
000390 67 ff 9f 3e 0b 38 af bc e2 a0 64 3e 4e 9f f0 3d
       0.31249544 -0.021389028 0.22326997 0.11749135
0003a0 af af c7 bd 7a e9 26 3e c9 c6 cc 3d 0e 82 ac bd
       -0.09750306 0.16300002 0.09998853 -0.084232435
0003b0 f5 77 d3 bc 8b 00 b1 3d 80 81 bf 3d cb 32 fc 3d
       -0.025814036 0.08642682 0.09350872 0.123143755
0003c0 0b e8 6b 3d db 92 85 3d 61 95 d2 bc 49 03 88 bd
       0.05759434 0.06522151 -0.025705995 -0.066412516
0003d0 72 fc 94 bd 33 b5 d8 3d 9a 78 3d bd b1 c1 17 be
       -0.072747126 0.10581436 -0.046257593 -0.14819981
0003e0 71 ac c2 bd 90 7c 36 be 9d 73 f6 bd 9a 13 47 3e
       -0.09505547 -0.17820954 -0.1203377 0.19441071
0003f0 70 a4 de bd 2d 8d fb bb df 5b 35 be 40 2f 2d 3d
       -0.10871208 -0.0076767416 -0.17710827 0.04228139

conv_separable_point.weight f4 [16, 16, 1, 1]
000000 be e0 b1 bd d4 e3 a7 3e 35 6b 67 3e e6 2d 27 bd
       -0.08685444 0.32791007 0.2259949 -0.040815257
000010 22 78 3a bb 91 05 00 3e 76 7b b6 bd 88 fd 5d be
       -0.0028452952 0.12502123 -0.08910267 -0.21678746
000020 9a e3 62 bd 82 b7 04 bd 11 67 08 be 4c dc 21 bd
       -0.05539284 -0.03240157 -0.13320567 -0.039516732
000030 a6 63 b9 bd b9 91 9c bd d9 d0 45 3e 3f 82 d9 3d
       -0.090522096 -0.07644982 0.1931795 0.106205456
000040 b9 c1 84 3d 46 38 46 be e4 8a a3 be 76 44 da bd
       0.06482262 -0.19357404 -0.31941903 -0.10657589
000050 f5 a9 01 3d 41 72 d4 bd 6e c1 f0 bd 40 d0 84 3e
       0.031656224 -0.10373355 -0.11755644 0.25940132
000060 b5 c9 cd bc 31 2f 8d bd 2f 49 14 be fb d2 ab 3d
       -0.025120595 -0.06893767 -0.14481042 0.08389851
000070 02 40 4e 3d 20 ee b5 bd bc ac f1 bd 29 ea 03 3e
       0.05035401 -0.08883309 -0.118005246 0.12882294
000080 06 48 00 be c9 84 00 be 82 32 6c be c6 d3 26 be
       -0.12527475 -0.12550654 -0.23066142 -0.16291723
000090 61 4d bf bd 86 ae 1f be 4f a0 56 bd 48 37 b7 3c
       -0.09340931 -0.15593919 -0.052398976 0.022365227
0000a0 3e 0b 05 bd 80 02 af bd d5 4b 8d bd c6 2e 04 3e
       -0.032481425 -0.08545399 -0.068992294 0.12908468
0000b0 2b 25 56 3e 0d 1f 39 be 99 82 e2 bd 2b b0 cd bd
       0.20912616 -0.18078251 -0.11060066 -0.10043367
0000c0 19 c1 25 be 6d c3 35 be b2 1d 7b bd e5 3d 32 bd
       -0.16186942 -0.1775033 -0.061307617 -0.04351606
0000d0 b8 dc 07 be 40 dc 14 bd 3f bb 01 3d 42 0a 51 3e
       -0.13267791 -0.03634286 0.031672712 0.2041407
0000e0 43 d4 24 3e 9d 39 23 be 10 38 90 bd be 1d 2a 3e
       0.16096596 -0.15939946 -0.07041943 0.16612908
0000f0 f7 91 99 bd 7e e6 82 3c 5e 2d b4 bd 4e 7c 3a be
       -0.07498544 0.015979048 -0.087977156 -0.18211481
000100 38 b2 1d be f6 b7 a9 bd e7 47 9c 3d 38 57 2a bb
       -0.15400016 -0.08287041 0.07630902 -0.0025991928
000110 b6 70 88 3c 0e 66 24 3a 90 89 8d bd f7 a9 0e 3e
       0.016655307 0.0006271311 -0.069110036 0.13932024
000120 66 30 f8 3d 70 c8 4c be f7 d1 62 be 32 1e 8b bc
       0.12118606 -0.19998336 -0.22150408 -0.016982172
000130 17 4c 99 3d 01 3a 48 be fa 99 41 be a1 ee 27 be
       0.07485216 -0.19553377 -0.18906394 -0.16399623
000140 ce 6d b9 bd cd 12 9a bd 64 b1 6a be 74 34 61 bd
       -0.09054147 -0.07523117 -0.22919232 -0.054981664
000150 5a 45 e2 bd e3 77 94 bd f0 d1 57 bd 6b 8b be 3d
       -0.11048384 -0.07249429 -0.052690446 0.093039356
000160 0a 6e f6 3c 75 5e 12 bd af da 51 bd 60 fa cc 3d
       0.030081768 -0.035734612 -0.051233944 0.10008693
000170 0c 57 b8 3d bb e6 51 be 11 bc bf bd 10 5d ad bd
       0.09000978 -0.20498173 -0.09362043 -0.08465016
000180 ca 02 e8 3d 91 4c 9b 3c 64 b4 dd 3d a4 8b 44 3e
       0.11328657 0.018957408 0.108254224 0.19193894
000190 df 9d 4d bd d7 ac 62 3e e1 a5 c8 3d fd e8 7b bd
       -0.050199386 0.22136246 0.09797264 -0.06150149
0001a0 fa 98 2f be 3b 80 62 3d 53 f2 59 3e b0 3d 08 be
       -0.171482 0.05529807 0.21283846 -0.13304782
0001b0 3d 05 e3 bd ee 96 87 3c ae 15 a1 3d 61 3f 94 3d
       -0.110849835 0.016551461 0.07865463 0.07238651
0001c0 5d 4e 0f 3d 9f ea 4d 3e 2c 58 4e 3d 6a fa 4e 3d
       0.034986842 0.20109032 0.050377056 0.050531782
0001d0 95 48 19 3e a5 4f b5 3e 0b 53 00 3e c9 35 f2 3d
       0.14969094 0.35412326 0.12531678 0.11826665
0001e0 b1 36 89 3b 43 84 16 3e da 3c 27 3e 2b 7d 5d 3d
       0.004187428 0.14698891 0.16331807 0.054074448
0001f0 c9 de f7 3d 40 2a 77 3e cf 16 d3 bd 0f 85 f2 39
       0.1210304 0.24137211 -0.10307085 0.00046256973
000200 ba 95 c5 bd c4 98 21 be ad bd 00 3d ae 28 31 be
       -0.09647699 -0.15780932 0.03143089 -0.17300674
000210 31 63 11 be 1e bd 0d be ac b2 31 bd 01 77 22 bd
       -0.14197995 -0.13841674 -0.043383285 -0.039664272
000220 47 36 7f 3d 5a 5f 70 be 0f c0 d3 bd f0 ed 11 3e
       0.062307622 -0.23473874 -0.10339367 0.14250922
000230 9c e0 b5 3d c4 f6 1e be 6c 73 ce bd df 23 8b bd
       0.088807315 -0.15523821 -0.10080609 -0.06793951
000240 71 70 e6 bd c5 33 50 3d 93 67 36 3e 38 97 b8 3d
       -0.11251915 0.05083062 0.17812948 0.09013218
000250 b9 19 83 3e 47 8a 0a bd 19 6f 30 be 8f 7b 2c be
       0.25605562 -0.033823278 -0.1722988 -0.16844009
000260 66 b6 7b be da 8a b1 3d 00 3a 49 3e ed e7 80 be
       -0.24581298 0.08669062 0.19651031 -0.25176945
000270 7e bb 65 be 59 3b ae bc 26 58 32 3e 2f ee 6d 3d
       -0.22434804 -0.021268534 0.17416438 0.058088478
000280 ca 11 37 bd 82 43 c6 bc 26 6c 8e bd 59 41 0f 3d
       -0.0446947 -0.024202112 -0.069542214 0.03497443
000290 d6 88 a9 bd 72 c7 04 be fb 08 eb bc ba fd 0d 3e
       -0.082780525 -0.12966707 -0.028690806 0.1386632
0002a0 85 98 15 3e dd 2e 13 be fe d9 92 bd a4 0e eb 3d
       0.14608963 -0.14373346 -0.07170485 0.11477402
0002b0 89 e1 9c bd 31 6d b6 bd d4 2d f6 bd 64 c2 86 bd
       -0.07660205 -0.08907545 -0.1202046 -0.06580046
0002c0 84 96 8a 3d c4 16 88 3d be c9 14 3e 5e a8 ab 3d
       0.0676699 0.06644967 0.14530084 0.08381723
0002d0 1a 24 46 3d 48 8d 46 3d ef 4e ea bd 52 58 80 bd
       0.048374273 0.04847458 -0.11440837 -0.06266846
0002e0 07 f1 07 be 79 d4 4d 3d 6a dc 9d 3d 32 1b 4b be
       -0.13275538 0.050251458 0.07708056 -0.19834593
0002f0 7b 2f ce bd 72 4d 58 3d 69 11 25 3e d0 5c 06 3d
       -0.1006765 0.052808233 0.16119923 0.032803357
000300 0a c3 ae bd 06 e4 42 3c 79 ad 4c 3e 42 da 19 3e
       -0.085332945 0.011895185 0.1998805 0.15024665
000310 df db e5 3d 9a 66 3e bd 52 ce a4 3d 64 4b 06 be
       0.11223578 -0.046484567 0.08047165 -0.13114697
000320 69 be 1a be bb a1 8f bc 7c 65 47 3d bb 88 29 be
       -0.15111698 -0.017533174 0.048680767 -0.16556065
000330 36 b6 19 3b 6b 81 4d 3d 18 ba bf 39 9d e3 e2 bd
       0.0023454553 0.05017225 0.0003656901 -0.1107857
000340 b8 c7 0c bd ac 5f f0 3d ee 0f da 3d 19 94 46 3e
       -0.034370154 0.11736998 0.106475696 0.19392432
000350 39 36 e3 3c 55 4f 9d 3e 84 13 ca 3c 32 6a e8 bd
       0.027735816 0.30724588 0.024667509 -0.1134838
000360 a4 8f 95 be 5e 16 e9 3d da 4d e7 3d ac 01 09 be
       -0.29211152 0.11381219 0.11294146 -0.13379544
000370 2a 6a ca bd 24 92 bc 3d 1d 3e 9e bb c6 9d 2f bd
       -0.098835304 0.092075616 -0.004829182 -0.042875074
000380 74 84 b3 3d ba 2b 15 be 64 6b da bb 67 d7 4b be
       0.08765498 -0.14567462 -0.006665634 -0.19906388
000390 5f d7 af bd c8 89 11 be a2 f8 e1 bc 89 3c 75 3d
       -0.08586001 -0.14212716 -0.027584378 0.059872184
0003a0 a9 a6 32 3e 3c f5 7c be f7 a0 1c be cc 0e 3a 3e
       0.17446388 -0.24702924 -0.15295778 0.18169707
0003b0 ea ee 24 be 07 08 ce bc d6 b5 42 be 41 1f 9f 3c
       -0.16106763 -0.025150312 -0.19014677 0.019424083
0003c0 93 ed 4a 3b 1a d8 2d be 9e c9 c7 bd 72 a8 83 bd
       0.003096436 -0.16976967 -0.09755252 -0.06428613
0003d0 ff f7 e3 bd 31 01 05 bd 18 37 e4 bd 16 60 1c 3e
       -0.11131286 -0.03247184 -0.11143321 0.15271029
0003e0 aa 8c 50 3e f3 f5 85 be b2 d8 1b be e8 e4 0c 3e
       0.20366159 -0.26164207 -0.15219381 0.13759196
0003f0 53 4b 0d be c8 54 e7 bd aa f0 4c be da c2 ee 3c
       -0.13798265 -0.112954676 -0.20013681 0.029145647

bn3.weight f4 [16]
000000 60 49 80 3f 2f d5 89 3f fc 34 90 3f 80 ea 8e 3f
       1.0022392 1.0768183 1.126617 1.1165314
000010 46 c2 85 3f 9a d4 81 3f a4 45 90 3f d6 8c 89 3f
       1.0449913 1.0143006 1.1271253 1.0746105
000020 48 ec 8e 3f fd 13 8e 3f 92 87 92 3f 0d 56 8b 3f
       1.1165857 1.109985 1.1447623 1.0885636
000030 82 d4 57 3f 6e c9 90 3f 99 73 8f 3f ca 03 91 3f
       0.84308636 1.1311471 1.1207153 1.1329281

bn3.bias f4 [16]
000000 91 cc 4b bb 32 8d b0 ba 71 9f 73 bc fe 71 8b bc
       -0.0031097273 -0.0013469814 -0.014869557 -0.01702213
000010 03 6d 35 3b 8d 1c 5e bd fc 8b 4c 3c c2 44 98 39
       0.0027683384 -0.054226447 0.012484547 0.00029042928
000020 c3 75 80 3b 68 d5 b9 3b 26 08 e7 ba 6b ce e1 3c
       0.0039202883 0.005671192 -0.001762633 0.027564248
000030 39 60 72 3c e2 f3 6d 3c d7 98 c4 ba b1 dc 46 39
       0.014793449 0.014523478 -0.0014999163 0.00018964965

bn3.running_mean f4 [16]
000000 cf 2e ea bc 9c 31 dd 3c 1d 9e 2f 3c 13 0c 9e bb
       -0.028586773 0.027001195 0.0107188495 -0.0048232167
000010 6d 45 9f 3a c9 e9 97 3c 45 d3 16 3c 08 85 56 3d
       0.0012151428 0.018544095 0.009205644 0.052372962
000020 6b 86 14 bd c9 95 b3 bb d8 56 9f bc fd ea a5 bb
       -0.036261003 -0.0054805023 -0.01945059 -0.005063413
000030 24 87 4e bc 78 c1 b6 3c 48 1c 5d bd 21 bc d3 bc
       -0.012605462 0.02230905 -0.05398205 -0.025846543

bn3.running_var f4 [16]
000000 4c 33 ca 3d e7 7c c0 3d b0 15 c7 3d 8a 60 ad 3d
       0.09873065 0.09398823 0.097209334 0.08465679
000010 5c 8b b6 3d 20 f9 6d 3d a1 e9 a8 3d 9a 39 00 3e
       0.089132994 0.058098912 0.08247686 0.12521973
000020 17 f5 b4 3d c6 e3 37 3e 66 42 67 3d 42 e8 8a 3d
       0.0883581 0.17957982 0.056459807 0.06782581
000030 8f 61 46 3d 32 14 07 3e be de 04 3e 54 2e 01 3e
       0.048432883 0.13191298 0.12975594 0.12615329

classifier.weight f4 [2, 16]
000000 82 31 5d bd 9e 1a 00 3e 33 87 89 3d a2 ab 69 3e
       -0.054002292 0.12510154 0.0671524 0.22819379
000010 51 90 8b 3d 14 61 3d 3d c9 51 cb bd e0 83 3b be
       0.068146355 0.04623516 -0.09927709 -0.18312025
000020 fc 9e 80 3e 82 4c c4 be 07 f2 a3 3d c0 ee a1 be
       0.25121295 -0.3833962 0.080051474 -0.31627464
000030 84 22 97 3d 9e 35 b0 be fe 56 b1 3e 1e 59 66 3e
       0.0737963 -0.34415907 0.34636682 0.22494933
000040 20 a4 42 3e 34 68 8b be bf 57 b6 be 2a f9 3a be
       0.19007921 -0.27227938 -0.3561382 -0.18259111
000050 76 1d 56 be f3 3e 6b be 36 5d bb 3e 65 1c 65 3e
       -0.20909676 -0.22973232 0.36594552 0.22374113
000060 b1 ef 6d be 3f 95 97 3e 9b d4 af be a7 f2 6f 3a
       -0.23235966 0.29606053 -0.34341893 0.00091532845
000070 bc b8 11 3e 13 b3 8d 3e 97 b8 66 be b2 2d ab be
       0.14230627 0.27675685 -0.22531353 -0.334333

classifier.bias f4 [2]
000000 56 83 20 3d 55 9d 76 3e
       0.03918775 0.24083455
