notebooks/outputs/temp_B05_fold5_last.pth (torch, 31912 bytes, 18 tensors)

firstconv.0.weight f4 [16, 1, 1, 125]
-0.020551642 0.021977881 0.016668871 0.082171544 -0.07789153 -0.0936215 0.06661591 -0.042071965
0.025011724 0.055684194 0.055234514 0.0008841232 -0.03944533 0.07383832 0.0764414 -0.044343002
-0.0112312585 0.025181292 0.08273756 0.07650674 -0.04959385 -0.002376149 0.07042464 0.07018407
0.09478316 0.006776909 0.0511664 0.007316268 0.106329314 0.026483117 0.06782486 0.064025834
0.0038701145 0.016758159 0.031034365 -0.023600573 0.06783605 -0.0564708 0.07974685 0.0058889957
-0.05349856 0.031469215 -0.037070602 0.017150532 0.05324925 0.054496944 0.034699216 -0.025871402
0.03729382 -0.006083184 -0.09914517 0.0639303 -0.010585562 0.055772346 0.02308945 -0.044899747
0.0723241 -0.028995022 0.08674415 -0.022169989 0.028239675 0.012868481 0.07660588 -0.025174959
0.00052581966 0.044884916 -0.032440905 -0.020883562 0.02409566 0.06907465 -0.07605691 -0.042040665
-0.05207222 -0.055236924 -0.021926569 -0.023227772 0.008993983 -0.07110184 0.061815586 0.05182612
-0.0067914664 -0.05974267 0.06942159 -0.017888032 -0.00844105 -0.013993551 -0.092875 -0.062699296
0.02791837 0.061535273 -0.07824908 -0.0025553294 0.00032996776 0.055928398 0.06710942 -0.078148715
-0.08226188 -0.027944343 0.011216372 0.039086755 0.05840518 0.060212493 -0.028330805 0.060446866
-0.056008097 0.08912008 0.020543516 0.013506612 0.0053091054 -0.05511423 0.011104135 -0.0028620271
0.06818073 -0.044661872 -0.063886434 0.08020558 -0.06973977 -0.021509817 0.01969786 -0.034418035
0.05123571 -0.041382097 -0.028961072 0.003474872 -0.07676589 -0.007514636 -0.025083361 0.029744275
-0.09234988 0.044214558 0.0025373462 0.03320772 -0.04743171 0.050431203 -0.0667609 0.074297495
-0.027895847 -0.015608619 -0.070761114 -0.011823118 0.063928 0.00023890093 -0.04691271 0.0030421088
0.0328975 -0.015154458 0.04077913 -0.0044695972 -0.07913733 0.07309956 0.024377642 -0.044547204
-0.061796337 -0.008471991 -0.07657469 -0.07470963 0.008938011 -0.030653993 -0.04356926 0.033690136
0.052193813 0.08756598 -0.06929819 0.033567883 -0.011626755 0.025762573 -0.018256323 0.06342399
0.0027469161 0.07136319 -0.07051694 -0.061346736 -0.03512742 -0.041397557 0.024881553 -0.027091254
-0.05692484 -0.024065688 -0.032091588 0.05669738 0.05791803 0.04098954 -0.014789319 -0.03723044
-0.049006194 -0.035086434 0.0021379997 0.10715195 -0.030452743 0.03550642 0.08998683 0.015733702
-0.06638504 -0.0012247099 0.046110727 -0.06785434 -0.11083462 0.008991731 -0.06557132 -0.10777896
-0.014728033 -0.06746101 -0.085804254 -0.049936708 -0.09620629 -0.05540602 0.036268257 -0.08204391
0.05025553 0.040715463 -0.052921087 -0.085122734 -0.037310004 -0.08167958 0.08143396 0.03756017
0.024552844 0.057353202 -0.099272214 -0.052620642 0.067680284 0.017402176 -0.033739354 0.07512696
0.05374815 0.07358601 0.06820319 0.04364876 0.03784338 0.09977961 0.109865524 0.06153158
0.11812828 0.11664443 -0.038486328 0.07760963 0.06954225 0.10540884 0.033572845 -0.00015940971
0.0016976331 -0.0879416 0.061999165 0.033629563 0.00877265 -0.057864938 -0.038661376 0.018241676
0.050830055 0.0218664 -0.08521985 -0.06502538 -0.059708796 -0.04249884 0.07228079 -0.05174256
00000000: eb5b a8bc f50a b43c 288d 883c 8e49 a83d
00000010: 9885 9fbd a1bc bfbd ec6d 883d a753 2cbd
00000020: 63e5 cc3c 1c15 643d 963d 623d 81c4 673a
00000030: 6d91 21bd 8c38 973d 4f8d 9c3d 02a1 35bd
00000040: 5003 38bc ff48 ce3c 4f72 a93d 91af 9c3d
00000050: ec22 4bbd 2ab9 1bbb cb3a 903d aabc 8f3d
00000060: ac1d c23d d510 de3b dc93 513d 4ebd ef3b
00000070: 2fc3 d93d 1ff3 d83c c3e7 8a3d fa1f 833d
00000080: bfa1 7d3b 6848 893c c83b fe3c fd55 c1bc
00000090: a1ed 8a3d ed4d 67bd 5152 a33d 7af8 c03b
000000a0: 4e21 5bbd dde5 003d 58d7 17bd 467f 8c3c
000000b0: e31b 5a3d 3038 5f3d c420 0e3d 43f0 d3bc
000000c0: 68c1 183d 7255 c7bb 9f0c cbbd e4ed 823d
000000d0: 116f 2dbc 8b71 643d 1626 bd3c cce8 37bd
000000e0: a81e 943d f886 edbc eba6 b13d d69d b5bc
000000f0: e456 e73c 52d6 523c 8be3 9c3d b73b cebc
00000100: 29d7 093a 3fd9 373d c1e0 04bd 0114 abbc
00000110: 4364 c53c 0377 8d3d bac3 9bbd d532 2cbd
00000120: ae49 55bd 1d40 62bd 599f b3bc 2b48 bebc
00000130: 805b 133c d79d 91bd 5732 7d3d a047 543d
00000140: f38a debb bbb4 74bd e82c 8e3d ec89 92bc
00000150: 544c 0abc 3545 65bc 3f35 bebd 7d68 80bd
00000160: 11b5 e43c 690c 7c3d 0e41 a0bd 5077 27bb
00000170: 86ff ac39 2d15 653d aa70 893d 6f0c a0bd
00000180: eb78 a8bd 89eb e4bc e0c4 373c 6f19 203d
00000190: 453a 6f3d 60a1 763d 0116 e8bc 2297 773d
000001a0: bf68 65bd 9784 b63d e04a a83c d64a 5d3c
000001b0: 01f8 ad3b 75bf 61bd 1eee 353c d990 3bbb
000001c0: 57a2 8b3d 5eef 36bd e4d6 82bd d342 a43d
000001d0: b9d3 8ebd 5b35 b0bc 685d a13c edf9 0cbd
000001e0: 89dc 513d 4680 29bd c53f edbc aeba 633b
000001f0: 6f37 9dbd 563d f6bb 9f7b cdbc 44aa f33c
00000200: ef21 bdbd 531a 353d 9b49 263b d104 083d
00000210: c147 42bd f390 4e3d f0b9 88bd 4929 983d
00000220: d585 e4bc 4bbb 7fbc 34eb 90bd c0b5 41bc
00000230: afec 823d 7b81 7a39 8b27 40bd 1e5e 473b
00000240: 87bf 063d 674a 78bc 0408 273d b375 92bb
00000250: c112 a2bd 39b5 953d 9fb3 c73c 2177 36bd
00000260: 281e 7dbd 1bce 0abc 31d3 9cbd 5d01 99bd
00000270: bc70 123c 151e fbbc ae75 32bd abfe 093d
00000280: 2ec9 553d cb55 b33d 36ec 8dbd 7a7e 093d
00000290: 257e 3ebc 080c d33c 498e 95bc 70e4 813d
000002a0: 9b05 343b dd26 923d 2f6b 90bd b746 7bbd
000002b0: c5e1 0fbd 7c90 29bd 66d4 cb3c 7aee ddbc
000002c0: 052a 69bd 6825 c5bc 7872 03bd 833b 683d
000002d0: 753b 6d3d a6e4 273d e64e 72bc f27e 18bd
000002e0: b8ba 48bd cbb6 0fbd af1d 0c3b 7b72 db3d
000002f0: 0878 f9bc 2e6f 113d 044b b83d f7e3 803c
00000300: e1f4 87bd 7286 a0ba 9ade 3c3d 37f7 8abd
00000310: 43fd e2bd 0e52 133c 424a 86bd 37bb dcbd
00000320: d94d 71bc ff28 8abd 24ba afbd 6f8a 4cbd
00000330: ce07 c5bd 6cf1 62bd 068e 143d a306 a8bd
00000340: bed8 4d3d 42c5 263d c8c3 58bd d454 aebd
00000350: 60d2 18bd a047 a7bd d9c6 a63d b1d8 193d
00000360: 0c23 c93c 31eb 6a3d 3b4f cbbd be88 57bd
00000370: f69b 8a3d 028f 8e3c 4732 0abd 2adc 993d
00000380: 0527 5c3d 43b4 963d 1dae 8b3d 0bc9 323d
00000390: a901 1b3d 4159 cc3d 2d01 e13d 8a08 7c3d
000003a0: 3ded f13d 46e3 ee3d d7a3 1dbd ccf1 9e3d
000003b0: 2b6c 8e3d 97e0 d73d ae83 093d 3827 27b9
000003c0: 1d83 de3a ba1a b4bd d6f2 7d3d 27bf 093d
000003d0: 29bb 0f3c c903 6dbd 645b 1ebd 916f 953c
000003e0: 2d33 503d 2a21 b33c bf87 aebd 072c 85bd
000003f0: 3691 74bd 4313 2ebd f307 943d 02f0 53bd

firstconv.1.weight f4 [16]
0.99431205 1.0254647 1.0013 0.97477835 1.0188825 0.9811625 0.9989189 0.9914195
1.0045822 0.9970972 0.98376447 1.0213001 1.0062714 0.99448544 1.0217586 1.0088584
00000000: 3c8b 7e3f 6d42 833f 992a 803f 138b 793f
00000010: be6a 823f 772d 7b3f 26b9 7f3f abcd 7d3f
00000020: 2696 803f c341 7f3f fdd7 7b3f f6b9 823f
00000030: 80cd 803f 9996 7e3f fcc8 823f 4622 813f

firstconv.1.bias f4 [16]
-0.0015890583 -0.006955893 0.008607693 0.00043025333 -0.00010633787 0.00017514928 0.006231059 -0.0030898491
0.0033746418 -0.0021541112 0.006699026 -0.0059007783 0.003934073 0.0027631614 -0.0045211073 0.00028367608
00000000: f347 d0ba 42ee e3bb 4807 0d3c a093 e139
00000010: b601 dfb8 47a8 3739 e92d cc3b 117f 4abb
00000020: 1829 5d3b fd2b 0dbb 8183 db3b 515b c1bb
00000030: 65e9 803b 2816 353b cc25 94bb 5cba 9439

firstconv.1.running_mean f4 [16]
6.887205e-10 -1.1207658e-09 -1.8856641e-10 -3.3648997e-10 1.7478458e-10 -5.1750254e-10 -9.37361e-10 -6.894406e-10
1.4522988e-09 -2.633365e-12 -5.2468e-10 -1.4434576e-09 1.4779431e-09 1.0027669e-09 1.6137794e-09 -4.325281e-10
00000000: 6650 3d30 7109 9ab0 ba54 4faf c1fc b8af
00000010: 7c2d 402f 0140 0eb0 75d4 80b0 1283 3db0
00000020: 399a c730 7d4e 39ac 1339 10b0 2663 c6b0
00000030: 8020 cb30 b9d1 8930 d1cb dd30 ebc8 edaf

firstconv.1.running_var f4 [16]
2.5333201e-12 7.141266e-12 4.848093e-12 1.9871878e-12 4.400361e-12 1.9655462e-12 4.6741356e-12 2.5080127e-12
5.048507e-12 4.320921e-12 2.7348163e-12 5.3614257e-12 4.2868716e-12 5.0916376e-12 4.249818e-12 3.7706054e-12
00000000: 3d44 322c ce42 fb2c bd93 aa2c fed5 0b2c
00000010: eed2 9a2c 2250 0a2c df74 a42c 577c 302c
00000020: e9a0 b12c 6507 982c 1272 402c 6ea3 bc2c
00000030: b5d4 962c 6525 b32c f586 952c 98aa 842c

depthwiseConv.0.weight f4 [32, 1, 3, 1]
0.5446542 -0.09943466 0.2410563 -0.1641952 -0.10916 -0.09514204 -0.027023628 0.52777934
-0.017936958 0.14109929 -0.36791903 0.29297188 -0.3011325 -0.042833105 -0.47905898 -0.52371967
0.38981223 0.40481955 -0.33617786 -0.4939897 -0.24547075 -0.36962825 0.047303513 0.041792933
-0.17035653 -0.44492206 0.4483437 -0.48614478 0.28565508 0.33356613 -0.122924335 -0.21920823
-0.31582892 -0.32335144 -0.07189228 -0.12612933 0.40132686 0.022010423 -0.06609491 -0.43450034
0.04420069 -0.09598665 -0.5580563 -0.08422911 -0.16711612 -0.35329744 0.09827607 -0.56161016
0.21552183 -0.48351493 0.1811503 0.29969338 0.19213073 -0.41459268 0.20868059 -0.14473687
-0.35208786 0.09480309 0.11123973 -0.52824646 -0.20159037 0.25333652 -0.40137824 0.10317747
0.3841597 0.2710323 0.09599942 -0.08620037 -0.35397232 0.21583968 0.09771808 0.119407766
-0.44877726 0.32736704 -0.50860333 0.25237837 0.16467902 -0.37944922 -0.35549822 -0.13015573
0.010173875 -0.2391125 -0.23243293 0.12632559 -0.54066133 0.49283955 0.56163913 0.07331151
-0.40069288 -0.07190566 -0.36717632 -0.14461175 0.30517805 0.34643385 0.07951069 -0.39656186
00000000: 756e 0b3f 66a4 cbbd 76d7 763e c922 28be
00000010: 478f dfbd d4d9 c2bd a860 ddbc 8c1c 073f
00000020: 87f0 92bc 557c 103e e25f bcbe 6900 963e
00000030: 0a2e 9abe c471 2fbd 3847 f5be 7e12 06bf
00000040: 7895 c73e 8244 cf3e 811f acbe 38ec fcbe
00000050: af5c 7bbe ea3f bdbe 54c1 413d 112f 2b3d
00000060: f171 2ebe d3cc e3be 4e8d e53e f8e7 f8be
00000070: 6241 923e 2ec9 aa3e c1bf fbbd 1f78 60be
00000080: 54b4 a1be 528e a5be 423c 93bd 0c28 01be
00000090: b77a cd3e 344f b43c c55c 87bd d476 debe
000000a0: c80b 353d a694 c4bd c7dc 0ebf 5080 acbd
000000b0: 7d20 2bbe 67e3 b4be f744 c93d afc5 0fbf
000000c0: c1b1 5c3e 458f f7be 777f 393e 6971 993e
000000d0: ebbd 443e 7e45 d4be 5db0 553e e735 14be
000000e0: dc44 b4be 1f28 c23d a8d1 e33d 293b 07bf
000000f0: b56d 4ebe 53b5 813e 7381 cdbe b64e d33d
00000100: 95b0 c43e bfc4 8a3e 589b c43d d289 b0bd
00000110: dc3b b5be 1405 5d3e 6b20 c83d 0f8c f43d
00000120: 22c6 e5be a79c a73e d433 02bf bd37 813e
00000130: 9ea1 283e 2b47 c2be dd03 b6be 8b47 05be
00000140: 53b0 263c e8d9 74be e602 6ebe 7f5b 013e
00000150: c868 0abf 7755 fc3e 95c7 0f3f 5824 963d
00000160: 9e27 cdbe 4643 93bd 89fe bbbe 1a15 14be
00000170: 4c40 9c3e c75f b13e 80d6 a23d 280a cbbe

depthwiseConv.1.weight f4 [32]
0.99298304 0.9978147 1.0080693 1.0214307 1.0009133 0.99094486 0.97824186 0.9820565
1.0136346 1.0072336 0.99339134 0.9806251 0.98690766 1.0016756 0.98817617 0.99222857
1.0195223 0.984205 0.979534 1.0056641 0.9967564 0.98251927 1.0243005 0.9975569
0.9783224 1.0365233 0.9911523 0.9988518 1.0195706 1.0041776 0.97679025 1.0371562
00000000: 2334 7e3f c970 7f3f 6a08 813f 3ebe 823f
00000010: ed1d 803f 90ae 7d3f 0f6e 7a3f 0e68 7b3f
00000020: c7be 813f 08ed 803f e54e 7e3f 3f0a 7b3f
00000030: fba5 7c3f e836 803f 1df9 7c3f b102 7e3f
00000040: b57f 823f dcf4 7b3f bdc2 7a3f 9ab9 803f
00000050: 6d2b 7f3f 6286 7b3f 471c 833f e45f 7f3f
00000060: 5673 7a3f ccac 843f 28bc 7d3f c0b4 7f3f
00000070: 4a81 823f e488 803f ed0e 7a3f 89c1 843f

depthwiseConv.1.bias f4 [32]
0.0021100293 0.0037231173 1.6986589e-05 -0.012475538 0.00398099 -0.010479688 -0.0009123655 0.0021478143
-0.0031884932 0.0055050123 -0.0023119512 -0.00079151266 0.0008611691 -0.0024037366 0.0007128951 -0.00095024344
0.012404736 -0.005249447 0.00023559724 -0.011791635 0.002611141 -0.011184603 0.0009508236 0.0035822247
-0.001654918 0.003466473 -0.011313103 -0.000105558865 0.014539579 -0.017624069 -0.006189281 0.01532027
00000000: 6b48 0a3b 8bff 733b 6c7e 8e37 3366 4cbc
00000010: f772 823b ffb2 2bbc d02b 6fba 58c2 0c3b
00000020: 0af6 50bb 6463 b43b 1b84 17bb 847d 4fba
00000030: 14c0 613a 0288 1dbb 95e1 3a3a c219 79ba
00000040: 3c3d 4b3c 8e03 acbb a70a 7739 b431 41bc
00000050: ad1f 2b3b a03f 37bc b140 793a c2c3 6a3b
00000060: d5e9 d8ba c42d 633b 985a 39bc 7c5f ddb8
00000070: 6a37 6e3c 5a60 90bc 74cf cabb df01 7b3c

depthwiseConv.1.running_mean f4 [32]
-0.0010660121 0.0005717923 -0.0033800679 -0.00046577177 -0.0070751156 0.0023295819 -0.00047433647 -0.00012368572
1.7280396e-05 -1.3880714e-05 -9.830737e-05 -7.78985e-05 0.0021970836 -0.0029906011 0.0025641194 0.0025864402
-0.00029211523 0.0002590093 0.0005977514 0.0006681077 -0.0023158179 0.005022706 0.0020438794 -0.0025694605
-0.002467731 0.00014688619 -0.0013150629 -0.0009539995 -0.0023156463 0.0017982607 -5.9849528e-05 8.608746e-06
00000000: 6eb9 8bba 55e4 153a 2184 5dbb d432 f4b9
00000010: 5fd6 e7bb e6ab 183b 5db0 f8b9 a2b1 01b9
00000020: 5ef5 9037 36e1 68b7 5e2a ceb8 705d a3b8
00000030: f2fc 0f3b f6fd 43bb c90a 283b 4481 293b
00000040: 0b27 99b9 a4cb 8739 6bb2 1c3a f323 2f3a
00000050: fac4 17bb 8395 a43b 9bf2 053b 6564 28bb
00000060: a8b9 21bb 7605 1a39 305e acba d315 7aba
00000070: 19c2 17bb 9eb3 eb3a f106 7bb8 486e 1037

depthwiseConv.1.running_var f4 [32]
8.578588e-08 1.9027963e-08 1.3109982e-07 5.718836e-08 2.4654267e-07 5.502155e-08 9.358968e-08 1.2268188e-08
6.460291e-08 3.757645e-08 3.4856345e-08 2.5383091e-08 6.2778824e-08 1.00940525e-07 9.762068e-08 1.0913507e-07
3.7484547e-08 4.569547e-08 2.9706094e-08 5.772196e-08 3.926097e-08 8.05832e-08 5.4974414e-08 7.606472e-08
1.876661e-07 2.9539523e-08 9.433305e-08 5.4275166e-08 1.0312207e-07 4.526692e-08 3.6414814e-08 2.6879182e-08
00000000: 4939 b833 ef72 a332 72c4 0c34 449f 7533
00000010: 915c 8434 d650 6c33 78fb c833 10c4 5232
00000020: d3bb 8a33 be63 2133 f5b4 1533 020a da32
00000030: 06d1 8633 a4c4 d833 89a3 d133 a45d ea33
00000040: b2fe 2033 b342 4433 642c ff32 f7e9 7733
00000050: e59f 2833 150d ad33 021d 6c33 0659 a333
00000060: 4481 4934 19be fd32 2594 ca33 2d1c 6933
00000070: f573 dd33 816b 4233 8366 1c33 f2e3 e632

separableConv.0.weight f4 [32, 1, 1, 16]
0.19180377 -0.23389934 -0.10817986 0.117931895 0.11583834 -0.115408726 0.14514239 0.25575224
-0.13831374 0.117525995 -0.060603205 -0.21875215 0.07450445 -0.07496014 -0.13707207 -0.004248573
-0.035359252 0.04981582 -0.04065228 0.15705124 -0.113827445 0.013272938 -0.22334504 -0.08294048
-0.25619853 -0.07225843 0.10754299 -0.108125165 0.03532012 -0.037589695 -0.06389745 -0.101667024
0.035048038 0.12571466 -0.19096991 0.012499004 -0.124208495 -0.14955814 -0.17047666 -0.037437264
-0.24287288 -0.09852839 -0.022829553 -0.0023042324 0.010287497 -0.15769863 -0.13300368 -0.23038046
-0.14711972 0.14133874 -0.12715882 0.2250075 -0.23772322 -0.24502222 0.22490758 -0.24339107
-0.20769215 0.16983736 0.093906224 -0.10139622 0.27377504 0.1584773 0.10608879 0.18600407
-0.028523516 0.10230075 -0.033725046 0.028199872 0.09646075 -0.08154697 -0.16292515 -0.21627498
-0.18469581 0.061763447 0.20476158 0.24405935 0.04637433 -0.14858869 -0.18961638 -0.23334095
0.0075070187 0.21414797 -0.20084143 0.1364729 0.23737279 0.24155715 -0.15245013 0.029847447
0.1252414 0.10257098 -0.009768524 -0.19745357 0.22342934 -0.037839107 -0.073869064 -0.17479642
0.13812023 0.06615518 -0.1673926 0.042593684 -0.027200693 0.050260972 0.04245046 -0.10069334
0.043991398 -0.067014255 -0.07159702 -0.20012675 -0.13340405 0.06669743 0.13971625 0.21388479
-0.11383469 -0.13776243 -0.17338863 0.0048584766 -0.24730264 -0.07700806 0.23322324 -0.09634102
-0.014576917 -0.1468561 0.17858697 0.00089827867 -0.18671854 -0.2277165 -0.10362343 0.030046953
0.009731608 0.008063199 -0.25051603 -0.13654377 0.008732262 -0.25703534 0.14059891 0.16229796
-0.17979029 0.18966691 0.24596594 -0.14219546 -0.100862004 -0.12900527 -0.25209764 0.08636633
0.10538256 0.24509166 0.20980446 0.2055977 -0.14487214 -0.25797904 -0.1492154 -0.051875982
0.00014849228 0.0057555996 -0.08945279 0.058013186 -0.08780452 -0.09153907 0.22013943 0.21239978
-0.118297584 -0.06148744 0.22311395 0.018598588 -0.18822102 0.06845131 0.11754925 0.12598558
-0.12469353 -0.22247484 -0.1043078 0.03448148 -0.029761983 0.10791828 -0.03703584 0.1753522
-0.1861412 0.16235185 -0.015656138 0.04598275 0.24025996 -0.037410423 0.024160996 -0.23268577
-0.062843084 0.14512005 0.15478621 0.2297538 0.1308333 -0.06079798 -0.042070396 -0.24100849
-0.05749131 0.15367487 0.1918114 0.09697668 -0.024580838 0.2612045 -0.11072865 -0.07225394
0.18535061 0.08233903 0.19674613 -0.21968845 0.22628634 -0.27056962 0.04850064 0.030804964
0.23239602 0.003994305 0.0859598 -0.19785036 0.07834273 -0.21300253 0.20439467 0.11715547
0.015028005 0.07970122 -0.03642444 0.08323322 -0.08066097 -0.15409629 -0.16444382 -0.16564225
0.07580858 -0.028923634 -0.05559493 0.035174776 0.22571945 -0.23264052 0.00951232 0.0037045798
-0.070174426 0.18395774 0.050079096 -0.12496433 -0.032032914 0.11142399 -0.23188095 0.034075852
-0.06090558 0.020901006 -0.16994812 -0.07692547 0.22517613 0.17968717 0.10257177 0.26163846
0.21330175 -0.1308625 -0.20861615 0.03449148 0.109369926 0.12555644 0.13042033 -0.17528468
00000000: 3568 443e 4f83 6fbe 678d ddbd 4786 f13d
00000010: a73c ed3d 695b ecbd 35a0 143e f5f1 823e
00000020: 1ea2 0dbe 78b1 f03d 113b 78bd 9000 60be
00000030: ca95 983d b484 99bd 9f5c 0cbe 9d37 8bbb
00000040: ddd4 10bd ac0b 4c3d 0183 26bd 0ad2 203e
00000050: 5d1e e9bd bd76 593c 90b4 64be b3dc a9bd
00000060: 742c 83be 3afc 93bd 803f dc3d ba70 ddbd
00000070: d5ab 103d a7f7 19bd abdc 82bd cd36 d0bd
00000080: 888e 0f3d 58bb 003e 9e8d 43be 9fc8 4c3c
00000090: 0661 febd c525 19be 6f91 2ebe d157 19bd
000000a0: abb3 78be 41c9 c9bd 0b05 bbbc 9b02 17bb
000000b0: e48c 283c c07b 21be 1e32 08be dbe8 6bbe
000000c0: 8da6 16be 1abb 103e ec35 02be 5e68 663e
000000d0: b76d 73be 1be7 7abe 2c4e 663e 823b 79be
000000e0: 40ad 54be d8e9 2d3e e851 c03d d2a8 cfbd
000000f0: 3e2c 8c3e e047 223e 1445 d93d da77 3e3e
00000100: 26aa e9bc 0e83 d13d 4623 0abd 6b03 e73c
00000110: 378d c53d 1902 a7bd dad5 26be 3077 5dbe
00000120: e620 3dbe abfb 7c3d 05ad 513e b2ea 793e
00000130: 02f3 3d3d a227 18be cc2a 42be eef0 6ebe
00000140: 70fd f53b 9b49 5b3e 60a9 4dbe 8dbf 0b3e
00000150: da11 733e c25a 773e e31b 1cbe a282 f43c
00000160: 483f 003e bc10 d23d 290c 20bc 4531 4abe
00000170: a9ca 643e 2efd 1abd aa48 97bd d5fd 32be
00000180: 646f 0d3e 5e7c 873d f768 2bbe b776 2e3d
00000190: fdd3 debc 73de 4d3d 89e0 2d3d 4f38 cebd
000001a0: 5330 343d c53e 89bd 75a1 92bd 07ee 4cbe
000001b0: 129b 08be aa98 883d c711 0f3e 9d04 5b3e
000001c0: 2922 e9bd 9811 0dbe ca8c 31be db33 9f3b
000001d0: e73c 7dbe 67b6 9dbd 13d2 6e3e 714e c5bd
000001e0: 05d4 6ebc 7261 16be 81df 363e 767a 6b3a
000001f0: 2533 3fbe 842e 69be 8538 d4bd 0725 f63c
00000200: 5371 1f3c 821b 043c a343 80be 21d2 0bbe
00000210: c311 0f3c 239a 83be 29f9 0f3e 7031 263e
00000220: f21a 38be 0b38 423e 7fde 7b3e b09b 11be
00000230: bd90 cebd f519 04be f112 81be d5e0 b03d
00000240: d0d2 d73d 4ff9 7a3e fbd6 563e 3488 523e
00000250: 5d59 14be d415 84be eccb 18be e97b 54bd
00000260: 98b4 1b39 7899 bc3b 0633 b7bd 3c9f 6d3d
00000270: dbd2 b3bd d678 bbbd 3b6c 613e 547f 593e
00000280: 0146 f2bd 41da 7bbd fc77 643e 115c 983c
00000290: 03bd 40be 3330 8c3d a9bd f03d 5d02 013e
000002a0: 525f ffbd 72d0 63be 549f d5bd 743c 0d3d
000002b0: 67cf f3bc 4204 dd3d e5b2 17bd 878f 333e
000002c0: cc9b 3ebe 903f 263e 4d41 80bc 6858 3c3d
000002d0: b506 763e ac3b 19bd 48ed c53c 2e45 6ebe
000002e0: e0b3 80bd 5a9a 143e 4780 1e3e 9544 6b3e
000002f0: 2af9 053e 4d07 79bd 0252 2cbd eeca 76be
00000300: 027c 6bbd f25c 1d3e 356a 443e b69b c63d
00000310: c15d c9bc 99bc 853e b4c5 e2bd e0f9 93bd
00000320: 8dcc 3d3e 5ea1 a83d d177 493e 02f6 60be
00000330: 9bb7 673e 1a88 8abe 9ba8 463d b15a fc3c
00000340: 39f9 6d3e a9e2 823b b10b b03d 4999 4abe
00000350: 2772 a03d 561d 5abe d64c 513e 35ef ef3d
00000360: 0538 763c 653a a33d cb31 15bd 2e76 aa3d
00000370: 9431 a5bd 6bcb 1dbe f663 28be 1f9e 29be
00000380: 8741 9b3d 42f1 ecbc 82b7 63bd 6d13 103d
00000390: 0023 673e 5139 6ebe 90d9 1b3c 89c8 723b
000003a0: 9cb7 8fbd 6b5f 3c3e bd1f 4d3d 4ced ffbd
000003b0: f234 03bd 4332 e43d 3372 6dbe 1f93 0b3d
000003c0: 2178 79bd 9638 ab3c e106 2ebe 1a8b 9dbd
000003d0: 9294 663e eaff 373e 2611 d23d 7af5 853e
000003e0: c66b 5a3e d200 06be 799f 55be f046 0d3d
000003f0: 57fd df3d de91 003e e88c 053e d47d 33be

separableConv.1.weight f4 [32, 32, 1, 1]
-0.16169396 -0.021561233 0.08009203 0.1066714 -0.17155774 0.10425948 0.01031182 -0.13046414
0.033978324 -0.018700449 -0.17086984 0.0186347 -0.09621304 0.13043553 -0.034222797 -0.12635772
0.18700024 -0.01623488 0.13857846 0.11269254 0.16639996 0.043302525 0.09340126 -0.08586952
-0.024395602 -0.0766661 -0.16399248 0.111240074 0.13292602 0.0019462934 0.1237929 0.1012333
0.053246364 -0.11921639 -0.15967645 -0.009601772 0.00013810232 -0.07956516 -0.13709098 -0.114433706
-0.06702133 0.029783435 0.0055583036 -0.031920895 0.048152793 0.0865361 -0.013654843 0.0009110482
0.12961185 -0.06772623 -0.13483773 -0.18697503 -0.08139343 -0.14902414 0.14850198 0.16879877
0.09601387 -0.067873254 0.09577985 0.07536826 -0.08695373 0.08704327 -0.09115879 -0.06319127
0.12352094 -0.06605672 0.19039382 -0.1305801 0.06766775 -0.00041707652 0.053414695 0.058752317
0.104978725 0.012425427 -0.05588818 -0.047523245 0.15333357 -0.09338348 0.13078272 -0.039844736
0.05292157 -0.15115055 -0.00040500605 -0.12990996 -0.13711159 -0.024932474 -0.16428617 0.043733556
0.032789797 -0.11313037 0.044958327 -0.14488268 0.19323951 0.07774335 -0.07391311 -0.12486752
-0.02819366 0.06297073 0.03711669 -0.07803991 -0.13410795 -0.121219285 0.095508076 -0.05602419
-0.11261693 0.15340152 -0.058286406 0.097639434 0.073816165 -0.021658005 0.09020265 0.06697809
0.1543896 0.04385971 0.041080542 0.015572034 0.12951146 0.08613555 -0.17085785 -0.10144061
0.12895243 0.09970834 -0.15424967 -0.025272757 0.12544048 -0.06893949 0.049093653 -0.06409191
0.07783945 -0.0061571165 -0.12439137 0.10763955 0.063410185 0.011795971 -0.10355035 0.057213385
0.17727 0.008010544 -0.14024083 -0.10659099 -0.035744913 0.021948924 -0.04451143 0.04646119
-0.09741187 0.094824776 0.12123198 0.18379514 0.12940171 0.00368148 -0.051337738 0.1446811
-0.07328791 0.0061369454 -0.13836448 -0.07941849 0.020531975 0.07236954 -0.0067910627 0.01217033
0.11132622 0.16600236 0.02540021 0.15575656 -0.031786956 -0.018257236 0.1544813 0.03243622
0.1382732 -0.09145278 -0.089431316 -0.036776774 -0.16748078 0.1348471 -0.03171694 0.09068616
0.02155369 -0.0011273231 -0.074714236 0.15644775 -0.1372249 0.142572 0.036176786 0.16571552
0.14219542 -0.14437516 -0.115050755 0.0033185277 -0.0679574 0.11582133 0.02660056 -0.12622477
-0.13320883 -0.16395392 0.02865849 -0.083978266 -0.13906711 0.1677155 -0.08042254 0.14350334
-0.12111289 -0.058164787 -0.18342267 0.17915003 0.16169268 0.016504196 -0.14396127 0.04088968
0.096386835 -0.08750002 -0.036811467 0.1738772 0.09280576 -0.08130282 -0.15603223 -0.0056871446
-0.05492166 0.105126664 -0.16743763 0.05985641 -0.03904028 0.03563331 -0.1369347 0.09756225
0.17543098 -0.097492486 0.058550224 -0.054408044 0.05901308 0.023776531 -0.02671136 -0.10130883
-0.07815541 0.2124127 -0.030747391 0.083438955 0.049332578 -0.13310364 -0.021703012 0.049238794
-0.052511126 0.077213444 0.075479254 0.06918623 -0.14396313 -0.1191073 0.08413852 0.08167056
-0.17817836 -0.16636765 -0.053950813 -0.16644932 0.060633983 0.13805845 0.14470074 -0.17363897
00000000: 1a93 25be 2fa1 b0bc 4a07 a43d 8976 da3d
00000010: d5ac 2fbe ff85 d53d e8f2 283c 6498 05be
00000020: db2c 0b3d af31 99bc 81f8 2ebe cca7 983c
00000030: 580b c5bd e490 053e 342d 0cbd eb63 01be
00000040: fe7c 3f3e 03ff 84bc 83e7 0d3e 59cb e63d
00000050: c064 2a3e fd5d 313d 2949 bf3d 5cdc afbd
00000060: 49d9 c7bc 1e03 9dbd a5ed 27be d6d1 e33d
00000070: c21d 083e c51a ff3a 2287 fd3d 6853 cf3d
00000080: dc18 5a3d b927 f4bd 3982 23be c050 1dbc
00000090: 8fcf 1039 0ff3 a2bd 9461 0cbe 385c eabd
000000a0: 7b42 89bd 64fc f33c 6e22 b63b 7cbf 02bd
000000b0: dd3b 453d d739 b13d 90b8 5fbc 69d3 6e3a
000000c0: f8b8 043e 0db4 8abd e712 0abe 6276 3fbe
000000d0: 99b1 a6bd c999 18be e710 183e 96d9 2c3e
000000e0: eba2 c43d 2201 8bbd 3a28 c43d ad5a 9a3d
000000f0: cc14 b2bd be43 b23d 76b1 babd 6d6a 81bd
00000100: 8cf8 fc3d bf48 87bd 99f6 423e cab6 05be
00000110: 6495 8a3d 10ab dab9 5ec9 5a3d 45a6 703d
00000120: 16ff d63d 0594 4b3c 01eb 64bd bca7 42bd
00000130: 7a03 1d3e d73f bfbd e8eb 053e 3c34 23bd
00000140: 4ac4 583d 36c7 1abe fe56 d4b9 1e07 05be
00000150: fb66 0cbe 303f ccbc a23a 28be f521 333d
00000160: 984e 063d e5b0 e7bd 3926 383d 205c 14be
00000170: 94e0 453e e837 9f3d c25f 97bd 8bba ffbd
00000180: 64f6 e6bc ccf6 803d ac07 183d 63d3 9fbd
00000190: 9853 09be d141 f8bd bd99 c33d 9f79 65bd
000001a0: b4a3 e6bd 4a15 1d3e babd 6ebd 2ff7 c73d
000001b0: ee2c 973d 216c b1bc 2bbc b83d cf2b 893d
000001c0: 4f18 1e3e 3da6 333d 1244 283d d821 7f3c
000001d0: a79e 043e d667 b03d 5cf5 2ebe 18c0 cfbd
000001e0: 1b0c 043e e333 cc3d a0f3 1dbe d008 cfbc
000001f0: 7873 003e 2630 8dbd 6d16 493d 9f42 83bd
00000200: 4a6a 9f3d a3c1 c9bb e7c0 febd 2072 dc3d
00000210: 33dd 813d e343 413c 3512 d4bd 9558 6a3d
00000220: 4486 353e a83e 033c 4b9b 0fbe 614c dabd
00000230: 4269 12bd 3bce b33c 9e51 36bd 174e 3e3d
00000240: e07f c7bd 7e33 c23d 7948 f83d cb34 3c3e
00000250: e281 043e fc44 713b 8547 52bd 4827 143e
00000260: f917 96bd 6e18 c93b 6baf 0dbe 29a6 a2bd
00000270: ac32 a83c 7b36 943d 9087 debb 1066 473c
00000280: 00ff e33d 86fc 293e 1a14 d03c a67e 1f3e
00000290: 0a33 02bd 3390 95bc 5930 1e3e d8db 043d
000002a0: 7d97 0d3e 984b bbbd c427 b7bd 3ea3 16bd
000002b0: 1580 2bbe 5c15 0a3e 9fe9 01bd aab9 b93d
000002c0: 5d91 b03c b0c2 93ba c703 99bd d733 203e
000002d0: af84 0cbe 65fe 113e 1c2e 143d 54b1 293e
000002e0: ad9b 113e 15d7 13be bb9f ebbd a87b 593b
000002f0: 402d 8bbd bc33 ed3d 6be9 d93c 1141 01be
00000300: e567 08be 89e3 27be 36c5 ea3c ccfc abbd
00000310: 9c67 0ebe 9dbd 2b3e 93b4 a4bd 8af2 123e
00000320: 090a f8bd 333e 6ebd 27d3 3bbe 1b73 373e
00000330: c492 253e cf33 873c 956a 13be f07b 273d
00000340: 7666 c53d 3633 b3bd 9fc7 16bd dd0c 323e
00000350: f210 be3d 1882 a6bd eac6 1fbe 3a5b babb
00000360: 89f5 60bd a64c d73d c574 2bbe ff2b 753d
00000370: b3e8 1fbd 3cf4 113d 9c38 0cbe b8ce c73d
00000380: 2ea4 333e 24aa c7bd 5cd2 6f3d f8da 5ebd
00000390: b3b7 713d 00c7 c23c c8d1 dabc 017b cfbd
000003a0: f20f a0bd b782 593e f4e1 fbbc 0be2 aa3d
000003b0: f510 4a3d 524c 08be 84ca b1bc 9eae 493d
000003c0: e815 57bd 1522 9e3d de94 9a3d 83b1 8d3d
000003d0: 126b 13be 87ee f3bd d150 ac3d e542 a73d
000003e0: 6374 36be 485c 2abe 87fb 5cbd b171 2abe
000003f0: 575b 783d 325f 0d3e 6e2c 143e 6ace 31be

separableConv.2.weight f4 [32]
1.0116669 0.9964729 1.0149016 1.0269241 1.0059717 0.99663186 1.0321807 1.0081093
1.031017 1.008023 1.0070599 1.0169954 0.994754 1.0203326 1.0285902 1.0106678
1.0037587 1.0001615 0.9892272 0.9981892 1.025958 1.0259557 1.0081537 0.9953717
1.017302 1.0093815 1.0159553 1.0057782 1.0135437 1.0022781 1.0124582 1.0137646
00000000: 4d7e 813f d918 7f3f 4ce8 813f 4072 833f
00000010: aec3 803f 4423 7f3f 7f1e 843f ba09 813f
00000020: 5df8 833f e606 813f 57e7 803f e82c 823f
00000030: 33a8 7e3f 429a 823f d8a8 833f 905d 813f
00000040: 2a7b 803f 4b05 803f fe3d 7d3f 5489 7f3f
00000050: 9752 833f 8452 833f 2e0b 813f aed0 7e3f
00000060: f436 823f 6a33 813f d30a 823f 57bd 803f
00000070: cdbb 813f a64a 803f 3b98 813f 0ac3 813f

separableConv.2.bias f4 [32]
-0.013025192 -0.01586352 0.012468494 -0.0032514662 -0.017142087 -0.022599876 -0.005664873 -0.011080028
-0.006751415 -0.00036414995 -0.0012086236 0.0035491297 -7.568086e-06 -0.002637858 -0.009540386 -0.006924904
-0.0076939203 -0.008159435 -0.012561265 -0.014680499 -0.011272782 -0.0017641147 -0.008949059 -0.01182731
-0.006637928 -0.0058385846 -0.0049860333 -0.017208414 -0.021273274 -0.0024111466 -0.015687687 -0.02206208
00000000: 9d67 55bc 36f4 81bc a748 4c3c 8d16 55bb
00000010: 906d 8cbc 6023 b9bc 66a0 b9bb 0189 35bc
00000020: f93a ddbb 61eb beb9 ae6a 9eba 8498 683b
00000030: 5df1 fdb6 eadf 2cbb 474f 1cbc 4eea e2bb
00000040: 481d fcbb 27af 05bc c4cd 4dbc 7a86 70bc
00000050: 7ab1 38bc de39 e7ba 139f 12bc 55c7 41bc
00000060: fa82 d9bb 9951 bfbb e161 a3bb a9f8 8cbc
00000070: 4a45 aebc 5404 1ebb 7783 80bc 89bb b4bc

separableConv.2.running_mean f4 [32]
0.00033293173 0.001832923 0.0004524407 0.0025633073 -0.0011124832 -0.0026354329 0.00013469959 0.0003312061
0.0027254086 -0.0021047636 -0.0012125687 0.0005111785 -0.0007657996 0.0004897159 -0.001925023 -0.0012087427
0.0010529181 -0.0024390037 0.0013350449 -0.000579466 -0.0016917558 0.0008703908 -0.0021033268 -0.00020416004
0.0012422166 0.000585474 -3.5225163e-05 3.6079946e-05 0.002091281 -0.00083913974 -0.0016981157 -0.0010176776
00000000: 578d ae39 b13e f03a 9035 ed39 29fd 273b
00000010: bed0 91ba 3ab7 2cbb 253e 0d39 bba5 ad39
00000020: c59c 323b 13f0 09bb 0eef 9eba 9c00 063a
00000030: f1bf 48ba 4760 003a 0e51 fcba ad6e 9eba
00000040: 1202 8a3a b1d7 1fbb acfc ae3a 4ee7 17ba
00000050: e8bd ddba f02a 643a f8d7 09bb cb13 56b9
00000060: dfd1 a23a 7f7a 193a bbbe 13b8 8c54 1738
00000070: e00d 093b b7f9 5bba 4f93 deba 9863 85ba

separableConv.2.running_var f4 [32]
0.0027839483 0.0011693604 0.0014919899 0.0023912063 0.0013262474 0.0015838831 0.0023137534 0.002058278
0.002321166 0.0015911694 0.0014687391 0.0017428225 0.0012655258 0.0016264783 0.0024793302 0.0014192902
0.0011295754 0.0020667086 0.0017803059 0.0013274304 0.0014881379 0.0016024609 0.001985094 0.0014642585
0.0013839751 0.0016400379 0.002723329 0.002186725 0.0013836964 0.002394701 0.0015113895 0.0012825622
00000000: e772 363b 3945 993a e08e c33a c9b5 1c3b
00000010: 7ad5 ad3a 4c9a cf3a 57a2 173b 2de4 063b
00000020: b41e 183b c98e d03a b582 c03a 6b6f e43a
00000030: 00e0 a53a 8e2f d53a 427c 223b 7a07 ba3a
00000040: 430e 943a 9e71 073b 2759 e93a 2cfd ad3a
00000050: 9f0d c33a aa09 d23a 5a18 023b 5dec bf3a
00000060: 8066 b53a 8af6 d63a e179 323b 284f 0f3b
00000070: 265d b53a 6af0 1c3b d119 c63a a51b a83a

classify.weight f4 [2, 992]
0.029378192 -0.04920839 -0.010748505 -0.029983513 -0.03222441 0.009341783 0.03385228 0.011704661
-0.025506884 0.010749973 0.017839152 0.003829992 0.02807247 -0.0055098743 -0.0057738563 -0.028397195
-0.04949583 0.0056641805 0.01061074 -0.00042295648 -0.007922232 -0.054471243 0.025237923 0.036078848
0.0032465232 0.027552111 0.009000788 0.012254707 0.024647893 0.0037172444 0.0019906147 -0.04328556
0.017972017 -0.015231297 -0.020379 0.045945782 0.009536011 0.020845722 -0.0045779087 0.012314509
0.02623835 0.015593272 -0.028828109 0.034663036 0.005967126 -0.019481158 0.0042352085 0.02003725
0.04193964 0.009824518 0.017515369 0.004928573 0.011828587 -0.015851792 -0.02710865 0.038178388
-0.014760147 -0.004348883 0.026029093 0.004970892 0.029107638 -0.014077032 -0.024987973 -0.010514963
-0.0022777708 0.006194831 -0.027848465 -0.013268115 -0.049515463 0.042428102 0.007990823 -0.0026217985
-0.0040698857 -0.004362799 -0.010389273 0.0032950388 -0.049170434 -0.012990976 -0.012995705 0.0061763907
-0.013047137 -0.032750186 0.030373927 -0.033522666 0.014942007 -0.045284577 0.0043434813 0.023407817
-0.024925541 0.026164861 -0.010923468 0.015463795 0.016690709 0.009596773 -0.022796148 -0.016137104
0.025096996 -0.041643344 -0.0023490011 -0.008973425 -0.028819613 0.034235977 0.021432973 -0.02392939
0.036132712 0.020609437 -0.028696802 0.012674222 -0.026079753 -0.058904756 0.014415599 -0.011582481
-0.014433105 -0.0067444853 -0.02663961 0.0055479994 -0.011987553 -0.029333035 0.031675085 -0.007622216
-0.017987322 0.005891552 0.03360728 -0.0032374645 0.024603317 -0.007052275 -0.032296225 0.033099625
-0.020489682 0.0016945231 -0.013347188 0.030842675 0.030657953 -0.0032003277 0.0034646865 0.008486703
0.04928891 0.011330077 -0.01483875 -0.018636853 0.024960171 0.029305005 0.021271715 -0.0091875475
-0.0135117415 0.005029811 -0.048020795 0.0073590493 -0.002948627 -0.002163534 -0.013714305 0.014534392
-0.014053491 -0.02328137 -0.024394253 0.047508985 0.005276076 0.0037763745 -0.0014706026 0.028316163
-0.023067785 0.0030026913 -0.011183086 -0.027877595 0.037245862 -0.015286057 -0.006412618 0.002338924
-0.0314407 -0.012564036 -0.04594007 0.01875528 -0.029663563 0.0050763926 -0.012670843 -0.025602596
0.009977704 -0.016052702 -0.014798464 -0.007764227 0.011086705 0.02875923 0.021872913 -0.01762721
0.024867829 -0.009570957 -0.0014883995 -0.026159763 -0.040395077 0.00036669866 -0.05107345 -0.00022812621
0.0015736623 -0.049118042 -0.014304309 -0.009384314 0.020523308 0.041632112 0.04017237 -0.0046407403
0.032414768 0.012825849 -0.006629589 -0.021377236 -0.020900263 -0.013175179 -0.02673813 -0.0020134167
0.0047903806 -0.00016235832 -0.010446269 0.04859233 0.038635757 -0.0086181685 0.05599118 0.0042378525
0.010521729 -0.010745095 0.000573545 0.01987567 -0.011508611 -0.010169572 0.03139571 -0.0669125
0.049888093 0.01607336 0.036507 0.03457768 -0.028069802 -0.0108860675 -0.012552879 -0.032108083
-0.025209358 -0.016573114 0.0071243322 -0.02655028 0.03322669 -0.016662387 -0.010823222 0.020194056
-0.011181644 -0.002901439 0.022284891 -0.007077813 0.0046792505 -0.0034044886 0.027177623 -0.033337533
0.007732426 -0.008906024 -0.02783923 0.064588256 -0.014614223 0.00058680994 -0.02090726 0.015102844
00000000: 89aa f03c bd8e 49bd 7f1a 30bc fc9f f5bc
00000010: befd 03bd 470e 193c b0a8 0a3d e8c4 3f3c
00000020: d0f3 d0bc a820 303c 6a23 923c 9a00 7b3b
00000030: 3df8 e53c 2d8c b4bb 9e32 bdbb 3ca1 e8bc
00000040: 24bc 4abd 979a b93b abd8 2d3c 42c0 ddb9
00000050: 40cc 01bc 3d1d 5fbd c3bf ce3c 6ac7 133d
00000060: 9fc3 543b f7b4 e13c 0b78 133c f7c7 483c
00000070: 61ea c93c 039d 733b f974 023b 334c 31bd
00000080: 0d3a 933c b18c 79bc dcf1 a6bc a531 3c3d
00000090: ee3c 1c3c a6c4 aa3c 4802 96bb cbc2 493c
000000a0: cff1 d63c ec7a 7f3c ed28 ecbc d4fa 0d3d
000000b0: e287 c33b f396 9fbc 81c7 8a3b 2925 a43c
000000c0: e6c8 2b3d 04f7 203c 647c 8f3c de7f a13b
000000d0: b1cc 413c 9edb 81bc f612 debc f160 1c3d
000000e0: 8bd4 71bc 1381 8ebb f73a d53c dde2 a23b
000000f0: 2473 ee3c 5aa3 66bc 94b3 ccbc f446 2cbc
00000100: a746 15bb 02fe ca3b 7722 e4bc 8262 59bc
00000110: bad0 4abd 17c9 2d3d f1eb 023c 7bd2 2bbb
00000120: ad5c 85bb d0f5 8ebb c537 2abc 94f1 573b
00000130: f066 49bd 1ad8 54bc f0eb 54bc 5263 ca3b
00000140: a9c3 55bc 0f25 06bd bed2 f83c 104f 09bd
00000150: 52cf 743c 527c 39bd c353 8e3b c0c1 bf3c
00000160: a630 ccbc b157 d63c 58f8 32bc db5b 7d3c
00000170: f4ba 883c c93b 1d3c fdbe babc f631 84bc
00000180: 3798 cd3c 3692 2abd b3f1 19bb 4605 13bc
00000190: 1c17 ecbc 063b 0c3d 3494 af3c 9107 c4bc
000001a0: e5ff 133d 1fd5 a83c 8e15 ebbc 8aa7 4f3c
000001b0: 35a5 d5bc 1d46 71bd 682f 6c3c 72c4 3dbc
000001c0: d478 6cbc d800 ddbb 503b dabc fecb b53b
000001d0: 7167 44bc d54b f0bc bcbd 013d c8c3 f9bb
000001e0: 265a 93bc ec0d c13b caa7 093d a42b 54bb
000001f0: e58c c93c c516 e7bb 0c49 04bd 7993 073d
00000200: fad9 a7bc c31a de3a 2aae 5abc c7a9 fc3c
00000210: 6326 fb3c 97bc 51bb cb0f 633b d00b 0b3c
00000220: 2be3 493d caa1 393c 3a1e 73bc 50ac 98bc
00000230: 4679 cc3c 0d11 f03c 0542 ae3c 5e87 16bc
00000240: 5a60 5dbc 1dd1 a43b 74b1 44bd 2e24 f13b
00000250: c13d 41bb 14ca 0dbb f7b1 60bc a921 6e3c
00000260: 9d40 66bc 92b8 bebc 75d6 c7bc c898 423d
00000270: efe2 ac3b 0d7d 773b 3cc1 c0ba 4cf7 e73c
00000280: a7f8 bcbc cdc8 443b 4339 37bc 8e5f e4bc
00000290: 1e8f 183d 5f72 7abc f020 d2bb a248 193b
000002a0: f7c7 00bd 63d9 4dbc a82b 3cbd aca4 993c
000002b0: 0001 f3bc de57 a63b 5e99 4fbc 89bc d1bc
000002c0: 8679 233c f580 83bc 4275 72bc 0f6b febb
000002d0: 03a5 353c 7a98 eb3c d32e b33c f066 90bc
000002e0: 9eb7 cb3c 81cf 1cbc 6616 c3ba 004d d6bc
000002f0: 4f75 25bd 7641 c039 6532 51bd 2a35 6fb9
00000300: 5843 ce3a 0030 49bd 9f5c 6abc aac0 19bc
00000310: 7f20 a83c 6f86 2a3d c88b 243d 5a11 98bb
00000320: 59c5 043d 8223 523c 063d d9bb 501f afbc
00000330: 0737 abbc b5dc 57bc ec09 dbbc 87f3 03bb
00000340: a0f8 9c3b bb3e 2ab9 d426 2bbc c008 473d
00000350: 8740 1e3d 3833 0dbc 0257 653d afdd 8a3b
00000360: 5463 2c3c 320c 30bc f459 163a 4dd2 a23c
00000370: 9d8e 3cbc 479e 26bc ca98 003d 6c09 89bd
00000380: 7557 4c3d 47ac 833c 5d88 153d 53a1 0d3d
00000390: a4f2 e5bc 7a5b 32bc 97aa 4dbc c483 03bd
000003a0: db83 cebc 57c4 87bc 3b73 e93b f97f d9bc
000003b0: b618 083d 8f7f 88bc e253 31bc 016e a53c
000003c0: 3733 37bc 1226 3ebb ce8e b63c 00ed e7bb
000003d0: 6654 993b d71d 5fbb 9ba3 de3c f08c 08bd
000003e0: 4a60 fd3b 92ea 11bc 190f e4bc d946 843d
000003f0: 7e70 6fbc 26d4 193a b445 abbc eb71 773c

classify.bias f4 [2]
0.0074585103 -0.013303028
00000000: 8566 f43b f2f4 59bc
