notebooks/outputs/temp_B06_fold1_last.pth (torch, 12776 bytes, 18 tensors)

conv_temporal.weight f4 [8, 1, 1, 64]
00000000: f996 c8bd 27ef 44bc dad6 8cbd af49 e4bd
00000010: ffe8 84bd 90a6 0cbd 6d3c afbd 02a7 273d
00000020: fd51 4c3c 3d0a eebd 3105 fbbd caa2 cebd
00000030: 36bd c93d d64e e73d 2b3c ac3c a6c1 063d
00000040: 29a3 f03d de19 843d 6311 223d 314a 0fbd
00000050: 4d35 483c 9500 f93c afad d93d 2aa9 e43d
00000060: b55a cfbd 824a 6dbc ba5c 8b3c 1b5f f3bd
00000070: 3b62 2bbd 0682 033d 4ff0 b3bd 6d83 0d3d
00000080: aae3 2dbd 745d fbbb adca 203d f215 9bbc
00000090: 887e 983d 3a46 afbd 68ad 7a3d 3683 c63d
000000a0: f017 79bd ea83 17bd e6a5 133a b600 cd3d
000000b0: 9f3e b9bd 38ab 093d 1b17 4a3d 358b cebd
000000c0: c3d6 e1bd 56dd f9bd f6ff 983c 88fe 4d3d
000000d0: afa9 e7bc b333 90bd daa0 bf3d 17cd 8abd
000000e0: 83a2 093c 6f86 cabc 7538 133d 407d 973d
000000f0: 54c2 7f3d 9c53 833d 7752 8c3d e2cd a33d
00000100: d0fa ddbb e004 15be d5cf 2cbd 5846 6d3c
00000110: 0edc 05bd ab1a 16bc 6d61 76bd 915d 26be
00000120: 4e6a 6fbd 2226 de3c 0273 a33d 060e c83d
00000130: 6629 a23d 8cad 33bd ceee a03d 91c1 0bbd
00000140: 7cf3 213d ecd8 08bd 7106 a9bb c010 763d
00000150: 4361 213c 9f6f 193e a1b7 4fbd c1d2 febc
00000160: 998a 063e c129 9abd ece0 6cbd 6484 acbd
00000170: f86c be3d 81b1 443d 5cc8 8ebc f5c6 d0bc
00000180: 3f99 073c e019 833d bdec 0fbb 603e c8bd
00000190: bb6c 67bd cea5 d53d a449 e1bc b3a8 acbb
000001a0: be9a b13d ede3 1abc 043a 15bd 9fb4 bd3d
000001b0: 99e3 c6bd 2fdf 88bd bade 14bd 8876 0c3d
000001c0: cdaa 1c3c 5e69 c63c 7d26 fdbc c514 ac3d
000001d0: 6f1c b3bd 66b2 babd 081b bcbd 9a01 4bbc
000001e0: 5f45 7b3d 3a1a 243e ac7b b7ba 4fe2 703d
000001f0: 8183 c13c 00a2 9a3d aa7b 37bd 82bf b23d
00000200: 3b45 693d 3a90 293d e677 08be 8a65 12be
00000210: 9b01 ebbd 52cc 5ebd 6711 c6bd b114 bc3b
00000220: 215d 923c 57b1 02be 8561 b23c d70e 87bd
00000230: e092 2bbc 53e7 b8bd 8e2b 6c3c b57b 80bd
00000240: 9577 ec3d a93f 083e 728e ff3d c8f6 3bbd
00000250: 1b8a 8c3d 57f7 4d3d 6fe9 eebb 06df b0bd
00000260: 6097 153d b51b c1bd 7f64 9fbc 9f15 f23b
00000270: c6e5 8ebd 197d 67bd d8b5 a0bd a024 6b3c
00000280: 889e d9bc c2bc c8bc e569 b5bc c97d 5cbc
00000290: 2028 54bd 11a6 9f3d 16ec e53c d03f c23d
000002a0: b049 f33d 2136 acbc 3675 c3bc 1c3f 25bd
000002b0: 705d a23c 8b3e 10be f9a8 1e3d 9c47 91bc
000002c0: 120f 32bd a2db fbbd d364 163d cfaf 12be
000002d0: 3f38 c1bc 5490 58bd 71ff 06bd 329a 2cbd
000002e0: 8c35 42bd f491 053d 460d 273d c8bc 82ba
000002f0: 4fd0 003d 6725 e13d fe28 debc 0ca3 bc3d
00000300: 0f76 cb3c 7464 053d 8aab 903d e942 9bbc
00000310: 23fb d9bc 8233 ec3d f969 17be 7c29 d0bd
00000320: fb1a 6dbd 1f3d 2f3b f924 3a3d ef16 29bc
00000330: 7753 11bd 5f0f 61bd 1ae8 a7bd 17a6 e2bd
00000340: 807b 6dbb 59d3 d83d 58b8 12bd ab09 713d
00000350: f78a 40bd ca12 443d afc6 02bd f2e2 023e
00000360: 662f 99bd 6570 91bd 9132 b93d 7599 9bbd
00000370: 79d7 49bd a848 083e aab5 74bd d516 56bd
00000380: 2e04 ddbc 4002 44bd 016a 73bd cff4 983d
00000390: e223 c6bd 9bbc f13d 0514 c6bc b53f 81bb
000003a0: 65ab 59bc f8fa 41bd e4f8 893c d157 433d
000003b0: c5bb 2c3d 0375 73bd 901b 963d 2cfc ccbd
000003c0: 72c3 833b 7072 bf3d 777e 8ebc de42 f9bd
000003d0: 2585 22be 843a c23d a40d 5dbd cd09 8abd
000003e0: 7686 663c b929 ad3d 6e99 4bbd 576f a53c
000003f0: b05a 29be 01bb cdbd 460a 053e 4f03 c03d
-0.09794421 -0.012019909 -0.06876917 -0.111468665 -0.06489753 -0.034338534 -0.08556447 0.040930755
0.012470719 -0.116230465 -0.122568496 -0.10089643 0.09850542 0.11294334 0.021024784 0.03289952
0.1174987 0.06450246 0.039567363 -0.034982864 0.012219739 0.030395785 0.10628831 0.11165078
-0.10124723 -0.014483096 0.017011989 -0.11883374 -0.041841727 0.032106422 -0.087860696 0.034549166
-0.042453445 -0.0076710526 0.039255787 -0.018931363 0.07446009 -0.085583165 0.06120053 0.09692995
-0.060813844 -0.036991037 0.0005632326 0.10009901 -0.09045147 0.033610553 0.04933844 -0.100851454
-0.11027291 -0.122004196 0.01867674 0.050291568 -0.028279154 -0.07041111 0.09356852 -0.06777399
0.008400562 -0.024722306 0.035942513 0.073969364 0.062441185 0.064124316 0.068516664 0.079982534
-0.006774284 -0.14552641 -0.04219039 0.014482103 -0.032680564 -0.009161632 -0.060151506 -0.1624663
-0.05845099 0.027117793 0.079809204 0.097683 0.079180524 -0.04386668 0.078580484 -0.034120146
0.039538845 -0.033409998 -0.0051582386 0.060074568 0.009849849 0.14983986 -0.05071223 -0.031106355
0.13138808 -0.07527495 -0.05783169 -0.08423689 0.09298128 0.048020843 -0.017429523 -0.025485495
0.008276283 0.0640142 -0.0021961175 -0.09777522 -0.056500178 0.10432015 -0.027500935 -0.005269134
0.08672093 -0.009453756 -0.03643228 0.09262966 -0.097113796 -0.06683194 -0.03634522 0.034292728
0.009562206 0.024220165 -0.030902142 0.08402399 -0.08745658 -0.09116058 -0.09184843 -0.012390519
0.061345454 0.1602563 -0.0013998649 0.058809575 0.023622276 0.0755043 -0.04479567 0.087279335
0.05695079 0.04139731 -0.13326988 -0.14296547 -0.114749156 -0.054394074 -0.09671288 0.0057397713
0.017866673 -0.12762962 0.021775017 -0.06594627 -0.010472029 -0.090284966 0.014414681 -0.06273595
0.11546246 0.13305534 0.12478341 -0.045889646 0.06862279 0.05028471 -0.007291011 -0.08636288
0.036521316 -0.09429113 -0.0194571 0.0073878313 -0.069774196 -0.056515787 -0.07847184 0.014351994
-0.026564851 -0.02450407 -0.022145221 -0.013457724 -0.05179608 0.077953465 0.028066676 0.094848275
0.11879289 -0.021021904 -0.023859601 -0.04034339 0.019819945 -0.14086358 0.038735364 -0.017734341
-0.043471403 -0.12297751 0.036717247 -0.14324878 -0.02358639 -0.052872017 -0.03295845 -0.04213924
-0.047414348 0.032609895 0.040784143 -0.0009974474 0.03144866 0.10993462 -0.027119156 0.09210786
0.024836568 0.032566503 0.070639685 -0.018952804 -0.02660901 0.11533262 -0.14786519 -0.101641625
-0.05788706 0.0026739312 0.045445416 -0.010320409 -0.03547999 -0.0549463 -0.08198567 -0.110668354
-0.0036236942 0.10587186 -0.035820335 0.05884711 -0.047007527 0.04786948 -0.03192776 0.12781885
-0.07479744 -0.07101516 0.09042848 -0.07597629 -0.049277756 0.13308966 -0.05974356 -0.052267868
-0.026979532 -0.04785371 -0.059427265 0.074685685 -0.09674813 0.11803552 -0.024179468 -0.003944362
-0.013285493 -0.047358483 0.016842313 0.04769117 0.04217126 -0.059437763 0.07329476 -0.100090355
0.0040211016 0.09347999 -0.017394288 -0.12170957 -0.15871103 0.09483817 -0.053968087 -0.067401506
0.014070144 0.084552236 -0.04970687 0.020194693 -0.16538501 -0.10045434 0.129922 0.09375631

bn1.weight f4 [8]
00000000: c374 103f d167 103f 7089 103f 6f74 103f
00000010: ae84 103f 006e 103f 4179 103f 6f9d 103f
0.56428164 0.5640841 0.56459713 0.56427664 0.56452453 0.56417847 0.5643502 0.56490225

bn1.bias f4 [8]
00000000: bccd cab7 d993 cf36 4fd2 c337 d066 4536
00000010: 1cfc 9fb7 413a cc34 e424 f137 cb48 2138
-2.4176079e-05 6.1862925e-06 2.3343744e-05 2.9415132e-06 -1.9071675e-05 3.8040346e-07 2.8746617e-05 3.8453185e-05

bn1.running_mean f4 [8]
00000000: 2818 12ba 3fa2 2cb9 d1f1 7bba 2b03 0eba
00000010: 10d0 7c38 0ca2 6dba 8c97 0039 dcd8 dcb9
-0.00055730576 -0.0001646364 -0.00096109236 -0.0005417342 6.0275255e-05 -0.00090649794 0.00012263487 -0.00042123243

bn1.running_var f4 [8]
00000000: 5d0f 353f d1db b73e e8d9 463f 3700 593e
00000010: 3a18 283f b9e8 ab3e 27de 353f f5aa ed3e
0.7072657 0.35909894 0.7767625 0.21191488 0.65661967 0.3357599 0.710421 0.46419492

conv_spatial.weight f4 [16, 1, 3, 1]
00000000: 7f58 d8bd f5de 073f daf2 563e 1d8d f1bb
00000010: 7abb d1be 3f83 9c3d 6420 3f3e a375 a33e
00000020: 39ec af3c 9586 17bd 17d1 6cbe 241b c7bd
00000030: de14 36bd 488b 8dbe 6f11 e83d 3fed 97bd
00000040: 8c51 cf3e e5b7 20bd c669 583e b00d 10bf
00000050: ba9e fabb ff96 11be a419 093f fd2f fb3d
00000060: 3148 c53d bede cebe dd04 41be ea7b 61bd
00000070: 663f 00bf aa3d 653e 9a74 bbbe af5d f03d
00000080: c7d2 eabe b629 e73e 4f0a 9abd bc3a 8d3e
00000090: bf9a 803e a075 143f 6017 b2be 6764 6e3e
000000a0: 96c3 023d a1f0 133e acfc 59be f83f f3be
000000b0: dda0 933e 9ca5 26be bb06 be3e 70f9 033d
-0.10563754 0.5307458 0.20991078 -0.0073715583 -0.40963346 0.07642221 0.186647 0.31925687
0.021474944 -0.03699358 -0.23126636 -0.097219735 -0.044453494 -0.27645326 0.1133145 -0.07418298
0.40491903 -0.039237875 0.211341 -0.56270885 -0.007648316 -0.14217757 0.5355475 0.122650124
0.0963291 -0.40404314 -0.18849511 -0.055049814 -0.5009674 0.22386804 -0.36612397 0.11736619
-0.45863935 0.4514901 -0.075214975 0.27583873 0.25118062 0.5799198 -0.3478346 0.23280488
0.031924807 0.14447261 -0.21287793 -0.47509742 0.28833666 -0.16274112 0.3711451 0.032220304

bn2.weight f4 [16]
00000000: a25b 623f 47bd 843f db36 593f a3cf 6a3f
00000010: f7be 803f f0fa 953f cec0 933f f1ee 833f
00000020: ade1 603f 0854 943f e233 7e3f c5c4 5e3f
00000030: 82cf 883f 5ae5 6a3f 30be 953f 670e 853f
0.8842107 1.0370263 0.8484933 0.9172308 1.0058278 1.1717205 1.1543214 1.0307294
0.87844354 1.1588144 0.99297917 0.87018996 1.0688326 0.9175621 1.1698666 1.039502

bn2.bias f4 [16]
00000000: c1e4 d9bc 37ad e6bd 3e20 0bbd 58e5 d1bd
00000010: f67f e0bd 5514 3bbe 4cc1 4bbe cb8a 1dbe
00000020: 2313 32bd db3d 39be 1e63 84bd f0b7 57bd
00000030: 91bf fbbd 3c46 c5bb 8307 33be 6af6 d5bd
-0.026598336 -0.11263507 -0.033966295 -0.10248822 -0.109619066 -0.18269475 -0.19897956 -0.15384977
-0.04347528 -0.18090002 -0.064642176 -0.05266565 -0.12292398 -0.0060203355 -0.17483334 -0.104473904

bn2.running_mean f4 [16]
00000000: cf82 86b7 799d cb37 dea2 4fb7 990a 1136
00000010: b20a b937 daea 70b7 b88e 65b8 535a 5c38
00000020: 3394 70b7 b010 cfb7 28ec 4c38 9e48 48b8
00000030: 7dad 21b7 650a d437 6b88 5538 a937 6636
-1.6034957e-05 2.4272815e-05 -1.2376082e-05 2.1612852e-06 2.2058699e-05 -1.4359795e-05 -5.473077e-05 5.253621e-05
-1.433962e-05 -2.4684094e-05 4.8857328e-05 -4.7751346e-05 -9.636741e-06 2.527721e-05 5.0910206e-05 3.430507e-06

bn2.running_var f4 [16]
00000000: 8838 df3d 43b8 233d c27a 9e3d e9a4 103d
00000010: 7312 9a3c 2da8 053d f5de 8f3d 4742 bf3d
00000020: 63ce 903d 520d 823d 15db 183e bf3c f43d
00000030: 4f81 db3d 05fb 443d 882d a03d 92ca d63c
0.10899454 0.039970648 0.07738258 0.03531352 0.018807625 0.032631088 0.070249476 0.09338813
0.07070615 0.06350197 0.14927323 0.11925649 0.10718023 0.048090953 0.078211844 0.02621964

conv_separable_depth.weight f4 [16, 1, 1, 16]
00000000: 2648 6bbc b826 fb3c 389a 09bc 0b57 d53d
00000010: cb3d 00be 25c8 3cbe d21d c4bd 46b7 153e
00000020: dc32 233e a49f 36be d44f ffbd 4e3d cabd
00000030: 92a1 ccbc 35e7 6dbe c2f8 383e 1b12 2ab7
00000040: fa53 433d 0ea0 4bbe 69ec 833d 271f 1bbe
00000050: 6d7d 42be 6898 5fbe 9244 bc3c 80de c2bd
00000060: 3e68 f7bd 3aac 85be a4e4 7d3d 6bbc 1a3e
00000070: ae0f 49be 6a87 9bbd 5f7e 873d 8afa 15be
00000080: 4ef5 c13a a971 a63d 80c1 c3bc 1583 98bd
00000090: 5b1b 01be abc5 b8bd 512b d23d e1ae 46bc
000000a0: ab02 41bd 62ab 053b 323d a83c 2f95 683e
000000b0: e519 793d 1d08 e63d 44e8 a53d e505 363e
000000c0: f7df 20be 49cd e4bd 1acb 95bd 0a79 c3bd
000000d0: bb1c 2e3e 3b1f 59bc d999 513e a773 a6bd
000000e0: 3706 133d 20e4 fcbd 2b73 03be 2828 eabd
000000f0: f874 57bc aba8 ecbd 8ea4 2cbe ec0d 2e3e
00000100: 4aa3 5f3e 156f dfbd 9dc5 fb3d 7def 24bd
00000110: 1d32 183e d61a cebd 9f7a cb3c 1960 853e
00000120: 9233 ae3d 44c8 353e 43e5 313e 818b 033e
00000130: aeab 033e fc67 d0bd 09b1 4d3a c27b adbd
00000140: 088b 8bbd 8f0b 8bbe 2474 89be 4549 ed3d
00000150: bd65 4cbe 0f0f 1ebe 99aa 47be 5645 ae3d
00000160: 4d50 42be 06ca 01bd 8ce9 17be c5f1 ec3d
00000170: 1ccc 3bbd 26b7 04be 3d9b 91bd 3b46 03bd
00000180: ce0d 9e3b a4e7 403e c0d1 a73e 1f6e f83d
00000190: 0da5 4f3e 0f26 c4bd 847a 283b 04f4 aa3e
000001a0: f1f6 e8bd 2b65 dabd 7b08 4d3e d533 473e
000001b0: 4234 513d f064 413e 3d3b 5a3e 2ba8 bc3b
000001c0: f54b 93bd dbf3 73be fe53 c7bd 9a72 283e
000001d0: b83f 053c f59d 85bd 0cbd 54be 5396 a2bd
000001e0: 4838 48be 831f 8c3d 3028 d8bc b91b 65be
000001f0: 941d 93bc 869e 5dbe 5db4 dc3d 94ec 91bc
00000200: a7f3 273d 2f55 e93d 8f4c f2bd b956 25bd
00000210: 0228 2fbe 86ec 51be 8aa1 f13d d24f 853d
00000220: abb9 30be a32d 16be bf6a 353e 4afe 3e3e
00000230: 12f5 a6bc a49a 1f3e fd5e ed3d 7bec 373e
00000240: a174 9abe 2247 61bd 90fb 153c ffe5 d33b
00000250: c2c6 57be c2d9 86be 466e 19be 5e4e 35bd
00000260: a1ed 403c e190 d2bd fadb a6be 3862 7fbd
00000270: 53fb 74be 1293 5cbd 161b 6c3d 1635 fabd
00000280: 1e89 0ebe bc48 b73a a606 67be 0787 cabd
00000290: 862e f5bd fa70 363e 5ae7 233e 78cb 1a3e
000002a0: d20a 70bd 9b26 e23c a175 1abe c61d 0e3e
000002b0: f48b 043e 6183 313e eb51 6bbe ede5 5abe
000002c0: 0cfc 933d 599c 14bc eb01 0e3e 878b 35be
000002d0: 0918 f0bd 08a0 3fbe 3df3 f8bd 5038 893d
000002e0: 838f 4d3d d2d8 2f3d b9b0 163e f4d0 113e
000002f0: 851a 29be 89df c03d c942 19be 7d16 803e
00000300: 4c1c 203d 3969 cd3d 438e c43d 4463 673e
00000310: e1ae 7ebd 8c4b 1a3e c1c5 763e 1a05 7dbd
00000320: e4d0 0a3e 8e4a 4e3e 51d4 9f3d 84ba 3d3e
00000330: 160f c0bd 604a 683e 10f4 04bb 51ff fa3d
00000340: 70b5 9ebd 2ea7 02be 9e97 0fbe 1898 703e
00000350: ef54 723e 1e68 d53d 4015 7cbe c2ec ca3d
00000360: 4682 0dbd d82d 85bd b15b 6f3e 71c5 5bbe
00000370: 2f1d 0cbe 07c2 593e baea d23d 8a89 683b
00000380: 2d0e b4bd f817 353e 1631 563e e5c9 c53a
00000390: 647a 203d 2816 8c3e 1860 4a3e 60e0 753b
000003a0: 2fb4 903e 5b16 95bd 77da edbd aefc fd3d
000003b0: 5982 7a3e 8bdb 2f3e bb9c 093e 2976 38be
000003c0: 9554 5e3e da40 8d3e 6b51 4d3e 0a2a 103d
000003d0: 6cc7 703d c831 db3d f62b 463e 0bf2 733e
000003e0: 7882 46bd 8900 303e ab89 15be 606d 0bbe
000003f0: fd34 993d 7006 5e3e 6852 ce3d 438d c43d
-0.014360463 0.030658111 -0.008398585 0.10416993 -0.12523572 -0.18435724 -0.09576 0.14620695
0.1593737 -0.17834336 -0.12466398 -0.09874974 -0.024979386 -0.2323273 0.18063644 -1.0137005e-05
0.04768751 -0.19885275 0.06441576 -0.15148602 -0.18993159 -0.21835482 0.022981916 -0.09515095
-0.120804295 -0.2610796 0.061985627 0.15110938 -0.19634888 -0.075941876 0.066159 -0.14646354
0.0014797838 0.08127148 -0.023895979 -0.07446877 -0.12608092 -0.09022077 0.10262168 -0.012126655
-0.047121685 0.0020396342 0.020536993 0.22713159 0.06081571 0.11232016 0.08100942 0.17775686
-0.15710436 -0.111719675 -0.07314129 -0.09544571 0.17003147 -0.013252075 0.20468844 -0.08127528
0.0358946 -0.12348199 -0.12836902 -0.114334404 -0.013150446 -0.11555608 -0.16859648 0.16997498
0.21839634 -0.10909859 0.12293551 -0.040267456 0.14862867 -0.10063712 0.024838744 0.2604988
0.0850593 0.17752177 0.17372613 0.12846185 0.1285846 -0.101760834 0.00078465097 -0.084708706
-0.068136275 -0.27157256 -0.2684642 0.11586241 -0.19960685 -0.15435432 -0.19498672 0.085093185
-0.18975945 -0.031686805 -0.14835185 0.115695514 -0.04584895 -0.1296049 -0.071096875 -0.0320494
0.004823423 0.18838364 0.32777214 0.12130379 0.20277806 -0.095775716 0.002570779 0.33389294
-0.11375225 -0.106638275 0.20022766 0.19453366 0.051075228 0.18886161 0.2131166 0.005757352
-0.07192222 -0.23823492 -0.09732817 0.16449967 0.0081328675 -0.065242685 -0.2077524 -0.07938828
-0.1955272 0.06841948 -0.02638635 -0.22373857 -0.01795844 -0.21642503 0.10776589 -0.017813005
0.04100385 0.113932006 -0.11831009 -0.04036591 -0.17105106 -0.20500383 0.11798389 0.06509365
-0.17258327 -0.14665847 0.17716502 0.18651691 -0.02038053 0.15586334 0.11590383 0.17961304
-0.30167106 -0.05499948 0.009154215 0.0064666267 -0.21071914 -0.2633801 -0.14983472 -0.04426419
0.011775405 -0.1028154 -0.32589704 -0.062349528 -0.23923998 -0.053851195 0.05764302 -0.122171566
-0.13919494 0.0013983469 -0.2256113 -0.09889036 -0.11971764 0.17816535 0.16006222 0.1511668
-0.05860407 0.0276063 -0.15083934 0.13878545 0.12944013 0.17335273 -0.22980468 -0.21376772
0.072258085 -0.009070479 0.13867919 -0.17729007 -0.11723334 -0.18713391 -0.12155769 0.06700194
0.05018569 0.042931385 0.14715852 0.14239866 -0.16514023 0.09417636 -0.14966883 0.25017157
0.039089486 0.10029835 0.09597447 0.2259646 -0.062178496 0.15067881 0.24098875 -0.061772443
0.13556248 0.20145628 0.07804168 0.18528181 -0.093778774 0.22684622 -0.0020287074 0.12255729
-0.0774945 -0.12759086 -0.14022681 0.23495519 0.23665212 0.104202494 -0.24617481 0.09908439
-0.034548067 -0.065028846 0.23374821 -0.21462037 -0.13683008 0.21265422 0.10298677 0.003548237
-0.08791766 0.17684925 0.20917162 0.0015090076 0.03917922 0.27360654 0.1976322 0.003751777
0.2826247 -0.072796546 -0.116139345 0.124017105 0.24463786 0.17173593 0.13438694 -0.18013825
0.21711953 0.2758854 0.2005059 0.03519634 0.058783934 0.107028544 0.19352707 0.23822801
-0.04846427 0.17187704 -0.14603297 -0.13615942 0.0748081 0.21682143 0.100743115 0.09597256

conv_separable_point.weight f4 [16, 16, 1, 1]
00000000: 010f a7bd a51c 40be fff9 303e de07 3ebe
00000010: bb32 c43c 94fe ac3d f433 503e 856b 0bbe
00000020: 181b 06bd a86b 5bbe b22c eabd ef31 6e3d
00000030: 449f dfbc 70dc 22be fcf4 763e c55f 95bd
00000040: 5641 2cbd aa0e b0bd 48a5 193e d4e2 053e
00000050: 470f 06be 10c3 c03d 71f8 81be d646 65bd
00000060: d159 90bd 1b43 b4bc b869 07be 458d 99bb
00000070: 4797 30bc d61f 32be 8459 4bbe b66f 8fbd
00000080: 09ca 973c d432 483e 74bd 3a3e 631f 12be
00000090: 05db a03d 784a 2b3d 6725 c5bd fd67 e23c
000000a0: ed9d 0f3e e91e 473e a3da 3f3e 350c d53d
000000b0: 506f 40be 6afd 84be 4898 8abd 082d 4fbe
000000c0: d213 86bd e052 59be 5ba9 acbd 9aad 41bd
000000d0: 1018 d5bc 4550 95be cd92 80bd 7759 80be
000000e0: 9c2a 063e 4a87 5abd 274f 163b 7a92 37be
000000f0: 8e2a 113e 2af5 45bd d9da 853e c67f 323e
00000100: 4abf 593e d5ca 893d 5f2d 933d 8ac2 103c
00000110: 654c aebd 22e7 5a3e 498a b1bd 33f0 a23d
00000120: 2da4 12be d58d c2bd c24f 2d3e 8d49 973d
00000130: fcad 27be dc8e 273e a791 cebd cb96 57be
00000140: 67d0 96bd c26e 14bc 5740 033b 1411 99bd
00000150: f026 523c cbac 173e df9f 86be 8416 7bbd
00000160: 5e14 803e 61bb 8d3e 4dcb a1be 374f c1bd
00000170: fcda f03d ac68 abbe 3300 ebbd 3948 243e
00000180: 6312 013e ab28 54bd a8ba f8bd 7987 113e
00000190: 9565 83be 6b85 963e 5fea 8ebe 67c8 05be
000001a0: 0197 33be fcb1 8f3e 2ef7 913d f49a df3d
000001b0: ef90 c7bd db1c 81be 21b0 c63d 642e 38be
000001c0: 7381 e73d 8f70 b83d c62e 633d 98f3 363d
000001d0: 7085 a4bd a2e3 d03d 92bc 64be 3f10 3c3e
000001e0: 6586 1e3e b124 8d3e 73c3 47be 44c1 1c3e
000001f0: a5fb 02be a6c3 833d 9a73 23bc eba6 21be
00000200: a57b 4d39 923d babd a721 16bd 535b 8d3d
00000210: 9e96 613d fa47 223e 81c8 b4bb 9863 20bd
00000220: 24a4 da3d 6c8f 1abe 1529 52bc c3e0 a23c
00000230: 82e6 6e3d 3263 8ebd a2ca c83d e55e e83d
00000240: 155a 75bd 2975 813d 5ad8 0f3e 8d98 44be
00000250: a6e1 db3c 494a 24be ef9e 883e a177 8e3d
00000260: d1d7 dbbd 0c18 84be 91b5 35be 041c 5a3d
00000270: e3f2 2c3e 6c45 d1bd efc6 5a3e 12a5 33be
00000280: 4d3b 343e c38f c53d 2720 083d 0f3c 5f3d
00000290: 808e 553e 0086 91be 79af a73d 3140 65bd
000002a0: 2c9a 9ebd e5c1 ddbd 2bc5 86bd 777c 39be
000002b0: 6e44 013e a052 25bd 92b8 2a3e 61e9 2d3e
000002c0: 384f 30be 6778 cb3d 094a 853d 7798 13bd
000002d0: 4adc 1d3e d84a 50bd 3296 fc3d b8ea 673e
000002e0: e8e5 05be 0bcb 4b3d 720d 243e 7363 82be
000002f0: b721 aabd 57a6 903c 3de9 0bbe a987 293e
00000300: 34c9 333e 56f0 fc3d 935e 16be c2aa 0ebc
00000310: 25b7 a7bd daf2 cf3d 2f38 07be eeb7 ab3d
00000320: df77 59bd 98af 903c be9f 6c3e c286 463e
00000330: 17bd 81bd a495 023e db4c 983d 4c85 8ebe
00000340: 60e5 acbd b030 34be 32c5 e43d e92e e1bd
00000350: 88f5 ae3d 065e 8fbe f686 cf3d cd32 92bd
00000360: e61b c93c d85e 4ebe 0edd abbd b2b5 57bd
00000370: 10e1 563e b8c3 813c 76ad 533e 300c da3d
00000380: cdee 54be bb73 ec3c b157 cd3d 5be4 92bd
00000390: 42e4 6bbd 6e8a dbbc 7cd3 12be 3c18 253e
000003a0: c9a9 21be c6b8 a63d 7ea0 ddbd 7aad 03be
000003b0: 7d06 0ebb 62ac 87be eb9f 14be c5e0 a23d
000003c0: 2708 3ebd db33 0bbe 71b4 e73c 0c50 553d
000003d0: 256a 8c3e 61e1 d1bc 5123 1f3d 96a0 9c3c
000003e0: 3b05 aa3c 6205 7cbc dfbc 1cbe 5dcc 973d
000003f0: 8332 05b9 74f3 a63c c72d 933e 1759 123e
-0.08157159 -0.18760927 0.17282866 -0.18557689 0.023949971 0.084469944 0.20332319 -0.13615234
-0.032740682 -0.21427786 -0.11434306 0.05815309 -0.027297623 -0.15904403 0.24116892 -0.07293657
-0.042054497 -0.08596547 0.15004456 0.1307481 -0.13091765 0.09412205 -0.25384858 -0.055975758
-0.07048381 -0.022004655 -0.13223922 -0.00468603 -0.010778255 -0.17394957 -0.19858366 -0.07003729
0.018528955 0.1955064 0.18236333 -0.14269786 0.07854275 0.041819066 -0.096262746 0.027637476
0.14025088 0.19445385 0.18735747 0.10402719 -0.18792462 -0.2597459 -0.067673266 -0.20232022
-0.06546749 -0.2122302 -0.084307395 -0.0472847 -0.02601245 -0.29162803 -0.06278 -0.25068256
0.13102192 -0.053351678 0.0022935362 -0.1792697 0.1417639 -0.04832951 0.2614353 0.17431554
0.21264377 0.0672814 0.07186388 0.008835444 -0.08510665 0.21377233 -0.08668954 0.079559706
-0.1432044 -0.094997086 0.16924956 0.073870756 -0.16374964 0.1636309 -0.10086375 -0.21053617
-0.07363968 -0.00905961 0.0020027363 -0.074739605 0.012826666 0.14812009 -0.26293847 -0.06130077
0.2501554 0.2768202 -0.3160042 -0.09438937 0.11760518 -0.33478296 -0.114746474 0.16043176
0.1260467 -0.051796596 -0.12144977 0.14211835 -0.25663438 0.29398665 -0.27913186 -0.13064729
-0.17538072 0.2806548 0.07127224 0.10918227 -0.09744441 -0.25217327 0.09701563 -0.17986447
0.11303987 0.09005844 0.05546453 0.044665903 -0.08033264 0.101996675 -0.22337559 0.18365572
0.15480955 0.27567056 -0.19508152 0.153081 -0.12791307 0.06433801 -0.009976292 -0.1578633
0.00019596385 -0.09093775 -0.036653187 0.06902184 0.05507528 0.1584777 -0.005517066 -0.03915748
0.106758386 -0.15093774 -0.0128271775 0.019882565 0.058325298 -0.06952514 0.09804274 0.11346225
-0.059900362 0.06321175 0.14047375 -0.19198819 0.026840996 -0.16043963 0.26683757 0.06956411
-0.10734523 -0.25799596 -0.17745043 0.053249374 0.16889529 -0.10218319 0.2136495 -0.17543438
0.17600746 0.09646561 0.033233788 0.054500636 0.2085514 -0.28422546 0.08187766 -0.05596942
-0.0774425 -0.10827998 -0.065805756 -0.18113886 0.1262376 -0.040362 0.1667197 0.16983558
-0.1721772 0.09935074 0.06508262 -0.036034074 0.15416065 -0.050852627 0.12333335 0.22648132
-0.13075984 0.049754184 0.16020754 -0.254665 -0.08307212 0.017657442 -0.13663192 0.16555656
0.17557222 0.12350528 -0.14684515 -0.008707704 -0.08189229 0.10153742 -0.13205026 0.08384691
-0.053092834 0.017661855 0.23107812 0.19387344 -0.06334894 0.12752396 0.07436534 -0.27836072
-0.08442187 -0.17596698 0.111704245 -0.109952755 0.08542925 -0.28001422 0.10133164 -0.07138596
0.024549436 -0.20153368 -0.08391772 -0.052663513 0.20984292 0.015840396 0.20671639 0.10646856
-0.2079422 0.028863778 0.100264914 -0.071724616 -0.05759073 -0.026799407 -0.14338487 0.16122526
-0.15787424 0.081407115 -0.10821627 -0.12859145 -0.0021671348 -0.26498705 -0.14514129 0.07953028
-0.046394493 -0.13594 0.028284283 0.05207829 0.27424732 -0.025620164 0.03885204 0.019119542
0.020754447 -0.015382143 -0.15306424 0.07412026 -0.00012702685 0.02037976 0.28745863 0.14291798

bn3.weight f4 [16]
00000000: 8b8c 833f cbd1 663f b4b4 843f 50af 853f
00000010: af3d 853f 40c8 833f 297c 833f a6f0 863f
00000020: c38f 643f 9ac4 863f 7abc 823f 4d40 733f
00000030: 268b 863f 42ad 853f 5b2a 803f dd9e 7f3f
1.0277265 0.9016387 1.0367646 1.0444126 1.0409449 1.0295486 1.0272266 1.054219
0.8928186 1.0528748 1.0213768 0.9501999 1.0511215 1.0443499 1.0012926 0.9985178

bn3.bias f4 [16]
00000000: c28f 25bd dbf0 8f3c 473a 4d3d 75d7 fcbc
00000010: e7e2 2b3d 4e98 3d3d a84d 303d a859 0d3d
00000020: fb0a f4bb 945f 1fbd 453a 16bd 76e5 233d
00000030: 55e8 493d ba7c 15bd 4607 0c3d 853b 32bd
-0.0404203 0.017570904 0.050104406 -0.030864457 0.041964438 0.046287827 0.04304281 0.03450933
-0.007447598 -0.03890951 -0.036676664 0.040013753 0.049293835 -0.0364959 0.034186624 -0.043513793

bn3.running_mean f4 [16]
00000000: 6be1 913d d22c 33bd 19d6 b8bd 88a1 fc3d
00000010: 6e4f c9bd ac7d 16bc e466 02be ee7f c1bd
00000020: 30b4 293d d122 9d3d b4da b73d 80f8 4e3a
00000030: 533f bcbd 5db6 183e 6383 99bc 99b8 ba3d
0.07123073 -0.043743916 -0.09025211 0.12335497 -0.09829603 -0.009185236 -0.12734562 -0.09448229
0.041431606 0.07672656 0.08977261 0.0007895306 -0.09191766 0.14913316 -0.018739408 0.091172405

bn3.running_var f4 [16]
00000000: d4e5 933e 51ba d43d 3ef7 173e 3fa5 333e
00000010: 9ae2 113e 847a 7d3e 7c04 7c3e ecb5 393e
00000020: 50a1 4e3d ff24 aa3e 2727 123e c16f 933d
00000030: a8fa 153e 8b89 693e 853f d63d 8baa e53d
0.28886282 0.103870995 0.14840409 0.17543505 0.14246598 0.24753767 0.24611086 0.18135804
0.05044681 0.3323135 0.14272748 0.0719905 0.14646399 0.22806375 0.10461334 0.11214169

classifier.weight f4 [2, 16]
00000000: 55e1 343e d262 24bd 6dc9 b7bd 8540 9b3e
00000010: c52f 58bd 0c4e 7abe 90c4 88be 9738 92be
00000020: 4e18 463e 3d12 503e 88fc 823e 4f7e 293d
00000030: 7530 ac3d 0ec4 313e b455 e4bd 7bdb 663e
00000040: 3d14 4fbe d472 563d fc9e cc3d 7527 2abd
00000050: 8cb5 9a3e 8448 93bd 07dd 5b3c 1397 003e
00000060: aded ce3d b715 82be ef3f a23c 9ad4 5a3d
00000070: 0c87 8b3e 1fc8 11be c526 d53b 030b f2bd
0.17664082 -0.040133305 -0.08973966 0.30322662 -0.05277993 -0.24443835 -0.26712465 -0.285588
0.19345209 0.20319457 0.2558329 0.041380223 0.0840768 0.17359945 -0.11149159 0.22544663
-0.20222564 0.052355602 0.09991261 -0.041541535 0.30216634 -0.07191566 0.013419396 0.1255763
0.10103927 -0.25407192 0.019805877 0.05342541 0.2725147 -0.14236496 0.006504866 -0.118185066

classifier.bias f4 [2]
00000000: af9a 55bd 8a70 18be
-0.05214947 -0.1488668
