notebooks/outputs/temp_B04_fold5_last.pth (torch, 31912 bytes, 18 tensors)

firstconv.0.weight f4 [16, 1, 1, 125]
000000 90 9f a9 bd eb 3e 11 3d e3 89 49 3d 13 fb 8c bd
       -0.08282387 0.035460394 0.049203765 -0.06883826
000010 3e 26 a9 bd 4f cb 8a bd dd e7 8e 3d c8 bb 61 3d
       -0.08259247 -0.06777059 0.06977818 0.055110723
000020 c5 3f 2e bd a7 ab be 3c ab 30 ac 3b 2b d1 b1 bc
       -0.042541284 0.02327521 0.005254825 -0.021706184
000030 53 70 b3 3d 2f 3d ee ba 35 f7 05 bd ce 08 ec 3b
       0.087616585 -0.0018176193 -0.032706458 0.007203198
000040 b4 16 6c 3a 04 1e c2 3d 3d 26 09 bc a5 8c cc bc
       0.00090060686 0.09478381 -0.008370933 -0.024969408
000050 1f f1 ae 3c ae 16 f2 3b 29 5f ae 3d 94 b6 80 bd
       0.02135521 0.0073879575 0.08514244 -0.06284824
000060 f3 c6 3e 3b 7b 83 0d 3d 0d ea 9b 3d 58 61 29 3d
       0.0029110282 0.034549218 0.07613001 0.0413526
000070 0f be 68 3d fc c0 85 bd 5b b4 78 3c 5a b5 3b 3d
       0.05682188 -0.065309495 0.015179719 0.045827247
000080 d0 9c 8b 3d 6e 79 10 3b f3 e1 91 3b 69 68 e2 3c
       0.06817019 0.0022045034 0.004451984 0.027637677
000090 31 08 9e bd 86 8a 46 bb 73 ad 95 3d fc 2a 06 3d
       -0.07716406 -0.0030294969 0.073084734 0.032755837
0000a0 94 0d b2 bc b9 55 b6 bd 53 36 78 3d f6 44 6e bd
       -0.02173499 -0.08903069 0.060598683 -0.058171235
0000b0 58 91 9e bd dd 5b 5d 3d d1 2a 19 bd fa c0 1b bc
       -0.07742566 0.054042686 -0.03739435 -0.009506458
0000c0 2c 07 8b 3d a7 32 25 bd e1 07 82 3b a7 57 4c bd
       0.06788477 -0.04033151 0.0039682244 -0.04988828
0000d0 b2 7c 08 bd ff 8a b0 3c e3 f8 9f 3c fb 55 b3 3d
       -0.033322044 0.021550654 0.019527858 0.08756634
0000e0 a3 4b 31 3d 97 57 15 bd 16 f3 9d bd a7 97 b5 3d
       0.043285023 -0.036460485 -0.077123806 0.08866816
0000f0 da e8 a3 bd 11 b0 90 bd 55 fa ad 3d 50 cc 12 bc
       -0.08003397 -0.07064832 0.08495013 -0.008959845
000100 c0 53 8c bd ed e4 d7 3b 61 89 13 bd 02 7f 04 bd
       -0.068519115 0.0065885694 -0.036019687 -0.032347687
000110 0b 45 32 3d 49 ef a6 3c 45 28 94 3d 70 7e 86 3d
       0.043522876 0.020377772 0.07234243 0.06567085
000120 d2 9e 35 3b 19 5b b7 bd e4 c6 08 bd cf b2 12 3d
       0.0027713072 -0.089529224 -0.033392802 0.035815056
000130 a7 2c d8 bb b6 dd ec bc ef 00 5e ba 1c 10 11 3d
       -0.00659712 -0.028914314 -0.0008468767 0.035415754
000140 cf b6 8b bc ae be 08 3a 21 70 52 bc c6 5e 89 bd
       -0.017054943 0.0005216402 -0.012844116 -0.0670753
000150 6b b4 3c bc 1c 70 29 3c 95 4a 8f 3d 7f 88 4e bd
       -0.011517624 0.01034167 0.06996647 -0.05042314
000160 23 5c fe bc fa 92 a1 bd e7 d9 61 bd 49 45 67 3d
       -0.031049794 -0.07889362 -0.05513945 0.05646256
000170 7b da 3a 3d ec 93 a8 bd 5b b6 07 3d 15 5c 21 3d
       0.045618515 -0.08231339 0.033132892 0.039394457
000180 99 0f c2 3c fe ca dd 3a 5d 30 81 3c d9 37 d9 3c
       0.023689078 0.0016921458 0.015770132 0.026515888
000190 c0 7f 49 bc 95 ca e4 3c 02 30 8a 3d 9a d0 2a 3d
       -0.012298524 0.02792863 0.06747438 0.041702844
0001a0 f1 3e ac bc cc c6 87 bd 7b c0 03 3d b1 19 ee bc
       -0.021026107 -0.06629714 0.032165986 -0.029064985
0001b0 90 be 73 bd 08 6e 5c bc d5 5b 8d bd 98 50 4a bd
       -0.059507906 -0.013453968 -0.06902281 -0.049393266
0001c0 13 ab 07 3b 15 6e c1 ba 90 e1 9e 3d f7 f0 f9 bc
       0.0020701333 -0.0014757538 0.077578664 -0.030510409
0001d0 7a 1c 30 bd 0f c2 07 bd d5 85 9e 3b 70 4e cf bc
       -0.042995907 -0.033144053 0.0048377314 -0.025305957
0001e0 19 3d de bc bc fe f6 3c b9 e6 8a 3d 0c ed 4e 3d
       -0.027128743 0.030150764 0.06782288 0.050519034
0001f0 78 9a 5c bc bf 6d 12 bb 75 24 95 3d 96 6a b7 3d
       -0.013464563 -0.0022343246 0.07282344 0.089558765
000200 82 e5 81 bc d9 f2 15 bd 0f 7a 23 bb 67 cd 1f 3d
       -0.015856508 -0.03660855 -0.0024944579 0.039014246
000210 d6 22 6f 3d 0c 42 66 3d d0 de 90 3d 3f 81 a7 3d
       0.05838283 0.05621533 0.07073748 0.081789486
000220 6b 53 33 3d 60 a2 83 3d 38 5b 2a 3d 45 d4 c9 3d
       0.043780725 0.06427455 0.0415909 0.0985494
000230 15 6c 3c 3d e9 b3 fe 3c e9 99 51 3d 15 23 3c bd
       0.046001513 0.031091647 0.05117217 -0.045931894
000240 b1 2b 01 3d 5b 13 44 bd bc 27 95 bc 5f 87 35 bd
       0.031535808 -0.04787002 -0.018207423 -0.044318553
000250 0b 0a 4c 3d f6 f8 b7 bd 22 2d 8f 3c 0a d1 33 bc
       0.049814265 -0.089830324 0.017477576 -0.010975132
000260 99 2a a1 3d 88 88 69 bc a4 e1 82 bd b2 1b 8f 3d
       0.07869453 -0.014253743 -0.06390694 0.06987704
000270 f1 dd 59 bd b1 ff 71 3d e3 0f b1 bd 14 06 38 bc
       -0.053190175 0.059081737 -0.08645608 -0.011231918
000280 c3 8a bf bd 06 58 11 bd 70 bf df 3c 8f 01 16 bc
       -0.093526386 -0.035484336 0.027312964 -0.009155645
000290 05 0b 99 bd 5d f9 06 3d d9 11 82 3d 28 12 89 3d
       -0.07472805 0.032952655 0.063510604 0.06692916
0002a0 e4 24 a6 bd c2 86 f6 3b bf 3a b3 bd 75 0c eb bc
       -0.08112505 0.0075233886 -0.08751439 -0.028692463
0002b0 70 36 16 3d f3 03 7c bb f2 9e 59 3c 10 6c 4d bd
       0.03667301 -0.0038454502 0.013282524 -0.050151885
0002c0 75 78 6b bd 62 06 bf 3d d8 3f 06 bd 75 5c 2d bb
       -0.057487924 0.09327389 -0.03277573 -0.0026452814
0002d0 a3 4c 09 3c f9 20 25 bd 14 f9 d5 bc 9d 5a 56 bd
       0.008380088 -0.04031465 -0.026119746 -0.05233251
0002e0 e4 e6 8e bd 2b bf 8d bd 27 ce 3f 3d dd 79 9a bd
       -0.06977633 -0.06921228 0.04682746 -0.07542775
0002f0 6b 92 a1 bc 63 c0 7d 3d 2f 3e 58 bc 0b 4a e2 bc
       -0.019723138 0.061951052 -0.0131984195 -0.027623197
000300 41 5f 3d 3d 9a 0c 69 3c f9 09 14 bd e4 5b 10 3b
       0.04623342 0.014224196 -0.036142323 0.0022027427
000310 b0 65 12 bd 90 02 8c bd d9 a4 fd bc a5 d4 7a bd
       -0.035741508 -0.06836426 -0.030962395 -0.06123795
000320 e1 50 7a 3c 2d c5 08 3c 41 93 b9 bb 7c 0c 97 3d
       0.015278072 0.008347792 -0.005663306 0.07375428
000330 2c 82 29 3d e2 15 56 3c 91 a4 e1 bc d0 3e ab bd
       0.041383907 0.013066741 -0.027544292 -0.0836159
000340 92 4d a7 3c 8b f0 07 bd 48 21 d9 39 1d 51 c6 3c
       0.02042273 -0.033188384 0.00041414262 0.0242086
000350 f2 49 76 3d 4e 72 ad bd fd 1a 7a bd 5b 31 29 bb
       0.060129113 -0.084690675 -0.061060894 -0.0025816772
000360 a6 92 ff 3c 6a 57 d7 bc 17 a8 9a 3d a5 a9 15 bd
       0.031197857 -0.0262868 0.07551592 -0.03653874
000370 21 c6 a0 bc bd b7 c9 3d 64 bd 78 3d 27 95 a6 3d
       -0.019625725 0.098494984 0.060727492 0.08133917
000380 d1 44 32 bd d3 b1 a9 3d 45 c5 cc 3d a8 0a 82 3c
       -0.04352266 0.082858704 0.09998564 0.015874222
000390 e0 5c 69 bc 65 f1 96 3b b2 0a c8 3d d7 ad 41 3d
       -0.0142433345 0.004606413 0.09767665 0.047284927
0003a0 c6 e0 b2 3c 2e 5f b9 bc dd b0 3e 37 55 3a 87 bd
       0.021835696 -0.022628393 1.1366062e-05 -0.06602923
0003b0 e7 1f c9 3c 1a 42 34 3d 4d 54 4d 3d 8f 22 39 bd
       0.024551345 0.04400835 0.050129224 -0.045198973
0003c0 45 fd 72 3d a3 4d 5c bd a3 69 de 3d 80 80 04 bd
       0.059323568 -0.053784978 0.10859992 -0.03234911
0003d0 26 28 6b 3d 0b 7c d9 3d df 56 86 3c a8 cf c0 3d
       0.057411335 0.106193624 0.016398845 0.09414607
0003e0 dd 06 ad 3c 08 6c ce 3c 00 ad e8 3c 7d 8a 67 bd
       0.021121437 0.025197998 0.028402805 -0.056528557
0003f0 ea 99 58 3d ac 38 29 3c 8d 7f cd bc 35 83 60 3d
       0.05288116 0.010328453 -0.025085235 0.05481263

firstconv.1.weight f4 [16]
000000 e4 fb 77 3f fb a1 80 3f 26 c7 7b 3f f0 c6 86 3f
       0.9686873 1.0049433 0.9835075 1.0529461
000010 0d 48 7d 3f ef 89 87 3f 1f b7 7c 3f 3c f1 88 3f
       0.98938066 1.0588969 0.9871692 1.0698619
000020 24 06 81 3f b4 87 7d 3f cd 17 7d 3f 8b 74 77 3f
       1.0079999 0.9903519 0.9886444 0.96662205
000030 74 d9 79 3f d7 6b 88 3f 3e 16 7b 3f db e2 81 3f
       0.9759743 1.065791 0.98080814 1.0147356

firstconv.1.bias f4 [16]
000000 8f b5 ad 39 b4 84 86 3a 5a b1 c9 3a b4 e0 ad 3a
       0.00033132403 0.0010262937 0.0015387938 0.0013265819
000010 d5 ec 98 ba 89 71 3e bb a5 01 97 3b 8b 37 14 bb
       -0.0011667261 -0.0029059371 0.0046083503 -0.0022616114
000020 ca 4c 8c ba 5f 60 88 3a 6c 66 e2 3a c6 fb 61 3a
       -0.0010704037 0.0010404697 0.0017272956 0.0008620586
000030 83 bf 0f bb 10 6b a1 b9 73 6e 07 ba 1e fe 9d 3b
       -0.0021934218 -0.0003078808 -0.00051662995 0.004821553

firstconv.1.running_mean f4 [16]
000000 e2 c9 7b 2f eb 72 75 b0 26 d9 cc af 02 d7 c3 30
       2.290004e-10 -8.929379e-10 -3.7261677e-10 1.4249226e-09
000010 ec e8 d7 2f d4 11 59 b0 3f d7 01 2f 42 d5 63 30
       3.9273773e-10 -7.8969475e-10 1.1808952e-10 8.2885177e-10
000020 c9 5b 30 2f df 90 4d 2f 18 c8 bb af 12 b0 0c af
       1.6039715e-10 1.869611e-10 -3.4157277e-10 -1.2795479e-10
000030 0e 29 f5 2e b7 2d 04 31 50 5f 6a b0 07 cf 49 b0
       1.1148603e-10 1.9234514e-09 -8.526415e-10 -7.341758e-10

firstconv.1.running_var f4 [16]
000000 37 6c 2e 2c 54 96 83 2c 8b d0 34 2c 67 e4 ae 2d
       2.4786959e-12 3.7399337e-12 2.5695303e-12 1.988294e-11
000010 71 38 b0 2c fc 03 29 2e 1d 49 c4 2c e8 88 61 2e
       5.008487e-12 3.842969e-11 5.5787723e-12 5.1280674e-11
000020 3c 97 39 2d d2 23 82 2c 0a c3 45 2d 28 e0 63 2c
       1.0549613e-11 3.698799e-12 1.1241461e-11 3.2383072e-12
000030 54 8f 74 2c 77 17 34 2e b4 a5 5e 2c bd b3 ae 2d
       3.4754049e-12 4.0948103e-11 3.1640081e-12 1.986133e-11

depthwiseConv.0.weight f4 [32, 1, 3, 1]
000000 04 aa b5 3e 00 d3 be 3e 43 d0 f4 3e 54 91 99 be
       0.35481274 0.37270355 0.4781514 -0.2999369
000010 f9 a1 a4 bd 61 ff 00 bf 10 13 eb bd c3 59 ed 3e
       -0.08038706 -0.5038968 -0.11478245 0.46357545
000020 53 bc e4 3e 01 33 2e be 77 e4 98 3e 3a 99 86 3e
       0.4467493 -0.17011644 0.29861805 0.26288778
000030 62 b4 80 3e ab 46 98 be 8e 9c 14 3e ee c2 b9 3e
       0.2513762 -0.29741415 0.14512846 0.36281532
000040 40 11 05 3f 8c 4b be 3e 09 4c 97 be fd d2 06 bd
       0.51979446 0.37167013 -0.29550198 -0.032916058
000050 86 e2 c9 3e ca 33 a0 be 97 c8 01 3f bc 83 8a 3d
       0.39430636 -0.31289512 0.506967 0.067634076
000060 11 3a d1 bd 27 a5 cc 3c ef 36 9b be 1a 5a 1c 3e
       -0.102161534 0.024981095 -0.30315349 0.15268746
000070 99 52 06 3f e9 b2 75 be 79 a6 0e be cd ae ae 3b
       0.52469784 -0.2399403 -0.13930692 0.0053308965
000080 be e9 05 3f 8b 62 2b be 76 1c 73 bd 68 6f 0f 3f
       0.5230979 -0.1673681 -0.059353314 0.5602937
000090 04 fe 08 bf 7a 85 83 be cc 9b 09 3f cc 31 94 be
       -0.535126 -0.25687772 0.5375335 -0.28944242
0000a0 ad 54 9d be 3e 6d e6 be ef dc 6f 3d 01 c6 f5 3d
       -0.30728665 -0.4500522 0.058560308 0.12000657
0000b0 fa 36 04 bf d9 ed 54 be dd c0 59 bc 8f f8 12 3f
       -0.5164639 -0.20793857 -0.013290611 0.5741052
0000c0 ae 9b fa be 97 74 39 3e 9a 72 07 3f c4 10 2e bc
       -0.489469 0.18110882 0.52909243 -0.010624114
0000d0 c3 41 43 be 34 e8 0f 3f 44 95 e3 3e fa 92 54 be
       -0.19068055 0.5621369 0.44449818 -0.20759192
0000e0 80 31 f5 bb b9 79 b4 3d 74 53 ad 3e 71 e7 51 3e
       -0.0074827075 0.08812279 0.33852732 0.20498444
0000f0 d1 1a a1 be 27 f1 bb 3e 03 14 56 3e e0 55 7e 3e
       -0.31465772 0.36707422 0.20906071 0.24837446
000100 f8 f7 89 be 5f e5 25 be 8b 59 5b be 30 7d dd be
       -0.26946998 -0.1620078 -0.21420877 -0.43259573
000110 28 7d 24 3e 2a a3 cb be 62 90 15 be 15 cc d6 be
       0.16063368 -0.39772922 -0.14605859 -0.41952577
000120 93 26 a9 3e 58 5e ad be 7b 5b e9 3d fa a2 96 be
       0.33037242 -0.3386104 0.11394402 -0.29421216
000130 89 b8 a0 be af d3 0b bf be 98 e1 bd 36 2f ea 3e
       -0.3139079 -0.5461988 -0.110154614 0.45739144
000140 78 c8 03 bd 47 cd 81 bd 69 65 1a 3e f9 06 45 be
       -0.032173604 -0.06337982 0.15077747 -0.19240941
000150 f4 3a b9 3e af 27 ce bd 82 f4 17 3f 1d 57 fa bd
       0.3617779 -0.10066163 0.59357464 -0.12223647
000160 ed 52 69 3e f6 99 c7 3e e6 1f de 3e c3 b7 1e 3f
       0.2278554 0.3898465 0.43383712 0.6199915
000170 24 fa 56 3c 5f 47 01 3e 37 70 3f be 46 5c 0d bf
       0.013121162 0.12624882 -0.1869515 -0.55218923

depthwiseConv.1.weight f4 [32]
000000 ed c0 75 3f 5d fe 80 3f bc 02 7b 3f 1b 17 82 3f
       0.95997506 1.0077626 0.9805105 1.0163301
000010 d0 7b 83 3f 10 f7 72 3f 12 8a 86 3f 45 bf 81 3f
       1.027216 0.9490824 1.0510886 1.0136496
000020 5b 2f 7f 3f ca 3f 7c 3f ac bc 82 3f 6c 91 86 3f
       0.99681634 0.98534834 1.0213828 1.0513129
000030 8a 10 83 3f 1d 1f 75 3f ff 5c 81 3f 62 c9 88 3f
       1.0239422 0.957506 1.0106505 1.0686457
000040 90 db 7f 3f d4 ba 82 3f f0 64 81 3f f1 1c 7a 3f
       0.999444 1.0213265 1.0108929 0.9770041
000050 97 b5 79 3f e3 18 80 3f 6f e0 7c 3f 27 83 72 3f
       0.9754271 1.0007595 0.9877996 0.9473137
000060 5b 45 7c 3f c6 0f 79 3f 94 60 88 3f 7e e6 7f 3f
       0.9854333 0.97289693 1.0654473 0.9996108
000070 c3 52 79 3f cb f9 80 3f fd 05 81 3f 74 e7 81 3f
       0.9739191 1.0076231 1.0079952 1.0148759

depthwiseConv.1.bias f4 [32]
000000 21 85 65 3c 76 c0 32 bc 07 14 84 bb 60 1d 60 ba
       0.014008791 -0.010910144 -0.0040307078 -0.0008549299
000010 c7 fc 14 3c 99 b3 6e 3c 86 af 86 bc 33 39 7c bc
       0.00909347 0.014569187 -0.016441118 -0.015394497
000020 2e bc 65 3c 7a cd 61 3d 35 54 1f bd b8 aa b3 bc
       0.014021916 0.0551276 -0.038898665 -0.021931991
000030 2f 9c 58 bc e4 80 d3 bb b7 20 11 bd 30 1e 98 bc
       -0.013220831 -0.006454574 -0.03543159 -0.018569082
000040 81 7b 00 bd bd b5 bd bb 16 e2 09 bc 2f b3 db bc
       -0.031367783 -0.005789487 -0.0084157195 -0.02681884
000050 c1 fb 9f bb 3f 13 41 bb ea b6 03 3d 92 38 8e bb
       -0.0048823063 -0.0029460934 0.032156862 -0.00434024
000060 7b 63 7a 3c ad 8c f4 b9 17 65 dc bc aa 0f c6 3b
       0.015282507 -0.00046644118 -0.026903672 0.006044348
000070 81 5d d8 3c 74 41 cc 37 2d 1e 11 bd d1 1a 7d bc
       0.026411774 2.4349174e-05 -0.03542917 -0.015448288

depthwiseConv.1.running_mean f4 [32]
000000 b0 ca eb 39 10 f5 ac b9 b4 08 44 3a 71 f5 c0 39
       0.00044973707 -0.00032988982 0.00074781035 0.00036803962
000010 67 eb 2c 39 34 88 08 3b f0 50 d9 38 a0 aa d5 39
       0.00016490892 0.0020833137 0.00010362442 0.0004075365
000020 9b 9f 09 3a de aa 1e ba b9 dc 9c ba 1c 62 86 ba
       0.00052499183 -0.0006052683 -0.0011967636 -0.0010252628
000030 e5 03 9a ba 6d 33 9e bb 16 14 47 3a 72 c3 4f ba
       -0.0011750428 -0.004827908 0.00075942406 -0.0007925547
000040 cd bf 80 b9 93 75 d3 b9 06 87 86 39 1f 7e 39 3a
       -0.00024556965 -0.00040332656 0.00025659072 0.00070759834
000050 40 dd 02 3a 56 67 b7 b9 83 e0 cf b9 19 e7 4d ba
       0.0004992075 -0.0003498147 -0.0003964939 -0.00078545656
000060 32 2a 79 b9 0f 1e 2a 3b 4a 35 74 b8 a5 12 a3 37
       -0.0002376221 0.0025957858 -5.8223763e-05 1.9439796e-05
000070 7c a1 09 ba 8f 78 9f b9 34 dc a4 3b 23 38 3d bb
       -0.00052501983 -0.00030416666 0.005031133 -0.0028872571

depthwiseConv.1.running_var f4 [32]
000000 e6 9a 71 34 00 51 fc 33 62 cc 50 34 b7 bd 77 33
       2.2501226e-07 1.1749398e-07 1.9445864e-07 5.7681714e-08
000010 49 18 c2 32 a3 55 97 34 6b 0d 42 34 85 6f 19 35
       2.2595616e-08 2.818825e-07 1.807254e-07 5.7159224e-07
000020 c8 15 5a 33 3a 03 57 34 b7 e0 3b 35 15 d6 47 35
       5.077689e-08 2.0024609e-07 6.998993e-07 7.444481e-07
000030 1c 81 4c 34 52 dc cc 34 38 ab 80 35 13 11 89 35
       1.904595e-07 3.8158265e-07 9.586574e-07 1.0212265e-06
000040 8a 28 3c 34 5c e4 6e 34 b9 48 18 33 6d 6d f2 33
       1.7523612e-07 2.2248554e-07 3.54564e-08 1.12889076e-07
000050 24 6e 32 34 7d be be 33 15 a8 ef 33 57 21 35 34
       1.6617611e-07 8.882214e-08 1.1159879e-07 1.6869068e-07
000060 8d cb 21 33 e8 a2 98 34 9a 2c 9f 35 83 1a 4e 34
       3.7670862e-08 2.8430736e-07 1.1859404e-06 1.919489e-07
000070 33 d0 30 34 53 9a 81 33 f3 88 16 36 c0 ac 1a 35
       1.646702e-07 6.035102e-08 2.2431457e-06 5.7620855e-07

separableConv.0.weight f4 [32, 1, 1, 16]
000000 01 68 f6 3d 28 f4 a5 bd 01 a7 73 bd ed 1f 2a 3e
       0.12031556 -0.0810321 -0.05948544 0.16613741
000010 59 97 0d bd 90 c5 eb 3d d8 c4 8d bd eb 08 91 bd
       -0.034568164 0.115122914 -0.069223106 -0.07081779
000020 78 0c d7 3d 21 47 14 3e bb 29 2e 3e f1 32 97 bb
       0.10500425 0.14480259 0.17008106 -0.004614227
000030 61 72 39 3d 1d 52 ac bd 83 32 67 be 52 1d 0b 3d
       0.045275096 -0.08414099 -0.22577862 0.03396351
000040 75 f0 57 be 89 88 1b 3e 7d 7b 2a be 7a 1e f3 3d
       -0.21087821 0.15188803 -0.1664867 0.11871047
000050 7b 42 bd bb e3 c5 0e be 96 45 21 3e 6b 29 7c be
       -0.0057757474 -0.13942675 0.15749201 -0.24625175
000060 cf 44 4c 3e b6 42 06 bd ba 9c dc bd 47 e8 82 3c
       0.19948123 -0.032778464 -0.10772081 0.0159799
000070 e3 a9 3a bd 03 fc 83 be 18 e5 fe 3c eb 38 8e 3d
       -0.045572173 -0.25778207 0.0311151 0.0694445
000080 72 13 53 3d 1e 1b fe 3d 0b 8d 1a 3e 39 cc 3d be
       0.051532216 0.12407516 0.15092866 -0.18534936
000090 1d c5 2a 3e 7c 6a 71 be 37 40 9a bd 56 da 81 3d
       0.16676755 -0.23575777 -0.07531779 0.063404724
0000a0 75 b8 7a 3c 59 0b 53 3d 4f 12 41 39 2c 9b 48 3e
       0.015302767 0.051524494 0.00018412735 0.19590443
0000b0 a2 72 20 3d e2 4a b8 bd aa 27 1f 3e 43 e4 1e be
       0.039171822 -0.08998658 0.15542474 -0.15516762
0000c0 0c e3 ba 3d 4a ca 71 be 7b 37 36 bd 94 59 f4 3d
       0.09125337 -0.23612323 -0.044486504 0.11931148
0000d0 bf 0a fd 3d 2b ee b9 bd e9 7a 87 3e 38 c4 36 3e
       0.12355565 -0.0907863 0.2646096 0.17848289
0000e0 96 bc c5 3d fc fe 28 3e ca cf c0 3c cc da 11 3e
       0.096551105 0.16503519 0.023536582 0.1424362
0000f0 73 6f 16 3e 7d f9 38 be d1 23 ad 3c 95 95 50 3d
       0.14690952 -0.18063922 0.021135243 0.050923903
000100 24 c0 24 be 5b aa 05 be f6 9f 83 3d ad fe 45 3e
       -0.16088921 -0.13053267 0.064269945 0.19335432
000110 4f aa 3e 3e 25 c9 03 3e 0e 2b 29 3e 2a 8e 88 3d
       0.18619655 0.128697 0.1652033 0.06667741
000120 cc 90 40 3e 2a a4 61 3e eb e2 8c bd bb 10 47 3d
       0.18805236 0.2203528 -0.06879219 0.04859994
000130 4f b2 47 be bd d9 52 be 88 50 39 be 57 44 9f bd
       -0.19501613 -0.20590873 -0.18097126 -0.07776707
000140 6e 2c e2 bd 10 81 fd bd 48 b9 d6 3d ef ff a6 3d
       -0.110436305 -0.12378132 0.10484558 0.08154284
000150 0d b7 d6 3d 42 98 67 be 4b 05 57 3e 4c a7 21 3e
       0.10484133 -0.22616675 0.20998113 0.15786475
000160 5c c3 13 3e ac 13 ef 3c 90 6d 77 be 7b ad 43 3e
       0.14429992 0.029184185 -0.24162889 0.19109146
000170 16 3d 8e 3d ff 76 af bc 26 68 25 be 91 cc 76 3d
       0.06945245 -0.021419046 -0.1615301 0.060253683
000180 ec 14 52 3e f5 6f 7f 3d ed 51 89 3e e7 0e 55 be
       0.20515794 0.06236263 0.26820317 -0.20806466
000190 98 f5 33 3e 2e 50 23 bd 8c 2b d7 3d 31 65 d8 3d
       0.17574155 -0.039871387 0.10506353 0.10566176
0001a0 15 a7 63 3d e5 96 5b be df 3f 00 3e 38 ff 0c be
       0.055579264 -0.2144428 0.12524365 -0.13769233
0001b0 ba c3 8b 3e ba 13 5c 3e 4c df 69 3d b9 97 e1 bd
       0.27297765 0.214919 0.057097718 -0.11015267
0001c0 ee c4 32 bd b3 f8 50 be d8 7c fc bd 23 8d 37 be
       -0.043644838 -0.20407371 -0.123284996 -0.17924933
0001d0 8a c6 92 bd 99 b5 8a be 39 d1 d0 3d d0 05 6b bd
       -0.071667746 -0.27091673 0.10196156 -0.05737859
0001e0 0c 1b 8d 3d 23 87 b6 3d 37 ce 3d 3e 2a 37 cc bd
       0.068899244 0.08912494 0.18535696 -0.09971459
0001f0 ff 3e 68 3e 14 f2 dd 3d c0 6e 46 3d 61 7c 21 3e
       0.22680281 0.10837188 0.048445463 0.15770103
000200 e9 9a 11 3b a1 5d 61 be 33 e7 f3 3d 5c d1 03 bd
       0.0022217578 -0.22008373 0.11909332 -0.032182083
000210 19 96 d4 3d 3d e2 ee bd c4 c4 c4 bd 58 d0 87 bd
       0.10380191 -0.11664245 -0.096078426 -0.06631535
000220 5d 93 22 3e 10 29 ae bd f7 8c 6e be 68 85 9b bc
       0.15876527 -0.08503926 -0.23295961 -0.018984511
000230 74 ed cc bd 2e 46 93 3c da 85 a3 3d 4f b7 44 3d
       -0.10006228 0.0179778 0.079845145 0.04802638
000240 48 ec 88 3e 85 5a 37 bd 61 61 70 3e 81 83 18 be
       0.26742768 -0.04476406 0.23474647 -0.14893915
000250 1e 06 5f 3d 7d b2 39 3e aa 9f ea 3d f7 4b 0c 3e
       0.054449193 0.18134494 0.11456235 0.13700853
000260 19 b4 15 be c5 45 c5 bd 20 55 54 3e 39 68 90 3c
       -0.14619483 -0.09632448 0.20735598 0.017627822
000270 81 d7 9f 3d 8f 07 2a be 4a 0c a6 bd 8f 97 4d be
       0.07804776 -0.16604446 -0.08107813 -0.20077346
000280 f7 8b 38 3e 16 63 7a bd 97 74 72 3e 5b c0 31 bd
       0.18022142 -0.061129652 0.23677288 -0.043396335
000290 c2 ac 45 3e 9d d7 40 bd 0c e6 f9 bd f2 91 8b 3c
       0.19304183 -0.047080625 -0.12202081 0.017037366
0002a0 b3 6c 73 3e 4d c1 88 3e f7 96 61 3d 0d 59 25 3c
       0.23771934 0.26709977 0.055075612 0.010092032
0002b0 aa 82 05 be 69 2e 2c 3e 63 07 fb bd 7c 88 93 bd
       -0.13038126 0.16814579 -0.12257268 -0.07203767
0002c0 58 3f 7e ba 13 99 69 3e 73 ae 39 3e 71 f9 74 3e
       -0.000969877 0.228123 0.18132953 0.2392328
0002d0 69 37 87 3d 94 76 98 bd cd 19 d8 3d 45 3e 81 3d
       0.066023655 -0.07444492 0.10551796 0.06310705
0002e0 21 38 29 be 63 a1 3d 3e 2b 31 8b 3e a2 62 03 be
       -0.16525318 0.18518595 0.2718595 -0.12830594
0002f0 51 41 76 3e 04 44 5f 3e 32 99 8e 3c 45 32 fe 3c
       0.24048354 0.2180329 0.017407034 0.03102983
000300 be 40 93 bd be 8a e2 bb 12 18 ee bc bc ae 53 be
       -0.07190083 -0.006913512 -0.029064212 -0.20672125
000310 24 1e e8 3d 8d 84 e9 bd f2 29 19 be 48 22 39 bc
       0.11333874 -0.11402235 -0.14957407 -0.011299677
000320 e3 f0 6a be 2c e9 a0 3d ee 8c a9 bd f7 ce 22 bd
       -0.22943453 0.07856974 -0.08278833 -0.03974816
000330 81 61 50 be 14 27 12 be c3 7b 84 bd f3 c3 df 3d
       -0.20349695 -0.1427272 -0.06468918 0.10926046
000340 d9 35 a7 bd db 37 4f bd 51 88 25 3d ae 79 ba bc
       -0.081645675 -0.050590377 0.040413205 -0.0227631
000350 12 dc 2c 3e 8c a5 25 3e 64 e7 ea 3d d9 f5 3d 3e
       0.16880825 0.16176432 0.114699155 0.18550815
000360 ab 8c e7 3d 8b c7 77 be c0 8f 23 3e 09 0b c8 bd
       0.11306127 -0.24197213 0.15972805 -0.0976773
000370 45 32 58 3e c0 5c 34 be 1a 3e 53 3e 9e 49 eb bd
       0.21112926 -0.17613506 0.20629159 -0.11488651
000380 6e a3 3d be 6f 3b e3 3d 9b fb 77 3e 57 3c d3 bc
       -0.18519375 0.110953204 0.24217074 -0.025785608
000390 64 e1 98 3d 48 1c 72 3e 4d ed 8b 3e 3c 0f ab 3d
       0.07464865 0.23643601 0.27329484 0.08352515
0003a0 d3 39 73 bd c8 76 65 3e 6a e6 f8 bd 05 90 5b bd
       -0.059381317 0.22408593 -0.12153323 -0.053604145
0003b0 a5 30 b0 3d 4a 34 06 3e d6 91 44 bd 6b d0 bb bd
       0.08603028 0.13105884 -0.047990642 -0.09170612
0003c0 92 70 ae 3d 7b 2a f8 3c 7d d1 17 be 37 a4 15 3e
       0.08517565 0.030293694 -0.14826007 0.14613424
0003d0 0a 3c 84 3e a1 b9 b5 bc e6 89 10 3e 05 c7 8c 3e
       0.25827056 -0.022183241 0.14115104 0.2749559
0003e0 9e b5 a7 bd 26 b6 22 3e 79 4a 89 3e b7 bd e6 3c
       -0.081889376 0.15889797 0.2681463 0.028166635
0003f0 fc 56 63 3e e7 4d 42 3e 30 47 97 3e ec 25 c3 3d
       0.2220115 0.1897503 0.295465 0.095287174

separableConv.1.weight f4 [32, 32, 1, 1]
000000 9e 2f 09 be a5 5b ea bd ff 55 f7 3a 3a c1 b9 3d
       -0.13397071 -0.11443261 0.0018870233 0.09070058
000010 b9 7d 67 3e 16 ed e6 3d 0c a6 29 3e 3b 8c 53 3e
       0.22606553 0.11275689 0.16567248 0.20658962
000020 4a b4 d0 3d 1f 54 30 bc a3 2a 43 3a 54 5a a1 bd
       0.101906374 -0.0107622435 0.0007445013 -0.07878557
000030 2c 38 29 3d 2f f7 ec bd df 7d 45 bd 0a 62 c5 bd
       0.041313335 -0.11570584 -0.048215743 -0.0963784
000040 2a 22 03 bd 60 29 a1 bd 50 33 f6 3d a5 83 42 3c
       -0.032015003 -0.0786922 0.12021506 0.011872207
000050 b2 b8 d4 bd c2 af 05 3d f8 7f be bd 3e 86 07 3e
       -0.1038679 0.03263832 -0.09301752 0.13234803
000060 cd a3 ba 3d 20 4e b9 3d f5 8e 9b bd d6 df 2f 3e
       0.09113274 0.09048104 -0.07595626 0.1717523
000070 9e ea 8c bd 14 78 e0 3d 9d 32 41 3c 8c 52 19 be
       -0.06880687 0.10960403 0.011791852 -0.14972895
000080 60 17 82 3d 70 cc 22 be 2d 16 b4 3c 19 d1 16 3e
       0.06352115 -0.15898299 0.02198323 0.14728202
000090 23 20 c5 3c 56 a6 03 bd 1f ab 08 3e 35 a7 9a bd
       0.024063176 -0.032141052 0.13346528 -0.075514235
0000a0 9c c7 e9 3d 0f ed 4b 3c d6 ba b5 bd d2 f6 e7 3d
       0.114150256 0.012446656 -0.08873527 0.11326374
0000b0 95 44 f5 3d 20 3f 36 bd 00 07 29 3d e5 ac 2c 3e
       0.119759716 -0.044493794 0.04126644 0.16862829
0000c0 0f f8 3f 3e f2 11 4f 3d ce 21 d9 3c 84 27 35 3c
       0.1874697 0.050554223 0.026505377 0.011056785
0000d0 67 d4 df 3d 94 92 64 bc f2 04 3d bc 4d 4a 97 3d
       0.109291844 -0.013950963 -0.011536824 0.073872186
0000e0 d7 13 b6 3d 20 1d 9f bd 85 ec ad 3d a9 7a 87 3d
       0.08890503 -0.07769227 0.08492378 0.066151924
0000f0 cf da c5 bd fc 3d 15 3e 17 32 e2 3d 46 00 7d 3d
       -0.09660875 0.14574426 0.1104471 0.06176784
000100 94 f0 87 3d 77 1d d3 bd 0d d6 b7 bd 73 4e 23 be
       0.066376835 -0.10308354 -0.08976374 -0.15947895
000110 b0 82 0a 3e 12 45 eb 3d 34 85 55 3d cb e1 a8 3c
       0.13526416 0.114877835 0.052128986 0.020615479
000120 d8 63 a2 bd 37 3f 28 3c d7 9d 46 3e 1e 0b d3 bc
       -0.079292 0.010268978 0.19396149 -0.025762137
000130 5c 86 a9 bc 16 24 96 3d 23 3f 42 3e 4f 6b 88 bd
       -0.02069395 0.073311016 0.18969397 -0.066610925
000140 2c 6a ea 3d 4d d2 05 3d 40 76 2d 3e 8c 74 89 bd
       0.11446032 0.03267126 0.1693964 -0.06711683
000150 62 0f e2 3d f9 3e 09 3d 85 40 7d bc ce c8 2b be
       0.1103809 0.03350732 -0.015457277 -0.1677582
000160 9c 72 d8 bd a0 26 48 bc 43 05 0e 3d af 2f 9c 3d
       -0.10568735 -0.01221624 0.034672987 0.076262824
000170 bc 02 39 bc ee 1b 28 3e 9a fb f3 3d 33 a1 56 3d
       -0.011292156 0.16416904 0.119132236 0.052399825
000180 b0 a2 93 3d 34 ee 9d bd 8a a6 ac bd 17 c6 03 3e
       0.072087646 -0.07711449 -0.08430202 0.12868534
000190 96 47 52 be 24 c1 30 bc 73 50 25 bd ba 43 f9 bd
       -0.2053512 -0.010788236 -0.040359925 -0.12171121
0001a0 ad 85 21 be ad 22 2a be cf 4a c9 bd a0 56 06 bd
       -0.1577365 -0.1661479 -0.09828722 -0.032797456
0001b0 fb 98 64 be bc 3f 30 3e ab b6 d0 bd aa a1 a2 3c
       -0.22323982 0.17211813 -0.10191091 0.019852478
0001c0 21 f0 24 bd fb c8 f5 3d 05 e9 8a bd e6 ae 2c be
       -0.040268067 0.120012246 -0.06782726 -0.16863593
0001d0 3c 7a 1e be e3 ed 65 3e 35 43 9c bd 6c 28 82 3b
       -0.15476316 0.22454028 -0.07630006 0.003972104
0001e0 70 34 44 be 3b c1 dd bd dd f8 ee bc 5b a2 f6 bd
       -0.19160628 -0.108278714 -0.029171402 -0.120426856
0001f0 c2 27 b4 bc a3 34 3d 3e ce c1 08 3e cf d5 fc 3d
       -0.021991614 0.1847711 0.1335518 0.12345468
000200 af 6c bb bd ad 27 aa 3d 56 29 52 3e 1e b3 26 be
       -0.09151589 0.08308349 0.20523581 -0.16279265
000210 b4 10 07 bc ae fb a5 bd 3c 5e cf 3c d3 15 06 bd
       -0.008243728 -0.08104645 0.02531349 -0.032735657
000220 ae 3a 55 3e da f9 8a bd 7b 5b 65 3e 43 36 3c bc
       0.20823166 -0.06785937 0.22398178 -0.011487546
000230 e0 b5 e3 3c 71 5e a4 3d 5c c6 03 bc 5d a4 42 3e
       0.027796686 0.08025826 -0.008042898 0.19008012
000240 89 88 09 bd cf de 02 3e 08 82 77 bd e3 0b 89 3d
       -0.033577476 0.12780307 -0.06042674 0.0669172
000250 6d 67 19 be aa c1 45 3d ef 8e 0e be c4 cc c1 bd
       -0.1498086 0.048280396 -0.13921712 -0.09462884
000260 c5 19 b8 3d bc 2f 0b 3e 35 3e f4 3d 42 53 25 3d
       0.0898929 0.13592428 0.119259275 0.040362604
000270 7b 65 74 bd 9f d7 8f bb 3a 60 9e 3c 00 98 26 3e
       -0.05966709 -0.0043897177 0.019332994 0.16268921
000280 8a 00 26 be 9b 2a 23 3e 98 79 3e bb bf 46 81 bc
       -0.16211143 0.15934221 -0.0029064175 -0.015780805
000290 49 23 9f 3d 81 73 d8 3d 6b aa e5 bd d7 90 03 3e
       0.07770402 0.105689056 -0.11214145 0.12848221
0002a0 70 8c 3d 3e 22 2e cc bb 94 6b 7e 3c c6 70 13 be
       0.18510604 -0.0062310854 0.015528578 -0.14398488
0002b0 61 68 40 be d3 3e 05 bd 51 85 e9 bc d2 57 41 bd
       -0.18789817 -0.032530617 -0.028505953 -0.047202893
0002c0 44 59 68 3d 41 43 77 bd 12 c6 05 be a4 97 22 3e
       0.056725755 -0.060366873 -0.13063839 0.15878159
0002d0 d1 d3 15 3e 77 b0 0b be 31 0e df 3d e4 cc 41 3e
       0.14631583 -0.13641535 0.10891379 0.18925816
0002e0 9f a1 b1 bd ef 38 ea 3d 51 4d 4e bd e3 37 09 be
       -0.08673405 0.114366405 -0.050366703 -0.13400225
0002f0 23 70 44 3e 64 51 7a bd 4c 2c 16 be 1d 0d 22 3e
       0.19183402 -0.061112776 -0.14665335 0.15825315
000300 8e 89 e7 bd c8 6f 56 bd 65 f6 10 be a5 1a 4c 3e
       -0.11305533 -0.052352697 -0.14156492 0.19932039
000310 67 d3 e6 bd 31 88 ff bd dc dc ca bd 90 f3 02 be
       -0.112707905 -0.12477148 -0.09905407 -0.12788224
000320 a4 d0 4e bd 3b 5f 2e 3e 88 ba 56 bc ae 93 ad bd
       -0.050491944 0.17028515 -0.013105996 -0.08475433
000330 25 ba ed bd ff 74 a6 bd d7 cd 5f 3d 43 a4 cd 3d
       -0.1160777 -0.08127784 0.054639664 0.10041096
000340 c1 f9 b6 3d 59 19 ed bd 61 dc 34 3d d5 e3 07 be
       0.089343555 -0.115771 0.044155482 -0.13270505
000350 c3 fb c0 bd f1 23 2a 3d 2f b2 49 be 44 0b 0f bd
       -0.0942302 0.041538183 -0.19696878 -0.034922853
000360 ea ac da 3c f5 04 14 be a4 31 25 be 57 68 0b 3c
       0.02669378 -0.14455016 -0.16132218 0.008508763
000370 ae 92 89 3d 6d b2 c4 3c ad e4 c9 3d 83 d6 cf 3d
       0.0671743 0.024010861 0.098580696 0.10148337
000380 f7 9e af 3d 04 fd 84 bd 2c a4 30 3d a2 30 ca 3c
       0.08575242 -0.064935714 0.043125317 0.024681393
000390 ed 58 1d be f8 21 c8 bd 60 df 00 3e f3 00 e6 bd
       -0.15365954 -0.09772104 0.12585211 -0.1123065
0003a0 59 ff d2 bd c7 fa 80 be 9c 20 fc bc 86 f9 91 bd
       -0.1030261 -0.25191328 -0.030777268 -0.07127671
0003b0 14 a1 2c be d6 65 a7 bd 8f de 62 bd 3a c8 94 3d
       -0.16858321 -0.081737205 -0.05538803 0.07264753
0003c0 50 6f 03 be 38 ea c0 bd 7d bc 4f 3d 78 c0 09 3e
       -0.12835431 -0.09419674 0.050716866 0.13452327
0003d0 67 e3 b9 3b f9 b8 01 be 19 01 53 3e 71 1d 29 bc
       0.0056728604 -0.12668218 0.20605887 -0.010321961
0003e0 0e cc b8 bd 49 6e 77 bd 6f 21 f9 bc 80 93 67 3c
       -0.09023295 -0.06040791 -0.03041145 0.014134288
0003f0 44 e8 0f be 42 86 5b 3d ff 42 29 be 6f 36 be bc
       -0.14053446 0.053594835 -0.16529463 -0.023219315

separableConv.2.weight f4 [32]
000000 9a cd 82 3f f9 25 8b 3f 42 89 89 3f 3e 6c 8a 3f
       1.0218995 1.0870963 1.0745013 1.0814283
000010 34 5e 88 3f f7 7e 85 3f 7e 61 87 3f 01 40 86 3f
       1.0653749 1.0429372 1.0576627 1.0488282
000020 b0 a6 84 3f 8e 58 89 3f 2d 1c 87 3f ed 7d 8e 3f
       1.0363369 1.073015 1.0555474 1.113218
000030 a0 f7 88 3f be f4 89 3f 8a 8e 80 3f 14 3f 8b 3f
       1.0700569 1.0777814 1.00435 1.0878625
000040 90 8f 82 3f 27 8f 84 3f 50 34 89 3f 41 79 87 3f
       1.0200062 1.0356187 1.071909 1.0583879
000050 c6 b0 88 3f 99 b6 88 3f 51 6c 83 3f 3e 0f 8b 3f
       1.0678947 1.0680724 1.026743 1.0864027
000060 04 2d 89 3f 36 26 81 3f f0 64 84 3f b6 b2 8a 3f
       1.0716863 1.0089786 1.0343304 1.0835788
000070 90 3f 89 3f 15 de 83 3f b3 d7 88 3f d4 92 85 3f
       1.0722523 1.0302149 1.0690826 1.0435433

separableConv.2.bias f4 [32]
000000 76 1f d1 bb 27 9d e6 bc f3 45 bd bc 62 c6 a0 bc
       -0.0063819243 -0.028151108 -0.023104643 -0.019625846
000010 4d 76 6d bc 69 c9 e7 bc b8 19 43 3b 69 ef 83 3c
       -0.014493537 -0.028294282 0.0029769968 0.01610537
000020 4f b6 e7 3b f6 21 1a bd 3d 32 52 39 a5 cc 27 bd
       0.0070712934 -0.037630044 0.00020045876 -0.04096665
000030 52 c7 3b bc ff 98 98 bc 6d c7 a8 3b 1e 19 11 bd
       -0.011461096 -0.018627642 0.0051507265 -0.035424344
000040 70 e9 ce bc 62 54 3f bc 51 6a af bc 45 5a 48 bc
       -0.025257796 -0.011677833 -0.021413 -0.012228553
000050 c5 ff 68 bc e1 33 e6 bc 93 9a 7b bc 0a 73 3e bd
       -0.014221136 -0.02810091 -0.015356678 -0.04649643
000060 ed 36 25 bb 6d c3 5b 3c a0 0a fd bc 82 91 14 3c
       -0.002520974 0.013413292 -0.030888855 0.009067895
000070 00 57 fd bc 8f 61 87 3b 39 f3 ab bc 27 ff e7 3b
       -0.030925274 0.004131503 -0.020990001 0.007079977

separableConv.2.running_mean f4 [32]
000000 5a 91 e2 ba 02 d9 3c bb 99 b3 04 bc 71 02 b0 36
       -0.001728575 -0.002881587 -0.00809946 5.245493e-06
000010 a4 98 5b bb 76 e6 b8 ba 14 0e 24 3b 1b 14 52 bb
       -0.003350773 -0.0014106769 0.0025032805 -0.003205544
000020 6b 95 98 3a c6 a1 ae bb d6 a6 b0 ba cc 7e c4 3b
       0.001164121 -0.0053293435 -0.0013477455 0.0059965607
000030 90 f1 6d bb 3c 00 44 bb bf 35 83 ba f5 57 9c bb
       -0.0036307313 -0.0029907366 -0.0010010524 -0.0047712275
000040 e5 ab 8e 3b bf 45 13 3a e1 15 ab bb 87 2e f5 bb
       0.0043539875 0.0005617998 -0.005221114 -0.007482353
000050 0a 02 98 bb 0e 24 34 bc 00 51 1e bc 90 af 09 bc
       -0.004638915 -0.010994924 -0.009662867 -0.008403674
000060 f7 78 ab bb aa 5b 06 bc f1 6e a7 3a b5 33 b8 bb
       -0.005232926 -0.008200565 0.0012774152 -0.0056213983
000070 ad 05 d2 3b 33 ff 2f bb ca 0d b2 3a e3 20 8a bb
       0.006409368 -0.0026854991 0.0013584432 -0.004215346

separableConv.2.running_var f4 [32]
000000 14 bc 98 3b da 50 85 3b 8a d6 68 3b f8 3e f2 3b
       0.0046610925 0.004068476 0.0035528266 0.0073927604
000010 c5 45 72 3b ee 5a b3 3b c0 d5 94 3b 9d f6 b0 3b
       0.0036967855 0.005473486 0.0045420825 0.0054004923
000020 82 8a 73 3b 21 2f 81 3b 73 91 f7 3a 74 98 14 3c
       0.0037161415 0.003942386 0.0018887952 0.009069551
000030 76 7e 3d 3b 02 4c 9f 3b 32 44 fd 3a e3 a8 8e 3b
       0.0028914488 0.0048613558 0.0019322692 0.004353629
000040 84 e2 4d 3b b6 40 9f 3b ef 60 e9 3b ef 59 ed 3b
       0.0031415531 0.004860009 0.007122151 0.007243387
000050 98 9b 9d 3b f7 28 ae 3b 5d dc 9a 3b 09 63 cb 3b
       0.004809808 0.005314942 0.0047259764 0.0062068743
000060 05 d1 a5 3b 0e fc 37 3b a6 c4 a5 3b 15 c7 a6 3b
       0.0050603175 0.002807382 0.0050588427 0.0050896504
000070 0b 2f d5 3b 6b a1 12 3b 0c 5a 4f 3b cd 91 90 3b
       0.006505852 0.0022374045 0.0031639365 0.004411912

classify.weight f4 [2, 992]
000000 cc d5 87 3d d3 ba 87 bd 98 16 1a 3d e1 37 05 3d
       0.066325754 -0.06627431 0.037619203 0.032523993
000010 5c 76 cc bb 82 d9 77 3c a9 c0 c9 3b 86 92 f4 3c
       -0.0062396955 0.0151275415 0.006157 0.029855024
000020 31 00 54 3d ae bb 05 3c 98 f2 33 3d 47 48 1b 3d
       0.051757995 0.008162422 0.043932527 0.037910726
000030 b9 a8 cd 3c eb cf 08 3d a5 80 89 bc 1a 06 18 3d
       0.025104867 0.03340141 -0.016784975 0.037115194
000040 22 c9 a0 3c 46 76 f9 3c 9a 25 95 3c fe 59 c9 bb
       0.019627158 0.030451905 0.018206406 -0.006144761
000050 ab 00 e1 3c 82 95 1a 3d af e7 1c 3c f0 16 45 3d
       0.027466139 0.037740238 0.009576722 0.048117578
000060 8c 10 01 bc 5f 00 fa ba c5 30 4c 3c 10 7d a6 3c
       -0.00787748 -0.0019073597 0.012462799 0.020323306
000070 76 97 07 bc 46 c3 b2 bb 07 f0 19 bc b0 9f d7 bc
       -0.008275857 -0.0054554073 -0.009395606 -0.026321262
000080 40 c6 89 bc a9 b9 17 3d 44 44 ca bc 37 d1 49 bb
       -0.016818166 0.037042294 -0.024690755 -0.0030794868
000090 1d 71 00 bd 11 5c b0 bd c1 61 c3 bd 78 e0 84 bd
       -0.031357873 -0.0861131 -0.095401295 -0.064881265
0000a0 6a 8d a2 bd 57 ce c0 bd 8c b1 bb bd 06 3c 9e bd
       -0.07937129 -0.09414356 -0.09164724 -0.07726292
0000b0 2c e0 7f bd ec 85 9d bd d2 03 92 bc 1f cc 44 bd
       -0.062469646 -0.07691559 -0.017824087 -0.048046228
0000c0 28 b3 e4 bc 55 9f bd bc bf f5 ab 3c f9 4e 9d bb
       -0.02791746 -0.023147264 0.020991204 -0.004800674
0000d0 13 f3 2a 3c 60 1b 41 bd 48 6b 97 bc 92 17 04 bd
       0.01043393 -0.047145247 -0.018483773 -0.03224904
0000e0 4d 1d 3a bc 17 e3 fd b9 3e 13 6e bc a6 f7 a3 bb
       -0.011359525 -0.00048425116 -0.014530955 -0.005003887
0000f0 2f e4 34 bc f6 6e 50 bc 67 62 03 bc 7c d2 93 3c
       -0.011040731 -0.012721768 -0.008019066 0.018044703
000100 10 3b 56 3c e3 fc a3 bc c1 99 2f 3a 7f a9 52 bd
       0.013075605 -0.020018047 0.00066986313 -0.051431175
000110 ae d6 f0 3b 99 e8 51 bd b9 8c 96 bd 25 ef 8f bd
       0.0073498106 -0.051247213 -0.073510595 -0.07028035
000120 04 d4 43 bd d0 c3 12 bc 11 e7 c1 bd 19 ec 81 3a
       -0.047809616 -0.008957818 -0.094679005 0.0009912282
000130 8c 0e f4 bc 0b 73 72 bd b0 63 76 bc c5 6c d5 bc
       -0.029792093 -0.059191745 -0.015038416 -0.026052842
000140 10 83 ed bb 85 33 59 3b 4b ce b8 bc 2b 12 72 3c
       -0.00724829 0.003314228 -0.022559306 0.014774839
000150 4b 07 ab 3c da 83 b9 bb 6c a5 b8 bc b0 fa 28 bd
       0.020877501 -0.00566147 -0.022539817 -0.0412547
000160 5a fd 16 bd 06 61 80 ba a8 71 00 3b 14 ec b1 bc
       -0.03686271 -0.000979454 0.0019598994 -0.021719016
000170 91 dc 55 3b b2 a5 d4 bc 58 d7 d0 3c 6e 73 b5 3c
       0.0032632689 -0.025957916 0.025493309 0.022149768
000180 fb a8 84 bb 08 e5 3f 3d db 61 08 3d a8 d1 bc 3c
       -0.0040484644 0.04684928 0.033296447 0.02304919
000190 da a2 8b 3c 21 14 18 3d b5 1f 83 3d 16 00 98 3d
       0.017045427 0.03712857 0.06402532 0.074218914
0001a0 ec a0 1d 3d 4f 81 52 bb f8 31 41 3d c8 b6 3f 3d
       0.038483545 -0.003212053 0.047166795 0.046805173
0001b0 a9 3d 89 3d 4c af 40 3d 40 b3 31 3d e0 61 0b 3d
       0.06701214 0.047042176 0.043383837 0.034028888
0001c0 c8 b9 95 3c 79 17 fa 3c 28 a5 8c 3d 6d 32 85 3d
       0.018277064 0.03052877 0.068674386 0.065037586
0001d0 6a 6c c1 3c 33 c7 08 3d 1b 66 e0 bb 5f da 82 bc
       0.023611266 0.033393096 -0.0068481094 -0.015973268
0001e0 cb 96 a1 3b 86 cc f3 3c a8 4e b5 3c dd 6d 61 bb
       0.004931306 0.02976061 0.022132233 -0.003439776
0001f0 c8 25 11 bd 24 cc 6f 3c f4 27 5f bd 93 5d 31 3d
       -0.03543642 0.014636073 -0.05448146 0.04330213
000200 8d ee c3 bc e6 39 38 bd 46 8a 24 bd 43 d2 5f bd
       -0.02391746 -0.04497709 -0.04017093 -0.05464388
000210 75 b6 66 bd ca 5e 83 bd 4b 89 47 bd 9f 38 ff 3a
       -0.05632635 -0.06414564 -0.048714917 0.001947183
000220 0f f3 4e bd 01 34 89 3a 23 f6 92 bd 34 46 2f ba
       -0.050524767 0.0010467769 -0.07175853 -0.00066861813
000230 a3 f8 58 bc 27 62 30 3d e7 3e bb bc f6 91 97 bc
       -0.013242873 0.043062355 -0.022857143 -0.018502217
000240 37 8c 10 bc b6 87 0d 3d 58 1f 11 bc 0a f3 0b 3d
       -0.008822492 0.034553252 -0.008857571 0.034167327
000250 2b 3a 9d 3c 67 a0 2a ba 9e c6 87 3c 74 b7 2d 3c
       0.019192776 -0.0006508887 0.0165742 0.010602821
000260 08 b2 92 3c cf 91 e2 bc 3d 37 ea 3b 20 9f 16 3d
       0.017907158 -0.027657418 0.007147698 0.036772847
000270 ab 03 e2 3c 3d 42 bb bc de 31 49 3d f4 38 23 bd
       0.02758964 -0.022858733 0.049119823 -0.039849237
000280 8f d2 3c bc 7d cb a1 3c d4 41 80 bb ff 80 f3 3c
       -0.01152481 0.019750351 -0.0039140973 0.029724596
000290 36 b3 94 bb c9 d2 c1 3c 01 a8 44 bd af 9a c3 bc
       -0.004537965 0.02366008 -0.048011784 -0.02387747
0002a0 03 2b 73 bd ee 13 c7 bc 0b 24 85 bb 46 61 3f 3c
       -0.05936719 -0.024301495 -0.0040631345 0.011680907
0002b0 be 72 b0 bc 4e aa 34 3c 78 72 46 bd 38 90 97 3b
       -0.021539088 0.011026932 -0.04844901 0.0046253465
0002c0 d9 e4 b3 bc c4 5e 41 3b c6 50 17 bc 26 df 3b bd
       -0.021959709 0.0029505948 -0.0092355665 -0.045867108
0002d0 43 9b aa 3a eb 3a 04 bd 63 e7 d2 bc 15 90 53 bd
       0.0013016242 -0.03228275 -0.0257451 -0.05165108
0002e0 86 9b cb bb 4b ab 33 bd 2e 98 a5 ba 43 b5 d4 bb
       -0.006213608 -0.04386453 -0.0012633854 -0.0064913346
0002f0 56 af a6 3c 31 40 ad bc ae 16 88 3c 1f 34 c6 3c
       0.020347279 -0.021148773 0.016612377 0.024194775
000300 2d a3 4f bc e3 98 b5 3b 23 b7 c7 3c 72 19 95 bc
       -0.0126731815 0.005541907 0.024379319 -0.01820061
000310 22 57 72 3d 11 ae 18 3d 7f 61 47 3c 5c 23 10 3d
       0.059165128 0.037275378 0.012169241 0.03518997
000320 73 f5 3e 3c 4f 84 aa 3c 76 6b 29 3d 27 07 93 b9
       0.011655199 0.020815043 0.04136225 -0.00028043354
000330 d8 9c 41 3d cc 20 d7 b9 a6 d6 27 3d f0 1e d1 3c
       0.04726872 -0.0004103243 0.04097619 0.025527447
000340 c0 78 6a 3c c5 d0 1d 3d b4 91 36 3d 07 4a eb bb
       0.014311016 0.038529176 0.044572547 -0.0071804556
000350 34 44 dc 3c c7 f6 f3 bb 77 24 10 3c 3c 0b 2d 3d
       0.02688799 -0.0074451896 0.008797756 0.042247042
000360 3d a6 7b 3c 31 94 d4 3c c0 bc f3 bb dd ea 0d 3d
       0.0153594585 0.02594957 -0.0074382722 0.03464781
000370 81 20 f2 3c 36 9a 94 3b af 74 7d bb aa 91 51 3d
       0.029556515 0.004534985 -0.0038674285 0.051164307
000380 ba 99 8c 3d cd 86 68 3c 77 75 68 3d 4c b6 22 3d
       0.068652585 0.014192295 0.05675265 0.039724633
000390 50 16 5b 3d b3 be 4d 3d 4a ea 24 3d 3f a6 c4 3c
       0.053488076 0.050230693 0.040262498 0.024005054
0003a0 25 07 41 3d 0d 68 0f 3d 90 9b 3c 3d 5c 63 a0 3c
       0.047125954 0.03501134 0.046046793 0.019578628
0003b0 62 4c b4 3b 0f b9 ad 3c d3 cf cb 3c d9 bf 97 3d
       0.0055022696 0.021206407 0.024879372 0.07409639
0003c0 69 57 dd 3c b1 fe 3a 3c d3 f6 75 3c 65 d0 13 3b
       0.02701922 0.011413262 0.015012461 0.0022554633
0003d0 eb 0d 27 bc ad bd c2 3b 71 a3 56 3b 1c af 14 3d
       -0.010196189 0.0059430213 0.0032751227 0.03629981
0003e0 0a 30 94 3c 00 25 76 bb 3c ca 1e bd 65 92 0f 3d
       0.018089313 -0.0037558675 -0.038767084 0.035051722
0003f0 7c bb 03 bd c7 48 87 3d 29 ac 83 3c 07 92 45 3d
       -0.03216122 0.06605678 0.016073303 0.048234966

classify.bias f4 [2]
000000 a6 38 10 3d 3c 3e 30 bc
       0.035210274 -0.010757025
