notebooks/outputs/temp_B08_fold3_last.pth (torch, 12776 bytes, 18 tensors)

conv_temporal.weight f4 [8, 1, 1, 64]
00000000: 5f6d 253d bb85 9fba ff85 84bc 8240 783d
00000010: c81a f63d 86b7 0fbd ab79 86bd 1ad5 f6bb
00000020: 5031 cf3c 8aa2 4abd 7b62 70bc 0084 b4bc
00000030: 7cb0 7d3d 7f9a 9f3d 9db7 f23d 1a0b 993d
00000040: 6eda 153d 9217 a7bd 860d 943c 6464 e1bd
00000050: cf6d f9bd 6ec5 ab3c 2407 113c 890e b43d
00000060: c5de 1a3e 321e 383d cd38 9d3d a455 ea3c
00000070: ccce d4bb 525a bebd 31ad 3ebd 44e8 9dbd
00000080: 5130 67ba 9500 253d 91d6 883d 1195 97bd
00000090: c3dd ff3d 2d69 823d 0216 9c3d 64e3 40bd
000000a0: 121b babd b66f b6bd 77ac 80bc 008b afbd
000000b0: fa87 21bb 897a 1b3e 485e 04bd 35e3 cd3d
000000c0: 66f5 9e3d d17d 5d3b e3e5 16bd d78f 31be
000000d0: bc6b dcbc dc53 39bd 6fb2 d0bc a97e 1dbd
000000e0: 2562 473d cb91 873d eae5 b53d ae26 d23a
000000f0: 6196 183c fa6f 2ebd a2cb c8bd d025 dc3c
00000100: 8693 19be 5d82 3dba cf7d dbbd 702c c2bd
00000110: 4137 b0bd 2d7e 9d3d 0c98 02bb fa66 b93c
00000120: 8546 9b3b 52a0 fabd 3158 8abd ef73 42bd
00000130: d48e 60be 3564 f53c 9448 dfbc f91d 713b
00000140: 84b8 fc3a 3a32 aa3a a660 8dbd 2a99 123d
00000150: e634 4dbb 6e03 1dbe f060 f73b 9585 1cbe
00000160: 9303 dfbd b463 87bd 8a0d 273d 4b76 ce3c
00000170: 3bc2 9d3c 302c 8ebc 834f 19bd 2394 1dbd
00000180: be2d cabd 5de1 18be 71e8 663c 9d5a 09be
00000190: 6e21 7f3a 5d31 373d f108 5ebc 7b55 103e
000001a0: ea84 aabc 9a87 e23c aee2 c83c dd65 133c
000001b0: 3e02 bebd 7850 8a3d b5c4 44bd 2b0a d2bd
000001c0: f16e ff3d 518e b73d 8acd 343d b3c9 09bd
000001d0: 40cb ba3d c222 e3bd 3988 ec3d 14f9 debd
000001e0: 70ad 893c f926 c43c 61a7 9e3c 5bbb 163d
000001f0: 9eaf a03d b5e2 94bc bc62 ec3d bd4b 523e
00000200: 630a abbb fbe8 8fbd e1ad 3abe b173 d7bb
00000210: 0d7c a13a 4b98 ebbd 5fe4 9abd 2155 d2bd
00000220: 14b9 98bd 607c 373e 1439 f8bc aeb2 383e
00000230: b53e b6bc bf94 b73d 66fb 8c3c a403 373d
00000240: 4f4f 343d 5b42 babd 4128 e13d 9986 183d
00000250: 4fdf 7bbd fb11 f73d a59c 8bbd fddd 68bd
00000260: 706b 113e f416 48bb 8346 eb3b 4147 09be
00000270: 9373 21be 5d4f 10bb a74a fa3b a5f7 01bd
00000280: f9c5 123d 5b3b 943d dee9 0d3e 0463 003d
00000290: b7d8 be3d bd85 b4bd 98bd 083d 9f2f 8bbd
000002a0: 7109 57bc 6760 b53d 7c5d a93d 6e6a 123d
000002b0: b5db 8cbc e354 8fbc 9b7d f53c 8d90 ff3c
000002c0: 07f2 4fbd 6251 443d e1dd 6dbd 1aff 9ebd
000002d0: a372 adbd 5ab5 d8bd bc8e bbbd a004 083d
000002e0: 8fd6 dc3d 7d77 fabc 8fef 633d 6102 a1bd
000002f0: 6970 14bb a86a e33d 0f65 1a3c 03e9 b53d
00000300: 4058 22bd cea8 2cbe 80bb d3bd 1e69 02bb
00000310: 4802 553d d280 b6bd 8d94 dcbd 4e66 d73d
00000320: ca30 e9bc fa4b cbbd 8cf4 e13d 5696 adbc
00000330: 507e 403d 8472 75bd 96e3 fe3c e726 f6bd
00000340: 26e9 573c e16d febd e92f 04bd eaf3 bfbd
00000350: b8ea 8cbd eda0 cd3d e2c1 c9bd 2609 58bd
00000360: 3dfa dd3d d035 00bc cec4 b13d 75d6 d03d
00000370: 5b4c 863c 081e 13bd 4a84 9d3d 905a 3abd
00000380: 31bc 01be f822 b23d 1e2d c7bd 3285 4fbd
00000390: cded 05be 5d57 ba3c b26e 813d 9649 813d
000003a0: a72a f73d c540 d53c 016d bf3b 1b3d bf3d
000003b0: 103b 6b3d 208b b13c af8b 463d 7266 eebb
000003c0: 6eac 18bd 9ec7 27bd 80d2 bdbd 75dd b93c
000003d0: c8e3 573b 2eb6 72bd 893e 6e3c 25bc d13c
000003e0: be83 da3d 47ca ca3d 120f cf3d 2672 d53c
000003f0: d9e8 173d d88e 76bd c84d ad3c 01f3 42be
0.040387508 -0.0012170592 -0.016177176 0.060608394 0.12016827 -0.03508713 -0.06566175 -0.007532728
0.025292069 -0.049471416 -0.014671917 -0.022035599 0.061935887 0.0779314 0.11851428 0.074728206
0.036585264 -0.081587926 0.018072855 -0.11005476 -0.121791475 0.020968165 0.0088518 0.08791835
0.15124042 0.04495067 0.076768495 0.02860529 -0.0064943787 -0.09294571 -0.046551887 -0.07710317
-0.00088191504 0.04028376 0.0668155 -0.07401479 0.124934696 0.06367717 0.07621385 -0.047091857
-0.090871945 -0.08908026 -0.015707238 -0.08571434 -0.0024647699 0.15183462 -0.032316476 0.10053102
0.0776165 0.0033796916 -0.03684033 -0.17340027 -0.02690684 -0.04524599 -0.025475709 -0.03845087
0.048677582 0.06619605 0.08881743 0.0016033256 0.009313197 -0.042587258 -0.09804465 0.0268735
-0.14997682 -0.00072292035 -0.107173555 -0.09481132 -0.08604289 0.07690082 -0.0019927053 0.02263211
0.004738631 -0.1223761 -0.067551024 -0.047473844 -0.21929485 0.029955009 -0.027256288 0.0036791547
0.0019281064 0.0012984939 -0.069032 0.0357906 -0.0031312048 -0.1533334 0.0075493976 -0.15285333
-0.108893536 -0.06610814 0.040784396 0.02520289 0.019257655 -0.017355055 -0.037429344 -0.038471352
-0.09872006 -0.1492972 0.014093504 -0.13413472 0.00097324594 0.04472481 -0.0135519365 0.14095108
-0.020815331 0.02765255 0.024522152 0.008996454 -0.092777714 0.067536294 -0.048039157 -0.10255846
0.12472332 0.089626916 0.04414133 -0.03363962 0.09120798 -0.11090614 0.1154942 -0.10887352
0.016806334 0.023944365 0.019366922 0.03679977 0.07845996 -0.018174509 0.115422696 0.20536704
-0.005219744 -0.070268594 -0.18230392 -0.006575071 0.0012320295 -0.11503657 -0.075630896 -0.10270143
-0.07457176 0.17918539 -0.030300654 0.18036911 -0.022246698 0.08963918 0.01720972 0.044681206
0.044020947 -0.090946876 0.10994006 0.037237737 -0.06149226 0.120639764 -0.06816987 -0.05685233
0.1420114 -0.003053126 0.0071800365 -0.13406087 -0.15766744 -0.002201996 0.007638294 -0.031730313
0.035833333 0.07237884 0.13858745 0.03134443 0.09318679 -0.08814571 0.033383936 -0.067961924
-0.01312481 0.08856278 0.08269784 0.03574603 -0.017194608 -0.017496532 0.02996712 0.031196857
-0.050767925 0.047929175 -0.05807293 -0.077635005 -0.08469131 -0.10581465 -0.09158084 0.033207536
0.10783111 -0.030574555 0.055648383 -0.07861782 -0.002265001 0.111043274 0.009423508 0.08882334
-0.039634943 -0.16861269 -0.10338497 -0.001989908 0.05200413 -0.08911289 -0.10770521 0.1051756
-0.028465647 -0.09926601 0.11032972 -0.02118985 0.04699546 -0.059923664 0.03111438 -0.12019139
0.0131781455 -0.124233015 -0.032272253 -0.09372695 -0.068807065 0.1004046 -0.09851433 -0.0527431
0.10838745 -0.00782533 0.08680116 0.101971544 0.016393831 -0.035917312 0.07691248 -0.045496523
-0.12669446 0.08698076 -0.09725402 -0.050664134 -0.13078995 0.022746736 0.063199416 0.063128635
0.12068682 0.026031861 0.0058418517 0.09337827 0.057429373 0.021672785 0.048473056 -0.007275396
-0.037273817 -0.040961854 -0.09268665 0.022688607 0.0032942165 -0.05925577 0.014541277 0.02560241
0.10669659 0.099018626 0.10110296 0.026055407 0.037087295 -0.06019482 0.021155253 -0.19038011

bn1.weight f4 [8]
00000000: 0067 033f a5e8 033f 7efa 023f 5d12 043f
00000010: 8644 053f 497c 033f 7e25 033f 9e3c 043f
0.5132904 0.5152686 0.5116347 0.5159052 0.52057683 0.5136152 0.51229084 0.51654994

bn1.bias f4 [8]
00000000: 4847 b4b8 287f 4fb8 3117 0ab8 d32b bdb7
00000010: 9ca7 5737 b534 7836 8b2f 8537 29ec 39b8
-8.596346e-05 -4.947107e-05 -3.2923363e-05 -2.2550963e-05 1.2854023e-05 3.698556e-06 1.5876974e-05 -4.432738e-05

bn1.running_mean f4 [8]
00000000: 0319 1338 9275 99b1 f039 ba37 7fbe 17b8
00000010: 823a ed38 ef07 86b9 23d7 0739 57e0 103a
3.5070825e-05 -4.4662523e-09 2.2199907e-05 -3.617862e-05 0.000113119386 -0.00025564383 0.00012954748 0.00055265933

bn1.running_var f4 [8]
00000000: 084c bc3e 6096 f33e 915c a23f d9db 883e
00000010: 0eb6 8c3f 3cb2 9d3f 82ac cb3e 2432 8b3f
0.36776757 0.47575665 1.2684499 0.2673023 1.0993059 1.2320018 0.3978005 1.0874677

conv_spatial.weight f4 [16, 1, 3, 1]
00000000: 1572 0e3e 7315 b23e 52e9 a43d a681 21bd
00000010: a411 163f a76e 47be 76cb e9be ed1d 8f3c
00000020: 1348 203e 6205 17bf c26f 1dbe 66be 6bbe
00000030: f46d 333e 1541 87bd c323 053f 8866 cc3d
00000040: 81dc 0b3e f537 a43e b1a5 83be a77b 18bd
00000050: 3d2e 143f f1f3 ac3e c11c 68bd b57e ecbe
00000060: 41ff 953d 20e1 963d d0a5 8abe 4de9 81be
00000070: 67f3 093e 416e 173d 96ac a8be f599 1f3f
00000080: 6b8c 593d e5b2 ffbe 69ff 623e c6a4 973d
00000090: 6737 173f 0d2e 86be 8d1c 4dbb 817a b2be
000000a0: b280 d9bd bf65 85be 34d6 663e 2284 a0be
000000b0: bace 90bd b256 b43e 1cd7 01bf 2dd6 dfbd
0.13910706 0.3478199 0.08052315 -0.039430283 0.5862067 -0.19475804 -0.4566304 0.017470324
0.15652494 -0.5899259 -0.15374663 -0.2302185 0.17522413 -0.0660421 0.52007693 0.09980494
0.13658334 0.32073942 -0.2571235 -0.0372273 0.57883054 0.33779863 -0.056668047 -0.4619042
0.073240764 0.07367158 -0.2707963 -0.25373307 0.13471757 0.03697038 -0.32944173 0.62344295
0.05311243 -0.49941173 0.22167744 0.07404475 0.5906891 -0.2620701 -0.0031297535 -0.34859088
-0.1062025 -0.2605419 0.2254265 -0.3135081 -0.0707068 0.35222393 -0.50718856 -0.10929523

bn2.weight f4 [16]
00000000: 64e9 9a3f df19 633f 7ff5 8c3f 46bd 823f
00000010: ccfb 6f3f 0abb 4e3f 406d 763f 32e3 8f3f
00000020: c262 903f 8028 863f 5704 973f 764e 7b3f
00000030: 97d0 8f3f 7d74 523f 79bb 823f 38c1 8f3f
1.2102475 0.8871135 1.101242 1.0214012 0.93743587 0.8075415 0.9626045 1.124121
1.1280138 1.048111 1.17982 0.98166597 1.1235532 0.82208997 1.0213462 1.1230841

bn2.bias f4 [16]
00000000: 5d98 9dbe 2a77 3ebe ddff 86be 0d2e f1bd
00000010: 3a30 f3bd ef18 c4bd ed01 13be 4e72 b3be
00000020: dc78 69be 1bf6 34be 1510 a3be f60b 10be
00000030: 46c1 4cbe 5f26 6ebd 71a6 7abe 5b1d 8abe
-0.30780306 -0.18600145 -0.26367083 -0.117763616 -0.11874433 -0.09575068 -0.14356203 -0.35048145
-0.2280001 -0.17672007 -0.31848207 -0.14067063 -0.19995603 -0.058142062 -0.24477555 -0.2697552

bn2.running_mean f4 [16]
00000000: df32 2fb8 17eb 2db8 7796 6037 e1cf 7938
00000010: c99b 4638 ad7b 6937 c1df 6bb7 1b60 ad37
00000020: 2127 a837 88d7 47b7 f055 6cb8 e470 83b5
00000030: e4ba 64b7 e678 4e37 d443 2837 abcb 8437
-4.177063e-05 -4.146536e-05 1.3386473e-05 5.955983e-05 4.7351965e-05 1.3916678e-05 -1.4059188e-05 2.066796e-05
2.0045381e-05 -1.1911507e-05 -5.634682e-05 -9.793116e-07 -1.3633373e-05 1.2306706e-05 1.0029373e-05 1.5830467e-05

bn2.running_var f4 [16]
00000000: 5e91 833d fe9e a13d fd8d e73c bb1c 3f3e
00000010: 1edd db3d 06b4 813d 0389 563d 526b 0e3d
00000020: 7a7a 4d3c 679e fa3b 6a70 763d bc9f e13c
00000030: 8eab 4f3d 374f d23d b7d6 703c 19be 1e3d
0.06424211 0.078916535 0.028265947 0.18663304 0.10735534 0.06333165 0.05237676 0.034770317
0.012541408 0.0076482776 0.0601658 0.027541988 0.050700717 0.10269015 0.0146996295 0.03875551

conv_separable_depth.weight f4 [16, 1, 1, 16]
00000000: 8496 f2bd 7e93 95be 16fd 87be 678a 95bd
00000010: 6d0e d3bd db64 08be 6447 43be b762 7abe
00000020: d535 1abe 7c02 7cbe 1884 61be 41bf 41be
00000030: 3999 25be 9420 58be 7626 8ebd 78e8 3fbe
00000040: 0704 e83b bf3f b93d 21ea 8f3e 104b 733e
00000050: 863a 36bd 15f5 8a3e 5220 943e ef6c b5bc
00000060: 4623 9e3d 1622 5cbd 5a8e 0ebd 6167 5abd
00000070: 0e16 ac3d ab95 3a3e 723a c0bc 3167 b5bd
00000080: 0914 853e 5954 75bd 3e18 4d3e 5845 903e
00000090: ecd7 533e 52f4 38bd 8e9e 933e 740e c83d
000000a0: 1572 c23d 6d23 e53d c324 9d3e 38a7 1fbc
000000b0: c7a8 393e 3086 a03d 1ae0 8fbd af3a 933e
000000c0: d5da b8bd b640 afbd 2ca2 9d3d 58c4 0ebe
000000d0: dab3 20be 73f6 3dbe 6b1a f5bc 809f 33be
000000e0: 8eef 69bc c24b abbc 2a0d 94be 4de0 5ebd
000000f0: 1784 60be fea5 1ebe 7b7f be3c c1ff 3b3c
00000100: b82e bdbc ed16 c7bc 4c0c 843e 4c49 fa3d
00000110: d29c d03d 27de 633e 3adb 1c3e 1fa2 f1bc
00000120: 2456 cf3c 7c09 543e 0158 f83d 5b00 d8bd
00000130: 43e0 db3d bc6f 133d 0752 b6bd 9af5 283e
00000140: 423a 9abd f256 aa3d 4c51 253e dccc db3c
00000150: d104 de3d 234c 19be 27f0 3b3e f674 7abd
00000160: 0f3e b7bc 010e a2bd 53f4 173d 0db4 2dbd
00000170: e111 4b3d 7e48 313e df1c 313d fff5 873b
00000180: feaf ec3d 75d9 fd3d 6608 333e 3069 ab3c
00000190: 04a2 b23d acc1 0f3e 0a8a a73d a4d0 ab3d
000001a0: cd21 673e 9584 053d fcc8 493e fcc4 253c
000001b0: 408a e23d a1cf f03d 1605 d53d d326 033e
000001c0: 4e62 06be 80f9 74bd 438b c5bb 98ab 25be
000001d0: 9b70 77be 0414 babc 1ca5 57be 75de 4fbd
000001e0: 0180 18be c8be f2bd 4bd6 59be a1fc 1ebe
000001f0: 2b1b 3abe 56e0 fdbd 9e1a adbd 55cd 8fbe
00000200: 68fa e9bd 69d2 893d 1907 30bd b003 d73d
00000210: dd09 20bd 857e 1a3c 4ff0 1ebe bf8f 6d3c
00000220: 2329 94be 26d3 26bd bd6a 8fbe a8b6 30be
00000230: 5cd3 4ebe 3a16 67be 1742 2ebe 6c38 2bbe
00000240: 5ff3 1dbd 506f 3b3d 03a6 023e d993 553e
00000250: 0d63 febc adb3 6c3e 095e 0e3e e6b7 2a3e
00000260: 0904 9ebc 85c1 95bc a22e ec3d b1e2 0a3e
00000270: a5e9 283e 0e20 393e 26b1 0f3e 3b79 02bd
00000280: ff69 4dbe cbaf 26be a345 c5bd 6016 31be
00000290: 540c 26be e67c 82bd d723 e8bd 029b bfbb
000002a0: c577 e5bd 9aaa 91be 90a6 29bd 1b26 5bbe
000002b0: 00e5 ccbd ecc4 933d 9710 64be 6d2d 5fbd
000002c0: 6e1c fa3d 4b1a 9ebc 05fb c93c 3edb f53a
000002d0: f379 6cbc 690a 7a3e ec23 173e caa2 523d
000002e0: efe4 e43d fbe4 293e bc09 9b3d 335a 633e
000002f0: 58b8 c43d 9b84 9e3d d735 473d 32ef 2dbd
00000300: ec03 183d f831 16be ce9d 4fbe a58c 87be
00000310: 45d4 09be d7af 4d3d eb01 903d 5c4e 1ebe
00000320: 3390 4cbe 1952 0dbe 4f28 5fbe 8076 39be
00000330: 02dc 23be d186 47be 3b9b f6bd 4b7a a8bd
00000340: 3f1b 21be 5e5d b53d b120 6dbd 1bc8 8d3d
00000350: fcc8 5bbd f1f0 17be a842 bc3d eda9 09be
00000360: a44b aabd 4a19 033e f2e9 0ebe 3199 bf3d
00000370: a948 ee3a 1e0f ddbd 9193 c53d 4a19 cebd
00000380: 7a4d d1bd f917 ab3c 91d2 0abe 652e 28be
00000390: 2f04 c33d 8c98 50be e09b 36be 8ce7 b6bd
000003a0: bdc5 3ebd 9c19 e5bd d8ca f33c 4823 eb3d
000003b0: 7b02 42be d73a cdbd 2828 00be 1827 33bd
000003c0: e17b 72be 5fec aabd 1ad6 263d 82dc 53be
000003d0: 33c1 2cbe 2664 a1bd 3554 38be c192 7fbe
000003e0: 13d2 9f3d 7727 5bbe 6a2d 12be 0ce5 3abb
000003f0: f867 83be 2855 c93d 845e 81bd b451 05be
-0.11845115 -0.2921409 -0.26560277 -0.07301789 -0.10305486 -0.13319723 -0.19070202 -0.24451719
-0.15059598 -0.24610323 -0.22023046 -0.18920614 -0.16171731 -0.21106178 -0.069409296 -0.18741024
0.007080558 0.09045362 0.28108314 0.23759103 -0.044489406 0.27140108 0.28930908 -0.02214667
0.077215716 -0.053743444 -0.034803726 -0.053321246 0.08402644 0.18221156 -0.023465369 -0.08857573
0.25991848 -0.059894893 0.20028779 0.28177905 0.20687836 -0.045154877 0.28831905 0.09768382
0.09494416 0.111883976 0.3069211 -0.009744458 0.1813079 0.07838094 -0.07025166 0.2875571
-0.09026114 -0.085572645 0.076969475 -0.13942087 -0.15693608 -0.18551044 -0.029919824 -0.17541313
-0.014278306 -0.020910148 -0.28916293 -0.05441313 -0.21925388 -0.15493008 0.023254147 0.011474551
-0.023093566 -0.024302924 0.25790632 0.122210115 0.10186161 0.22252713 0.15318003 -0.02949625
0.02530963 0.20706743 0.121261604 -0.10546943 0.10736134 0.03599523 -0.08902364 0.1649994
-0.07530643 0.08317365 0.16144294 0.026831083 0.108407624 -0.1497045 0.1835333 -0.0611467
-0.022368459 -0.07912827 0.03709824 -0.042408038 0.049577598 0.1731281 0.043240424 0.004149198
0.11557005 0.12394992 0.17483672 0.02092418 0.08722308 0.14038724 0.08180626 0.083894044
0.22571488 0.032597143 0.19705576 0.0101177655 0.11061525 0.11758352 0.10401361 0.12807779
-0.13123438 -0.059808254 -0.006028564 -0.16178739 -0.2416405 -0.022714622 -0.21059078 -0.05074926
-0.1489258 -0.11852795 -0.21273153 -0.15526058 -0.18174426 -0.12396304 -0.084523425 -0.28086343
-0.11424714 0.06729586 -0.04297552 0.1049875 -0.039071906 0.009429579 -0.15521358 0.014499604
-0.28937635 -0.04072871 -0.28011122 -0.17257178 -0.20197815 -0.22567073 -0.17017399 -0.16720742
-0.038562175 0.045760453 0.12758641 0.2085718 -0.03105309 0.23115416 0.13903059 0.16671714
-0.019289033 -0.018280754 0.11532332 0.13563038 0.16495378 0.18078634 0.1403242 -0.031853896
-0.20059966 -0.16277997 -0.09632423 -0.17293692 -0.1621564 -0.06371479 -0.11334961 -0.005847336
-0.11204485 -0.2845047 -0.041418612 -0.21401255 -0.10004616 0.07215294 -0.22271954 -0.05448668
0.12212454 -0.019299647 0.024655828 0.0018757356 -0.014433372 0.24418034 0.14759797 0.05142478
0.11176478 0.16591255 0.07570216 0.22202377 0.09605473 0.07740136 0.04863533 -0.042464443
0.037113115 -0.14667499 -0.20275041 -0.2647449 -0.1345988 0.050216522 0.07031616 -0.15459579
-0.19976883 -0.13800849 -0.2179272 -0.1811161 -0.16001895 -0.19485022 -0.120413266 -0.082264505
-0.1573305 0.08855699 -0.057892505 0.06922933 -0.05365847 -0.14838006 0.09192401 -0.13443728
-0.083152086 0.12802616 -0.1395643 0.09355391 0.0018179613 -0.10793899 0.09647287 -0.10063417
-0.102198556 0.020885454 -0.13556887 -0.16423948 0.09522282 -0.20370692 -0.17832899 -0.08930883
-0.046575297 -0.11186525 0.02975981 0.11481339 -0.18946259 -0.100209884 -0.12515318 -0.043738455
-0.23680069 -0.083458655 0.040731527 -0.20689586 -0.16870575 -0.0788043 -0.18000872 -0.24958326
0.0780374 -0.21401773 -0.14275137 -0.002851787 -0.2566526 0.098306954 -0.063168555 -0.13019449

conv_separable_point.weight f4 [16, 16, 1, 1]
00000000: 3629 f33d fd0f 03be 410f f2bd c742 903e
00000010: 3fb1 303d 6bb0 2fbe 21fa 18bd 4f6b 71be
00000020: a02f ae3e afa7 023e efc1 12bd 6b1d 70bd
00000030: cff4 5a3e 4580 7abd 3d32 9fba 84be 73bd
00000040: a345 083d e1d6 97bc 818a 763e 58a1 06be
00000050: acbc bfbc 3150 613c 19ae 9bbd eb8f e03d
00000060: 4dd9 18be 30cc 1e3e a557 a63e f2ce 213d
00000070: 921f a7bc 8edf 7f3d 2a7e 473e 02b0 033e
00000080: df5b 273e eea3 8bbd 21a3 1cbe 699f 233d
00000090: 2237 d2bd 03de a4bd 9ad3 103e ee8f 8fbe
000000a0: f8a8 5d3e 3aed b4bd a4b4 4dbe 7196 b5bd
000000b0: 8368 013e 527f 493d bf6d 20be 4b18 fcbd
000000c0: 7ba8 fd3c 3c48 f2bd 4807 27be c0de e7bc
000000d0: ed76 2abe 45f6 5cbb 1c05 9e3e a8bf 05be
000000e0: 56ec 1f3e b70a 64be f80e 35be c77d 11be
000000f0: 1789 953d 46c9 593c 05c8 ff3c 08f0 093d
00000100: e1e5 87bd 824e 2f3d 6ccf 823e 0703 69be
00000110: 2445 a03d 387a 76bd 8851 8ebd bc3a 323e
00000120: 1ac0 01be 141a 243e 5876 703e 98ac c7bc
00000130: 63b4 d43d ce6f 53ba dbbe 6c3e 7047 553e
00000140: 1258 b63b d17f f23b 44f4 f7bd d0a6 6abe
00000150: 186a c4bd 3bb9 b33d b690 edbd 4658 9a3d
00000160: 37b9 d5bd c0e3 e83d 5e9e 5f3e f0cc 583e
00000170: 45f6 12be cacc 35be b1c9 0e3e 0cc4 1a3e
00000180: 1b0a 6a3e 8ae9 33bd 2d99 5cbd 30d4 e33c
00000190: 2e63 2bbe e49a 2cbd ee95 3f3e 177e a9be
000001a0: f0de 0c3e b703 edbd 0f55 73be a798 38be
000001b0: 7ff9 c43c 955c 05bd dff4 84bc 2520 a83d
000001c0: e1c2 42bc 0af9 01bd 7b03 94bd 15c9 59be
000001d0: adc5 4b3e 5fd1 a2bc e627 96bc 7c0f 033e
000001e0: c360 77bd e2b5 b53c e9d4 af3d a7aa 1ebe
000001f0: 093d 79be 45a5 44be f492 b83d b8ee 233e
00000200: 70f2 3dbe 1b16 94bc c4b6 913e 5a60 31be
00000210: a844 433e 868a a93d c354 10be 0487 dc3d
00000220: b431 11bb 4c62 9c3d 68c3 753c c437 463e
00000230: c824 30be c294 db3d 30bf 083e 974c e83d
00000240: a49b b2be f5d5 043e 5201 973e 9a96 f2bd
00000250: 9a86 acbd 9c29 ebbd 94a5 3cbd 4d01 023e
00000260: 1e09 b7bd 5264 043e 83af 063d 31ed f63d
00000270: 21ab bd3d 3ad9 6ebd efbb cb3d da54 303d
00000280: e35f 88bc fea4 8f3d 4eb7 1a3e 2d35 76be
00000290: adb9 2f3e 0a84 6a3d 581b 873d 8ad3 423e
000002a0: 03af 8bbe 0afe 803a b380 493e a8a8 f6bc
000002b0: 4092 c2bd a727 083e e871 5f3d 25dd 5a3e
000002c0: a748 043e 3d50 36be ab1c 87bd 4428 a0bd
000002d0: 94de 38be 7ac3 403e a956 5c3d 7087 cabd
000002e0: 4b82 083e 77a0 51be f10a cabd cb87 80be
000002f0: 57e4 1fbd bd92 d33d 5414 fe3d f407 3abe
00000300: 777d 5a3e abad e8bd 8d11 4abe 7958 113e
00000310: 19b7 04be 5b41 1cbb 199e 643e 4b4b a83b
00000320: 7e04 593d 868e e3bd 0604 6cbe abd1 97bd
00000330: 8477 3a3e f993 af3d 9380 57be c233 2abe
00000340: 9178 543e c977 e3bd 9419 09be b99d 233e
00000350: c80c 81bd e7b7 a2bd 2124 823d 3714 99be
00000360: 8934 153e 9116 c7bd 8255 42be 1ebc c8bd
00000370: ccf8 113e ba61 87bc c40b c6bd e82e 8cbc
00000380: 4889 443d 8ff1 12bd 53c6 39bd 5536 f43d
00000390: b0e3 8dbd 6c06 7dbd 3a02 633e 2e1e 31be
000003a0: a6af 253e 514d 38be 4377 20be ae16 85be
000003b0: b0b4 0a3e ea0b 44bb 4799 bebd eea2 fbbd
000003c0: 1552 48be 16de 913d 0778 733e dda6 0cbd
000003d0: e143 fa3d 9b74 d5bd b750 ac3b aa0d 3f3d
000003e0: f4d8 f3bd 93c2 5f3e caf5 66bd 09c1 623c
000003f0: 22e7 5cbe 00db a13d 6745 a13d ae15 723d
0.11873095 -0.12799068 -0.11819316 0.28175947 0.043137785 -0.17157142 -0.037347917 -0.23576091
0.3402071 0.12759279 -0.03582948 -0.058621805 0.2138245 -0.061157484 -0.001214571 -0.05950786
0.033269536 -0.01853508 0.24076273 -0.13147485 -0.023405395 0.013752029 -0.07601566 0.1096495
-0.14926644 0.15507579 0.32488742 0.039504 -0.020400796 0.062469058 0.19481722 0.1286011
0.1634364 -0.068183765 -0.15296604 0.039946947 -0.10264422 -0.08050158 0.1414322 -0.28039497
0.21646488 -0.0883431 -0.2008844 -0.08866585 0.12637524 0.049193688 -0.15666865 -0.12309321
0.030964127 -0.11830184 -0.16311371 -0.028304458 -0.16646929 -0.0033716124 0.30863273 -0.13061392
0.15617499 -0.22269712 -0.17681491 -0.14208136 0.073015384 0.013292616 0.031223306 0.033676177
-0.06635643 0.04279948 0.25548875 -0.22755061 0.078256875 -0.06017515 -0.069491446 0.17405218
-0.12670937 0.16025573 0.23482645 -0.024374291 0.103859685 -0.00080656714 0.2311968 0.20828032
0.005564698 0.007400491 -0.12107137 -0.22915196 -0.09590548 0.08775564 -0.11599867 0.07536368
-0.104357176 0.11371565 0.21837756 0.21171927 -0.14351757 -0.17753902 0.13944127 0.15113848
0.22855417 -0.043923892 -0.053857017 0.02781114 -0.16737053 -0.042139903 0.18709537 -0.3310401
0.13756919 -0.11572974 -0.23762916 -0.18026982 0.02404475 -0.032558996 -0.016230045 0.08209256
-0.011887283 -0.031731643 -0.07227226 -0.21268113 0.19899626 -0.019875227 -0.018329572 0.12798876
-0.060395014 0.022181455 0.08585531 -0.15494786 -0.2433969 -0.1920367 0.09012404 0.16009033
-0.18549514 -0.018076947 0.28459752 -0.17321911 0.19069159 0.082783744 -0.14094834 0.1076794
-0.002215487 0.07635936 0.015000202 0.1935721 -0.17201531 0.10721733 0.13354182 0.11342733
-0.3488437 0.12972243 0.29493195 -0.11845131 -0.08424111 -0.11482546 -0.046056345 0.12695809
-0.08937286 0.12928894 0.032882225 0.120569594 0.09261156 -0.058312632 0.09947955 0.04304967
-0.016647285 0.07013892 0.15108988 -0.24043722 0.17160673 0.05725483 0.06597012 0.19026008
-0.2728196 0.0009841335 0.19678001 -0.030109718 -0.09500551 0.13296376 0.05455199 0.21373422
0.1291834 -0.17804046 -0.06597265 -0.0782018 -0.18053657 0.18824568 0.053793583 -0.09889114
0.13330953 -0.20471369 -0.09865368 -0.25103602 -0.03903612 0.103307225 0.12406221 -0.18167096
0.21336924 -0.113612495 -0.19733258 0.14193906 -0.12960471 -0.0023842666 0.22325934 0.0051359287
0.0529828 -0.111111686 -0.2304841 -0.07413038 0.18209654 0.085731454 -0.21045141 -0.16621307
0.20749117 -0.111068316 -0.13388664 0.15978135 -0.06301266 -0.07945233 0.06354547 -0.29898235
0.14570822 -0.09721101 -0.18977931 -0.098015055 0.14255065 -0.016526092 -0.09670213 -0.01711221
0.047982484 -0.0358749 -0.045355152 0.119244255 -0.069281936 -0.061773703 0.22168818 -0.17296669
0.16180286 -0.17998244 -0.15670495 -0.25993866 0.1354549 -0.0029914328 -0.09306579 -0.12286936
-0.19562562 0.07122438 0.23776256 -0.03433882 0.12219978 -0.10422631 0.0052586454 0.04664389
-0.11906615 0.21851568 -0.056386746 0.0138399685 -0.21572545 0.07903099 0.078745656 0.059102707

bn3.weight f4 [16]
00000000: a864 7f3f 2045 963f ea81 893f d6b9 813f
00000010: 4624 943f 0c4d 8f3f 0d56 893f 8846 8b3f
00000020: df68 963f 4349 943f 1428 923f 989f 813f
00000030: 85f8 873f d5f1 8c3f 20c7 823f 2989 8f3f
0.99762964 1.1739845 1.0742772 1.0134838 1.157357 1.1195388 1.0729386 1.08809
1.1750754 1.1584858 1.1418481 1.0126829 1.0622717 1.1011301 1.0217018 1.1213733

bn3.bias f4 [16]
00000000: 1054 82bc bcd6 203d b3fc 013b e49a 3bbb
00000010: f24a 0c3d 07e4 b23c ae9b 08bc 24b1 a33c
00000020: f277 e73c c95f ae3c 9835 de3c 7d04 cbbc
00000030: 497c 3dbb 012c 2c3c c452 703a 1f07 823c
-0.015909225 0.039267287 0.0019834458 -0.0028626258 0.03425116 0.021837248 -0.008337898 0.019981928
0.028255437 0.021285908 0.027125165 -0.024782414 -0.002891319 0.010508538 0.00091676065 0.015872536

bn3.running_mean f4 [16]
00000000: 3455 aebd 7504 803d 0359 a6bd f67e 19bd
00000010: 6ffe 8e3d 83ff aa3d 4c8b 99bd db07 ad3d
00000020: 1eac 863d 62f4 d23c 8829 bb3d 8d03 0fbd
00000030: 0a0e 6abd b829 bebd e870 a0bd ae22 223d
-0.08512345 0.0625085 -0.081224464 -0.037474595 0.06982123 0.08349516 -0.07497272 0.08448764
0.065757975 0.025751296 0.09138781 -0.034915496 -0.057142295 -0.09285301 -0.07834035 0.039583854

bn3.running_var f4 [16]
00000000: e4e3 133e db75 033e f5fa 023e 4474 c53d
00000010: e30a 123e f527 b83d 75f5 f83d 9fc1 b13d
00000020: 0484 153e d7fc 133e 5b4e fc3d 6ae0 b03d
00000030: 2a2b 193e 4e7d fa3d cb29 c43d e9aa 163e
0.14442402 0.12837927 0.12791045 0.096413165 0.14261965 0.08991996 0.12156192 0.086795084
0.14601141 0.1445192 0.123196326 0.086365536 0.14957872 0.12230931 0.09578284 0.14713635

classifier.weight f4 [2, 16]
00000000: 5f74 103e 25b3 a9bd c5b8 873e f636 323e
00000010: a267 5abd ecfc 56be 8f4c aa3e 5f76 803d
00000020: 709e d2be a320 c1be 70b9 8abe 9282 6a3e
00000030: ab51 003e 83f5 653e 6dc3 003d a699 a0be
00000040: d919 50be 0b27 923e 0377 b5be efde a3bd
00000050: 64d4 c13e 9cc2 8f3e e1b3 fabd 148b 8c3e
00000060: 3974 2dbd 6574 0d3e e144 813e b2b9 93bd
00000070: f62c bebe a4cf 24be 8b7b 4cbe 1b08 7a3e
0.14106892 -0.08286122 0.26508155 0.17403778 -0.05332149 -0.2099492 0.33261535 0.062725775
-0.41136503 -0.37720212 -0.27094603 0.22901371 0.12531154 0.22456937 0.031436373 -0.31367224
-0.2032236 0.28545412 -0.3544236 -0.080015056 0.37857354 0.28078163 -0.122413404 0.27449858
-0.042347167 0.13813932 0.25247863 -0.07213153 -0.37143677 -0.16094834 -0.19969003 0.24417154

classifier.bias f4 [2]
00000000: 1011 0e3e e1f5 4cbe
0.13873696 -0.2001567
