notebooks/outputs/temp_B07_fold2_best.pth (torch, 12776 bytes, 18 tensors)

conv_temporal.weight f4 [8, 1, 1, 64]
0.030206582 -0.048858058 0.059421446 -0.123360485 -0.1216881 0.07029976 0.0098630935 0.06643158
-0.022128845 0.08548131 -0.054772932 -0.16983277 -0.108206816 0.008274815 -0.041352056 0.12172748
-0.040928293 0.07752265 -0.007062744 0.03123627 0.048799485 -0.053401902 0.08646356 -0.10836837
-0.015895074 -0.0025398934 -0.008832967 0.118317746 0.061656475 0.043669134 -0.052289285 -0.05748577
-0.10284482 -0.08083335 0.025049107 0.0021732692 0.023625705 0.03223762 -0.033374667 -0.10862197
0.076162875 0.05960621 0.02886934 0.0010169966 0.0595693 0.010390539 0.008401834 0.061902057
0.07100344 -0.10453631 0.10134713 0.061694443 0.063930996 -0.16327527 -0.033092424 0.01095582
-0.007169283 -0.05891968 0.035124134 -0.13505694 0.063706085 0.08939587 0.055936147 0.109707296
-0.1328027 -0.17287251 -0.032203414 -0.009121044 0.035957526 0.080690324 -0.013213735 0.041875683
0.13211802 -0.041614074 0.033046905 0.030595789 0.08219433 0.061270732 0.05592613 -0.026091017
0.025545292 -0.12917936 -0.07939585 0.011709583 0.0641247 -0.12531626 -0.08036179 0.0115674
-0.03935687 0.093503155 -0.030859524 -0.014081721 0.17207314 -0.034461867 0.16876127 -0.07439793
0.03857916 0.0015715098 0.0072567253 -0.006389491 0.0113194175 0.042878605 -0.14969975 0.02383894
-0.117699176 -0.10383464 0.014626811 -0.082822084 0.094123565 -0.059862174 0.107442886 0.07469537
0.057506584 -0.10101336 0.03684985 0.11190671 0.079958275 0.038946733 -0.05303062 0.08468729
-0.12370298 0.0070278477 0.010124811 -0.10238833 -0.14365262 0.038662724 0.018047713 -0.055435143
-0.08302879 -0.10939281 -0.13380533 -0.08404626 0.014587451 0.04854796 -0.11083157 0.12458362
0.072355084 0.055928815 0.03861912 0.01399542 0.022668527 -0.008696215 0.13017276 -0.011379801
-0.042359143 0.046226367 0.09925533 -0.10891791 -0.11593059 -0.05293266 -0.018698841 -0.11998672
-0.014391347 0.046563894 -0.05860045 0.11862203 0.0961963 0.101914294 -0.014547808 -0.061999965
0.08685487 0.0250164 0.029475104 -0.057874884 -0.036797628 0.043264955 -0.09600603 -0.0971352
-0.09370944 -0.0075929863 -0.018645542 -0.064981826 -0.037363246 0.06767628 0.0288775 0.05787199
0.08567581 -0.056051187 -0.002456896 0.0035292532 0.089263566 -0.023742752 -0.11471377 -0.030940682
0.009349304 -0.06428803 -0.10123191 -0.1335234 -0.043808896 -0.028440578 -0.047764413 0.011770355
-0.011576398 -8.575696e-05 0.11950318 0.18418106 0.021128071 0.06436021 0.045918565 0.10153844
-0.10344671 0.027477693 0.07514108 -0.006566058 -0.12224286 0.06763027 -0.071349025 -0.02521919
-0.107693076 -0.10766392 0.1260883 0.0038046872 0.0610479 0.0049715973 0.13618283 0.008055594
-0.026937412 0.1677515 0.030658308 -0.009767378 0.047378585 -0.037997093 0.11446735 0.02935498
-0.06685838 -0.080384135 -0.07383618 0.018264942 -0.008625125 0.009433414 -0.022854961 -0.11548975
0.11394841 0.14350434 -0.0119131 0.0022192888 0.15030584 0.111978896 -0.015889276 0.048569065
-0.011015383 0.03586889 0.06992203 -0.061602205 -0.05780268 -0.035261273 0.022907285 -0.1271199
-0.0722066 -0.035889227 0.020680808 -0.0057950187 0.013430436 0.06944983 0.013069975 0.18154019
00000000: cb73 f73c 631f 48bd e763 733d 6ca4 fcbd
00000010: 9c37 f9bd 52f9 8f3d d098 213c 480d 883d
00000020: 8d47 b5bc d310 af3d 9559 60bd a4e8 2dbe
00000030: 899b ddbd 1793 073c c660 29bd 424c f93d
00000040: 6da4 27bd 32c4 9e3d 976e e7bb 35e3 ff3c
00000050: f8e1 473d f4bb 5abd cf13 b13d 3cf0 ddbd
00000060: 6336 82bc 5774 26bb 26b8 10bc 9350 f23d
00000070: 808b 7c3d 68de 323d 4a2d 56bd 3376 6bbd
00000080: 4ea0 d2bd f58b a5bd c933 cd3c 686d 0e3b
00000090: b28a c13c 980b 043d e0b3 08bd 3275 debd
000000a0: 48fb 9b3d a425 743d 657f ec3c be4c 853a
000000b0: f0fe 733d 143d 2a3c d9a7 093c 038d 7d3d
000000c0: 406a 913d 2217 d6bd 168f cf3d 50b3 7c3d
000000d0: 41ee 823d a231 27be ec8b 07bd 0a80 333c
000000e0: 4eec eabb c355 71bd 53de 0f3d 5e4c 0abe
000000f0: 5678 823d 2f15 b73d 4d1d 653d 38ae e03d
00000100: 6efd 07be 7e05 31be bae7 03bd 6e70 15bc
00000110: 3348 133d f840 a53d 6c7e 58bc d685 2b3d
00000120: f249 073e 8573 2abd 315c 073d 05a4 fa3c
00000130: 8055 a83d 05f7 7a3d cc12 653d d4bc d5bc
00000140: 5c44 d13c 9847 04be 4b9a a2bd 8dd9 3f3c
00000150: d053 833d e852 00be b994 a4bd 3185 3d3c
00000160: ab34 21bd 957e bf3d 1dcd fcbc 05b7 66bc
00000170: f133 303e e327 0dbd c1cf 2c3e f15d 98bd
00000180: 2e05 1e3d 1efb cd3a d3c9 ed3b ef5e d1bb
00000190: 1475 393c 7aa1 2f3d e44a 19be e149 c33c
000001a0: 440c f1bd 41a7 d4bd 4ba5 6f3c a09e a9bd
000001b0: dbc3 c03d 0a32 75bd 040b dc3d e3f9 983d
000001c0: 068c 6b3d 18e0 cebd deef 163d 582f e53d
000001d0: 2ac1 a33d 9c86 1f3d a336 59bd 8870 ad3d
000001e0: fd57 fdbd dc49 e63b 89e2 253c f9b0 d1bd
000001f0: ac19 13be ce5c 1e3d ccd8 933c f60f 63bd
00000200: 000b aabd 5609 e0bd 4404 09be 7220 acbd
00000210: 3400 6f3c 3ada 463d aafb e2bd b225 ff3d
00000220: e72e 943d 9d15 653d 152f 1e3d 0c4d 653c
00000230: 59b3 b93c 927a 0ebc 024c 053e 5872 3abc
00000240: c880 2dbd dc57 3d3d 6146 cb3d 5a10 dfbd
00000250: 046d edbd ebcf 58bd 502e 99bc 99bb f5bd
00000260: afc9 6bbc c8b9 3e3d 0707 70bd 1bf0 f23d
00000270: 9102 c53d 71b8 d03d ee59 6ebc adf3 7dbd
00000280: f7e0 b13d 31ef cc3c c675 f13c 370e 6dbd
00000290: 1cb9 16bd 9836 313d cf9e c4bd d2ee c6bd
000002a0: bcea bfbd 96ce f8bb 89be 98bc 3115 85bd
000002b0: 340a 19bd dd99 8a3d 8290 ec3c 2e0b 6d3d
000002c0: cd76 af3d ee95 65bd e003 21bb 0b4b 673b
000002d0: d1cf b63d 2980 c2bc 0eef eabd 5077 fdbc
000002e0: d32d 193c 71a9 83bd ad52 cfbd 5cba 08be
000002f0: f570 33bd 37fc e8bc 9ea4 43bd 72d8 403c
00000300: efaa 3dbc 6bd8 b3b8 15be f43d f699 3c3e
00000310: c714 ad3c 49cf 833d 1b15 3c3d 63f3 cf3d
00000320: dedb d3bd e618 e13c 91e3 993d 1628 d7bb
00000330: 775a fabd bd81 8a3d 701f 92bd 7a98 cebc
00000340: 308e dcbd e77e dcbd 4b1d 013e 0f58 793b
00000350: 5d0d 7a3d c8e8 a23b 8373 0b3e 9cfb 033c
00000360: d9ab dcbc 0dc7 2b3e 2227 fb3c 5a07 20bc
00000370: 0c10 423d d7a2 1bbd dc6d ea3d db79 f03c
00000380: 0ced 88bd 70a0 a4bd 6c37 97bd 5ca0 953c
00000390: 6550 0dbc 9b8e 1a3c 543a bbbc e485 ecbd
000003a0: c95d e93d cdf2 123e 2a2f 43bc 7d71 113b
000003b0: c6e9 193e 3155 e53d 3a2a 82bc 5bf0 463d
000003c0: dd79 34bc 42eb 123d 4833 8f3d 9852 7cbd
000003d0: 81c2 6cbd 206e 10bd 0fa8 bb3c b82b 02be
000003e0: 0ee1 93bd 9500 13bd cc6a a93c 24e4 bdbb
000003f0: 550b 5c3c b63b 8e3d 7323 563c ace5 393e

bn1.weight f4 [8]
0.6691179 0.6721003 0.6695591 0.6692802 0.66918445 0.6693555 0.6693999 0.6690596
00000000: 504b 2b3f c40e 2c3f 3a68 2b3f f255 2b3f
00000010: ac4f 2b3f e25a 2b3f cb5d 2b3f 7d47 2b3f

bn1.bias f4 [8]
-5.485561e-06 -7.5712824e-06 4.622315e-06 1.5062106e-05 -7.3662686e-06 1.4405259e-05 -2.2780912e-05 1.6815851e-06
00000000: 9c10 b8b6 d20c feb6 6219 9b36 41b3 7c37
00000010: c42b f7b6 1eae 7137 a319 bfb7 d3b2 e135

bn1.running_mean f4 [8]
-3.8509184e-05 0.0001674284 0.0002984944 -0.0002708822 -9.44621e-05 -0.00012934134 9.433641e-05 0.000341207
00000000: ec84 21b8 b88f 2f39 3d7f 9c39 3205 8eb9
00000010: f419 c6b8 cd9f 07b9 79d6 c538 07e4 b239

bn1.running_var f4 [8]
0.36925337 0.77491236 0.7874582 0.82954556 0.33674335 0.5632603 0.30579638 0.6383037
00000000: c70e bd3e a860 463f dc96 493f 195d 543f
00000010: a069 ac3e d431 103f 5891 9c3e df67 233f

conv_spatial.weight f4 [16, 1, 3, 1]
0.47263557 0.46434918 -0.11483074 -0.19232453 -0.34273914 -0.09685329 -0.3392839 -0.15424095
0.39835122 -0.09040367 0.16562401 -0.007997536 0.23053983 0.15066682 0.62231046 -0.2181938
-0.02976316 0.4503124 -0.2138945 0.3878556 0.023314679 -0.34883857 -0.3225855 0.42738447
0.011632318 0.60936326 0.110685624 0.091953464 -0.029778732 0.32203734 -0.22229405 -0.266677
-0.16381884 -0.22055304 -0.080828466 0.44204783 -0.37269643 0.17098998 0.54040325 0.43228844
-0.13055465 -0.17949377 -0.1864263 -0.03004413 0.23570825 0.37295625 -0.52089393 -0.27541766
00000000: 4afd f13e 2dbf ed3e 612c ebbd b9f0 44be
00000010: 817b afbe 055b c6bd 9fb6 adbe 57f1 1dbe
00000020: b1f4 cb3e 8f25 b9bd 5799 293e 1908 03bc
00000030: a212 6c3e 6748 1a3e bd4f 1f3f 326e 5fbe
00000040: dfd1 f3bc 598f e63e 2907 5bbe 0295 c63e
00000050: 6dfe be3c f89a b2be ed29 a5be 23d2 da3e
00000060: 7a95 3e3c 3bff 1b3f 25af e23d 1952 bc3d
00000070: 87f2 f3bc 14e2 a43e 0da1 63be e389 88be
00000080: 20c0 27be a8d8 61be 6589 a5bd 1854 e23e
00000090: 11d2 bebe ff17 2f3e de57 0a3f e954 dd3e
000000a0: 1eb0 05be 37cd 37be 89e6 3ebe 1b1f f6bc
000000b0: 815d 713e 1ff4 be3e 4e59 05bf 8b03 8dbe

bn2.weight f4 [16]
1.0984337 0.98702544 0.8773694 1.027693 1.1021374 1.1672736 1.1364282 0.8941725
0.9474498 0.9110891 0.8435236 1.1751019 1.0639611 0.84409523 0.9005109 0.9530816
00000000: 7a99 8c3f b3ad 7c3f 489b 603f 728b 833f
00000010: d712 8d3f 3969 953f 7b76 913f 7de8 643f
00000020: 128c 723f 233d 693f 2af1 573f bd69 963f
00000030: e12f 883f a016 583f e287 663f 28fd 733f

bn2.bias f4 [16]
-0.19955072 -0.14567752 -0.08071266 -0.18869187 -0.16294949 -0.2173563 -0.22608864 -0.11853895
-0.06658352 -0.19454063 -0.09347389 -0.26113355 -0.20780809 -0.05498946 -0.023774087 -0.15929925
00000000: 0657 4cbe 7d2c 15be ae4c a5bd 7138 41be
00000010: 3bdc 26be a692 5ebe c883 67be 8dc4 f2bd
00000020: f15c 88bd a935 47be 3d6f bfbd 4cb3 85be
00000030: a5cb 54be a13c 61bd e0c1 c2bc 581f 23be

bn2.running_mean f4 [16]
-1.506831e-05 5.917179e-06 -2.193301e-05 5.943456e-06 -2.558516e-05 -4.8227896e-05 1.5577332e-05 4.6838417e-05
1.9624878e-05 5.0715203e-06 -5.5319024e-06 3.4926117e-05 -6.30622e-05 3.33668e-05 -2.8613997e-05 3.686741e-05
00000000: e6cd 7cb7 2e8c c636 c8fc b7b7 e66d c736
00000010: b69f d6b7 4f48 4ab8 11ac 8237 5e74 4438
00000020: 1ba0 a437 072c aa36 ae9e b9b6 a27d 1238
00000030: 4340 84b8 54f3 0b38 1708 f0b7 14a2 1a38

bn2.running_var f4 [16]
0.24450585 0.112448506 0.06849736 0.010606291 0.29136348 0.057679303 0.056267068 0.11233354
0.19379072 0.06509029 0.11123448 0.060091075 0.14237225 0.04682802 0.018920828 0.12705457
00000000: be5f 7a3e 674b e63d 5848 8c3d 02c6 2d3c
00000010: 982d 953e 2241 6c3d 4c78 663d 210f e63d
00000020: 1371 463e 0f4e 853d e7ce e33d 0f22 763d
00000030: 08ca 113e bdce 3f3d daff 9a3c 981a 023e

conv_separable_depth.weight f4 [16, 1, 1, 16]
-0.12728971 -0.09105207 -0.17379695 0.004107293 -0.02670475 -0.25687832 -0.0047636377 -0.048414584
-0.17010748 -0.044013936 0.018366557 -0.1555414 -0.21529393 -0.11186357 -0.16793363 -0.29076192
-0.04831374 -0.14034486 -0.23768888 -0.12790333 0.042753786 -0.23245241 -0.23455776 0.038610432
-0.24907002 -0.17636439 -0.18636665 -0.07003136 -0.03953151 -0.018653216 0.015260764 0.048964657
0.010951521 -0.15251525 -0.09100069 0.2718613 -0.014486373 -0.08867031 0.05808833 0.09409659
0.011148765 -0.02723363 0.01623297 0.090138584 0.21729621 0.13827996 -0.11050613 0.17678107
-0.03422107 -0.13215223 -0.03848351 -0.096410446 -0.055192966 0.025294181 -0.1374357 -0.19938311
-0.16698636 -0.15176311 -0.13211155 -0.11505533 0.037683826 -0.049897715 -0.043987643 0.017803222
-0.30046573 0.07568506 0.06039171 -0.14533836 -0.075821 -0.18206322 -0.11570114 -0.07149387
-0.19565657 -0.15293702 -0.19130515 0.075918995 -0.24319229 0.07501468 -0.18721543 -0.043628525
-0.2890591 0.020568226 -0.27610928 0.016070843 -0.21346325 -0.2007912 -0.2702923 -0.107601225
-0.22437201 -0.083341524 -0.14868808 -0.10647289 -0.12586524 -0.00880392 -0.19475947 -0.06291737
-0.0024158747 0.081457935 0.2734287 -0.08670977 -0.048200935 0.23380043 0.11107522 0.24493855
0.23719051 0.173321 0.2618644 0.11296804 0.2730524 0.024030542 0.16637231 0.14209807
-0.037853323 -0.18313155 -0.0068522748 0.011735556 -0.1389206 0.04596187 -0.18853372 -0.2281352
-0.019760849 -0.033423986 -0.021701405 -0.229705 0.06912895 -0.116744936 0.12813209 -0.042984717
0.00068476214 0.019594323 -0.1021862 -0.073037446 0.033385344 0.02902524 0.033854686 -0.1919232
-0.1538734 -0.115553424 -0.2050617 -0.09878902 0.15577114 -0.04521513 -0.109478794 -0.20743732
-0.20239037 -0.0050436035 0.009678846 -0.22625437 -0.20256187 -0.015740354 -0.19502807 0.10764992
-0.14206366 0.0246806 -0.027081069 0.0006605935 -0.17131203 -0.10906288 -0.20168771 0.0048212856
-0.13074678 0.07402462 -0.1179035 0.08672069 0.056476913 -0.0018559794 0.0013316527 0.012693838
-0.046187446 -0.14037403 -0.0021120794 -0.034296643 0.081299886 -0.0019113077 -0.13330227 -0.11951619
0.18575631 0.2855104 0.18071115 0.22433631 0.010322047 -0.06166592 0.27743283 -0.008073997
-0.02715528 0.22860035 0.017884286 0.18019234 0.21221364 0.17559324 0.19932915 0.2882084
0.15783955 0.28984347 0.1383752 -0.03188475 0.08201735 0.2097936 0.1244155 0.27389145
-0.048342414 0.034641664 0.0427854 0.0007934158 0.07735301 0.23188521 0.16327831 0.24118465
0.079698585 0.041207124 -0.20440619 -0.098386444 -0.025247922 0.14848974 -0.10996292 0.040848948
-0.16507667 0.17027973 -0.04870301 -0.0030515364 -0.13950673 -0.09197447 -0.03208527 0.092341736
-0.08201422 -0.00047764942 0.106558375 0.18887 -0.042979315 -0.031451803 0.07623991 0.039899834
0.092422076 -0.03643586 -0.09646365 0.079894595 0.22880903 0.04780573 -0.14955439 0.072231114
-0.14541237 -0.18878989 0.1370098 0.043508388 -0.31504872 -0.19152793 0.13129538 -0.215094
0.09660955 -0.017830078 0.062453717 -0.22548036 -0.052255366 0.009642889 -0.24058361 0.08653645
00000000: 3c58 02be 8279 babd d4f7 31be 7996 863b
00000010: ebc3 dabc 8e85 83be 4a18 9cbb 5f4e 46bd
00000020: a830 2ebe f547 34bd 7675 963c 3f46 1fbe
00000030: 0376 5cbe ba18 e5bd cbf6 2bbe bfde 94be
00000040: a1e4 45bd 90b6 0fbe b764 73be 17f9 02be
00000050: 981e 2f3d 0108 6ebe e92f 70be f925 1e3d
00000060: 360c 7fbe de98 34be e6d6 3ebe 9a6c 8fbd
00000070: cbeb 21bd a1ce 98bc 4908 7a3c 2a8f 483d
00000080: 026e 333c f52c 1cbe 925e babd 6831 8b3e
00000090: 4158 6dbc c898 b5bd 07ee 6d3d b7b5 c03d
000000a0: 4fa9 363c 1019 dfbc 01fb 843c 949a b83d
000000b0: e682 5e3e 4399 0d3e 0a51 e2bd 1906 353e
000000c0: 652b 0cbd ea52 07be e3a0 1dbd d772 c5bd
000000d0: 0512 62bd be35 cf3c f2bb 0cbe 162b 4cbe
000000e0: 79fe 2abe ca67 1bbe 4048 07be 21a2 ebbd
000000f0: 5b5a 1a3d 8c61 4cbd 632c 34bd 10d8 913c
00000100: a5d6 99be c500 9b3d 4c5d 773d 94d3 14be
00000110: 0a48 9bbd c86e 3abe b8f4 ecbd 616b 92bd
00000120: 325a 48be 869b 1cbe 7fe5 43be 6b7b 9b3d
00000130: 6607 79be 4ca1 993d 67b5 3fbe d3b3 32bd
00000140: 8eff 93be b27e a83c 325e 8dbe 00a7 833c
00000150: 1c96 5abe 359c 4dbe c163 8abe 085e dcbd
00000160: c7c1 65be f6ae aabd b041 18be 750e dabd
00000170: d1e2 00be 513e 10bc 076f 47be d2da 80bd
00000180: a753 1ebb 6bd3 a63d d9fe 8b3e e494 b1bd
00000190: 586e 45bd 6169 6f3e 687b e33d 2cd1 7a3e
000001a0: 12e2 723e 0f7b 313e 1713 863e ca5b e73d
000001b0: 86cd 8b3e b3db c43c 815d 2a3e 2882 113e
000001c0: 160c 1bbd d686 3bbe 0c89 e0bb 7d46 403c
000001d0: 3441 0ebe 8442 3c3d fc0e 41be 469c 69be
000001e0: 81e1 a1bc 97e7 08bd 25c7 b1bc ca37 6bbe
000001f0: 7b93 8d3d f817 efbd 0f35 033e be10 30bd
00000200: 9c81 333a 4684 a03c 0047 d1bd a894 95bd
00000210: 12bf 083d 57c6 ed3c 36ab 0a3d 8487 44be
00000220: fd90 1dbe 46a7 ecbd b2fb 51be e651 cabd
00000230: 7882 1f3e 8033 39bd 6b36 e0bd 736a 54be
00000240: 6c3f 4fbe d044 a5bb 0694 1e3c 3aaf 67be
00000250: 616c 4fbe eaf1 80bc 70b5 47be 9077 dc3d
00000260: 2379 11be f82e ca3c 1ed9 ddbc ae2b 2d3a
00000270: 6c6c 2fbe 5c5c dfbd 3987 4ebe e0fb 9d3b
00000280: 7ce2 05be 389a 973d 6477 f1bd 9e9a b13d
00000290: 5654 673d 5644 f3ba da8a ae3a d1f9 4f3c
000002a0: 0c2f 3dbd 36be 0fbe d06a 0abb a37a 0cbd
000002b0: 8e80 a63d d884 faba 6480 08be e7c4 f4bd
000002c0: e736 3e3e 6b2e 923e 580c 393e 6bb8 653e
000002d0: ce1d 293c 6795 7cbd ad0b 8e3e cc48 04bc
000002e0: c074 debc 3616 6a3e 1182 923c 5784 383e
000002f0: 884e 593e b7ce 333e f11c 4c3e 0d90 933e
00000300: b1a0 213e 5d66 943e 3ab2 0d3e 9599 02bd
00000310: b6f8 a73d 22d4 563e 8ecd fe3d 803b 8c3e
00000320: b202 46bd 6be4 0d3d be3f 2f3d 3cfd 4f3a
00000330: 416b 9e3d 5173 6d3e 6e32 273e 1cf9 763e
00000340: 0339 a33d cdc8 283d db4f 51be d57e c9bd
00000350: bbd4 cebc b20d 183e 3d34 e1bd 3a51 273d
00000360: dc09 29be cf5d 2e3e cf7c 47bd 49fc 47bb
00000370: dada 0ebe 1c5d bcbd d86b 03bd aa1d bd3d
00000380: 12f7 a7bd 056d fab9 473b da3d 2367 413e
00000390: 140b 30bd 9bd3 00bd ac23 9c3d 026e 233d
000003a0: c947 bd3d c53d 15bd bc8e c5bd c79f a33d
000003b0: ea4c 6a3e f1cf 433d c924 19be e8ed 933d
000003c0: fbe6 14be 2352 41be 4c4c 0c3e da35 323d
000003d0: 114e a1be e61f 44be 4c72 063e 9a41 5cbe
000003e0: 3adb c53d 6210 92bc 78cf 7f3d 53e4 66be
000003f0: b909 56bd 35fd 1d3c 8d5b 76be 063a b13d

conv_separable_point.weight f4 [16, 16, 1, 1]
0.2713304 0.03235796 -0.050326116 -0.23596442 0.095867254 0.14058477 -0.04284204 -0.13971543
0.15154111 -0.00597165 0.047409702 0.032772038 0.30157748 -0.33090132 -0.13669614 -0.08147716
0.23581676 0.15521915 -0.06664598 -0.21830024 0.19695348 0.035464868 0.05727097 0.094087794
-0.0059463806 -0.099233896 -0.043926105 -0.09863975 0.09541687 -0.08325454 -0.07450921 -0.023960205
-0.11677644 0.086751625 -0.22534706 0.19060837 -0.3058114 0.052223347 -0.24458045 -0.22291835
-0.18288457 0.13280317 -0.043395497 0.03410004 0.034834497 0.17768793 -0.23566845 0.15231043
0.11856079 0.12551259 -0.033832937 -0.26664883 0.051576506 0.110450536 0.02478124 0.11580684
0.066345796 -0.021328991 0.030883884 -0.10948185 0.24246015 0.015433577 -0.06638459 -0.07322496
0.23220378 0.09297841 0.0027632606 -0.17221062 0.07336464 -0.004711618 0.24768798 0.12055905
0.04775919 -0.16532744 0.07588534 -0.18274538 0.24186951 0.06813751 0.014210814 -0.014281028
-0.07666407 0.05368592 0.01063732 0.018637225 -0.038899146 -0.27797788 -0.19455114 -0.14163303
-0.097803056 0.12278511 -0.013306594 0.24668759 0.012765245 0.104902 -0.03957985 0.12586662
0.02423285 -0.031267118 0.014244148 -0.054053776 -0.05194672 -0.31136578 -0.20961604 0.057585936
0.14197192 0.028229883 -0.020638676 0.2464605 0.03119043 -0.008197183 -0.10945969 0.1426703
0.055466786 0.19828315 -0.12915157 -0.07751992 0.19117577 0.020140143 -0.0006373419 0.19751517
-0.00873615 0.019447416 0.14685793 -0.15554416 0.2561393 0.15507127 -0.0833032 -0.23185119
0.19754155 0.21251597 -0.12397162 -0.20866448 0.0832694 0.11140779 0.2557446 0.026884174
0.0575165 -0.02613331 -0.077054136 -0.13367735 0.26373422 -0.021525582 0.033629943 -0.08407096
-0.16304757 0.0037871313 -0.060709536 0.18291982 -0.13095824 -0.25287908 -0.12407954 -0.15800364
0.12602994 0.17682363 -0.111918814 0.13307522 -0.069293275 0.026888812 -0.07096217 0.04524536
-0.16390496 0.059324134 0.087079875 0.14396164 0.0555773 -0.1286475 -0.08307429 0.044339474
0.12226771 0.15763442 0.08616702 0.06453007 -0.096228555 0.0013516827 0.023969587 0.006111441
-0.081014745 -0.15895855 -0.057572495 0.19215657 0.008403921 -0.20845236 -0.0969374 -0.08629378
-0.2315316 -0.023501234 -0.027817765 0.24446277 -0.10341365 0.07118083 0.12544954 0.051839806
0.22626904 -0.02874708 0.10083988 -0.082222804 0.15675911 0.05912362 -0.009411615 0.04495406
0.025111077 -0.22301193 -0.041181017 -0.20302872 0.32234958 0.081397295 -0.10105439 -0.12624902
0.11338766 0.074046776 0.22141469 -0.09638492 0.06461429 -0.13121355 -0.13064508 0.006824478
0.13138515 0.18216787 -0.055137176 0.18299149 -0.06910963 0.08477335 0.08058968 0.03968138
-0.011417075 -0.15702038 -0.15294178 0.106036946 -0.066263005 -0.3086269 -0.15004468 -0.08207502
-0.010865362 0.055076722 -0.16510253 -0.035515875 -0.13392934 -0.00574324 -0.0819901 0.09767566
-0.0021210616 0.18948299 -0.033276536 -0.0074643884 0.13639587 0.16933876 0.08178858 -0.10556465
0.042251833 0.07496846 0.11246526 -0.1723259 0.11004764 0.06636482 -0.003145163 -0.05941702
00000000: d1eb 8a3e c889 043d c222 4ebd a8a0 71be
00000010: 0d56 c43d 74f5 0f3e 237b 2fbd 9011 0fbe
00000020: 982d 1b3e d5ad c3bb ad30 423d f93b 063d
00000030: 5d68 9a3e e66b a9be 13fa 0bbe 7fdd a6bd
00000040: f379 713e c5f1 1e3e b07d 88bd 198a 5fbe
00000050: 2cae 493e 9c43 113d f794 6a3d 1ab1 c03d
00000060: dbd9 c2bb 243b cbbd dceb 33bd a303 cabd
00000070: ec69 c33d 5b81 aabd 4998 98bd 3148 c4bc
00000080: 7c28 efbd d6aa b13d 61c1 66be d72e 433e
00000090: 5093 9cbe 26e8 553d 4c73 7abe b544 64be
000000a0: 1846 3bbe 8efd 073e 7abf 31bd 7cac 0b3d
000000b0: 9eae 0e3d d3f3 353e 1253 71be 44f7 1b3e
000000c0: 00d0 f23d 5f86 003e 6894 0abd 3286 88be
000000d0: e341 533d e433 e23d 0702 cb3c 232c ed3d
000000e0: 4ee0 873d 23ba aebc 3300 fd3c 0538 e0bd
000000f0: 7947 783e 1ddd 7c3c a5f4 87bd f8f6 95bd
00000100: d4c6 6d3e 776b be3d d217 353b fb57 30be
00000110: 3340 963d eb63 9abb eba1 7d3e aae7 f63d
00000120: 249f 433d 994b 29be c669 9b3d 9b21 3bbe
00000130: a4ac 773e ae8b 8b3d 79d4 683c f9fa 69bc
00000140: 0d02 9dbd c4e5 5b3d 2748 2e3c 18ad 983c
00000150: b654 1fbd 1e53 8ebe 6a38 47be 4008 11be
00000160: f84c c8bd c276 fb3d e703 5abc ac9b 7c3e
00000170: 5125 513c dcd6 d63d 7b1e 22bd 2ee3 003e
00000180: f883 c63c f311 00bd 4960 693c 7e67 5dbd
00000190: 15c6 54bd 566b 9fbe 96a5 56be 3bdf 6b3d
000001a0: 1661 113e 5b42 e73c 7112 a9bc 2460 7c3e
000001b0: 1383 ff3c 7a4d 06bc 672c e0bd 2a18 123e
000001c0: 2431 633d bd0a 4b3e 4f40 04be c4c2 9ebd
000001d0: 95c3 433e f1fc a43c 4a13 27ba 6b41 4a3e
000001e0: 1222 0fbc 3050 9f3c ed61 163e f846 1fbe
000001f0: b124 833e 01cb 1e3e de9a aabd 666a 6dbe
00000200: 5548 4a3e c99d 593e d5e4 fdbd 24ac 55be
00000210: 2689 aa3d c429 e43d f5f0 823e 333c dc3c
00000220: 6c96 6b3d 8615 d6bc 8fce 9dbd b7e2 08be
00000230: 2c08 873e 6b56 b0bc 8dbf 093d 652d acbd
00000240: f1f5 26be 8531 783b 90aa 78bd 554f 3b3e
00000250: eb19 06be 5e79 81be 6a1d febd b5cb 21be
00000260: fe0d 013e 4111 353e b135 e5bd df44 083e
00000270: a2e9 8dbd ed45 dc3c 9d54 91bd 3353 393d
00000280: b4d6 27be ddfd 723d ef56 b23d ae6a 133e
00000290: 06a5 633d 2cbc 03be da22 aabd 4f9d 353d
000002a0: 7e67 fa3d eb6a 213e 5678 b03d 5728 843d
000002b0: 7a13 c5bd f22a b13a de5b c43c 7c42 c83b
000002c0: 0feb a5bd 08c6 22be 23d1 6bbd b1c4 443e
000002d0: 99b0 093c 8974 55be 1e87 c6bd cbba b0bd
000002e0: 9f16 6dbe a985 c0bc 15e2 e3bc 7354 7a3e
000002f0: 89ca d3bd 41c7 913d d875 003e fa55 543d
00000300: 12b3 673e ff7e ebbc 2485 ce3d 6e64 a8bd
00000310: 7685 203e 9c2b 723d 2d33 1abc c021 383d
00000320: bfb5 cd3c 3d5d 64be 6dad 28bd c3e6 4fbe
00000330: 010b a53e a0b3 a63d 9bf5 cebd 6c47 01be
00000340: ca37 e83d d6a5 973d 88ba 623e 7565 c5bd
00000350: 7f54 843d d85c 06be d3c7 05be df9f df3b
00000360: d489 063e 378a 3a3e 85d7 61bd 1f62 3b3e
00000370: 5a89 8dbd a69d ad3d 340c a53d f188 223d
00000380: af0e 3bbc f3c9 20be c59c 1cbe e629 d93d
00000390: e6b4 87bd 5804 9ebe 50a5 19be f316 a8bd
000003a0: a204 32bc 2198 613d a310 29be 1879 11bd
000003b0: c624 09be ca31 bcbb 6dea a7bd 2d0a c83d
000003c0: 8201 0bbb d407 423e fa4c 08bd d497 f4bb
000003d0: 5cab 0b3e 2467 2d3e c580 a73d 4732 d8bd
000003e0: 4210 2d3d 1089 993d 3054 e63d 3376 30be
000003f0: a860 e13d 47ea 873d 141f 4ebb 435f 73bd

bn3.weight f4 [16]
1.0551413 1.0072111 1.0404816 1.1102566 1.1206416 1.0844507 1.0660592 1.0728573
1.1259694 1.1085061 1.05096 1.1006825 1.0207083 1.039338 1.103022 0.9890416
00000000: df0e 873f 4bec 803f 802e 853f e31c 8e3f
00000010: 2f71 8f3f 48cf 8a3f a174 883f 6353 893f
00000020: c41f 903f 87e3 8d3f db85 863f 2ae3 8c3f
00000030: 92a6 823f 0709 853f d32f 8d3f d531 7d3f

bn3.bias f4 [16]
0.03279061 -0.0011979573 -0.03483083 0.052970033 0.052783642 -0.02452329 -0.02457453 0.041081827
0.049775835 -0.018876748 -0.028733661 -0.024361193 0.023050426 -0.032974754 -0.031278796 -0.013015553
00000000: 724f 063d c704 9dba c6aa 0ebd 1bf7 583d
00000010: a933 583d 11e5 c8bc 8650 c9bc 6b45 283d
00000020: bfe1 4b3d 69a3 9abc db62 ebbc 2091 c7bc
00000030: 3fd4 bc3c 8910 07bd 321e 00bd 303f 55bc

bn3.running_mean f4 [16]
-0.03208182 -0.04544096 0.008963176 -0.032350358 -0.020483363 0.03850484 0.013256048 -0.04841513
-0.026191011 0.029136164 -0.0031714952 0.053667337 -0.033711538 -0.0029892772 0.025303299 -0.040898822
00000000: 3a68 03bd 4d20 3abd 49da 123c cf81 04bd
00000010: bacc a7bc 40b7 1d3d e52f 593c f14e 46bd
00000020: 888e d6bc f7ae ee3c dcd8 4fbb 48d2 5b3d
00000030: 1c15 0abd c0e7 43bb dd48 cf3c 8685 27bd

bn3.running_var f4 [16]
0.10180234 0.06369944 0.16632557 0.05488613 0.09596393 0.11854184 0.12408203 0.09014766
0.108811684 0.10399841 0.035375413 0.101497576 0.09109589 0.07211714 0.10655233 0.06712307
00000000: bf7d d03d da74 823d 4051 2a3e 47d0 603d
00000010: bd88 c43d 10c6 f23d b81e fe3d 569f b83d
00000020: a9d8 de3d 1efd d43d cfe5 103d f6dd cf3d
00000030: 7b90 ba3d 27b2 933d 1c38 da3d d277 893d

classifier.weight f4 [2, 16]
0.18196426 0.31173918 -0.16918048 0.11313045 0.33282554 -0.30010504 -0.26289627 0.2753913
0.36302426 -0.11719106 -0.16547836 -0.310727 -0.10769031 -0.09718897 -0.27301228 0.065354615
-0.13006206 0.110032514 0.23602664 -0.22424053 -0.03919898 0.059665952 0.08796608 -0.21892755
-0.21844546 0.27256438 0.23954168 0.2245734 -0.3212433 0.2822542 0.10350354 -0.10465782
00000000: d754 3a3e 479c 9f3e a63d 2dbe f0b0 e73d
00000010: 1c68 aa3e 5ea7 99be 579a 86be 1700 8d3e
00000020: 51de b93e de01 f0bd 2973 29be 9c17 9fbe
00000030: bd8c dcbd 030b c7bd 44c8 8bbe a4d8 853d
00000040: fd2e 05be ba58 e13d f8b0 713e 4f9f 65be
00000050: 1c8f 20bd 4964 743d 8f27 b43d 8b2e 60be
00000060: 2bb0 5fbe 8f8d 8b3e 6a4a 753e 92f6 653e
00000070: 007a a4be 9f83 903e aaf9 d33d d756 d6bd

classifier.bias f4 [2]
-0.039607063 0.086747244
00000000: 043b 22bd 8aa8 b13d
