notebooks/outputs/ctnet/ctnet_B06_best.pth (torch, 117333 bytes, 31 tensors)

pos_encoding f4 [1, 281, 32]
00000000: b3b3 ef3b aa0c a0bc 889d c73b 9306 563d
00000010: cb40 48bb 1e03 05bd 5fc3 02bd 5043 a53c
00000020: 6d5e 6dbc 6c54 0fbc a8b8 96bb 53a5 0abd
00000030: a3de fd3c ca43 043a 3054 c4bc 1649 be3c
00000040: 1823 72bb 3c3e 0bbd 56a0 2dbd 8d9c 433c
00000050: 7c69 21b9 37ec 45bd 0dbf b4bb fb81 61bb
00000060: 26de a5bc 7aae c13c 10b3 e63b 2363 703c
00000070: a6a0 c8bc e54a 3a3d 3e38 aebc dd05 8d3b
00000080: 6245 b2bc bf74 073c af81 833c fe04 04bb
00000090: 9bab 873c 9b55 223d a708 94bc 3f61 01bd
000000a0: d063 0e3d a735 353b 49e1 8239 6922 053d
000000b0: f47c edbc 2bc3 c9bb 99de 12bc 900b 6fbc
000000c0: 2c29 f0ba ed2a b7bc b652 14bc 4a11 493c
000000d0: 89af 32bc b5f8 4dbc 9b75 d83b b50a 91bb
000000e0: 86cc f0bb 69e6 dcbb 40fc 5f3c 1b6c fcbb
000000f0: 048d 1abd 86fe 573a 4b8d 0bbd ba8f e1bb
00000100: 6a46 75bd 34d7 0cbc 8c55 f5bb bda4 ff3c
00000110: ef72 e93c 8ef5 0c3c d1d3 9abc bb0c e3bc
00000120: 9fa1 41bd 1b77 1bbc 2351 b3bc 0d99 bb3b
00000130: 6a15 9f3c 9dc4 bdbc 6bb6 d93b 9277 503c
00000140: 362c d9bc 4916 e93b b3d0 11bd 9383 91bb
00000150: 47f2 a53c 9cec ec3c c5af 51ba e07c 7d3c
00000160: cbe9 6e3c 4220 62bc 9694 d1bb cb0e 08bc
00000170: b39e fe3b 78da d83b c985 ffbc 9d78 053d
00000180: 2846 cabc 0a3a 18bd db7b 02bc 173c 1a3d
00000190: fb7c 57bb bded 8e3c 2476 38bc c60a dfbc
000001a0: 496e aabb 91b6 ef3b 0e1f 823c 04de a23b
000001b0: 50c5 06bd 199b 36bc d83c 61bb 740c 853c
000001c0: 8804 813c de09 05bd c8de b5bc 447c b5bc
000001d0: 66b9 aebc 6890 f4bc dcf8 2cbc 2759 2fbc
000001e0: 03c7 a7bc df18 723c e242 a73c bc6d b03a
000001f0: b4c2 00bc 9919 853c 629d b83c 36bb ce3c
00000200: dd1c b03c a051 183d 36bf 4d3c 0da6 5e3c
00000210: 5935 c0bc 74fc 00bd 578f 58bd 42b6 9d3c
00000220: 5f95 7b3c 774d ecba 7c41 53bc 4e0a e7bc
00000230: ada0 e0bc e515 753c ab97 9dbc 2852 0dbc
00000240: bc0f d03c 6343 cabc 5c8d 22bd 0b51 013d
00000250: 554a 76bb 6d38 9ebc dbb5 74bc 6fa7 803c
00000260: 803f 073c c24d 60bd 3a26 76bc 0800 c83b
00000270: be81 e63c 1dc1 0a3d 1d35 2bbb 5200 5c3c
00000280: 651d b03b ce2e 21bc 0197 0dbc 2b6a efbb
00000290: 5fe3 d93a 5af1 ccbc be21 89bc 8d70 713b
000002a0: 37be 383c d793 99bb 6e8d 143b c624 993c
000002b0: 66e1 a0bc e38a 433c b0a6 983c 447b 143c
000002c0: 0151 cd3c 6e3d ebbc 70d4 16bc f47b f7bc
000002d0: faaa 673c 26f9 173b 3be3 883c 0ec0 a2bb
000002e0: db8a 443c bc8e c53c 1728 ffbc 3e3d d23c
000002f0: 678f 3cbd b9f4 a9bc 145f b83b 6e07 58bc
00000300: 8c81 903c f1d8 e33b 9fc4 f5bb 6a24 f53c
00000310: 0312 d7bc f6bf 5fbc 3fb3 d3b9 eed7 693b
00000320: a13c 4fbc 3673 90bc 23c4 f7bc 8f8d 0c3c
00000330: 9589 003c edd4 cebc c0de bebc d2e6 f23b
00000340: 6771 37bb 7764 a9bb 3322 3cbd 2382 833c
00000350: 17be 0abb 4263 d33a 5c74 543c 3366 45bd
00000360: 5bfc 03bd e1de 6abc 72e0 90bc f623 54ba
00000370: 7574 bebc 429c 7f3c 2b97 1fbd 3775 52bb
00000380: bf08 793a 9344 343b 0d10 ab3c 6b91 ae3b
00000390: 6880 a839 0217 a4bc 4224 e6bb 1835 c6bc
000003a0: c926 063d ab54 afbc 9ae1 983b d59f 1dbd
000003b0: 6621 ae3c a547 fabc 2857 043d e165 343c
000003c0: d69e c6bc 192a 433b 5949 503c ba1c 85bc
000003d0: 8917 62bc cb98 15bd 71b2 27bc 6258 07bd
000003e0: 52dd b93a 9c52 8f3b fb87 083d 9cf4 d73c
000003f0: a374 7d3c 568a 0cbc 60c3 a93c 31db 9dbc
0.007315123 -0.019537289 0.0060917772 0.052252363 -0.0030556198 -0.032473676 -0.0319246 0.020173699
-0.014487845 -0.008748155 -0.0045996495 -0.03384907 0.03098995 0.0005045502 -0.023965925 0.02322821
-0.0036947187 -0.0339949 -0.042389236 0.01193918 -0.00015393452 -0.048320975 -0.005515939 -0.003440975
-0.02024753 0.023642767 0.007040389 0.014672074 -0.024490666 0.04548158 -0.021267053 0.0043036775
-0.0217616 0.0082675805 0.016053049 -0.0020144577 0.01656132 0.03963242 -0.018070532 -0.03158688
0.034763157 0.0027650387 0.00024963383 0.03250352 -0.028990246 -0.006157299 -0.008964204 -0.014590159
-0.0018322817 -0.022359336 -0.009052923 0.012272188 -0.010906109 -0.012571503 0.0066058165 -0.004426325
-0.0073486 -0.006741334 0.013670981 -0.007703317 -0.03773214 0.0008239526 -0.034070294 -0.0068835886
-0.059881605 -0.00859623 -0.0074870046 0.031206483 0.028497187 0.008603467 -0.01889983 -0.027716031
-0.047273275 -0.009488846 -0.021889275 0.005725032 0.01941939 -0.023165042 0.0066440604 0.01272382
-0.02651034 0.0071132523 -0.03559942 -0.0044407337 0.020257128 0.028921418 -0.0007998909 0.015471667
0.014582108 -0.013801636 -0.0063958867 -0.008304308 0.0077703833 0.0066178404 -0.031191723 0.03258573
-0.024691656 -0.037164725 -0.0079641 0.037654962 -0.003288089 0.017447347 -0.011258636 -0.027226817
-0.0052011353 0.007315465 0.015883949 0.004970314 -0.032903016 -0.011145377 -0.003436854 0.01624129
0.015749231 -0.032480113 -0.022200957 -0.022153981 -0.02132864 -0.029854015 -0.01055738 -0.010702408
-0.020480638 0.014776438 0.020417634 0.0013460438 -0.007858921 0.016247557 0.022535983 0.025235754
0.021498138 0.03718722 0.012557795 0.013589394 -0.023462938 -0.031490758 -0.052871075 0.019251946
0.015355437 -0.0018028457 -0.012894031 -0.028203156 -0.027420366 0.014958833 -0.01923736 -0.008625545
0.025398128 -0.024690336 -0.039685592 0.03157143 -0.0037580926 -0.019314015 -0.014935936 0.015704839
0.008254886 -0.054761656 -0.015023762 0.0061035194 0.028138038 0.033875573 -0.0026124187 0.013427811
0.005374598 -0.009837819 -0.008641959 -0.0073063574 0.0016623548 -0.02501743 -0.016739722 0.0036840767
0.0112758195 -0.0046868133 0.0022667306 0.018694293 -0.019638728 0.011934969 0.01863417 0.009062592
0.02506304 -0.028715815 -0.0092059225 -0.030210473 0.014139885 0.0023189276 0.016709914 -0.0049667424
0.011995996 0.024115913 -0.031147046 0.025663968 -0.046035197 -0.020746576 0.0056265686 -0.013185365
0.017639898 0.0069533517 -0.0075002457 0.02992459 -0.026253706 -0.013656607 -0.00040378605 0.0035681683
-0.012648732 -0.017633062 -0.030244892 0.008578672 0.007845302 -0.025248015 -0.023299575 0.00741277
-0.0027991177 -0.005169447 -0.045931052 0.016053265 -0.0021170431 0.0016127604 0.012967195 -0.048193168
-0.032223087 -0.014335365 -0.017685149 -0.0008092517 -0.02324889 0.01560122 -0.038962524 -0.0032113323
0.00094998995 0.0027506694 0.020881677 0.0053273938 0.00032139127 -0.020030502 -0.0070233652 -0.024195239
0.032751832 -0.021402678 0.0046655657 -0.038482506 0.02125616 -0.03055174 0.03230968 0.011010618
-0.02424566 0.002977973 0.0127128 -0.01624905 -0.0137995565 -0.036522668 -0.010235415 -0.033043273
0.0014180338 0.0043738615 0.033332806 0.026361756 0.015469703 -0.008577904 0.020723045 -0.019269558

conv1.0.weight f4 [8, 3, 25]
00000000: bd86 1abc 5f7d a73d eb32 053c 4986 4a3d
00000010: 8146 393d 29f3 13bb b1ea d73d 5030 55bd
00000020: 224d 9fbd 14d8 613d ff0b 92bd fad0 a23c
00000030: a625 ba3c 6690 a7bb 2c41 9b3c 0bdf 50bd
00000040: 1657 ef3b ee75 9b3d 364f 173c d789 64bd
00000050: 3bc7 553d 07b5 043d 1c76 cebd b691 c1bd
00000060: 3662 30bd f16c 6abc fc3a 5b3c e0c5 5ebc
00000070: 9cd6 023e 5d86 85bd b32a d7bd 8d34 f8bc
00000080: a5bd d9bd 5f77 91bc c9b8 f1bd dd4b 89bd
00000090: 54ed 893d e847 86bc 7c6d c13d 619a ac3d
000000a0: 63d2 f8bd 728e 543d a4c0 92bd 38d0 9dbd
000000b0: ee45 843c ae1a ce3d d202 813d 47d4 f63d
000000c0: c2d8 913d e0dd 873d 2d1e 28be 11fa 61bc
000000d0: 3366 c7bd 3eb2 883d 9973 d33d aa8a 56bd
000000e0: 9146 e93d c859 d73d 140a b13d b026 123c
000000f0: 37d6 d6bc 5a0f 93bd 1dd1 a4bc c061 64bd
00000100: 2ec9 6d3d f100 c8bc 7e49 4d3d 98eb 38bd
00000110: cafc 99bd 8f80 8e3d 7d2c 173d 3994 93bd
00000120: 7f71 bbbd 874e 803d 1485 d0bd d311 af3c
00000130: 6541 5d3d 0a24 143a e306 663d 11c2 55bd
00000140: ad17 a13d 22d1 a73b 6de2 2bbd 97e0 e8bd
00000150: bc5e a5bd 94f9 3ebd 2a75 343d eda6 04bd
00000160: 5690 4d3c 51a9 ed3d 2f7d 40bd 767a c03d
00000170: 4e9e 083e f658 b2bd 187d debd ee56 c6bd
00000180: 0dd4 803c 912e d33c d163 b03d bcf0 a2bd
00000190: 3194 293c 063a dbbd 0dc3 d6bd fe84 b63d
000001a0: 449a e93b 5244 9c3d 14be 93bd 2573 fbbb
000001b0: 0bbb 1cbd 284a b23c d735 663d 2094 13bd
000001c0: a9cc d13d 776b d439 5b24 f8bd a281 f7bd
000001d0: 5344 57bd ecec ab3c c1d9 e6bd 99fa ec3d
000001e0: 49c0 ccbd 969f e03d 8be6 b93d 8755 bb3d
000001f0: 859e c9bb 1d22 303d a0fa f5bd 111c b23d
00000200: b0fe d43d 664f 763d 4413 e33d 13b4 a9bd
00000210: 0e63 87bc 9bc1 bc3d 0b49 babc c514 a83d
00000220: 8e0a 8ebd 287d 4c3d 51aa 8e3d 3fd8 c6bc
00000230: 1234 4dbc bc38 b43d b254 923d efa5 2bbd
00000240: 365d 8abd e301 a03d 8a14 84bd dd28 543c
00000250: b79c 6cbd 88ab b5bc 4373 d6bd 600c 2bbd
00000260: 24e5 253d f7bc 1dbc 96fb 513d 3874 a93d
00000270: c2ae ebbd 9f8f 92bd cf37 9bbc c45f 183d
00000280: fbba 4d3b 1407 913d 1628 a3bd 257d 8fbb
00000290: fa28 a23d fc21 b1bd bb53 193d f0b7 7bbd
000002a0: 909c 983d 0c2d 8bbc 85d9 ea3d 59c5 083d
000002b0: 9c17 3c3d 9de6 99bd 1869 dabb f8de 25bd
000002c0: 0d85 02bd 1905 7cbd 493c 423d 3753 e2bd
000002d0: d7ee bdbc add6 113d d0d3 d1bd eb96 1cbe
000002e0: e6d8 aebd b073 353d 6c18 acbb f8ff 2d3d
000002f0: f6d7 82bd 6464 df3d 877f afbd 1f8b c03d
00000300: 3b2c aa3b 36da e43d b4b7 27bd ccfa 37bd
00000310: 37e8 bfbd 3161 923a 4725 163d 7580 cc3d
00000320: afa2 693b 32ee 63bc a3cc c2bb 72f1 8dbd
00000330: 925b 24bd f9f4 a23c c829 35bd 3eaa bb3d
00000340: 80df aabc 6a50 a5bd 93ae 2c3c 0773 73bd
00000350: 1688 b6bb fb29 8e3d 33d3 943d 10ec 833d
00000360: a095 00bd 3a3e c3bd 7cd7 d4bd 8684 a3bd
00000370: 8ef7 dc3d ecef 943d b799 b2bd b28a bb3c
00000380: e103 5f3d 7f1c 283d 6178 68bb 279f b33d
00000390: b7ee b7bd 0426 e63d 6987 83bd ea65 003d
000003a0: 4632 cb3d b052 ba3d daa6 5dbb 6e7f 8bbd
000003b0: cd00 593d 8626 f5bd 5a23 4fbd 9a67 433d
000003c0: 767c 94bd ce66 3c3d 0772 ba3d 0487 e6bd
000003d0: 3907 20bd 58a9 8abd fedc 73ba 4332 3b3b
000003e0: fce0 5fbd 1f23 8d3d 5f5e 9dbb 2045 cb3d
000003f0: 98e6 79bd 9b1c 25bd 30fe b63d b448 f4bc
-0.009431538 0.081782095 0.008129816 0.04944447 0.045233253 -0.0022575355 0.10542811 -0.052048028
-0.07778384 0.05513771 -0.07131194 0.019875038 0.02272303 -0.005113649 0.018951975 -0.05099396
0.0073040826 0.07590853 0.009235194 -0.055795517 0.052191954 0.032399204 -0.10081121 -0.0945162
-0.04306241 -0.0143082 0.013380762 -0.013596982 0.1277718 -0.065197684 -0.10506191 -0.030298496
-0.10631875 -0.017757116 -0.11802823 -0.06703923 0.0673472 -0.01639171 0.094447106 0.08427883
-0.12149503 0.05189366 -0.071656495 -0.0770573 0.016146626 0.100636825 0.06299366 0.120522074
0.071214214 0.06634116 -0.16417761 -0.013792531 -0.0973629 0.06674622 0.10324783 -0.052378334
0.113904126 0.10515171 0.086445004 0.008920357 -0.026225192 -0.071806625 -0.020119244 -0.055757284
0.058053188 -0.024414511 0.050118916 -0.045146555 -0.07518919 0.06958114 0.03690766 -0.072060056
-0.09152507 0.06264978 -0.10181633 0.021370804 0.054017443 0.0005651122 0.05615891 -0.05218703
0.07865844 0.005121366 -0.041963983 -0.11370962 -0.0807471 -0.046624735 0.04405705 -0.032385755
0.012546619 0.1160456 -0.046994384 0.093983576 0.13341638 -0.08708374 -0.108637035 -0.09684549
0.015726114 0.02577904 0.086127885 -0.07956073 0.010350273 -0.107044265 -0.10486422 0.08912085
0.0071289856 0.076302186 -0.07213989 -0.0076736384 -0.038264316 0.021763876 0.05620369 -0.036029935
0.10244114 0.0004051586 -0.12116309 -0.12085272 -0.052555393 0.020986997 -0.11272002 0.11571235
-0.09997613 0.109679386 0.09077176 0.091471724 -0.00615293 0.043001283 -0.120106936 0.086967595
0.1040014 0.060134314 0.11087659 -0.082862996 -0.016526725 0.09216615 -0.022739908 0.082070865
-0.06935607 0.049924046 0.06966079 -0.024273036 -0.012524622 0.08799884 0.071450606 -0.041906293
-0.0675606 0.0781286 -0.0644923 0.012949196 -0.057766642 -0.022176519 -0.10471203 -0.04175985
0.04050173 -0.009627572 0.05126532 0.0827412 -0.11507942 -0.071563 -0.01894751 0.037200704
0.0031391967 0.07081428 -0.0796663 -0.004378932 0.07917972 -0.0864906 0.037433367 -0.061454713
0.07451737 -0.016989253 0.1146727 0.03339133 0.045920953 -0.07514689 -0.00666536 -0.040495843
-0.03186517 -0.0615283 0.047420774 -0.11051028 -0.023185177 0.03560512 -0.10245478 -0.15291946
-0.08537464 0.04429978 -0.0052519348 0.04248044 -0.063888475 0.1090782 -0.08569246 0.09401535
0.005193261 0.11174433 -0.040946677 -0.044916913 -0.09370463 0.0011167881 0.036656644 0.09985439
0.0035649945 -0.013911771 -0.0059448048 -0.06930818 -0.04012639 0.019892203 -0.0442293 0.091633305
-0.020858526 -0.080719784 0.010539669 -0.05943587 -0.005570422 0.06941601 0.072668456 0.0644151
-0.031392694 -0.09533353 -0.10392663 -0.07984261 0.10789405 0.07272324 -0.08720725 0.022893284
0.05444706 0.0410428 -0.0035472142 0.0877059 -0.08981078 0.1123772 -0.06422312 0.031347193
0.09921698 0.09097803 -0.0033821375 -0.06811415 0.05297928 -0.119702384 -0.050570823 0.047706224
-0.072503015 0.04599648 0.0910378 -0.11256221 -0.039069388 -0.06770581 -0.0009302645 0.0028563894
-0.05465792 0.068914644 -0.0048025097 0.09925294 -0.061010927 -0.040310483 0.08935201 -0.029819824

conv1.1.weight f4 [8]
00000000: 79da 843f cbed 7e3f d6ec 6e3f e6d2 793f
00000010: 6839 843f b262 873f 8eea 733f 58c0 863f
1.0379173 0.99581593 0.9333013 0.9758743 1.0330019 1.0576994 0.9527978 1.0527449

conv1.1.bias f4 [8]
00000000: dc70 373a 389c 0e3c 9182 08bd 42ea 90bc
00000010: b8d1 47bc caae c2bd 5b66 4dbc 97eb 82bd
0.00069977134 0.008704238 -0.033327643 -0.017689828 -0.012195997 -0.095059946 -0.0125366105 -0.063925914

conv1.1.running_mean f4 [8]
00000000: 26e4 2fb7 839f 0939 4d4d a9b9 1434 2db9
00000010: ae79 1439 2698 5fb9 d696 96b6 e118 abb8
-1.0483933e-05 0.00013124761 -0.00032291785 -0.00016517966 0.00014159709 -0.00021323617 -4.487908e-06 -8.1585495e-05

conv1.1.running_var f4 [8]
00000000: 908c 543e 05f7 143e 9f66 b53e 64d3 0a3e
00000010: 2d6b b63e 089b 103e f8bb 3a3e 454c 303e
0.20756745 0.14547355 0.35429856 0.13557202 0.35628644 0.1412164 0.18235767 0.17216595

conv2.0.weight f4 [16, 8, 1]
00000000: c8ba 033e e8f4 763d 9a3e c63d a650 ec3d
00000010: aa0d a6be e01c e33d 6ad7 9bbd 6846 a6be
00000020: c65e 42be 2478 553e b192 423d a920 0cbe
00000030: 5ac8 cfbd f32e 41bd 99f9 063e 51f2 e9bd
00000040: 74be 3fbe a5bd 9abe 69e0 883c 9214 a83e
00000050: a433 5d3e c3e5 8abe 4f85 a8bd ffd2 6d3e
00000060: 81f4 323e b850 9dbe 8b40 8dbe 69c8 73be
00000070: 3e43 3abe 5801 9e3e 37ed 8dbe 334d 153e
00000080: c287 60be b484 3e3d d5ab ebbc fd7d aa3e
00000090: 47db c6be 39f2 9e3d e51a a23d 3742 91be
000000a0: 6f4a 4d3d 6b59 f6bd 3815 89be 2007 ffbd
000000b0: 64e2 ce3d cb72 11be 5021 3cbe dc75 a7be
000000c0: e50b 753e c3df 5d3e acfe f83d 66f1 f1bc
000000d0: 07d1 51be 4ed5 0cbe ca90 f83d cfae 0cbe
000000e0: ccdb 5dbe aaf0 463e 4460 32bd c8c0 443a
000000f0: 4782 753b 5514 93be 07f7 49be ec51 d6bc
00000100: 19c2 e6bd c563 0abe 626b 8bbe 5e80 443e
00000110: 6674 663e 2394 53be c9c7 993e ab5c 9e3d
00000120: 782b 9ebe f891 86be f0f2 a0be 08fa 54bd
00000130: abbd 0fbe 761e 19be 7def 73be 3e00 183e
00000140: e095 963e 0dd5 68bd 28ef 97be 861a abbe
00000150: e004 5dbd c50c 8fbd 82f6 9a3d e3dc 19be
00000160: e4f5 aebc 09b6 a23e 03a6 933e 2cb1 9ebe
00000170: fd9e 97be d9a1 84be 2047 893e 9d0a 4c3e
00000180: 0df2 bc3e 8539 063e 99cf 063e c9e7 7fbe
00000190: 0ee0 9a3e 9707 cc3c 4ebe 8f3e c30b bbbe
000001a0: 427b c3be a41b 143d 47eb b93d cdea 8c3e
000001b0: d6ab 98be 7a85 a6be 5f6e 933e 5621 25be
000001c0: 3977 1fbe bf68 83be a3f4 7f3e 7f07 813e
000001d0: a097 953e 0298 a0bd 4703 723e 9fe7 1dbe
000001e0: 5acd 39be 317d 173e 2bfd 7d3e 7766 a6be
000001f0: 98f2 14be 2b14 093e c4f4 903d f747 e83d
0.1286422 0.060292155 0.09679909 0.1153882 -0.324323 0.11089492 -0.07609446 -0.3247559
-0.18981466 0.20846611 0.047503177 -0.13684334 -0.10145636 -0.047163915 0.13181151 -0.11423171
-0.18724996 -0.30222812 0.01670857 0.32828194 0.2160173 -0.2712842 -0.082285516 0.2322502
0.17476083 -0.30725646 -0.27588305 -0.23806919 -0.18189713 0.308604 -0.27720043 0.1458023
-0.21926787 0.046513274 -0.02876846 0.33299246 -0.3883917 0.07761044 0.07915286 -0.2837083
0.050119814 -0.12028774 -0.26774 -0.12452531 0.10101774 -0.14203946 -0.18372083 -0.32707107
0.23930319 0.2166739 0.1215795 -0.029534053 -0.20489894 -0.13753244 0.12136991 -0.13738559
-0.21665877 0.19427744 -0.043548837 0.0007505533 0.0037461685 -0.2872645 -0.1972314 -0.02616211
-0.1126749 -0.13514622 -0.27230364 0.19189593 0.2250534 -0.20661978 0.30035236 0.07732519
-0.3089254 -0.2628324 -0.31435347 -0.05199626 -0.14037196 -0.14953026 -0.23821826 0.14843842
0.2941122 -0.056843806 -0.2967465 -0.33418673 -0.053959727 -0.069848575 0.07566549 -0.15025668
-0.021357484 0.31779507 0.28837594 -0.30994546 -0.29613486 -0.2590473 0.26812077 0.19925924
0.3690342 0.1310788 0.1316513 -0.24990763 0.30249065 0.024905963 0.28074878 -0.3653241
-0.38179976 0.036159173 0.09078079 0.2752289 -0.298186 -0.3252371 0.28795144 -0.16125998
-0.15572824 -0.25665852 0.24995665 0.25201032 0.29217243 -0.07841493 0.23634063 -0.15420388
-0.18144742 0.1479385 0.24803607 -0.3250005 -0.14545667 0.133866 0.07077935 0.11341851

conv2.1.weight f4 [16]
00000000: 4efd 813f af7c 7f3f e657 813f a394 853f
00000010: f4d2 7e3f e53b 823f 0a66 833f de74 7c3f
00000020: 658b 7b3f a52d 7c3f f8eb 7b3f 5251 763f
00000030: 1603 7a3f 019c 783f 2f91 7d3f 992c 7d3f
1.0155427 0.9979963 1.010495 1.0435985 0.9954064 1.0174528 1.0265515 0.98615825
0.98259574 0.9850715 0.98406935 0.96217835 0.9766096 0.97113043 0.9904966 0.98896176

conv2.1.bias f4 [16]
00000000: d92e d23c 7917 8fbc 6234 4cbd 16f5 0dbd
00000010: cdc2 0d3b 5dd2 12bd 359a d1bc 1cd1 503c
00000020: cc0d c0bb 8ee2 0d3c b29d 473c 0579 9abc
00000030: 6046 913c 905f 79bd f8da afbc f4d1 0a3c
0.025657104 -0.017467247 -0.049854644 -0.03465756 0.0021631003 -0.03584515 -0.025586227 0.012745168
-0.0058610197 0.008659972 0.012183594 -0.018856535 0.017733753 -0.06088215 -0.021466717 0.008472908

conv2.1.running_mean f4 [16]
00000000: 7cfe 04bd 247d e3bc b8ff 84bb c8bc c1bd
00000010: 9ddb 80bd 0ca7 eebd 6d41 073d fad7 80bd
00000020: d7fd 8e3c c1bf 32be d860 82bd 449d c33c
00000030: fe7f c73d ef8e 8abd daa5 353d c98b f9bb
-0.032469258 -0.027769633 -0.0040588044 -0.09459835 -0.06291888 -0.116529554 0.03302138 -0.06291194
0.017455025 -0.17455961 -0.06366128 0.023878701 0.097412094 -0.06765544 0.04434762 -0.0076155406

conv2.1.running_var f4 [16]
00000000: 5d26 523e 45f7 c23d d6f9 d93e 4319 783e
00000010: a1a1 5a3e eb93 323e f46b 493e 180e 393e
00000020: 4e22 813e 1967 b43e c0ad 503e 3212 b83e
00000030: fe24 f23e 191c 8e3e 58b6 7a3e d80b 4c3e
0.20522447 0.09519819 0.42573422 0.24228387 0.21350719 0.17439239 0.19670087 0.18071783
0.25221485 0.35234907 0.2037878 0.35951382 0.47293848 0.27755812 0.24483621 0.19926393

conv3.0.weight f4 [32, 16, 15]
00000000: fb87 46bd 2b9c 1fbd a3b3 28bd fa09 eabc
00000010: 21e0 573d 1edb 3abc f77f 95bd a7c7 debc
00000020: 4ff6 1abd 6d41 6fbc 92ac 83ba 6d10 493c
00000030: 46ca 74bc 4eb6 d1bd 45ef 653c d086 8dbd
00000040: dd07 19bd 340d 443d 1307 e63c 8196 07bd
00000050: 5a4e 5abd 5ed3 45bd 164b 5c3d d7eb 28bd
00000060: eb75 233d 3c58 303d 5f48 293d 3a82 ed3b
00000070: 5d2b ee3b bf19 8b3d 52cf 643d 681c 903c
00000080: d632 b53c 5e66 2e3c 5afe 533c 0eae 3a3d
00000090: 1cc2 8b3c 5eea 033d 1a25 68bd 394b 7ebd
000000a0: 100c 9d3c 92bd 153c 67b2 2f3d 53ac 06bd
000000b0: e9e5 77bc dc09 863d 633c 7d3d e07b dd3c
000000c0: 2dc5 133d d188 9f3d 3019 d83c bf45 273d
000000d0: ab6e ac3b 4cf3 733d ef89 1c3c 1ea8 1fbd
000000e0: 51e9 09bd 5846 433d 6331 75bc 89a1 34bd
000000f0: 8cb5 94bd 9f13 7fbc e32c 19bd 1ab3 883d
00000100: 9071 11bc ab1f 4b3d 70f9 fdbb 8326 f7bb
00000110: c798 3d3d 09fb 8d3c ea4f 4cbc cab0 4dbd
00000120: 7b44 573c cb1d f5bb c779 a3bd ab75 c33c
00000130: 7101 753c fb9c 73bd 33b4 3dbd d81d 72bd
00000140: 46d5 7fbc 9c7a dbbb 3837 e4bc 605a 3e3d
00000150: 45db 543d af5a 973d 8cae cebc 137b 223d
00000160: 2d94 c13d 5db0 24bc cbd9 4cbd a59e 91bc
00000170: 50ca 6abc 90fd 9f3c 84a8 053d 6309 79bd
00000180: 06a9 d4bc 9107 c239 1182 4c3c 8d06 5fbc
00000190: 8ebb c1bc b4cc 6ebd a1a4 4a3c 2ac8 1fbd
000001a0: e2a9 4fba aa71 c93b f9ce cdbc 607c 20bc
000001b0: e0c8 e53c d6e2 ce3b c105 b7bc c5c3 313d
000001c0: 98dd 08bd 7829 66bd f168 713d df42 8a3d
000001d0: 2610 9d3d 9be8 413d 7a72 b8bc fce0 ff3c
000001e0: c3bc 423d 7b33 c7bc aa13 343d e473 ee3c
000001f0: a280 5cbd ad10 113d b94e 5dbc 50be d33b
00000200: 28a4 533d 4da4 0bbd 263f 34bd f0d4 afbc
00000210: ccfd 13bd bd59 d4bc 135d 3e3d 8b2c 2fbd
00000220: cbaf 933b 3bc5 2dbb 273a 97bd 0f31 433c
00000230: 93b8 2fba d3aa 0ebd f854 ab3c db3a 0bbd
00000240: bd94 acbc 1feb 70bc d86a 33bc 2c1f 2c3d
00000250: 14e6 81bd 171b 2abd 8b3f 7dbd a20d 81bc
00000260: fa82 6ebd fbbf 1c3d 4eac 9fbd 9071 50bc
00000270: 3f77 2a3d 81c2 f9bb fcaa 623d 39cd 313d
00000280: f3b9 09bd 85c8 103d bcc2 313d 597c d33c
00000290: edd8 4cbc 86af 333c aeac c4b8 6706 12bd
000002a0: 13f8 673d 7da5 81bc e0b4 333c a28d 6e3c
000002b0: 5071 0a3c b909 d6bc be55 6abd ee9b 39bd
000002c0: 7e36 67bd 4502 98bd 3811 b83c 6c41 afba
000002d0: 742e 093d 9e52 31bd 7846 5dbc 042d 253d
000002e0: c294 6f3d 988b 9abc f2ee 63bc 3a67 e3bc
000002f0: 0d32 3a3d 6c77 653c 8d30 613d e640 c53c
00000300: e0c9 523d f0cb 113d 6002 e4bc c703 9dba
00000310: 3368 7dbd 0883 5fbd 45b6 f23c 1a3e b3bc
00000320: f3df c6bc d44e 883d f9a4 c2bb 1967 943d
00000330: 6d08 85bc 3e53 643b 6619 093d c37b adbc
00000340: cd3a 51bd bc71 753c 7afa 27bd b4e2 6c3d
00000350: efd2 ae3c e94a 54bd 3019 41bc df7d bcbc
00000360: b985 423c 351f 393d 7ca1 fe3c 6685 7fbb
00000370: fc7a efbb f094 38bc aa3f 843d 0bbc adbc
00000380: 15ac 3d3d 0ecd 683c 86f9 953d f6ff d23b
00000390: 31d0 253c 5c72 b8bc 88de 933d 1812 713b
000003a0: 9b0a 3a3d cd77 ff3c bd37 1bbd 90ba f5bb
000003b0: e768 5e3c 139f 033d 1f2f 9b3c e3b5 bd3c
000003c0: ce66 d2bc d7fe 153d 650a 983d 9e91 5f3c
000003d0: 718d 3dbd 57f0 593d 929d 7fbb 6e89 913d
000003e0: beea 12bc 5b9e 2bbd 46c9 c5bc 7cb8 4b3d
000003f0: e243 993b 358e 543d ac23 673d 1ffd 0e3d
-0.048469525 -0.038967293 -0.04118694 -0.02856921 0.05270398 -0.011404781 -0.07299798 -0.027194811
-0.037832554 -0.014603001 -0.0010045937 0.012271983 -0.014940804 -0.1023985 0.014034097 -0.06910479
-0.037361015 0.047864154 0.028079545 -0.033102516 -0.053297378 -0.04829728 0.053782545 -0.04124054
0.039907377 0.043052897 0.041328784 0.00724819 0.007268353 0.0679202 0.05586178 0.01759167
0.022118967 0.010644523 0.01293906 0.045576148 0.017060332 0.03220593 -0.056676008 -0.062083457
0.01917079 0.009139435 0.042894747 -0.032879185 -0.015130498 0.06544849 0.061825167 0.027036607
0.036076713 0.077897675 0.026379198 0.040838 0.005262216 0.059558198 0.00955437 -0.03897869
-0.033669773 0.047674507 -0.014965388 -0.044099364 -0.0726119 -0.015568643 -0.037396323 0.06674786
-0.008877173 0.049590748 -0.0077506825 -0.0075424328 0.046288278 0.017331617 -0.012470225 -0.050217427
0.013138886 -0.0074803582 -0.079822116 0.02385982 0.014953957 -0.05947588 -0.04631443 -0.059110492
-0.015614813 -0.006697966 -0.027858362 0.046472907 0.051966924 0.073903434 -0.025229715 0.039668154
0.094520904 -0.010051814 -0.05001239 -0.017775843 -0.014330462 0.019530088 0.032631412 -0.060799967
-0.025959503 0.000370082 0.012482182 -0.013612402 -0.023649003 -0.05830069 0.012368352 -0.03900925
-0.0007921738 0.006147583 -0.025123106 -0.009795278 0.028049886 0.006313662 -0.02234161 0.04339959
-0.033414453 -0.05619189 0.05893797 0.06751036 0.07669096 0.04734097 -0.022515524 0.03123521
0.0475433 -0.02431654 0.043964066 0.029107995 -0.05383361 0.035416294 -0.0135075385 0.006461896
0.051670223 -0.034092236 -0.044005536 -0.021463841 -0.03613071 -0.025921697 0.04647548 -0.04276709
0.00450704 -0.0026515264 -0.073841386 0.011913552 -0.0006703224 -0.03483088 0.02091454 -0.033991676
-0.021067018 -0.014704495 -0.0109507665 0.042021915 -0.06342712 -0.04152974 -0.061828177 -0.015753571
-0.058230378 0.038269024 -0.077965364 -0.012722388 0.04161763 -0.0076220636 0.055338845 0.043408606
-0.0336246 0.03534748 0.043398604 0.02581613 -0.012502891 0.010967141 -9.3781724e-05 -0.035650637
0.056633066 -0.015825981 0.010968417 0.014560135 0.008449867 -0.026127683 -0.057210676 -0.04531472
-0.056448452 -0.07422308 0.022469148 -0.0013370938 0.033491567 -0.04329168 -0.013505571 0.040326133
0.058491476 -0.018865392 -0.0139119495 -0.027759183 0.04545789 0.014005523 0.054977942 0.024078798
0.051462054 0.03559488 -0.027833164 -0.0011979275 -0.06186695 -0.05456832 0.029627929 -0.021880198
-0.02427671 0.0665566 -0.0059400764 0.07246227 -0.01623937 0.0034839655 0.033471487 -0.021177178
-0.051081467 0.01498073 -0.041010357 0.05783339 0.021340815 -0.051829252 -0.01178579 -0.023009239
0.011872702 0.045195777 0.031082861 -0.0038989424 -0.007308362 -0.011265978 0.064574555 -0.02120783
0.04630669 0.014209045 0.073229834 0.0064392043 0.0101204375 -0.022515468 0.07220179 0.0036784466
0.04542027 0.031185055 -0.037894953 -0.0074990466 0.013574815 0.032134127 0.018943368 0.02315802
-0.025683787 0.036619987 0.074238576 0.013645558 -0.046277467 0.05320772 -0.0039003831 0.07106291
-0.0089671 -0.041899066 -0.024143826 0.049736485 0.0046772817 0.05189343 0.056430504 0.034909364

conv3.1.weight f4 [32]
00000000: 8484 803f 6765 803f 294b 813f 46da 803f
00000010: a156 803f 4421 803f e73a 7f3f 1781 803f
00000020: 33cf 803f dec2 7f3f ea51 813f 4e9b 7f3f
00000030: 7318 7f3f 5fbb 803f 7919 7f3f 1f07 813f
00000040: 3ece 813f 57e6 7b3f 20a4 803f 5e5a 803f
00000050: ef62 803f 452b 803f c2da 7f3f df4d 803f
00000060: 0877 813f 125d 7e3f 0335 803f 2e02 803f
00000070: 9ab3 7c3f 22ed 7f3f a31a 823f 0657 7e3f
1.004044 1.0030946 1.0101062 1.0066612 1.0026437 1.0010152 0.9969925 1.0039395
1.0063232 0.9990672 1.0103123 0.9984635 0.9964668 1.0057181 0.99648243 1.0080298
1.0141065 0.98398346 1.0050087 1.0027578 1.0030192 1.0013205 0.9994317 1.0023764
1.011445 0.99360764 1.0016178 1.0000665 0.9871155 0.9997121 1.0164379 0.9935154

conv3.1.bias f4 [32]
00000000: 8600 43bb e032 63bb 7570 163a 9552 743a
00000010: 2e1f b3ba c17d 1abc 3a19 66bb bb61 8abb
00000020: 79ed 28ba ff96 89bb d9a5 93bb c488 b3bb
00000030: 8b83 aabb 1d2a 9fbb d883 88ba ca27 e7bb
00000040: 3e79 013c d560 8cbc 9813 19bc 7de6 46bb
00000050: 3833 88ba 17f4 9cbb d8e2 80bb 4787 2fbb
00000060: 7b83 78ba f1ec 03bc 32ae ecb8 66be c4bb
00000070: b8e5 04bc 0283 cdba f4ea 14bc ef1c 9abb
-0.002975495 -0.0034667775 0.00057388033 0.0009320167 -0.0013665908 -0.009429396 -0.003511025 -0.004223076
-0.00064440776 -0.0041989083 -0.0045058546 -0.00547895 -0.0052036694 -0.004857315 -0.0010415269 -0.007054304
0.007902442 -0.017136017 -0.00934305 -0.0030349784 -0.0010391241 -0.00478984 -0.003933292 -0.0026783512
-0.00094800413 -0.008052097 -0.00011285803 -0.0060041426 -0.00811141 -0.0015679302 -0.00908922 -0.004703156

conv3.1.running_mean f4 [32]
00000000: 1410 ff3c 5188 123e db20 b73c 3992 5dbd
00000010: d455 8ebd 31fd 2ebc 99df 96bd d89b 1bbd
00000020: b0af 13bd 943e 1bbe 9415 593e 1272 6f3d
00000030: 1f7a 243e 58f2 a23d 07e3 62be a721 593e
00000040: 1815 fd3d ee81 42bd 47c3 833e 2403 7dbd
00000050: f785 3ebe 4e52 213e 5e25 17be faeb 173d
00000060: 7b2b 153e 790e 9e3c b639 db3c 60f5 eb3d
00000070: 7f91 823e f5bc 8c3d 2272 bc3e 60a8 6dbc
0.031135596 0.14309813 0.022354534 -0.054094527 -0.06949964 -0.010680483 -0.073668666 -0.03799042
-0.03605622 -0.1516059 0.21199638 0.058458395 0.1606221 0.0795638 -0.22156917 0.21204244
0.12357539 -0.04748719 0.25734922 -0.061770573 -0.18605791 0.15754053 -0.14760348 0.03709028
0.14567368 0.01929401 0.026760917 0.11521411 0.2550163 0.06871978 0.36805826 -0.014505476

conv3.1.running_var f4 [32]
00000000: 8696 c63e e6fd fd3e 8964 913e 1a7a a33e
00000010: aa42 773e 4666 eb3e 1851 f03e f76f 433e
00000020: 0329 d43e 81ce a33e 7949 913e 38d5 b13e
00000030: 7aaf 2d3f e61e a93e f74e b13e de5b f93e
00000040: 4ff8 863e f81c b23e e8bf c63e 639f fd3e
00000050: b0af 473e 8090 a33e 022a 043f 2cf3 ac3e
00000060: 6884 803e 4a63 b83e f782 933e e357 813e
00000070: 3041 f73e c434 243f e9f8 e03e 15bb c73e
0.38786715 0.49607772 0.28397015 0.31929094 0.24146524 0.45976466 0.4693687 0.1908568
0.4143754 0.31993487 0.28376368 0.34732985 0.6784588 0.33031386 0.34630558 0.48702902
0.2636132 0.34787726 0.38818288 0.49535665 0.19500613 0.31946182 0.516266 0.33779275
0.25101018 0.36013252 0.28810856 0.25262365 0.48291922 0.64143014 0.43939903 0.3900992

transformer_layers.0.attention.W_q.weight f4 [32, 32]
00000000: 1fe8 a33d f97a 35bd 6d10 0abd ed00 00be
00000010: 916b 053e bac0 20bd e4db 79bd c63d ea3c
00000020: dd3c 04be 60d4 d03d 46a7 b8bd 4474 3cbe
00000030: 4bfd 013c e215 a53c 849f 123e ab40 1b3e
00000040: dda9 e0bd 8f76 0f3d 977f 0f3e 00d3 7cbd
00000050: cc14 00be f67e 893d 2cb0 033e c2bc 99bd
00000060: 081d ffbd 3b68 7c3d 68e2 1e3c e776 c63d
00000070: 51d1 2e3d ee9a 0f3c 23be f0bd defe b73d
00000080: 740e 87bd e795 10be 637f 4fbd 309d 2cbc
00000090: 6e8a d93d 86fd d43d 8ef4 8dbd 9a1d 96bd
000000a0: b974 07bc 3ea9 20bd 53ab e4bc 53b4 c0bd
000000b0: 6540 f03d 3215 0d3e 030e 88bd 7610 96bd
000000c0: 5593 38be 5677 8e3d e7fb 4cbe ec18 8b3d
000000d0: 9a68 87bd 32ca 903d b330 d73d 441c 2fbe
000000e0: adb8 303e 021b 03bc 1c22 b0bd fa41 1ebe
000000f0: 80c6 f53c 8a28 513b dfb1 a6bb 1625 1d3e
00000100: c88c 51bd ab3c 25bc 811e c23d 0857 153e
00000110: 0a5d 323d 376a 213d 7556 dc3d c84f 66bd
00000120: c78c 0a3e 13a8 653c c448 193e 41cc f13b
00000130: b04b f6bd 646f 38bd cec8 233e 38d2 f93d
00000140: 4821 1bbe 1b71 31be 938a 073e b8df e3bd
00000150: 4941 61bd 7a91 07be cb26 c6bd e660 2fbe
00000160: ce37 04be af0e 0f3e d749 2fbe 3295 3f3d
00000170: 433d 4d3c ee8f 61bd 7e69 f0bc c6ef c13d
00000180: bbf1 31be 31dc 08bd f6d9 00be c367 8f3d
00000190: ae69 bb3d 3f3f dbbc 2d7b 2fbe 8bbc 19bd
000001a0: 8e19 14be b1cd 4cbb 4570 1abe f7ff f03d
000001b0: 9fdb 90bc 32a9 06be f7c6 15be 2830 153e
000001c0: 5259 bd3d abbc 1a3e df1a d53d 5c47 a4bc
000001d0: ebe3 26bd 3646 d3bc b253 123e 9bff a93d
000001e0: 563d e83d 662f ef3d d51d 68bd 5632 c3bd
000001f0: 3058 04bd c40e ac3d 9d5c b13d d624 26be
00000200: 0012 b13d 8d05 26be 3ba7 d3bc 2c75 ec3d
00000210: db49 c53d b187 d13d dc9a 0e3e df47 00be
00000220: cedc 9bbd e907 03be 88d1 f0bd 2283 58bc
00000230: f455 1e3c b6e9 0f3e f804 4fbc 6b99 853d
00000240: 7502 163e 2bf7 0ebd b3f3 0cbe 9138 a1bc
00000250: 9601 27be 1b64 6d3d e167 3dbd 1b8f 2fbd
00000260: dffe 0d3e 0afd 3a3e 2d59 d73b 39ae 333e
00000270: 06b2 43bd e1b6 06be b865 dc3d dcf7 debc
00000280: ae3d 15be 1df6 b4bc 85d7 e6bd e705 56bd
00000290: 01d0 f23c 4d01 b9bd 9089 3d3e 5555 c7bd
000002a0: 4c9d 09bc 1656 19be 2910 0bbd 3fe2 00be
000002b0: 280e 843d ee1d b53a 1708 253e 770d 8cbd
000002c0: a5d4 703d 5d1d c63d d4b8 1fbe 9c0c 72bd
000002d0: a499 15be c77d 203e 053a aebc 32bd a5bc
000002e0: 43bd 73bd 1d13 2f3e c0f2 d2bd bbb7 87bd
000002f0: 3ff4 873d db14 db3d c25b 053e c15f 0b3d
00000300: fbca 06be 7b3e 963d 9a63 a1bc f7ad 853d
00000310: 273b 9abd f6b0 2f3e 1426 abbd fb9d 193d
00000320: 5645 0a3c 308a 31bb 57dc bd3c 61f4 c0ba
00000330: 2182 fc3d 1777 323e 5120 acbd b15f 46be
00000340: 005e d33d 50ae 15bd f287 ad3d 5061 f13d
00000350: 6260 0ebe 796c 10be 227c f13d 271f 84bd
00000360: fa85 383e e487 0f3e 2c0d bbbc db3f 25be
00000370: be5b cabd 7794 8abd 6fe9 f2bd e02b d2bd
00000380: 16b9 0fbe 6574 593b 6b31 11be 73b4 293b
00000390: 7b65 1e3e e89d e4bb 2a49 12be c898 23be
000003a0: 31a9 25be 8d54 e13d 472e 1fbe 5c62 03bd
000003b0: 6ce1 7cbd c5e3 53bd 81bf 123e bdce fb3d
000003c0: cdb7 e9bd 18a5 88bd 5887 1a3d d949 b43d
000003d0: 2af3 043d c68a 203e 5dd7 68bd 427c 45bd
000003e0: 4f2f 52bd 7ae6 c33d 3055 ff3d 01a7 debc
000003f0: 9d0a 933d 1cff f1bc d1ec 0cbe 174f 843d
0.08003258 -0.04430673 -0.03370707 -0.12500353 0.13029315 -0.0392463 -0.06100072 0.028593909
-0.12913842 0.10196757 -0.0901628 -0.18403727 0.007933925 0.020152036 0.14318663 0.15161388
-0.10969899 0.035025176 0.14013515 -0.061724663 -0.12507933 0.06713669 0.12860173 -0.07506706
-0.12456709 0.06162284 0.009697534 0.096906476 0.04268009 0.008764965 -0.11755016 0.08984159
-0.065945536 -0.14119683 -0.050658595 -0.010535523 0.106221065 0.10399918 -0.06931411 -0.07329865
-0.008267575 -0.039223902 -0.027913725 -0.09409394 0.11731032 0.13777617 -0.066432975 -0.073273584
-0.18024953 0.06956355 -0.20017968 0.06791863 -0.06611748 0.07069816 0.105073355 -0.17100626
0.17257948 -0.008002045 -0.08600256 -0.15454856 0.030001879 0.0031915032 -0.005087122 0.15346178
-0.05115965 -0.010085265 0.094784744 0.14583981 0.04354576 0.039407935 0.10758678 -0.05622843
0.13530265 0.014017123 0.14969164 0.0073790853 -0.12026155 -0.045028105 0.1599457 0.12198299
-0.15149415 -0.17328303 0.13236456 -0.11126655 -0.0549939 -0.13239089 -0.09675368 -0.17126808
-0.12911913 0.13970445 -0.17118011 0.046773143 0.012526813 -0.055068903 -0.029347178 0.09469561
-0.17377369 -0.033413116 -0.12583145 0.07002213 0.09151016 -0.026763557 -0.17136832 -0.037533324
-0.14462873 -0.0031250531 -0.1508189 0.117675714 -0.017682848 -0.1315048 -0.1462668 0.14569151
0.09245552 0.15111034 0.10405516 -0.020053558 -0.040744703 -0.025790315 0.1428974 0.08300706
0.11339824 0.116789624 -0.056669075 -0.09531085 -0.032310665 0.08401254 0.08660243 -0.1622499
0.08646011 -0.16213055 -0.025836578 0.11545786 0.096332274 0.10230959 0.13926262 -0.12527417
-0.076104745 -0.12795986 -0.11758715 -0.013214858 0.0096640475 0.14053997 -0.012635462 0.06523403
0.14649375 -0.034903686 -0.13764839 -0.019680293 -0.16309199 0.057956796 -0.046241645 -0.042861085
0.13866757 0.18260589 0.00657191 0.1754693 -0.0477772 -0.131557 0.10761589 -0.027217798
-0.1457431 -0.022090012 -0.11271576 -0.052251723 0.0296402 -0.09033451 0.18509507 -0.09733073
-0.008399319 -0.14974245 -0.03395096 -0.12586306 0.064480126 0.0013818124 0.16116367 -0.06838506
0.058796544 0.09673569 -0.1559785 -0.059094056 -0.1460939 0.1567298 -0.0212679 -0.020231817
-0.059506666 0.17097135 -0.10300207 -0.06626841 0.06638383 0.10697337 0.13023284 0.034026865
-0.13163368 0.07336136 -0.019700814 0.06527322 -0.07530814 0.17157349 -0.08356872 0.037504178
0.008439383 -0.0027090423 0.023176355 -0.0014721268 0.123295076 0.17428242 -0.08404601 -0.19372441
0.103206635 -0.03654319 0.08473195 0.11786139 -0.13903955 -0.14103879 0.117912546 -0.06451254
0.18019858 0.14016682 -0.02283343 -0.1613764 -0.0988078 -0.06766599 -0.1186093 -0.10262275
-0.14035448 0.0033180949 -0.14179008 0.002589491 0.15468399 -0.0069768317 -0.14285722 -0.1597625
-0.16177823 0.11002455 -0.15544997 -0.032076225 -0.061738417 -0.05173089 0.14330865 0.122952916
-0.1141201 -0.06672114 0.03772673 0.08803148 0.03245846 0.15677938 -0.05684601 -0.048214205
-0.05131465 0.09565444 0.1246742 -0.027179243 0.07179759 -0.029540591 -0.13762213 0.06460398

transformer_layers.0.attention.W_k.weight f4 [32, 32]
00000000: 73cb 643d e805 3ebc 1953 18be 0d9e c63c
00000010: 6e79 8d3d c485 263d b729 29be b23c 983c
00000020: 1dc4 1bbe 01bc 13bd bd7a bcbd ace6 e1bd
00000030: c008 163d dcb0 4b3d 78ed 713d 43a7 db3d
00000040: 0749 793a 9b13 b9bd af20 2fbd fbce 87bd
00000050: ef94 a03d ce79 ea3d 6e8c 843d cebe 60bd
00000060: b8b7 a7bd cb15 0abe b149 2cbd bf4b 49bb
00000070: cae9 9f3d b3c6 593e 13ec 613e fbaa e93d
00000080: c500 213e dbcb f2bc ff29 2cbe e7da a13d
00000090: 2378 cf3d 9655 d5bd 3445 23bd 1c4e 09be
000000a0: 1bf2 113e 130b d13d 65b6 27be b84e bcbd
000000b0: 006c c6bd cbc0 47bc 01a6 d1bd 47b9 eebd
000000c0: 4a8e 1dbe 9f6a 393d e4f9 3cbe 8765 1cbe
000000d0: 0ca2 39bd 842f b9bd 037b 083e 32a8 0abe
000000e0: 0ec3 603c 7248 883d 775d b3bd 9026 0bbe
000000f0: 2c41 cd3d df45 e13a ade2 13bd 5b3c 163e
00000100: 7b9e 833d 2f2f 9f3d f468 2d3d 67dc 0ebb
00000110: d060 adbd 0c37 f2bd 7176 8abd d475 533d
00000120: e913 8fbc ab54 a2bd 1a9b 9aba f6ae e9bd
00000130: 9727 f8bd c4e9 29bd c1a4 26bd d7a1 ddbd
00000140: 2307 9039 9cfd 073e 37ab 9e3d 6dec a13d
00000150: 0da6 a23c be49 993d e3fa 3dbe 691d d1bc
00000160: 69ac e43d 7fd2 753b 0318 213e efc0 163d
00000170: 69c9 09be e3c8 cdbd b977 253e 8d0b 803d
00000180: b0ef 10be d73c 633e 44c6 05be b520 28bd
00000190: 9e24 183c 9574 7dbd 1a20 453d ff5a d7bd
000001a0: fa96 81bd 1d30 9dbc 28a5 463e 72ef 88bd
000001b0: d9aa 89bb 7881 633d f7d6 83bd 2131 aabd
000001c0: d943 423c d6f6 7c3d 0795 073e 45e3 f7bd
000001d0: 86cb 133e 8101 24bd e941 0f3d 60ed a33c
000001e0: bc24 e9bd 74dd 153c e235 c53d b989 e43d
000001f0: fe38 a4bd 382c 043e 64c4 5f3e 63d4 2ebb
00000200: b7ae 213e d2f7 23be 7462 dfbd 886d f5bd
00000210: f68a cabd dea9 9cbc 12ce 10be 75df 00be
00000220: 5d72 113d b847 b4bd bb85 3bbe 77e3 943d
00000230: 013d 983d 2ae2 35be 0481 323e 117e 25be
00000240: f48e 6ebb 0833 6f3c 0859 cabd fd4b 173e
00000250: bf41 4dbd 17ad b23d 4148 b2bd d330 0cbd
00000260: 49ee 00bc 2db4 f43a 280a 0e3e f690 193e
00000270: 8f4e eebb cd7c 343d 60a1 1dbd b5b8 da3d
00000280: 7f65 2b3e 6892 693d bbf4 eb3b 50a1 f0bd
00000290: d9ec a23d b48f 9fbd cea2 dd3d 5c8b 173e
000002a0: cafe 18bd c16a 05bd 656e 85bd 1d5a 283e
000002b0: f181 c7bd 9e56 3cbd e4e5 423d 9521 ca3d
000002c0: cf01 66bb 3e61 22be 2f2d 3f3d 5067 893d
000002d0: 14e7 36be 44d6 3d3e ad7f 183e 9aa1 4e3d
000002e0: 0afd 1dbe 4292 58bd 1968 29bc d7df 14be
000002f0: defc 153e a5d0 27be f07a d1bd 6788 0fbd
00000300: 6ed8 813b 1b2b 223e 9a51 293e bd0c a53d
00000310: ebe9 c73d 5b60 dbbd 4eb2 273e 9e87 fdbd
00000320: 5db2 7bbd ab3d 2cbe 5548 6cbc 993c 5d3d
00000330: 43eb dbbc 5329 003e d496 183e 8830 bb3d
00000340: a48f 80bb 1cad 293e 1bc0 c6bc 9928 35be
00000350: d77f 303e e87c 08be 1e69 9dbd 1618 dcbc
00000360: 2a53 d6bd 51b1 913d c848 b4bd 9b5b 29be
00000370: 6afb 96bc 9dfb 13bd c8a2 c8bd 7a54 723c
00000380: de1a 173e cc3b 493e a983 a53d 7d81 3bbe
00000390: 3132 a2ba 9df9 b83d 2196 af3d 2ad4 1c3e
000003a0: 0ffa 3abd dcb7 c53d bdd0 693d db8e f1bd
000003b0: 461b 87bb 2878 b7bc 714e 2ebe df23 efbd
000003c0: 5529 043c 6ee7 bc3d de4a 0b3d 18aa 81bc
000003d0: 3ae7 62bb c99f 8abd 5fc8 82bd d506 ba3d
000003e0: b7c1 173e 436a 17ba 201f 823b 841c f9bd
000003f0: 174f ebbb c8c2 bebd 04f8 5b3e 7952 333e
0.055858087 -0.011598088 -0.14875449 0.024245286 0.069079265 0.040654913 -0.16519819 0.01858363
-0.1521153 -0.036067966 -0.09203098 -0.11030325 0.03662944 0.049729213 0.05906436 0.10725262
0.0009509478 -0.090369426 -0.04275578 -0.06631275 0.07840907 0.11449014 0.06472097 -0.054869466
-0.081893384 -0.13484876 -0.042062465 -0.0030715314 0.078082636 0.21267204 0.22062711 0.11409565
0.1572295 -0.029638221 -0.16812895 0.079030804 0.10130336 -0.10416715 -0.03986092 -0.13408703
0.14252512 0.1020719 -0.16378172 -0.09194702 -0.09688568 -0.0121919615 -0.10236741 -0.116564326
-0.1538631 0.045267697 -0.184547 -0.15273105 -0.045320556 -0.09042266 0.13328175 -0.13540724
0.01371838 0.06654443 -0.087580614 -0.13588929 0.10022196 0.0017186961 -0.036104847 0.14671461
0.06426712 0.077726714 0.04233642 -0.002179885 -0.08465731 -0.118269056 -0.06760872 0.05162604
-0.017465549 -0.079263054 -0.0011795491 -0.11410324 -0.12116926 -0.041482702 -0.040684465 -0.10821884
0.00027471138 0.13280338 0.077475004 0.07906423 0.01985457 0.07484768 -0.18552737 -0.02552672
0.11165697 0.0037509499 0.15731816 0.03680509 -0.13455738 -0.10048082 0.16158952 0.06252203
-0.14153934 0.22191177 -0.13063914 -0.041046817 0.009286074 -0.06187876 0.048126318 -0.10515403
-0.063276246 -0.019187981 0.1939894 -0.066862956 -0.004201275 0.055543393 -0.06437486 -0.08310152
0.011856996 0.06175884 0.13240443 -0.12103895 0.14433107 -0.040040497 0.034974966 0.02001065
-0.1138396 0.009147037 0.09629418 0.11159081 -0.08018683 0.12907493 0.21852261 -0.0026676885
0.15789305 -0.16012505 -0.1090745 -0.11983782 -0.09889786 -0.019123968 -0.1414111 -0.12585242
0.035509456 -0.08802742 -0.18312733 0.07269948 0.074335106 -0.17762056 0.17432028 -0.16161372
-0.0036401125 0.014599569 -0.098802626 0.14775081 -0.05011153 0.087244205 -0.087051876 -0.03422625
-0.007869312 0.0018669419 0.13871062 0.14996704 -0.0072725485 0.04406433 -0.038483977 0.10679761
0.16737936 0.05702439 0.007200805 -0.11749518 0.07955331 -0.07791081 0.10822068 0.14799255
-0.03735236 -0.03257251 -0.06515197 0.16440625 -0.09741581 -0.045981042 0.047582522 0.098696865
-0.0035096293 -0.15857407 0.04667395 0.067091584 -0.17861587 0.18538767 0.14892454 0.050447084
-0.15428558 -0.052873857 -0.01033976 -0.14538513 0.14647242 -0.16388185 -0.102285266 -0.035042193
0.003962568 0.15836756 0.16535035 0.0805907 0.09761413 -0.10711738 0.16376612 -0.123793826
-0.061449397 -0.168204 -0.014421542 0.05401287 -0.02684558 0.12515764 0.14901286 0.09140116
-0.0039233733 0.16569942 -0.024261525 -0.17691268 0.17236267 -0.13328898 -0.07686065 -0.026866954
-0.10465081 0.071138985 -0.088029444 -0.16538851 -0.01843043 -0.03612863 -0.09796673 0.014790649
0.14756343 0.19651717 0.08081753 -0.18311115 -0.0012374577 0.09031985 0.08573557 0.15315309
-0.04564863 0.09654209 0.057083834 -0.11794826 -0.0041231243 -0.022396162 -0.1702211 -0.11676764
0.008066495 0.09223829 0.034006946 -0.015828177 -0.0034622685 -0.06768758 -0.06385874 0.09083334
0.1481999 -0.0005776027 0.0039709955 -0.12163642 -0.007181059 -0.09314495 0.21481329 0.1751193

transformer_layers.0.attention.W_v.weight f4 [32, 32]
00000000: 8dea df3d 3b41 b1bc efe8 153e 1e19 0f3e
00000010: 167a cb3d 53f1 38bd 3298 c43d 6b90 933d
00000020: ff66 13be a52b 1c3c 79db 533d ab01 eabc
00000030: 304a e9bd 9d99 3d3e 7677 0f3d 3161 2e3d
00000040: 7547 06be 47fb 2b3d 76ba 6f3d 9b25 aebd
00000050: 5418 4c3b 3daa ed3c 12c1 043e 8713 a4bd
00000060: 0fe8 343e a312 00be 96c5 ddbc 691e 9bbd
00000070: c151 503d f891 873c e259 45bd cfa3 713d
00000080: df1c 1bbe 3eef 2ebe 5511 2dbe 8e4c 27be
00000090: 377c 0fbe 34e6 2f3e 1879 c53c 877c 81bb
000000a0: c12b da3c 4dd9 4bbc 1c83 ba3c 74d5 dfba
000000b0: ebf2 54bc 8d2f 42bd 47f2 363e 1f58 c3bd
000000c0: dcb2 22be d1c2 373c eacf f5bd 5a22 0dbe
000000d0: 5356 0bbe 5c60 bbbc 0c17 2e3e 8773 303e
000000e0: cc42 263e d08a 1dbb 348b dcbd 5966 42bd
000000f0: ee76 a5bd 5d36 b4bd 19a4 c3bb 60d8 333e
00000100: ffa8 23be 2737 b9bd 8b25 2a3e a475 023b
00000110: 3e54 7a3d f3a2 d7bd 3d36 24be 5201 a13c
00000120: 95a9 6b3d 8c80 bc3c 09d7 febd b46f 55bd
00000130: a729 04bd c2f7 12be fcaf cd3d 4312 87ba
00000140: 0dff 8fbd 71a7 623d dc94 b0bd 9ba0 e63d
00000150: 2ba9 c03d 6013 983d 9ad2 2fbe 2804 b33d
00000160: 31e4 233e e676 1fbb a6f4 923d 91f3 423d
00000170: d91b 6d3d cd68 4b3c 7a13 f43d bba4 f8bc
00000180: b6b3 a3bc fc0e 00be 0bee 213d 41a5 ef3d
00000190: 0813 14be 92c0 343e b0a6 41bd bbe5 9fbd
000001a0: 7430 223d 4c88 a03d fdc9 233d f1bf 533d
000001b0: 98d4 81bd d4d4 583d 6435 1b3e db44 bf3b
000001c0: ef59 75bd 9117 1bbe f48d b03c 0adc 1fbe
000001d0: 19ae 823d 16d1 e63c 295d a0bd 5aa3 1e3e
000001e0: 79c0 d83d 60cb b63d 7e76 953d 5092 15bd
000001f0: 9d87 2b3e 1f27 093c 8911 7a39 a6c9 d33d
00000200: 101a b7bd 07bd 21be fdb9 2a3e 2929 903d
00000210: 906b 213e dfc7 fe3d 86f0 353e 348a 043d
00000220: 8e99 3b3d f53e 98bc 6e5c 0f3d 9baa 1cbe
00000230: eac8 f13d 0972 db3c be63 09be 9fb4 2abe
00000240: 71cc 23be bdb6 023d 70cf 2bbe 606b bcbd
00000250: dac6 ce3d a0f8 f63b 9e8e 7fbc a8c6 d53c
00000260: c0c0 f8bc 2167 c1bc 09c0 aabd 4feb 14be
00000270: 3827 1fbe e2e1 63bc 967d 7ebd 46d9 f7bd
00000280: eaa7 2abe 917a 013d cbbe a0bd 524e 263e
00000290: 09f8 12be e5c5 933c 11af a83c b655 cdbd
000002a0: 3e4a 013e 52f7 2aba 1afc a7bd 58de de3d
000002b0: 8ce9 943d 76c4 113c e2ef 803b 9cab bd3d
000002c0: a920 4bbd 69bf 87bb 4ea3 b9bd d920 ce3b
000002d0: e5b6 1ebe 8b56 833d d398 1abd dd9a c8bd
000002e0: ec3c 65bd 87da 273e 053a 193e f8fa ee3c
000002f0: a622 c1bb de55 893c 6862 003c 01eb 88bd
00000300: 515d 083e 807c 13be f077 ba3d 5307 febd
00000310: 2e65 08bc 4edd e33d c0e1 e8bd 13ca 49be
00000320: e173 cebd d2ca 35be a0ff 1cbe e088 1c3e
00000330: 1db0 62bc 91ea 50bd 8bd4 e13c 746f cd3b
00000340: bc06 133e 4956 853d 7249 8cbc 3a5b 1fbe
00000350: d259 16be ddd8 823d 8db5 89bd a30a 0f3e
00000360: d1f8 d63c 28a1 7b3d 0d86 203e 39fb 103e
00000370: b9e1 253e 5020 333d b179 2cbe c1c0 0bbe
00000380: f7bd 203c 4f33 f23d 4a16 c7bd be50 f73c
00000390: f52a a6bd 8065 e0bd a5a2 edbc ecb4 dfbd
000003a0: 457a abbd e15c 0e3e b2fb 04be 8dd1 23be
000003b0: 433b b03d 2b79 963a ae53 dc3c c3e6 f43b
000003c0: e359 b1bd 39ea 223d c7e9 9fbc d13c 08be
000003d0: d020 bb3d 237c 32bd d579 303e 098e ba3a
000003e0: 64bf 0cbe cf4c 083e 052f 90bd abde 2f3e
000003f0: 4066 4cbd 5ef6 743d 6209 583d 746d 9a3d
0.10933409 -0.02163755 0.14639638 0.13974425 0.099353954 -0.04515202 0.095993415 0.0720528
-0.14394759 0.00953189 0.051722977 -0.028565248 -0.11391103 0.1851563 0.035026036 0.042573158
-0.13113196 0.041987684 0.058527432 -0.085032664 0.003114243 0.02901184 0.12964275 -0.08011537
0.17666648 -0.1250711 -0.027071755 -0.0757416 0.050859217 0.016549096 -0.048181422 0.05899411
-0.15147732 -0.17083451 -0.16901143 -0.16337797 -0.14012228 0.1717766 0.024105594 -0.0039516124
0.026632192 -0.012441945 0.022767596 -0.0017077164 -0.012997369 -0.04740863 0.17865859 -0.09538292
-0.15888542 0.011215881 -0.12002547 -0.13782635 -0.13607149 -0.022873096 0.17000979 0.1723157
0.16236418 -0.0024039038 -0.107687384 -0.047460888 -0.08079325 -0.087994315 -0.0059704897 0.1756301
-0.15982436 -0.090437226 0.16615884 0.0019906545 0.061115496 -0.10529127 -0.16036315 0.01965395
0.057534773 0.023010515 -0.124433585 -0.05210848 -0.032266285 -0.14352325 0.10043332 -0.0010305125
-0.07031069 0.055335466 -0.08622143 0.11261102 0.09407266 0.074255705 -0.17170182 0.08741027
0.16005017 -0.0024332344 0.07175569 0.047595564 0.057887886 0.012415123 0.11917777 -0.030351987
-0.019983154 -0.12505716 0.039533656 0.117014416 -0.14460385 0.17651585 -0.047278106 -0.078074895
0.03959699 0.078384966 0.039987553 0.05169672 -0.06339377 0.052937344 0.15157086 0.0058370656
-0.05990022 -0.15145709 0.021552064 -0.15611282 0.06380863 0.028175872 -0.07830269 0.15492001
0.10583586 0.089255095 0.07297991 -0.036516488 0.16750951 0.008371144 0.0002384839 0.10341196
-0.08940518 -0.15794764 0.16672511 0.07039101 0.15763688 0.12440466 0.17767534 0.032358363
0.045800738 -0.018584708 0.035000257 -0.15299456 0.118058994 0.026787775 -0.13416955 -0.16670464
-0.15995957 0.031912554 -0.1677835 -0.09200168 0.10096522 0.0075369626 -0.015597967 0.026095703
-0.030365348 -0.023608746 -0.08337409 -0.14542888 -0.15542305 -0.013908835 -0.062131487 -0.121019885
-0.16665617 0.03161103 -0.07848891 0.16240814 -0.1435243 0.0180387 0.02059129 -0.10026114
0.12625977 -0.0006521839 -0.082023814 0.108822525 0.07271108 0.008896938 0.0039348463 0.092612475
-0.049591694 -0.004142691 -0.09064351 0.006290537 -0.15499456 0.06412991 -0.0377434 -0.09795163
-0.055966303 0.16391955 0.14963539 0.029172406 -0.005894023 0.016764577 0.007835962 -0.066854484
0.13316847 -0.14402962 0.091049075 -0.12403741 -0.008324904 0.11126195 -0.113711834 -0.19705991
-0.10080696 -0.17753151 -0.15331888 0.15286589 -0.013835934 -0.05100495 0.027567169 0.0062693898
0.14358038 0.06510598 -0.017124865 -0.15562144 -0.14682701 0.0638902 -0.06724081 0.13968901
0.026241692 0.061432987 0.15676136 0.14158334 0.16199388 0.043731987 -0.16843297 -0.13647749
0.009810916 0.118261926 -0.09721048 0.030189868 -0.08113662 -0.109568596 -0.029008219 -0.1092318
-0.083729304 0.13902618 -0.12986639 -0.15997906 0.08605053 0.0011480203 0.02689537 0.007473798
-0.08659723 0.039774153 -0.019520653 -0.1330445 0.09137118 -0.043575417 0.17233975 0.0014233004
-0.13744885 0.1331055 -0.07040218 0.17174785 -0.0499022 0.059805267 0.052743323 0.07540408
