notebooks/outputs/ctnet/ctnet_B02_best.pth (torch, 117333 bytes, 31 tensors)

pos_encoding f4 [1, 281, 32]
0	0xbc14a346	-0.009072131
1	0xbd755f05	-0.05990507
2	0xbcb82d95	-0.022482673
3	0xbc65a64c	-0.014016699
4	0x3d523e47	0.051328924
5	0xbd0d18f2	-0.034447618
6	0xbc017186	-0.007900601
7	0xbd119681	-0.035543922
8	0xbce4c228	-0.027924612
9	0xbb5f27b9	-0.0034050776
10	0xbbd8446e	-0.0065999543
11	0x3cfd98b2	0.0309566
12	0x3cb9cec1	0.022681596
13	0x3c3858d8	0.011251651
14	0x3b826ada	0.003980023
15	0x3cc7a8c9	0.024372475
16	0xbb4e2a1a	-0.00314582
17	0xbc9e1ac7	-0.019299878
18	0xbb721ee2	-0.0036944677
19	0xbd04cd99	-0.032422636
20	0x3c09bcfd	0.008406875
21	0xbd2397cf	-0.039939698
22	0xbd0ce733	-0.034400176
23	0xbd254bd3	-0.040355515
24	0xbd1ef696	-0.03880938
25	0xbd499ea7	-0.04922357
26	0xbd2f5293	-0.04280336
27	0xbca9ee84	-0.020743616
28	0xbc527ae4	-0.012846682
29	0xbc8c3dc9	-0.017119305
30	0xbb871d28	-0.0041233487
31	0xbced1c24	-0.028944083
32	0x3beb5206	0.007181409
33	0xbba8f85d	-0.0051565603
34	0xbc102864	-0.008798692
35	0xbc2d1c42	-0.010565819
36	0xbbb41e98	-0.005496811
37	0xbd35c8fd	-0.04438113
38	0xbd99065b	-0.07471915
39	0xbce3b1a6	-0.02779467
40	0xbd5f8c7d	-0.05457734
41	0x3c0b51df	0.008503406
42	0x3b9f48d8	0.0048609786
43	0x3cc31b27	0.023816658
44	0xbcfc4ea3	-0.030799216
45	0xbcd82162	-0.026383106
46	0x3cdece57	0.027198
47	0xbcc8972a	-0.024486143
48	0x3c51eb16	0.0128123965
49	0x3c43196f	0.011907919
50	0xb838dc3f	-4.407414e-05
51	0xbd0bed3a	-0.034161784
52	0x3bebcb24	0.007195847
53	0xbc03a084	-0.008033875
54	0xbb504337	-0.0031778344
55	0xbce1e7a7	-0.02757628
56	0x3d3ec218	0.04657182
57	0xbd3f093a	-0.04663966
58	0xbbacf694	-0.005278418
59	0x3d3a81b2	0.045533843
60	0xbc766a18	-0.015039943
61	0xbc4fc75f	-0.012681811
62	0x3b2d4ae4	0.0026442343
63	0xbcb1b92d	-0.021694744
64	0xbad3ed65	-0.0016168772
65	0xbbe8d4b5	-0.007105435
66	0x3d237d8b	0.03991465
67	0xbc1cd028	-0.009571113
68	0xbc81d138	-0.015846834
69	0x3bcbf155	0.0062238374
70	0xbd3d1e6b	-0.046171587
71	0x3c92b98b	0.01791074
72	0xbcb7e87f	-0.02244973
73	0x3d70503d	0.05867027
74	0xb9fce84b	-0.00048238257
75	0xbca1086f	-0.019657342
76	0xbd39ab6c	-0.045329496
77	0xbd841c27	-0.06450682
78	0x3ce7122d	0.02820691
79	0xbd009e8b	-0.0314012
80	0xbd42d705	-0.04756834
81	0x3ca40324	0.020021029
82	0xbd34928b	-0.044085067
83	0xbc27fb8d	-0.0102528455
84	0x3d0f7f1f	0.03503334
85	0xba85eeee	-0.0010218301
86	0xbd112c59	-0.035442684
87	0xbdc957ce	-0.098312005
88	0xb7a22108	-1.9327286e-05
89	0xbc98cce8	-0.018652394
90	0xbd2bb597	-0.041921224
91	0x3d7c36aa	0.06157557
92	0xbc84e806	-0.016223919
93	0x3b9125e0	0.004429564
94	0x3c446904	0.011987928
95	0x3c1f19df	0.009710758
96	0xbb658f2a	-0.003502796
97	0xbaa94279	-0.0012913487
98	0xbbeca582	-0.0072218785
99	0x3cbc7b9b	0.023008158
100	0x3d07d16b	0.0331587
101	0xbd408edf	-0.047011252
102	0xbcc8e634	-0.024523832
103	0xbc390d90	-0.011294737
104	0xbd667dab	-0.05627219
105	0x3d09beac	0.033629104
106	0xbcb47ceb	-0.022032222
107	0x3cb49273	0.022042489
108	0x3c247657	0.01003798
109	0x3ccffa28	0.025387838
110	0xbc185e8f	-0.009299888
111	0xbcca991d	-0.024731213
112	0xbc9e104b	-0.019294878
113	0xbc82384a	-0.015895981
114	0xbc7cae49	-0.015422412
115	0xbd3fd1d9	-0.046830986
116	0xbc8fb827	-0.017543865
117	0x3c230fbf	0.009952485
118	0x3c92ac0b	0.017904302
119	0xbd1f5232	-0.038896747
120	0x3c4c8fe9	0.012485483
121	0xbc845f3c	-0.016158693
122	0xbb1c5b7b	-0.0023858238
123	0x3ab11d60	0.0013512783
124	0x3c4f6246	0.012657708
125	0x3bd27cee	0.006423584
126	0xbc3a838d	-0.011383903
127	0xbce74f29	-0.028235989
128	0xbce93a9f	-0.028470336
129	0x3c740f52	0.014896231
130	0x3d6670c8	0.0562599
131	0xbc3d3e34	-0.011550475
132	0xbc7e1583	-0.0155080585
133	0xbd5858d6	-0.052819096
134	0xbc0065be	-0.007836757
135	0xbd200abf	-0.03907275
136	0xbcae8650	-0.02130428
137	0xbccb53df	-0.024820266
138	0xbc88c938	-0.016697511
139	0x3c323d32	0.010878848
140	0x3be8e220	0.0071070343
141	0xb8b76037	-8.7440414e-05
142	0xbd1435ae	-0.036184005
143	0xbb5a7495	-0.0033333648
144	0x3c763641	0.015027584
145	0x3bb2d6ea	0.0054577487
146	0xbd59fd68	-0.053220183
147	0x3c3d1d7c	0.011542674
148	0x3b172721	0.0023064094
149	0x3b26da91	0.0025459866
150	0xbd16a69f	-0.036779996
151	0x3c87e500	0.016588688
152	0x3cac34bc	0.02102124
153	0xbd800eed	-0.06252847
154	0xbbd9289b	-0.006627155
155	0x3a83db05	0.001005978
156	0x3d09fb97	0.0336872
157	0x3ab5517f	0.0013833492
158	0x3c253425	0.010083233
159	0xbcbbecc0	-0.02294004
160	0xbc6060bc	-0.013694938
161	0x3b191d51	0.0023363421
162	0xbc908e1f	-0.017645894
163	0x3c76ca61	0.015062899
164	0x3b244f23	0.0025071583
165	0x3cbd2245	0.02308763
166	0xbcb20ff9	-0.021736132
167	0xbc46efa9	-0.0121421
168	0xbc3714c5	-0.011174385
169	0xbd40e5f1	-0.04709429
170	0xbcef41ff	-0.029206274
171	0xbb983fb8	-0.0046462677
172	0xbafdaba7	-0.0019353525
173	0xbcb0585e	-0.021526512
174	0xbbb1cd61	-0.0054260944
175	0xbca8fc47	-0.020628108
176	0xbd337d1a	-0.043820478
177	0xbc804102	-0.015655998
178	0xbbbe99ab	-0.0058166585
179	0xbc5c6ea5	-0.013454114
180	0xbca08f83	-0.019599682
181	0xbd8dffa3	-0.069335245
182	0x3b85f6b8	0.004088249
183	0xbc1f0037	-0.009704641
184	0xba80774a	-0.0009801176
185	0xbd12bf14	-0.035826758
186	0x3be918e2	0.007113562
187	0x3c20a6ba	0.009805376
188	0xbd298222	-0.04138387
189	0x3c6967eb	0.014245967
190	0x3c9cb39a	0.01912861
191	0xbd0b8e39	-0.03407118
192	0xbcecb24f	-0.028893618
193	0xbcb9f071	-0.02269766
194	0x3b5fd789	0.0034155569
195	0x3c988d85	0.01862217
196	0xbc5e1620	-0.01355508
197	0xbc96ded0	-0.018416792
198	0xbc37e29a	-0.01122346
199	0xbd804f51	-0.062651284
200	0xbce6fd26	-0.028196882
201	0xbd2dd1cf	-0.042436417
202	0x3d01d5f7	0.031698193
203	0xbd169b0f	-0.03676897
204	0x3cbce755	0.023059526
205	0xbccd1d6d	-0.025038445
206	0xbc6334bd	-0.013867554
207	0xbb892389	-0.0041851443
208	0xbce9d051	-0.028541716
209	0xbc8101c9	-0.015747922
210	0xbaa7ca9a	-0.0012801469
211	0x3c24a218	0.010048412
212	0xbcf2459d	-0.02957421
213	0xbabe86fe	-0.001453608
214	0x3c073c26	0.008254087
215	0xbc8a089a	-0.016849805
216	0x3cc891fa	0.02448367
217	0xbbedc0e6	-0.0072556613
218	0x3ad84517	0.0016500083
219	0xbd4b81fb	-0.049684506
220	0x3c327abd	0.010893521
221	0xbbc3b53f	-0.005972534
222	0xbd0f86c7	-0.035040643
223	0xbc881eb0	-0.016616195
224	0xbc81e976	-0.015858393
225	0x3c9fd327	0.019509865
226	0x3bae06a2	0.0053108493
227	0x3cbe10dc	0.023201399
228	0x3cb65cc6	0.022261035
229	0xbba0c1dc	-0.0049059223
230	0xbc99852d	-0.018740261
231	0xbd51af06	-0.051192306
232	0xbd4dd689	-0.050253425
233	0xbd0d7f3f	-0.03454518
234	0xbcf3f276	-0.0297787
235	0x3b9b446d	0.0047383816
236	0x3d3ee979	0.046609376
237	0x3b0c64ce	0.002142239
238	0xbd12ae40	-0.03581071
239	0xbd2cf6d1	-0.04222757
240	0xbc9e2c1a	-0.019308139
241	0x3c16942b	0.009190599
242	0xbbb1f7bf	-0.005431145
243	0x3cc29091	0.023750575
244	0xbd5ced0d	-0.053937007
245	0xbd31abe9	-0.043376837
246	0xbd5b41dd	-0.05352961
247	0x3c52eda2	0.012874039
248	0xbcdb0857	-0.026737375
249	0xbbc3a209	-0.005970244
250	0xbc65f281	-0.014034868
251	0xbd3bb963	-0.045831095
252	0xbc532d74	-0.012889255
253	0x3c89e8bd	0.016834611
254	0xbca24fb9	-0.019813405
255	0x3c94b83c	0.018154256

conv1.0.weight f4 [8, 3, 25]
0	0x3d9d8d10	0.07692921
1	0x3e278e80	0.16362953
2	0x3e2df748	0.16988862
3	0x3af41a91	0.001862364
4	0x3e0e84a5	0.13917787
5	0x3e068214	0.13135558
6	0xbd363eb1	-0.04449338
7	0x3d895887	0.067063384
8	0x3b8e7208	0.0043470897
9	0xbd25c244	-0.04046847
10	0x3d30594c	0.04305391
11	0x3d8402c3	0.06445839
12	0xbdf4d073	-0.11953821
13	0x3d31c44a	0.043400086
14	0xbd589fa7	-0.05288663
15	0x3ca9288d	0.020649219
16	0x3dd711c6	0.10501437
17	0x3ace3216	0.001573148
18	0x3d3b7e5e	0.04577481
19	0x3da5c583	0.08094313
20	0x3cd4cdd2	0.025977049
21	0x3d897935	0.067125715
22	0x3d3dcd4e	0.046338372
23	0x3cdf0fda	0.027229238
24	0x3cdb39a7	0.02676089
25	0xbdff0826	-0.12452726
26	0xbd489c54	-0.04897721
27	0xbbcc9659	-0.006243509
28	0xbe0d872e	-0.13821098
29	0xbe401d99	-0.1876129
30	0xbaf8fb9e	-0.0018995886
31	0x3d0a12f9	0.0337095
32	0x3d84db1d	0.06487105
33	0xbd45e033	-0.048309516
34	0xbd54cad1	-0.051951233
35	0xbd649614	-0.05580719
36	0xbe0d3049	-0.1378795
37	0xbc9217f1	-0.017833682
38	0x3d458b1d	0.048228372
39	0x3d12badf	0.035822745
40	0x3d8cebd0	0.06880915
41	0x3c357ba8	0.011076845
42	0xbdb92e9c	-0.09042093
43	0x3dc4d6f3	0.09611311
44	0x3dad3dcb	0.08459052
45	0x3d8c0a32	0.06837882
46	0xbd15001f	-0.03637707
47	0x3d0ded43	0.0346501
48	0xbcca3158	-0.024681732
49	0x3e063eb9	0.13109864
50	0x3e1ae7e5	0.15127523
51	0x3c7357e0	0.014852494
52	0x3b2a4280	0.0025979578
53	0x3ccc8028	0.024963453
54	0x3daecf54	0.085356385
55	0xbcb9f531	-0.022699924
56	0xbdd85451	-0.10562957
57	0xbd85448b	-0.06507214
58	0xbd1e9bc0	-0.038722754
59	0x3d6b16a3	0.057394635
60	0xbd986cbd	-0.07442615
61	0x3d5c7316	0.053820692
62	0x3c396373	0.011315214
63	0xbdb1febd	-0.086911656
64	0x3c198c3c	0.009371813
65	0xbd5575e0	-0.052114367
66	0x3d87dc5d	0.06633828
67	0x3dab5350	0.083655
68	0xbda4584d	-0.080246545
69	0xbdc58835	-0.0964512
70	0xbc0ed017	-0.008716605
71	0xbe16a057	-0.14709602
72	0xba515857	-0.0007985881
73	0xbd9ae597	-0.07563322
74	0x3d4536a2	0.048147805
75	0x3d9887f5	0.07447807
76	0x3d75728f	0.059923705
77	0x3dbe7f23	0.09301593
78	0x3d685cdb	0.05672918
79	0xbe004866	-0.12527618
80	0x3d89308c	0.06698713
81	0xbd75e431	-0.060032073
82	0xbd6fc357	-0.0585359
83	0xbc1c62ef	-0.009545072
84	0xbda55618	-0.08073062
85	0xbcd1dcc0	-0.025617957
86	0x3d894f9b	0.06704637
87	0xbdccb962	-0.099962965
88	0xbd74bdff	-0.059751507
89	0x3c64a6f2	0.0139558185
90	0xbdefdb7f	-0.117117874
91	0xbdcae65e	-0.0990722
92	0xbc0102f3	-0.007874238
93	0x3dd3ed79	0.10348029
94	0xbcc03f43	-0.023467666
95	0x3d07827f	0.033083435
96	0x3d5ba24b	0.05362157
97	0x3cb262dd	0.021775657
98	0x3d88dcee	0.06682764
99	0xbe12bb28	-0.14329207
100	0xbbb9f894	-0.005675385
101	0x3be4d11e	0.0069829365
102	0xbe088404	-0.1333161
103	0xbdfd1fcc	-0.123595804
104	0xbce97bac	-0.028501354
105	0x3d3f7055	0.046737988
106	0xbdd870ce	-0.10568391
107	0x3d8271d9	0.06369371
108	0xbc179780	-0.009252429
109	0xbd1e194b	-0.03859834
110	0x3d58947e	0.05287599
111	0xbde8e492	-0.11371721
112	0x399679d5	0.00028701
113	0x3d7fbcbd	0.062435854
114	0x3d574500	0.052556038
115	0xbd92fd2b	-0.07177194
116	0x3d72e3b8	0.0592992
117	0x3d993644	0.074810535
118	0x3c2f2971	0.010691033
119	0x3d024a6e	0.031809263
120	0x3d9d9bb6	0.07695715
121	0xbdb1af67	-0.086760335
122	0xbd92ec95	-0.07174031
123	0xbccad44d	-0.024759436
124	0x3d4edf2a	0.050505795
125	0x3df4409d	0.119263865
126	0x3e07b1b9	0.1325139
127	0x3d88ec77	0.06685727
128	0x3d2dea35	0.042459685
129	0x3d9e0bd7	0.07717102
130	0xbcff7896	-0.03118543
131	0xbd5226c5	-0.051306505
132	0xbb58b3f5	-0.0033066247
133	0x3d4416a4	0.047873154
134	0x3bbbaee0	0.005727634
135	0xbce90c73	-0.028448319
136	0x3dc29b26	0.095022485
137	0xbda30998	-0.07960814
138	0x3ce7900d	0.028266931
139	0xbd2318d5	-0.039818604
140	0xbd9a42bd	-0.075322606
141	0x3cd2b82e	0.02572259
142	0xbc812d6f	-0.015768735
143	0xbd9a1ac7	-0.075246386
144	0xbd8b2de9	-0.06795866
145	0x3d41ab4f	0.047282513
146	0xbd22f872	-0.039787717
147	0xbc8fd8fc	-0.01755952
148	0xbe117dcf	-0.14208148
149	0xbd98b51a	-0.074564174
150	0x3c7d2e6f	0.015452965
151	0x3cdae507	0.026720537
152	0x3cd60a56	0.026127975
153	0x3d1aa760	0.037757277
154	0x3d74232f	0.059603866
155	0xbe1363cc	-0.14393538
156	0xbe24e828	-0.16104186
157	0xbddf642f	-0.109077804
158	0x3d8654e8	0.06559163
159	0xbbb902ba	-0.005646077
160	0x3e1a04fa	0.15040961
161	0x3d8576e2	0.06516816
162	0xbd677056	-0.056503616
163	0xbd531621	-0.051534776
164	0x3cc50cae	0.024053898
165	0x3ca04052	0.01956192
166	0x3d60b0ab	0.054855984
167	0x3e072354	0.1319707
168	0x3ddd4bcf	0.10805475
169	0xbdb39449	-0.087685175
170	0x3d7c0973	0.06153245
171	0xbd1e9332	-0.038714595
172	0x3de4edf0	0.111781955
173	0xbbdd6582	-0.0067564854
174	0x3d192129	0.03738514
175	0x3d4fded3	0.05074961
176	0xbe015ae7	-0.12632333
177	0x3db0bdfc	0.08629987
178	0x3d3fb429	0.046802673
179	0x3c87e1ca	0.016587157
180	0xbbc298c9	-0.0059386236
181	0xbdd1d0cd	-0.10244904
182	0xbd70e113	-0.058808398
183	0x3cfe01f0	0.031006783
184	0xbd863ce8	-0.06554586
185	0xbd5b12fd	-0.053484906
186	0x3dab1b50	0.08354819
187	0x3d868220	0.06567788
188	0xbd905b2a	-0.07048638
189	0xbdb5478c	-0.08851537
190	0xbde4e533	-0.11176529
191	0xbb942e39	-0.0045221117
192	0x3df50b62	0.11965062
193	0x3cc10a8f	0.023564605
194	0xbd9c429c	-0.07629892
195	0xbdb18bd1	-0.08669246
196	0xbcb5ff24	-0.022216387
197	0xbc899bcc	-0.016797923
198	0xbcc6fcf2	-0.024290536
199	0xbd3c1575	-0.0459189
200	0xbd94bebd	-0.07262943
201	0x3d6903be	0.056888334
202	0x3dcef219	0.1010477
203	0x3dac6cfb	0.08419224
204	0xbc9d4cf1	-0.019201728
205	0x3d6dd693	0.058065962
206	0xbcb39f12	-0.021926437
207	0x3d12a2fc	0.035799965
208	0x3e260681	0.16213419
209	0xbcf85d5d	-0.030317957
210	0xbc64e788	-0.013971217
211	0x3cca13c2	0.024667624
212	0xbdd1f4c0	-0.102517605
213	0x3d8267f1	0.063674815
214	0x3d3f1760	0.04665315
215	0x3d5f5084	0.054520145
216	0xbd30aa14	-0.04313095
217	0x3db11cbd	0.086480595
218	0xbdd9072c	-0.10597071
219	0x3d11b624	0.035574093
220	0xbe0753a7	-0.13215505
221	0xbd8c8da4	-0.06862953
222	0x3db0e4bd	0.08637378
223	0xbd555b4b	-0.052089017
224	0x3d90b51e	0.07065795
225	0x3c10c3b4	0.008835722
226	0x3dbe27be	0.09284924
227	0x3c95b018	0.018272445
228	0x3d28cff4	0.041213945
229	0xbda686c9	-0.08131177
230	0x3d6cd0f4	0.05781646
231	0x3d2ff8d1	0.0429619
232	0x3e0b38e5	0.13595922
233	0xbca700e0	-0.02038616
234	0xbc8ab879	-0.016933667
235	0x3dc3cc96	0.09560506
236	0x3d8fb41e	0.070167765
237	0x3e0d5eaf	0.1380565
238	0xbd72fb82	-0.059321888
239	0x3d95ae1f	0.073086016
240	0x3dda4ccb	0.10659178
241	0x3c763531	0.01502733
242	0xbce962de	-0.028489526
243	0x3ca8d719	0.020610379
244	0x3e0656dd	0.13119073
245	0x3dbf563e	0.09342621
246	0xbca4b682	-0.020106558
247	0xbdd5afbd	-0.1043391
248	0x3d96d684	0.07365134
249	0x3d905c60	0.07048869
250	0x3dd68a2c	0.10475573
251	0x3df976a4	0.12180832
252	0x3d55a42c	0.05215852
253	0xbd064e9a	-0.032789804
254	0xbd796cf4	-0.06089492
255	0x3d971f09	0.07378966

conv1.1.weight f4 [8]
0	0x3f85c882	1.0451815
1	0x3f84367b	1.0329126
2	0x3f807b14	1.003756
3	0x3f78f165	0.9724334
4	0x3f82ba56	1.0213115
5	0x3f8e2e91	1.1107961
6	0x3f823693	1.0172905
7	0x3f89cdb6	1.0765903

conv1.1.bias f4 [8]
0	0x3dd6bad3	0.10484853
1	0xbd9eab7e	-0.07747553
2	0xbd8a6d4e	-0.067591295
3	0x3c57ce31	0.013171718
4	0xbdb147a0	-0.086562395
5	0xbdd0b402	-0.10190584
6	0xbc993a4f	-0.018704562
7	0xbdce3b81	-0.10069943

conv1.1.running_mean f4 [8]
0	0xb92e073a	-0.00016596625
1	0x39b0daf2	0.00033732463
2	0xb9109710	-0.00013789185
3	0xba39c7da	-0.000708697
4	0x39f2419c	0.0004620672
5	0xb936c7e4	-0.00017431338
6	0xb974ba04	-0.0002333895
7	0xb9dea3ba	-0.00042465125

conv1.1.running_var f4 [8]
0	0x3eca7cf4	0.39548457
1	0x3ec515c8	0.3849318
2	0x3e4c8d9b	0.19975893
3	0x3ee79eb2	0.45238262
4	0x3f04ed7a	0.5192486
5	0x3f3220f9	0.6958156
6	0x3e818e9e	0.2530412
7	0x3ef2dbc7	0.47433302

conv2.0.weight f4 [16, 8, 1]
0	0x3cb7115d	0.022347147
1	0x3e8a0dd7	0.26963684
2	0xbe598b58	-0.21244562
3	0xbe8189c4	-0.2530042
4	0x3e43dbdf	0.19126843
5	0x3cb547a4	0.022128887
6	0x3e6ed84c	0.23324698
7	0xbde1e41b	-0.11029836
8	0xbebfa784	-0.37432492
9	0xbd185f5f	-0.037200328
10	0x3da1ba0f	0.07896816
11	0x3bb0ba9c	0.0053933393
12	0xbe8bd828	-0.27313352
13	0xbe896777	-0.2683675
14	0x3e8738c0	0.26410484
15	0x3d4c03e0	0.049808383
16	0xbe0f0dc2	-0.13970092
17	0x3e0abc9e	0.13548514
18	0x3e08b04b	0.133485
19	0x3e8cd528	0.27506375
20	0x3eb63fd7	0.3559558
21	0xbe85c7a5	-0.2612888
22	0x3e879703	0.264824
23	0xbe824559	-0.25443533
24	0x3ec8a544	0.39188588
25	0xbd5a0de6	-0.05323591
26	0x3c9745bf	0.018465875
27	0xbe1bcc42	-0.15214637
28	0x3e980af3	0.29695854
29	0x3eada26c	0.3391298
30	0xbd89dc82	-0.06731512
31	0x3e82496f	0.2544665
32	0x3dc3de53	0.09563889
33	0x3ca9f891	0.020748409
34	0x3e8721da	0.26393014
35	0xbe7259de	-0.23667094
36	0x3d8eee50	0.06979048
37	0xbe4ace96	-0.19805369
38	0xbe9460cc	-0.289801
39	0x3e3cfca1	0.18455745
40	0x3bf7794e	0.0075523024
41	0xbd02f296	-0.03196963
42	0xbd6f4756	-0.05841764
43	0xbe826a61	-0.25471786
44	0xbe2c4d83	-0.16826443
45	0xbe81d1c5	-0.25355354
46	0xbe24abc3	-0.16081147
47	0x3dbe9887	0.09306436
48	0xbe76604e	-0.24060175
49	0x3e857512	0.2606588
50	0x3e1bd840	0.15219212
51	0x3b299225	0.0025874462
52	0xbd8ca9fc	-0.068683594
53	0xbe813abb	-0.2524012
54	0xbe515767	-0.20443498
55	0xbe742d42	-0.2384539
56	0xbe5455e0	-0.20735884
57	0x3e6dcfe3	0.23223834
58	0xbe4f02d1	-0.20215918
59	0x3e4e8316	0.20167193
60	0x3dd88b5d	0.105734564
61	0xbe305697	-0.17220531
62	0xbeac8106	-0.33692187
63	0xbea2b9f8	-0.31782508
64	0x3e655348	0.2239505
65	0x3eb17306	0.34658068
66	0x3ba590ac	0.0050526466
67	0x3d8103ee	0.06299578
68	0xbe913f83	-0.28368768
69	0x3d80932b	0.0627807
70	0xbd54acc8	-0.05192259
71	0xbca9e940	-0.020741105
72	0xbe2d6455	-0.16932805
73	0xbe8aec10	-0.27133226
74	0xbe1072c7	-0.14106284
75	0x3d8c40b7	0.06848281
76	0x3e89a1c0	0.26881218
77	0xbe3b74e7	-0.18306313
78	0xbec26d64	-0.37974083
79	0xbd5dc6f3	-0.05414481
80	0x3dc10bee	0.094261035
81	0xbd2bed46	-0.04197433
82	0xbe932ed5	-0.28746668
83	0xbe2113e8	-0.1573025
84	0x3e4e4ec4	0.20147234
85	0xbdeb1024	-0.11477688
86	0x3e931d2e	0.287332
87	0x3ebea89d	0.37238017
88	0x3d8482fc	0.06470296
89	0xbe578c62	-0.21049646
90	0xbb0069f7	-0.001959441
91	0xbbc3205d	-0.0059547857
92	0x3ea2cc83	0.31796655
93	0x3d69b453	0.057056736
94	0xbea9c5ee	-0.3315882
95	0xbe95f8ed	-0.29291478
96	0x3e08dd28	0.13365614
97	0xbe93cd85	-0.28867736
98	0x3d99cd44	0.075098544
99	0xbe93f0a6	-0.28894538
100	0xbe80d1c3	-0.25160035
101	0x3e270a06	0.16312417
102	0x3e94ac92	0.2903791
103	0x3d932955	0.07185618
104	0xbd3585ea	-0.044317164
105	0xbd2e8911	-0.042611185
106	0x3ea150ef	0.3150706
107	0x3e396649	0.18105425
108	0x3d2bdc05	0.041957874
109	0xbe222d19	-0.15837516
110	0xbeabb159	-0.33533743
111	0xbe290950	-0.16507459
112	0xbe10d535	-0.14143832
113	0xbe9f8a67	-0.3116028
114	0xbe719c11	-0.23594691
115	0xbd173d8c	-0.03692393
116	0xbe356210	-0.17713189
117	0xbe4d60ca	-0.20056453
118	0xbdb6fef3	-0.089353465
119	0x3e01036c	0.12598962
120	0x3ddc175a	0.107466415
121	0x3d6e7d5a	0.058225013
122	0x3c84bdf4	0.016203858
123	0xbe1a7bc6	-0.15086278
124	0xbe9d2718	-0.3069389
125	0xbe012d36	-0.12614903
126	0xbe84fe9f	-0.2597551
127	0x3e283920	0.16428041

conv2.1.weight f4 [16]
0	0x3f7a0bf5	0.97674495
1	0x3f8cb89b	1.0993837
2	0x3f807e11	1.0038472
3	0x3f77e811	0.9683848
4	0x3f7cbb76	0.9872354
5	0x3f849b12	1.0359824
6	0x3f84f80c	1.0388198
7	0x3f87e0b1	1.0615445
8	0x3f7a7641	0.9783669
9	0x3f7ff1ff	0.9997863
10	0x3f78ce7d	0.97190076
11	0x3f832a29	1.0247241
12	0x3f859fd4	1.0439401
13	0x3f86924d	1.0513397
14	0x3f89ae93	1.0756401
15	0x3f7792a7	0.9670815

conv2.1.bias f4 [16]
0	0xbda158e2	-0.07878281
1	0xbdda7bca	-0.10668142
2	0xbd360a80	-0.044443607
3	0xbdd29047	-0.10281425
4	0xbc2f49c6	-0.010698741
5	0xbd2979c3	-0.041375887
6	0xbd996b11	-0.074911244
7	0xbd989486	-0.074502036
8	0x3c03305d	0.008007136
9	0x3d035380	0.032062054
10	0x3dc2e291	0.0951587
11	0x3c83799b	0.016049197
12	0xbdb10b0f	-0.086446874
13	0xbd28cda7	-0.04121175
14	0xbdbe965f	-0.09306025
15	0xbc9a9d57	-0.018873854

conv2.1.running_mean f4 [16]
0	0x3c8cdefd	0.017196173
1	0xbdcf65c5	-0.10126833
2	0x3d663c88	0.05621007
3	0x3e1e0fe4	0.1543575
4	0xbcbb3585	-0.022852669
5	0xbdddf5f8	-0.108379304
6	0xbdd4f9ad	-0.103991844
7	0xbdddd19c	-0.108309954
8	0x3d9b325d	0.075779654
9	0xbe091649	-0.13387407
10	0x3d4a3486	0.049366497
11	0xbd4c5379	-0.049884293
12	0x3c048de8	0.008090474
13	0xbd082c6c	-0.03324549
14	0xbe11d464	-0.14241177
15	0xbd5faa04	-0.0546055

conv2.1.running_var f4 [16]
0	0x3e70cfdf	0.23516797
1	0x3e430201	0.19043733
2	0x3e6bc47a	0.23024169
3	0x3e8ccc3c	0.27499568
4	0x3e947816	0.28997868
5	0x3e5e09e6	0.21683463
6	0x3e669394	0.22517234
7	0x3e97200b	0.29516634
8	0x3e72be42	0.2370539
9	0x3ea521e2	0.32252413
10	0x3e814b5b	0.25252804
11	0x3e3422ca	0.17591396
12	0x3e3b5ca0	0.18297052
13	0x3e3c2e4f	0.1837704
14	0x3e8f2392	0.27956825
15	0x3e77ecdf	0.24211453

conv3.0.weight f4 [32, 16, 15]
0	0xbc350cfe	-0.011050461
1	0x3b8a2702	0.004216076
2	0xbd02c7b8	-0.031928748
3	0xbc93475a	-0.017978359
4	0x3d516f4b	0.051131528
5	0x3bae40cc	0.005317783
6	0x3b23e085	0.002500565
7	0x3cb48897	0.022037787
8	0xbd98006f	-0.07421958
9	0xbd12b5b9	-0.035817835
10	0x3c6942d6	0.014237126
11	0xbd85e756	-0.065382645
12	0x3c3ae32c	0.011406701
13	0xbca836f0	-0.020534009
14	0x3d7a07ad	0.061042476
15	0xbd6a42a0	-0.057192445
16	0xbd0e6dfa	-0.03477285
17	0xbda11fb4	-0.07867375
18	0xbc312add	-0.010813442
19	0xbd06f3b0	-0.032947242
20	0xbdb46d6e	-0.088099346
21	0xbd0c87f6	-0.03430935
22	0x3c52370d	0.012830508
23	0xbd1ae2ae	-0.037813835
24	0xbda24a7a	-0.079243615
25	0xbcb2fbb0	-0.02184853
26	0xbd8782c5	-0.06616739
27	0xbc94a596	-0.018145364
28	0xbd96282d	-0.07331882
29	0xbdab645b	-0.08368751
30	0xbc76ccee	-0.0150635075
31	0x3db28438	0.08716625
32	0x3b3e1af7	0.0029007772
33	0x3dbdf745	0.092756785
34	0xbcdcf1c3	-0.02697075
35	0x3d218f41	0.03944326
36	0x3d575f1f	0.05258095
37	0x3cfb03dc	0.030641489
38	0xbd4e3464	-0.050342932
39	0xbd0f881f	-0.035041925
40	0xba6b5581	-0.00089772796
41	0xbd407dc5	-0.046994943
42	0xbcaf8976	-0.021427851
43	0x3d973142	0.07382442
44	0x3cbd09fb	0.023076048
45	0xbd865018	-0.065582454
46	0x3d043591	0.032277647
47	0xbdb001c7	-0.08594089
48	0x3bafe030	0.0053673014
49	0xbd429ca8	-0.04751268
50	0x3a42db13	0.00074331573
51	0x3cdbbaca	0.026822466
52	0x3d1b1d8a	0.037869968
53	0xbd031a42	-0.032007463
54	0xbbf1934a	-0.0073722946
55	0x3cb3f767	0.021968557
56	0x3d000c27	0.03126159
57	0x3b6e09ba	0.0036321715
58	0x3974dece	0.00023352655
59	0xbd99469b	-0.0748417
60	0x3bd509e9	0.0065014255
61	0xbd33e073	-0.043915223
62	0x3ce5d64d	0.028056288
63	0x3b1b8c82	0.0023734872
64	0xbd80c3f6	-0.062873766
65	0xbd4cb073	-0.049972963
66	0xbc6a5897	-0.014303348
67	0x3d3a28ad	0.045448948
68	0xbd7975a4	-0.060903206
69	0xbd0a3523	-0.03374208
70	0x3d36b593	0.044606756
71	0x3d790e20	0.060804486
72	0xbd1249aa	-0.035714783
73	0x3d8df2ad	0.06931052
74	0xbd0a2eb0	-0.03373593
75	0xbd76ebaf	-0.06028336
76	0x3cc61366	0.024179172
77	0x3cbf755a	0.023371387
78	0xbc467316	-0.0121124
79	0xbcdc7237	-0.02690993
80	0x3c1b0f2c	0.0094640665
81	0xbd38e22d	-0.045137573
82	0xbbfd8209	-0.0077364487
83	0xbb04642d	-0.002020131
84	0xbd966b75	-0.073447146
85	0xbdbd83ff	-0.09253692
86	0xbd5059ea	-0.050867
87	0xbcdf074c	-0.02722516
88	0xbce289b5	-0.027653554
89	0xbcccac3a	-0.024984468
90	0x3d40db32	0.04708404
91	0x3c951706	0.018199455
92	0x3c5004f7	0.012696496
93	0x3b2f1417	0.0026714855
94	0xbcc92671	-0.024554463
95	0x3d410663	0.04712523
96	0x3cf3cd58	0.029761001
97	0x3d548a21	0.051889542
98	0x3ccd52a9	0.02506383
99	0x3c8356c1	0.016032578
100	0xbd0d0b60	-0.034434676
101	0x3db73691	0.089459546
102	0x3d8e99f6	0.069629595
103	0x3c890da6	0.01673014
104	0x3d60c71c	0.054877385
105	0x3d9965cb	0.074901186
106	0x3c7a290a	0.015268574
107	0xbcd4df1f	-0.025985299
108	0x3d5c3d86	0.05376961
109	0xbc47f84f	-0.0122051975
110	0xbcb19a2b	-0.021679958
111	0x3d6dfded	0.05810349
112	0xbb0dea41	-0.0021654519
113	0xbba540f7	-0.005043145
114	0x3c71278d	0.014718902
115	0x3db5e885	0.0888224
116	0x3cb88596	0.022524636
117	0x3ce5f323	0.028070038
118	0x3de41194	0.11136165
119	0x3d800776	0.06251423
120	0xbd00776d	-0.031363893
121	0x3c468baf	0.012118264
122	0x3c81357b	0.015772572
123	0xbd44f993	-0.048089575
124	0xbd081805	-0.03322603
125	0xbcf85b91	-0.0303171
126	0xbd39c85e	-0.0453571
127	0xbcce747d	-0.02520203
128	0xbd24e12f	-0.040253814
129	0xbd9eb914	-0.077501446
130	0xbd954f58	-0.07290524
131	0xbc803f1c	-0.015655093
132	0x3d225cb3	0.039639186
133	0x3c68e4cb	0.014214705
134	0xbd56722c	-0.052354977
135	0xbc28bcb8	-0.0102989
136	0x3cc87edb	0.024474552
137	0x3cc701d9	0.024292873
138	0xbc702419	-0.014657044
139	0xbbc93815	-0.0061407187
140	0x3d6a3d7d	0.057187546
141	0x3d01f789	0.03173021
142	0x3c9156b2	0.017741535
143	0x3d084136	0.033265315
144	0xbd44f1d5	-0.04808219
145	0x3d631b1b	0.05544577
146	0x3d8ba529	0.06818611
147	0x3db58e65	0.0886505
148	0x3d949dbd	0.07256649
149	0x3ad2fb4f	0.0016096624
150	0xbda276f5	-0.079328455
151	0xbd85ce9e	-0.0653355
152	0xbd3604ae	-0.044438057
153	0x3c040987	0.008058912
154	0x3cb6ca8c	0.022313379
155	0x3d139900	0.036034584
156	0xbc9f5104	-0.019447811
157	0x3d00f890	0.031487048
158	0x3b5c55f3	0.0033620566
159	0x3c9721e2	0.018448774
160	0xbb19a0cd	-0.0023441792
161	0xbd368e4b	-0.044569295
162	0xb9f84782	-0.00047355524
163	0xbc9dced1	-0.019263657
164	0xbdaddb2d	-0.0848907
165	0x3d1433ad	0.036182094
166	0x3d9e733f	0.07736825
167	0xbc54ed99	-0.012996101
168	0x3c675304	0.014118914
169	0x3d35170b	0.04421143
170	0x3daf0f2c	0.08547816
171	0xbd0aaef4	-0.033858255
172	0xbd765ed7	-0.06014904
173	0x3d54f6af	0.05199307
174	0xbccdac6b	-0.02510663
175	0xbca969bc	-0.0206803
176	0x3d243814	0.040092543
177	0x3da9b58e	0.08286582
178	0x3d18c16b	0.037293833
179	0xbb3ba8b4	-0.002863449
180	0xbdb9d37a	-0.09073539
181	0x3cc51153	0.024056112
182	0x3cb3b056	0.02193467
183	0x3d9f7ea8	0.0778783
184	0x3ccebd56	0.025236767
185	0x3cd2c822	0.025730196
186	0x3d6ccec3	0.05781437
187	0x3d6e75cc	0.05821781
188	0x3d8e0aa8	0.06935626
189	0x3d9d7674	0.07688609
190	0xbcac09ad	-0.021000708
191	0x3d308f19	0.04310522
192	0xbbf1c996	-0.0073787672
193	0x3d0b168a	0.03395704
194	0xbd0e7e84	-0.034788623
195	0x3c784701	0.015153647
196	0x3c89439a	0.016755868
197	0x3d66e57c	0.056371197
198	0xbbbc40fc	-0.0057450514
199	0x3d33d33c	0.04390262
200	0xbc9efc57	-0.019407434
201	0x3d6922d6	0.056917988
202	0xbcce67e3	-0.025196021
203	0x3d09a190	0.033601344
204	0x3bf658b8	0.0075179003
205	0x3da73d1c	0.081659526
206	0x3b7b05c0	0.0038302988
207	0x3db975c4	0.09055665
208	0x3da09b35	0.078421034
209	0x3d620b43	0.05518652
210	0xbd2b9b13	-0.041895937
211	0x3c1c0f66	0.009525156
212	0xbcf175a7	-0.029475046
213	0xbb1ddb77	-0.002408711
214	0xbcebe9c5	-0.028797993
215	0x3cc6c1a2	0.024262253
216	0xbd2dd5b5	-0.042440135
217	0xbc2f32af	-0.010693236
218	0xbd6c7acb	-0.057734292
219	0xbce9028b	-0.028443595
220	0xbcfea333	-0.031083679
221	0xbd691f15	-0.056914408
222	0xbd797b5a	-0.060908653
223	0xbb3a0627	-0.0028385015
224	0xbdb219c9	-0.086963244
225	0x3ca33bf6	0.019926053
226	0x3bd7194a	0.006564294
227	0xbdc52628	-0.09626418
228	0xbd856d00	-0.06514931
229	0x3b648fbb	0.003487571
230	0x3c13ed9a	0.009028817
231	0x3b22e02c	0.0024852855
232	0x3d0a5eb4	0.033781722
233	0xbce61a65	-0.028088758
234	0x3c60c587	0.013718969
235	0xbd1a4f5e	-0.037673347
236	0xbdab260c	-0.08356866
237	0xbda1b56b	-0.07895931
238	0xbd8cda02	-0.06877519
239	0xbd35e870	-0.044411123
240	0xbc95066f	-0.018191544
241	0xbd07105e	-0.032974593
242	0x3c6395ca	0.013890693
243	0xbd142b84	-0.036174312
244	0x3d056539	0.032567237
245	0x3c82bcd0	0.015959173
246	0xbd8768bd	-0.06611774
247	0xbc854662	-0.016268913
248	0xbc8a0f38	-0.01685296
249	0x3bc243f4	0.005928511
250	0x3ccec612	0.025240932
251	0x3b398816	0.0028309873
252	0x3d375889	0.044762168
253	0x3d80d0b1	0.06289805
254	0x3d965e8a	0.07342251
255	0xbd375fc0	-0.04476905

conv3.1.weight f4 [32]
0	0x3f80919c	1.0044436
1	0x3f8058ab	1.0027059
2	0x3f8092a9	1.0044757
3	0x3f815b6b	1.0106024
4	0x3f811924	1.0085797
5	0x3f7ea275	0.9946664
6	0x3f805014	1.0024438
7	0x3f7dc4b4	0.9912827
8	0x3f7e1256	0.9924673
9	0x3f7ff4d0	0.9998293
10	0x3f81402a	1.0097706
11	0x3f81d38b	1.0142683
12	0x3f823f54	1.0175576
13	0x3f80d288	1.0064249
14	0x3f81518c	1.0103011
15	0x3f7e6d6e	0.99385726
16	0x3f8072d3	1.0035042
17	0x3f81d66e	1.0143564
18	0x3f809267	1.0044678
19	0x3f7ffeed	0.9999836
20	0x3f7cd1d7	0.9875769
21	0x3f7e46c1	0.9932671
22	0x3f802fbf	1.0014571
23	0x3f734afd	0.950363
24	0x3f823962	1.0173762
25	0x3f7e793f	0.99403757
26	0x3f7e9082	0.9943925
27	0x3f7fe651	0.9996081
28	0x3f807ce3	1.0038112
29	0x3f81211a	1.0088227
30	0x3f7bbdec	0.9833667
31	0x3f80c976	1.0061481

conv3.1.bias f4 [32]
0	0xbc67e64b	-0.014154027
1	0xbc398233	-0.011322546
2	0xbb71cc0c	-0.0036895303
3	0xbc3e1c22	-0.011603387
4	0xbc3e37d6	-0.011609992
5	0xbc2e50a2	-0.010639342
6	0xbc659da3	-0.014014634
7	0xbd08a057	-0.033356037
8	0xbcca638d	-0.024705673
9	0xbc3ec962	-0.011644693
10	0xbb34cd14	-0.0027588056
11	0xbc2cdbd9	-0.010550463
12	0xbbbdd3c3	-0.005793066
13	0xbc390500	-0.011292696
14	0xbc153e06	-0.009109026
15	0xbcc03d8f	-0.023466853
16	0xbc73a678	-0.014871232
17	0xbb2cdac3	-0.002637551
18	0xbc9937dd	-0.018703396
19	0xbc8e1042	-0.017341737
20	0xbc9c0017	-0.019043012
21	0xbc841ce1	-0.016127052
22	0xbc3c9a76	-0.011511436
23	0xbd54d44f	-0.051960286
24	0xbbafff7d	-0.0053710327
25	0xbcc7e093	-0.024399078
26	0xbc8a3995	-0.01687316
27	0xbc4d2da6	-0.0125230905
28	0xbc308312	-0.010773437
29	0xbb564e96	-0.003270065
30	0xbc6b5d35	-0.014365484
31	0xbc0fc32a	-0.008774558

conv3.1.running_mean f4 [32]
0	0xbc886417	-0.016649289
1	0xbd824bfd	-0.0636215
2	0xbeee48f7	-0.46540043
3	0x3e044c33	0.12919693
4	0x3e723c69	0.23655857
5	0xbe089ea6	-0.1334177
6	0xbce7cfb4	-0.028297283
7	0x3ef16fe8	0.4715569
8	0x3ec6927a	0.38783628
9	0xbe924a74	-0.28572428
10	0xbe5679c0	-0.20944881
11	0xbc74a806	-0.014932638
12	0xbe73596c	-0.2376458
13	0xbe2adc4e	-0.16685602
14	0xbe61a909	-0.22037138
15	0xbdd5aa3a	-0.10432859
16	0x3daf8475	0.08570186
17	0xbd103b2e	-0.03521269
18	0x3eb89195	0.3604857
19	0x3b73b918	0.0037189182
20	0x3e434595	0.19069512
21	0xbe62a5dd	-0.22133584
22	0x3e06aeab	0.13152568
23	0xbc6ea47b	-0.014565582
24	0xbd9f4a26	-0.077778146
25	0x3e7451d5	0.23859341
26	0xbe312d7e	-0.1730251
27	0xbea6d259	-0.32582358
28	0xbd83df52	-0.06439079
29	0x3dc05535	0.09391252
30	0xbec28e28	-0.37999082
31	0x3e95c642	0.2925282

conv3.1.running_var f4 [32]
0	0x3f67072f	0.90245336
1	0x3f5647ee	0.83703506
2	0x3f142cf3	0.5788109
3	0x3f5d39f6	0.86416566
4	0x3f8269ca	1.0188534
5	0x3ef9502a	0.48693973
6	0x3f335520	0.70051765
7	0x3f530ac8	0.82438326
8	0x3f767c14	0.9628308
9	0x3f735ff3	0.9506828
10	0x3f3e6cd9	0.7438484
11	0x3f82eac3	1.0227894
12	0x3f0bd3ed	0.5462025
13	0x3f78aa73	0.97135085
14	0x3f193085	0.5983966
15	0x3f8f44b0	1.1192837
16	0x3f6e2e6c	0.93039584
17	0x3f63e58e	0.8902215
18	0x3f8c8bcf	1.0980166
19	0x3f6696b3	0.900737
20	0x3ef1800f	0.47168013
21	0x3f39baa1	0.725504
22	0x3f54c265	0.8310912
23	0x3f7b6602	0.98202527
24	0x3f2ea749	0.68224007
25	0x3f91176a	1.133527
26	0x3f2b58de	0.66932476
27	0x3f7e8389	0.99419457
28	0x3f2cccef	0.67500204
29	0x3f25ba0d	0.64737016
30	0x3f1e72e6	0.6189407
31	0x3f673b6a	0.90325034

transformer_layers.0.attention.W_q.weight f4 [32, 32]
0	0x3d94c0b9	0.072633214
1	0x3e1bc7f5	0.15212996
2	0x3d6b240e	0.05740743
3	0xbd698bc7	-0.057018068
4	0x3dfba39d	0.12287066
5	0x3d8e1e09	0.069393225
6	0x3e063721	0.13106968
7	0x3d71b94e	0.05901461
8	0x3e2ad5ba	0.16683093
9	0x3d9221fc	0.07135388
10	0xbda4fdc5	-0.08056215
11	0xbd92e5ee	-0.07172762
12	0x3e116a8c	0.142008
13	0xbc8c1b49	-0.017102854
14	0x3db047d3	0.086074494
15	0xbd5f7fbf	-0.054565188
16	0x3df91c68	0.12163621
17	0xbe1860f1	-0.1488073
18	0xbd3068ef	-0.043068822
19	0xbdade14f	-0.0849024
20	0xbd8ee8e5	-0.06978015
21	0xbde16ad4	-0.11006704
22	0xbe04959f	-0.12947701
23	0x3d52abfb	0.051433545
24	0x3d18664b	0.03720693
25	0x3e2bbc49	0.16771044
26	0x3db79899	0.089646526
27	0x3db8a448	0.09015709
28	0xbdceac7b	-0.10091492
29	0xbd804532	-0.06263198
30	0x3e0dc765	0.13845594
31	0xbde62753	-0.11237969
32	0xbd8d2499	-0.06891746
33	0xbcbd030f	-0.023072748
34	0xbe1db0c7	-0.15399466
35	0xbe0101e6	-0.1259838
36	0x3e050e26	0.12993678
37	0x3db5b019	0.088714786
38	0x3de74509	0.11292464
39	0x3e24aef5	0.16082366
40	0xbe033914	-0.12814742
41	0xbd922658	-0.0713622
42	0x3de2ac36	0.11068003
43	0x3de51bcc	0.111869425
44	0xbda2a464	-0.07941511
45	0xbd8741b0	-0.06604326
46	0xbd524b14	-0.05134113
47	0xbd446ce5	-0.047955412
48	0xbde0e6f3	-0.1098155
49	0xbe4e0bf8	-0.20121753
50	0x3e112a89	0.14176382
51	0x3e28704c	0.16449088
52	0xbd0f000a	-0.034912147
53	0xbe1520aa	-0.14563242
54	0x3ad9682f	0.0016586835
55	0x3d742c28	0.059612423
56	0x3d9bfdf7	0.07616799
57	0xbd0ba55e	-0.034093253
58	0xbe05a469	-0.13050999
59	0xbd2df553	-0.042470288
60	0xbc8dcf61	-0.0173108
61	0xbdc6b42e	-0.09702335
62	0xbdd375c0	-0.103251934
63	0xbe2dd95d	-0.16977449
64	0xbcb5753e	-0.022150632
65	0xbe16d559	-0.14729823
66	0x3e145c8f	0.14488433
67	0xbd8ae58a	-0.06782062
68	0x3e0abf68	0.13549578
69	0x3dbefe98	0.09325904
70	0x3e0aea6b	0.13565986
71	0x3e27d04f	0.16388057
72	0x3e04efec	0.12982148
73	0xbd061be7	-0.032741453
74	0xbdbb1bf3	-0.0913619
75	0x3d9200ac	0.071290344
76	0xbda20b3f	-0.07912301
77	0x3d8d2c86	0.06893258
78	0xbd2de8d7	-0.04245838
79	0x3d0db4fc	0.03459643
80	0x3dc019e5	0.09379939
81	0xbc9d8ad7	-0.019231243
82	0xbd4a70ea	-0.04942409
83	0x3dfea8d5	0.12434546
84	0xbe23fc2e	-0.16014168
85	0x3e1d9bfd	0.15391536
86	0x3e11e28d	0.14246579
87	0xbd93be33	-0.07214012
88	0xbe026526	-0.12733898
89	0xbce67b36	-0.028134923
90	0x3dc20144	0.09472898
91	0xbe2ae710	-0.16689706
92	0x3e0beadc	0.1366381
93	0xbce25917	-0.027630372
94	0xbe0f3957	-0.13986717
95	0xbdc648e6	-0.09681873
96	0xbca70a92	-0.020390783
97	0x3dff11f3	0.124545954
98	0xbd0f7a8b	-0.035028975
99	0x3d93fc99	0.072259136
100	0xbe286191	-0.16443469
101	0xbd94b4f0	-0.072610736
102	0xbd929835	-0.071579374
103	0x3d92cc62	0.07167889
104	0xbde92829	-0.11384613
105	0x3d88f046	0.066864535
106	0xbe092a5b	-0.13395064
107	0x3debebe0	0.11519599
108	0x3e0ad801	0.13558961
109	0xbdf93fe4	-0.12170389
110	0xbd965966	-0.0734127
111	0x3da7652e	0.08173595
112	0xbe0c0c47	-0.13676558
113	0xbdb62b4e	-0.088949785
114	0x3d12c8d3	0.035836052
115	0xbdae2e35	-0.08504907
116	0x3e043b07	0.12913142
117	0x3e096acb	0.13419645
118	0xbe39dd04	-0.18150717
119	0x3e2187fd	0.15774532
120	0xbe1ed0cc	-0.15509337
121	0x3e27a7b1	0.16372563
122	0x3ce14c50	0.027502209
123	0x3e26f5f3	0.1630476
124	0x3d1ca8de	0.03824698
125	0x3e0360ea	0.12829939
126	0x3c2c3d70	0.010512695
127	0xbe3393cb	-0.17536847
128	0x3d98708f	0.07443344
129	0x3e383fd2	0.17993096
130	0x3def0918	0.11671656
131	0x3cf3d668	0.029765323
132	0xbc843b0d	-0.016141439
133	0xbe16d1c9	-0.14728464
134	0xbdd5f959	-0.1044795
135	0xbe3f82e8	-0.1870228
136	0xbd8088f1	-0.062761195
137	0x3cd9433e	0.026521321
138	0x3d409dee	0.047025613
139	0x3dd71b09	0.105032034
140	0xbdc349d3	-0.09535565
141	0xbd3b0980	-0.045663357
142	0x3cbaed91	0.022818359
143	0x3cc84e35	0.024451355
144	0x3d9f38b4	0.07774487
145	0xbc631e71	-0.013862238
146	0x3d7b5b0c	0.061366126
147	0x3dd365f1	0.10322178
148	0x3d191b83	0.037379753
149	0x3cf305f1	0.029665919
150	0x3ced3fcb	0.028961083
151	0x3e0d3f61	0.13793708
152	0xbe46856a	-0.19386831
153	0xbd7002f7	-0.058596577
154	0xbe01cc98	-0.12675703
155	0x3e2d709f	0.16937493
156	0xbe3ee7ba	-0.18643084
157	0x3d610507	0.054936435
158	0xbd83c00e	-0.06433116
159	0xbd20ef2d	-0.039290596
160	0x3e053696	0.13009104
161	0x3dd91e9a	0.1060154
162	0xbe3b6393	-0.18299703
163	0xbe09d625	-0.13460596
164	0xbd9ef803	-0.07762148
165	0xbe00852f	-0.12550806
166	0xbdd40317	-0.10352152
167	0xbddd6a02	-0.10811235
168	0x3e277c8b	0.16356103
169	0x3d725b89	0.059169326
170	0xbe0c955a	-0.13728848
171	0xbe191699	-0.14950027
172	0xbe0af821	-0.13571216
173	0x3dc1a2bf	0.094548695
174	0x3d69c302	0.05707074
175	0x3b50d4d9	0.0031865148
176	0x3ddeb947	0.108751826
177	0x3d921cbc	0.07134387
178	0x3e1ff470	0.1562059
179	0x3e1c2dfa	0.15251914
180	0x3dd2c477	0.10291379
181	0xbd15f40c	-0.036609694
182	0xbdd2556b	-0.102701984
183	0x3dea1060	0.114289045
184	0x3dcaa4ea	0.09894736
185	0x3a58e2dc	0.0008273551
186	0x3d0468d9	0.032326553
187	0xbb9229f9	-0.00446057
188	0xbd056940	-0.032571077
189	0x3e3c9d1c	0.18419307
190	0xbc4ae524	-0.012383733
191	0xbe06910d	-0.1314127
192	0xbd9c4653	-0.07630601
193	0x3dfca8d5	0.1233689
194	0xbd221868	-0.039574057
195	0xbda1e50f	-0.079050176
196	0xbdd08671	-0.10181893
197	0x3c8f20d4	0.017471708
198	0x3e2bd252	0.1677945
199	0x3e186b54	0.14884692
200	0x3d611f80	0.05496168
201	0x3c48b330	0.012249753
202	0x3d65ce16	0.056104742
203	0x3cbd354a	0.0230967
204	0x3d111d16	0.03542813
205	0x3e020d33	0.12700348
206	0xbc8b9eec	-0.017043553
207	0x3e0983a5	0.13429125
208	0x3dbe5713	0.09293952
209	0xbda488d4	-0.080339104
210	0x3d890961	0.06691242
211	0xbe1823fb	-0.14857475
212	0xbcf2b644	-0.029627927
213	0x3c0e91b5	0.008701731
214	0xbd088428	-0.03332916
215	0xbe20d838	-0.15707481
216	0xbdb1b322	-0.08676745
217	0xbdf65de7	-0.12029629
218	0xbdc3b946	-0.095568225
219	0x3d57061f	0.052496072
220	0xbe2ae1a8	-0.16687644
221	0x3d8a08d9	0.06739969
222	0x3d9fda19	0.07805271
223	0xbd228b5a	-0.039683677
224	0x3e25fb5a	0.16209164
225	0x3dbaaf6d	0.09115491
226	0x3da84c85	0.0821772
227	0x3e43e82c	0.19131535
228	0x3d80d303	0.06290247
229	0xbd7567e4	-0.05991353
230	0x3cdff79a	0.027339745
231	0xbe0b2833	-0.13589554
232	0x3df9a345	0.12189344
233	0x3d59dd77	0.05318972
234	0x3cc5ea50	0.02415958
235	0xbe19fa96	-0.15036997
236	0xbde09194	-0.10965267
237	0xbd3d557f	-0.046224114
238	0xbe00149a	-0.12507859
239	0xbd01ce12	-0.031690665
240	0xbdf6546f	-0.12027823
241	0xbbd8719d	-0.0066053406
242	0xbd55b45f	-0.05217397
243	0xbd93636d	-0.07196698
244	0xbe37a605	-0.17934425
245	0x3e38d49f	0.18049859
246	0x3e18661f	0.14882706
247	0x3dcaf0da	0.0990922
248	0xbe0bc31f	-0.13648652
249	0x3e0f0d7a	0.13969985
250	0x3d462f24	0.0483848
251	0xbd404194	-0.04693754
252	0xbd8ff2f1	-0.07028759
253	0x3e14961c	0.14510387
254	0x3d3ae2b7	0.04562637
255	0x3e0febcc	0.14054793

transformer_layers.0.attention.W_k.weight f4 [32, 32]
0	0xbd8e083d	-0.06935165
1	0x3da5a160	0.080874205
2	0xbdd3b8f4	-0.103380114
3	0x3de4ac51	0.11165679
4	0x3e026591	0.12734057
5	0xbcfaf287	-0.030633224
6	0xbcdb5125	-0.026772091
7	0x3d0afebf	0.03393435
8	0xbd2b2110	-0.041779578
9	0x3db0eb86	0.086386725
10	0xbcbe895e	-0.023258861
11	0x3d951301	0.07279015
12	0x3e43a886	0.19107255
13	0xbd85b281	-0.065281875
14	0x3c74efbc	0.014949735
15	0xbe1dd0e5	-0.15411718
16	0xbcf3d277	-0.029763443
17	0x3e16ff20	0.1474576
18	0x3d119d67	0.0355505
19	0x3df53d0d	0.11974535
20	0xbd971ca7	-0.07378512
21	0xbe08048f	-0.13282989
22	0xbd8bfa7a	-0.06834884
23	0xbd587aac	-0.052851364
24	0xbdffa898	-0.124833286
25	0x3e05aadf	0.13053463
26	0x3df5c7eb	0.12001022
27	0x3ce053a7	0.027383639
28	0x3de54d69	0.111964054
29	0xbdb2d178	-0.08731359
30	0x3c953ea1	0.01821834
31	0x3cab1433	0.020883655
32	0x3dc40391	0.09570993
33	0xbc664055	-0.014053424
34	0xbe3981d2	-0.18115929
35	0x3db9e5dc	0.09077045
36	0xbe122d2c	-0.14275044
37	0xbe061322	-0.13093236
38	0xbe285f36	-0.1644257
39	0xbde38073	-0.11108484
40	0x3cf5c036	0.02999888
41	0xbccbff3f	-0.024901984
42	0xbe1c21ca	-0.15247265
43	0x3af969af	0.0019028689
44	0xbe070003	-0.13183598
45	0x3e2da920	0.16959047
46	0x3d0cda3f	0.034387823
47	0xbe42af1b	-0.1901211
48	0x3e3d15b8	0.18465316
49	0x3e04005d	0.12890764
50	0x3e10fc2a	0.14158693
51	0x3da957aa	0.08268674
52	0x3dd675db	0.10471698
53	0xbb2b7a3e	-0.0026165391
54	0x3e0218e4	0.12704808
55	0xbd747d8c	-0.059690043
56	0x3e0420c3	0.12903123
57	0xbd8b21a0	-0.06793523
58	0xbc2b396f	-0.010450705
59	0xbdd1a94d	-0.1023737
60	0x3e2abd1d	0.16673703
61	0x3e5a066a	0.2129151
62	0x3cbbfe88	0.022948518
63	0x3d1382c1	0.03601337
64	0xbe051374	-0.12995702
65	0x3d77bbd2	0.060481854
66	0x3dfb1a0e	0.12260829
67	0xbde55bac	-0.11199126
68	0x3df84b35	0.121237196
69	0x3d22d95d	0.039758075
70	0x3df249fe	0.11830519
71	0xbd0a13fb	-0.03371046
72	0x3e1eff53	0.15527086
73	0xbe0abbdd	-0.13548227
74	0x3e2e653b	0.17030804
75	0x3c093e91	0.008376733
76	0xbd3088ed	-0.043099333
77	0xbc87a397	-0.016557498
78	0x3db4d268	0.08829194
79	0x3e2b9597	0.16756283
80	0x3e1ea433	0.15492325
81	0xbe51dd2f	-0.20494531
82	0x3da6dd47	0.08147674
83	0xbd7c498e	-0.061593585
84	0xbcae692e	-0.021290388
85	0x3c043626	0.008069551
86	0xbddc8183	-0.1076689
87	0x3e1d578c	0.15365428
88	0x3df7d80b	0.12101754
89	0xbd4311be	-0.047624342
90	0xbddd316c	-0.10800442
91	0xbe3703b2	-0.17872503
92	0x3de3fe71	0.11132515
93	0xbdba769c	-0.09104654
94	0xbda36bea	-0.07979567
95	0xbe067fee	-0.13134739
96	0x3e1b6b73	0.15177707
97	0x3e2d2b2e	0.16911003
98	0xbe10b9fb	-0.14133446
99	0xbdaecf88	-0.08535677
100	0xbc59f81e	-0.013303785
101	0x3d60a54f	0.05484515
102	0xbdb21b86	-0.08696656
103	0x3dc8344b	0.09775599
104	0x3e10515f	0.1409354
105	0x3d8a187d	0.06742952
106	0x3e000053	0.12500124
107	0xbafb6667	-0.0019180299
108	0xbe208cef	-0.15678762
109	0xbc869fb9	-0.016433584
110	0x3cc05330	0.023477167
111	0x3cc72108	0.024307743
112	0xbdab8b91	-0.083762296
113	0xbe0bd1a6	-0.13654193
114	0xbe062a0a	-0.13101974
115	0x3db0678b	0.08613499
116	0xbe2b9b10	-0.1675837
117	0x3cd810c2	0.026375178
118	0x3dd0817d	0.10180948
119	0x3d055f95	0.032561857
120	0xbe2018ea	-0.15634504
121	0x3cf3e220	0.02977091
122	0x3e2abdf0	0.16674018
123	0x3d912923	0.07087924
124	0x3e1c8897	0.1528648
125	0xbd8c4fa2	-0.06851126
126	0xbe2a4210	-0.16626763
127	0x3d9fd92c	0.07805094
128	0xbdfa5b4b	-0.12224444
129	0xbd30759e	-0.04308092
130	0x3ac89800	0.0015304089
131	0xbdf74b1f	-0.12074875
132	0xbd8f47f9	-0.069961496
133	0x3e132e75	0.1437319
134	0xbdaf0cc6	-0.08547358
135	0xbe3376b9	-0.17525758
136	0xbcbe5865	-0.02323551
137	0xbcaab717	-0.020839257
138	0x3e2056e5	0.15658148
139	0x3d40e8a6	0.04709687
140	0xbde0f879	-0.109848924
141	0x3d92c9fa	0.0716743
142	0xbda7555b	-0.08170577
143	0x3e1e323d	0.15448852
144	0xbe0d4a5b	-0.13797896
145	0xbe25a260	-0.16175222
146	0xbdc9e4d1	-0.098580964
147	0xbd1db73d	-0.038504828
148	0xbc9fa10d	-0.019485975
149	0xbda47a47	-0.08031135
150	0xbd8c7a51	-0.068592675
151	0x3e079bf0	0.13243079
152	0xbe15ae40	-0.14617252
153	0x3d3ff3e5	0.046863455
154	0x3dfde9bb	0.12398096
155	0xbde72372	-0.112860575
156	0xbdda2947	-0.10652404
157	0xbd4a6672	-0.049414106
158	0xbdadc15a	-0.084841445
159	0xbcf30c45	-0.029668937
160	0xbdc0c9fb	-0.09413525
161	0xbe19312a	-0.14960161
162	0xbd873064	-0.06601027
163	0xbde30ef6	-0.11086838
164	0xbd63274c	-0.0554574
165	0xbe1252e6	-0.14289436
166	0x3c0a11b9	0.008427077
167	0xbe1ac639	-0.15114678
168	0xbdabe703	-0.08393671
169	0xbd9ded99	-0.07711334
170	0x3dba87fe	0.0910797
171	0x3e0993dd	0.13435312
172	0x3d7a6638	0.06113264
173	0x3db49423	0.08817317
174	0x3dcfff88	0.101561606
175	0xbe09cf45	-0.13457973
176	0xbe47f96e	-0.19528744
177	0xbd8126d0	-0.06306231
178	0x3cae371e	0.021266516
179	0xbd826b5b	-0.06368133
180	0xbdc9e985	-0.098589934
181	0x3cadcd6b	0.021216115
182	0xbe16be38	-0.14721
183	0xbe487d19	-0.19578971
184	0xbe0333ca	-0.12812725
185	0xbe142b12	-0.14469555
186	0x3de863d6	0.11347167
187	0x3e06c801	0.13162233
188	0xbd51e43f	-0.051243063
189	0xbcbd7c13	-0.023130452
190	0x3c2ba0f9	0.010475391
191	0xbd5d5464	-0.05403556
192	0xbd5fcdd8	-0.054639667
193	0x3e19f72e	0.15035698
194	0xbc42c800	-0.011888504
195	0x3d78c9a6	0.060739182
196	0x3e01cce2	0.12675813
197	0xbe06a75b	-0.13149779
198	0x3e2c69f3	0.16837291
199	0x3e196719	0.14980735
200	0x3de1f326	0.11032705
201	0x3c38a43f	0.011269628
202	0xbdc14580	-0.09437084
203	0xb89aff02	-7.390791e-05
204	0xbd39ce77	-0.045362916
205	0x3dd92e30	0.10604513
206	0x3d8d1080	0.06887913
207	0xbd7b88fb	-0.06140993
208	0xbd3ed0ab	-0.04658572
209	0xbe03c70d	-0.128689
210	0xbe016fc1	-0.12640287
211	0x3db5fb0c	0.08885774
212	0x3cf6e19b	0.030136874
213	0xbde04b67	-0.10951882
214	0x3db97618	0.09055728
215	0xbe271796	-0.16317591
216	0xbc96ab18	-0.01839213
217	0xbd20f0fc	-0.03929232
218	0xbd472a5b	-0.048624378
219	0xbda95b60	-0.082693815
220	0x3d93bf9b	0.0721428
221	0x3e0223ef	0.1270902
222	0xbe1b8666	-0.15187988
223	0xbc556233	-0.013023901
224	0xbd4a1e6a	-0.04934541
225	0x3ceb9d9a	0.028761674
226	0xbd5a58e0	-0.053307414
227	0xbd818e52	-0.063259736
228	0xbdafc957	-0.085833244
229	0xbca4a8b7	-0.02009998
230	0x3cb51d3a	0.022108663
231	0xbe21833c	-0.15772718
232	0x3d85ebd4	0.06539121
233	0x3d32fbeb	0.04369728
234	0x3dde01f0	0.10840213
235	0x3e2b81b8	0.16748703
236	0x3db599ed	0.0886725
237	0x3d8faeeb	0.07015785
238	0x3d8c4e5d	0.06850884
239	0xbcd8be1b	-0.026457837
240	0xbd0e2f76	-0.03471323
241	0xbe088a6a	-0.13334051
242	0x3d6a7ef7	0.05724999
243	0x3d8e4fb2	0.069487944
244	0xbe42d825	-0.19027765
245	0x3d25e68a	0.040503062
246	0xbcae7660	-0.02129668
247	0xbd9ac778	-0.07557577
248	0xbdbe48dc	-0.092912406
249	0x3e2c53e0	0.16828871
250	0x3da0bb05	0.07848171
251	0xbd531780	-0.051536083
252	0x3e3ae704	0.18252188
253	0x3b21022a	0.002456794
254	0x3ccdc485	0.025118122
255	0x3d384ad9	0.044993255

transformer_layers.0.attention.W_v.weight f4 [32, 32]
0	0xbd9ff195	-0.0780975
1	0xbdd93007	-0.106048636
2	0x3e08793f	0.13327502
3	0xbdeec79a	-0.11659165
4	0x3e34c01d	0.1765141
5	0x3daf3278	0.08554548
6	0x3daa330d	0.083105184
7	0x3c1835ae	0.009290142
8	0x3daf7c84	0.08568671
9	0x3e07c7ec	0.13259858
10	0xbddd3590	-0.10801232
11	0x3e4856ab	0.19564311
12	0xbe30df1f	-0.17272614
13	0xbddf8204	-0.109134704
14	0xbd919a6e	-0.07109533
15	0x3ddf8c8f	0.10915481
16	0xbd47d7fd	-0.048789967
17	0xbe36485d	-0.17801042
18	0xbb7116bd	-0.0036787235
19	0xbe02adcd	-0.12761612
20	0xbe1c355f	-0.15254734
21	0x3de72cf4	0.11287871
22	0xbe039d3d	-0.1285295
23	0xbcc848fe	-0.024448868
24	0xbe194b99	-0.14970244
25	0xbdde7804	-0.10862735
26	0xbd816f56	-0.06320064
27	0x3e161d4b	0.14659612
28	0xbd8b3617	-0.06797426
29	0x3e177c6a	0.14793554
30	0x3e15e29e	0.14637229
31	0x3d11c031	0.03558368
32	0xbda03b78	-0.07823843
33	0xbd85b2e2	-0.0652826
34	0x3e3872be	0.1801252
35	0xbdd211c6	-0.10257296
36	0xbaf8e15e	-0.0018988063
37	0xbd90a91a	-0.070635036
38	0x3e3fafb3	0.18719368
39	0xbd3ea557	-0.0465444
40	0x3d6cd291	0.057818
41	0x3d171bd9	0.036891792
42	0x3de9c3ca	0.11414297
43	0xbe28984a	-0.16464344
44	0x3d442aec	0.047892496
45	0x3d5b9b0f	0.053614672
46	0x3d98a8fb	0.074541055
47	0xbdd4d08e	-0.10391341
48	0x3db4dc22	0.088310495
49	0x3de180a6	0.11010866
50	0xbe41d30f	-0.18928169
51	0xbdf39f89	-0.11895663
52	0x3e0dd37a	0.13850203
53	0xbde8f2b0	-0.11374414
54	0xbe328896	-0.17434916
55	0xbd4070cf	-0.046982583
56	0x3da6e0fe	0.081483826
57	0x3e26db10	0.16294503
58	0xbb840bc0	-0.004029721
59	0x3e002ff1	0.12518288
60	0x3bbccdf2	0.0057618553
61	0xbe0270e1	-0.12738372
62	0xbde0e3b4	-0.10980931
63	0x3c556307	0.013024098
64	0xbd6a2efd	-0.057173718
65	0x3dbe1d0e	0.092828855
66	0x3de7b87e	0.11314486
67	0x3d0a5aca	0.03377799
68	0xbe22c2b3	-0.15894584
69	0x3e04ce1f	0.12969254
70	0xbd7ef97a	-0.06224964
71	0x3c551599	0.013005638
72	0xbe256f0b	-0.16155641
73	0xbd602be5	-0.05472936
74	0xbdd15b4f	-0.10222494
75	0xbd38a5f4	-0.04508014
76	0x3e1fb02a	0.15594545
77	0xbe06e63a	-0.13173762
78	0xbd1a9f61	-0.03774965
79	0x3d014f99	0.03157005
80	0xbd8bf9f2	-0.06834783
81	0xbb8b4eab	-0.0042513213
82	0xbdccb1e9	-0.09994871
83	0x3e27133a	0.16315928
84	0xbd0b5ffc	-0.034027085
85	0x3cef3959	0.02920215
86	0xbd7a761a	-0.061147787
87	0xbe392179	-0.18079175
88	0xbe0dc51c	-0.13844723
89	0xbd5ea914	-0.054360464
90	0x3e29a8ce	0.165683
91	0x3e0c10c0	0.13678265
92	0xbdbdde38	-0.092709005
93	0x3dabafeb	0.08383163
94	0xbd91909e	-0.07107662
95	0x3db3e290	0.08783448
96	0xbe172399	-0.14759673
97	0xbd7b646f	-0.061375078
98	0x3df026d6	0.11726157
99	0xbd08c409	-0.03339008
100	0xbe06f638	-0.13179862
101	0x3dde4e77	0.1085481
102	0xbdcfe424	-0.10150936
103	0x3d22e56f	0.039769586
104	0xbdc3977e	-0.09550379
105	0x3e2aca56	0.16678748
106	0xbcc4057e	-0.0239284
107	0x3dbbd9a2	0.091723695
108	0xbe1379cf	-0.14401935
109	0x3dd334b9	0.103127904
110	0xbd836b19	-0.06416912
111	0x3d2cf6c9	0.04222754
112	0x3cfe2cff	0.031027315
113	0x3d006956	0.031350456
114	0xbde1013b	-0.10986563
115	0x3dafe810	0.08589184
116	0x39044e76	0.0001261773
117	0xbdc28021	-0.09497095
118	0x3d838e4b	0.064236246
119	0x3d57a5d8	0.052648395
120	0x3d29c935	0.04145165
121	0x3e212a7e	0.15738866
122	0xbdd5d5f0	-0.10441196
123	0xbe279ac6	-0.16367635
124	0xbcfb025a	-0.03064077
125	0x3dc4ad81	0.09603406
126	0x3e24a629	0.1607901
127	0x3ddb3a9f	0.107045405
128	0x3e188bf6	0.14897141
129	0xbdc44624	-0.09583691
130	0xbd236088	-0.03988698
131	0x3cec040b	0.028810522
132	0xbd44af8d	-0.04801898
133	0xbd894ff1	-0.06704701
134	0xbe0a8f2b	-0.13531177
135	0x3b806e46	0.0039193956
136	0x3d854c0c	0.065086454
137	0x3e1d85de	0.15383098
138	0x3e18f872	0.14938524
139	0xbd85d0b4	-0.065339476
140	0xbddad409	-0.10684974
141	0x3d4aa507	0.04947379
142	0xbd9b7d75	-0.075922884
143	0x3de722f9	0.112859674
144	0xbd1bb5cd	-0.038015176
145	0xbd76981e	-0.060203664
146	0xbd0d67a5	-0.03452267
147	0x3d1be645	0.0380614
148	0xbe29d89f	-0.1658654
149	0xbd1ddeda	-0.038542606
150	0xbe002aef	-0.12516378
151	0xbdf60411	-0.12012494
152	0x3df028b2	0.11726512
153	0xbdbdc09f	-0.09265255
154	0x3e1b9983	0.15195279
155	0x3de7f4cf	0.113259904
156	0xbe064244	-0.13111216
157	0x3e2dfe96	0.16991648
158	0x3d8b8a81	0.06813527
159	0x3e36a83e	0.17837617
160	0x3e1687f7	0.14700304
161	0x3db5f472	0.08884515
162	0x3df749f4	0.12074652
163	0x3da96baf	0.08272492
164	0x3e0ea24c	0.13929099
165	0xbcd6fefe	-0.026244637
166	0xbde6b0c0	-0.11264181
167	0xbdcb20bc	-0.09918353
168	0x3dd908d6	0.105973884
169	0xbde45ba1	-0.11150289
170	0xbdb72c16	-0.089439556
171	0xbc3f4ecf	-0.011676504
172	0x3db0c4a0	0.08631253
173	0xbdcc5582	-0.09977247
174	0xbdf95a26	-0.121753976
175	0xbc7448d7	-0.0149099445
176	0xbde2948d	-0.1106349
177	0x3d9f49e2	0.07777764
178	0xbde5330d	-0.11191378
179	0x3e04adfd	0.12956996
180	0xbb5b5e89	-0.0033473095
181	0xbdbc3d34	-0.09191361
182	0x3d837e31	0.064205535
183	0x3cd931d5	0.02651302
184	0xbd89e541	-0.0673318
185	0xbde41949	-0.11137635
186	0x3d1ae6a0	0.037817597
187	0xbd9f7e3c	-0.07787749
188	0x3d577e32	0.052610584
189	0x3db43c6e	0.088005885
190	0x3e3158b0	0.17318988
191	0xbdbfc6bd	-0.09364078
192	0xbe11acd8	-0.14226091
193	0xbdb52797	-0.08845442
194	0x3df25719	0.11833019
195	0xbdf808d5	-0.121110596
196	0xbdcd8443	-0.100349925
197	0x39be58a4	0.00036305666
198	0x3e0508d6	0.12991652
199	0xb98c6b69	-0.00026782908
200	0x3d1f506e	0.038895063
201	0xbd615ee3	-0.05502213
202	0x3c8b50ec	0.01700636
203	0xbe47db0c	-0.19517154
204	0xbde54bde	-0.11196111
205	0x3c86bfa9	0.016448813
206	0x3e325a87	0.17417346
207	0x3e0d60a0	0.13806391
208	0xbd83cb8c	-0.06435308
209	0x3da93544	0.08262113
210	0x3c23ad87	0.009990103
211	0x3d7a4a54	0.06110604
212	0xbdf50ba7	-0.11965113
213	0xbbd9049d	-0.0066228644
214	0xbcf6a3d5	-0.030107418
215	0x3e242dc0	0.16033077
216	0x3e2652ab	0.16242473
217	0xbc0b1067	-0.008487797
218	0x3d9e9667	0.07743531
219	0xbd88ca95	-0.066792645
220	0xbbbfaa78	-0.005849179
221	0x3e3e9ec5	0.18615253
222	0xbb6cb003	-0.0036115653
223	0x3db32673	0.08747568
224	0x3ddd70c7	0.10812526
225	0x3db9b99a	0.09068604
226	0x3d2eb451	0.042652432
227	0xbd3cbfc8	-0.046081334
228	0x3d8321ae	0.06402908
229	0xbc82c914	-0.015965022
230	0x3db00006	0.085937545
231	0x3daec112	0.08532919
232	0x3d331e93	0.04373033
233	0xbda9cae2	-0.0829065
234	0xbcd7ccfa	-0.026342858
235	0x3e27e332	0.16395262
236	0xbbd719fe	-0.006564378
237	0x3e1b0178	0.15137279
238	0xbaf4489c	-0.0018637362
239	0xbd88fdff	-0.06689071
240	0xbd5e6970	-0.05429977
241	0xbcf0aad0	-0.029378325
242	0xbc619e93	-0.013770717
243	0x3da3a3a3	0.079901956
244	0xbe02a8f7	-0.12759767
245	0xbe0d2c27	-0.13786374
246	0x3c5fb6c5	0.0136544155
247	0xbd8f98bd	-0.070115544
248	0xbe2e4d64	-0.1702171
249	0x3daf0dcc	0.085475534
250	0xbe164d3f	-0.14677905
251	0xbd787a13	-0.060663294
252	0xbd27b473	-0.040943574
253	0x3e3738a4	0.178927
254	0xbd8fc3e4	-0.07019785
255	0x3dc8a56a	0.09797175
