notebooks/outputs/ctnet/ctnet_B09_best.pth (torch, 117333 bytes, 31 tensors)

pos_encoding f4 [1, 281, 32]
0.019687966 -0.021157624 -0.044609766 -0.036479626 -0.0018223303 -0.024185875 0.006946301 -0.01669891
0.009427203 0.0029678221 0.0047122533 -0.015240761 -0.05827699 0.016741727 -0.011626055 -0.022533147
-0.01588051 0.014415165 -0.020068225 -0.018654738 0.018130347 0.0074775093 0.013253195 -0.013083342
-0.01898398 0.014317561 0.00015766305 0.011161963 -0.007712891 -0.0074349693 0.0074656834 -0.016097326
0.0054490417 -0.017758805 0.0031720698 -0.016168742 0.018780846 0.0261525 -0.008919786 0.0063489852
-0.025710117 0.011968763 -0.030236686 -0.012834023 0.0109446375 0.017496854 0.001035564 -0.0007544705
-0.014923788 -0.008149178 0.024128877 -0.015876938 -0.0323535 0.010253055 -0.02424709 -0.0028067606
-0.038037185 0.033485215 0.003184415 0.011880517 -0.011935491 -0.012567021 -0.027305713 -0.024252575
-0.007738668 0.007213636 -0.009761267 0.013220063 -0.04902203 -0.017082209 -0.008427976 -0.0018668782
-0.019727388 0.011842333 0.0054040886 -0.01383284 0.030038036 -0.0008406703 0.0076490194 -0.02971576
0.007679939 0.0402916 -0.032869928 0.03033234 -0.0005586021 0.03231097 -0.026743703 -0.0020691496
0.008789471 -0.020685857 0.011184929 0.026058167 -0.015295421 0.012390124 0.044119578 -0.025112659
-0.009069428 0.0006840719 -0.018757436 0.020132327 0.018631522 -0.028299464 0.006228854 0.007439753
0.024355356 0.029246457 -0.046665646 -0.012669813 -0.017892528 -0.0059310254 -0.0048696473 0.011691736
0.0003785702 -0.02489436 -0.039763134 0.011893539 0.01956804 0.00029186203 0.020565838 -0.031143274
-0.01773861 0.019362861 -0.03332349 -0.014710007 0.0011109082 -0.013627418 -0.010072593 -0.016106308
0.006231765 0.006039202 -0.0378708 -0.022502245 -0.01868999 -0.013898898 -0.0006646962 0.01348945
-0.0040237387 -0.0048994543 -0.035258386 -0.0060501564 0.014842149 0.0019667137 0.014733751 0.02730934
-0.01778325 0.020736257 -0.04107561 0.016314616 0.003911073 -0.005799847 0.030846654 -0.019309957
-0.022281673 0.03189441 0.03535951 -0.010502104 -0.011173834 -0.023637656 -0.030214902 0.008541175
-0.012899013 0.02380973 0.007808872 0.021355817 -0.03451453 0.003737396 -0.047439743 0.024217281
0.0117706675 0.01744705 -0.050264098 0.034520585 0.042289436 -0.009740597 0.0035599428 -0.020756366
-0.018105632 -0.021924373 -0.04901458 0.0269124 -0.020383324 -0.01567584 0.006010608 0.024557216
0.019359214 -0.034364127 0.0183107 -0.0025394661 0.014856057 -0.0042104973 -0.02983837 -0.030807968
0.009864808 -0.013482993 -0.02299734 -0.0059377183 0.0065260185 -0.028696854 -0.0033541578 0.05620241
0.019720875 0.023643868 -0.011230907 -0.0022478004 -0.015647188 0.012393209 -0.008594786 0.00014822974
-0.029050697 0.011428879 -0.009781344 0.0437718 -0.008206982 -0.005042557 0.022722244 0.004364787
0.024383672 -0.0026622603 0.01285956 -0.037249025 -0.017319176 -0.03273114 0.0032450375 0.006854768
0.034890313 -0.003357114 0.0051465733 0.0064960713 0.035405926 -0.028346468 -0.009568788 0.004467873
-0.011520407 -0.014682889 -0.014567516 0.020803943 0.036080997 0.03264663 0.010647187 -0.0083416235
-0.008413665 -0.029133983 -0.03878229 0.041554857 -0.034092963 0.00029253706 0.019890865 0.0023595153
-0.015376288 0.0052011115 0.030000312 -0.0044471393 0.0015450474 0.014053453 -0.00337042 -0.0019009956
00000000: a848 a13c c152 adbc bbb8 36bd a96b 15bd
00000010: 42db eeba 7521 c6bc cc9d e33b 27cc 88bc
00000020: 8e74 1a3c cb7f 423b 3f69 9a3b 63b4 79bc
00000030: dab3 6ebd f225 893c 367b 3ebc 6f97 b8bc
00000040: d817 82bc 962d 6c3c 1e66 a4bc d2d1 98bc
00000050: 1886 943c e505 f53b ee23 593c 845b 56bc
00000060: 4b84 9bbc 3494 6a3c 5a52 2539 abe0 363c
00000070: 6bbc fcbb 0ba1 f3bb b1a2 f43b 8ade 83bc
00000080: e08d b23b ea7a 91bc 80e2 4f3b 4f74 84bc
00000090: 4ada 993c c53d d63c 4b24 12bc 260b d03b
000000a0: 069e d2bc a118 443c edb2 f7bc cb45 52bc
000000b0: 2351 333c 9055 8f3c c3bb 873a a8c7 45ba
000000c0: e782 74bc 2184 05bc eca9 c53c 5a10 82bc
000000d0: 1b85 04bd 6efc 273c d5a1 c6bc a1f1 37bb
000000e0: e1cc 1bbd cb27 093d 9eb1 503b 80a6 423c
000000f0: 148d 43bc e8e5 4dbc 3bb0 dfbc 56ad c6bc
00000100: a794 fdbb 5d60 ec3b b9ed 1fbc f798 583c
00000110: 53cb 48bd fdef 8bbc 7e15 0abc 0ab2 f4ba
00000120: 559b a1bc 5806 423c c814 b13b 23a3 62bc
00000130: 5412 f63c 6e60 5cba a0a4 fa3b 776e f3bc
00000140: ffa7 fb3b ce08 253d 9ea2 06bd 877b f83c
00000150: 276f 12ba 8258 043d 9c15 dbbc 929a 07bb
00000160: b701 103c 6375 a9bc fe40 373c f077 d53c
00000170: a599 7abc f2ff 4a3c bbb6 343d 10b9 cdbc
00000180: f097 14bc 4a53 333a 32a9 99bc 8dec a43c
00000190: 22a1 983c 47d4 e7bc 6a1b cc3b 2cc9 f33b
000001a0: e284 c73c 4496 ef3c 7a24 3fbd 0c95 4fbc
000001b0: 5a93 92bc 0c59 c2bb 9091 9fbb b28e 3f3c
000001c0: d57a c639 42ef cbbc abde 22bd 1edd 423c
000001d0: 274d a03c 0f05 9939 b079 a83c 2e20 ffbc
000001e0: 9050 91bc dd9e 9e3c 367e 08bd 3e02 71bc
000001f0: e59b 913a 8945 5fbc 8407 25bc 60f1 83bc
00000200: d533 cc3b 80e4 c53b 691e 1bbd a156 b8bc
00000210: c01b 99bc 34b8 63bc 023f 2eba db02 5d3c
00000220: 91d9 83bb 9a8b a0bb 196b 10bd 6440 c6bb
00000230: 7c2c 733c fbe3 003b d565 713c d6b7 df3c
00000240: 2eae 91bc 15df a93c e63e 28bd 3ba6 853c
00000250: 7528 803b a50c bebb 1fb2 fc3c ea2f 9ebc
00000260: 0e88 b6bc b6a3 023d 22d5 103d 0411 2cbc
00000270: 7512 37bc c2a3 c1bc 3e85 f7bc 49f0 0b3c
00000280: 6256 53bc 9f0c c33c 91e1 ff3b 65f2 ae3c
00000290: 1c5f 0dbd 1aef 743b 2d50 42bd 5263 c63c
000002a0: c2d9 403c 1eed 8e3c bae1 4dbd 7565 0d3d
000002b0: b037 2d3d 0697 1fbc ee4d 693b 4109 aabc
000002c0: 4352 94bc be9a b3bc 83c3 48bd 6577 dc3c
000002d0: eefa a6bc 9f6a 80bc a2f4 c43b 372c c93c
000002e0: 3797 9e3c 66c1 0cbd 5200 963c 2c6d 26bb
000002f0: d266 733c 36f8 89bb 996f f4bc fe60 fcbc
00000300: 01a0 213c c5e7 5cbc eb64 bcbc 3191 c2bb
00000310: 36d8 d53b aa15 ebbc 6ed1 5bbb 8034 663d
00000320: ac8d a13c c9b0 c13c d701 38bc d54f 13bb
00000330: 882e 80bc e30c 4b3c 25d1 0cbc 1e6e 1b39
00000340: bafb edbc 3140 3b3c ee41 20bc 0f4a 333d
00000350: 9476 06bc 093c a5bb 0024 ba3c 7d06 8f3b
00000360: 44c0 c73c 5179 2ebb e7b0 523c 6f92 18bd
00000370: f2e0 8dbc 1611 06bd b2aa 543b f69d e03b
00000380: 25e9 0e3d 0703 5cbb 96a4 a83b ffdc d43b
00000390: ce05 113d da36 e8bc 68c6 1cbc 3c67 923b
000003a0: 17c0 3cbc 8090 70bc 97ac 6ebc 086d aa3c
000003b0: abc9 133d 79b8 053d 8a71 2e3c 4eab 08bc
000003c0: 78d9 09bc 64aa eebc 2eda 1ebd 6d35 2a3d
000003d0: 10a5 0bbd a95f 9939 2bf2 a23c 19a2 1a3b
000003e0: d4ec 7bbc 166e aa3b 37c3 f53c 4fb9 91bb
000003f0: 3083 ca3a 7440 663c 44e2 5cbb d42a f9ba

conv1.0.weight f4 [8, 3, 25]
-0.009978477 0.0002050323 -0.056503 -0.039551403 -0.06973881 -0.04052456 -0.027305497 -0.03219643
0.03901846 -0.046311185 0.0876454 -0.07427051 -0.015588154 -0.080134265 -0.09263822 0.05900093
-0.079300396 -0.08216709 -0.10228713 0.07764514 -0.032066673 -0.09037989 -0.017474797 -0.023010481
0.11891338 -0.053779103 -0.08121936 -0.0069476753 -0.09501113 0.010589042 0.04301101 0.11467576
-0.071252525 -0.020689718 0.10179518 -0.10557857 -0.0848648 0.06131819 -0.033521976 0.08882981
0.052420698 0.0798474 -0.1069409 0.09402269 0.010151144 -0.03895883 -0.054893114 -0.06683256
-0.094542585 0.042874362 -0.025981147 0.023253849 -0.055984974 -0.04789351 -0.011372239 -0.031591076
0.014701424 -0.0048628603 0.06268447 -0.06309021 -0.057297457 -0.07088782 0.061032616 -0.12817496
-0.019053712 -0.042817824 0.09269482 -0.04132064 -0.00969031 -0.051063657 -0.11613589 0.069001235
-0.050018404 -0.055852074 -0.11426599 0.025349824 0.08945532 0.0029921408 -0.044078827 -0.072216064
-0.07517505 0.074126616 0.027614456 0.0516201 -0.08690053 -0.058244847 -0.09994361 -0.116417274
-0.060462393 -0.09685646 -0.0864686 -0.043988615 -0.051839314 0.033799913 -0.10895682 0.0972548
-0.0046186377 0.09304065 -0.046899382 0.04009403 0.0021361138 -0.01909753 0.06956341 -0.07995819
0.06477007 -0.07277201 -0.1309055 -0.1324459 -0.095588155 0.06859365 -0.11248536 0.100652955
0.07639829 -0.06600738 0.089689806 1.3192627e-05 -0.055467974 0.08211819 0.022003878 0.06921496
0.06301377 -0.0076996586 0.0017338813 0.07854574 0.0039275237 0.06402343 0.060289327 0.044517174
-0.080422245 -0.025682598 0.020881994 0.03598668 -0.045608453 0.05257731 0.0616381 -0.01695688
-0.09975487 -0.03001993 -0.053891197 0.10352505 -0.05827239 -0.09126723 -0.10747563 0.10442842
-0.09071975 -0.07842184 -0.007273658 0.03090771 -0.080217555 -0.008495082 -0.05545769 -0.105547294
-0.040188048 0.03168949 0.1123653 -0.05026283 0.020346614 0.081067674 -0.032356348 -0.09351942
0.0345334 -0.0197114 -0.0025885398 -0.05484502 -0.03325692 -0.06826279 0.10131743 0.030454064
-0.03071216 -0.052713785 -0.0813373 -0.08292563 0.06543564 0.04966529 -0.120539255 -0.100425065
-0.07179364 -0.063407175 0.0985372 -0.03475128 -0.0067936475 0.10958717 0.009519113 -0.012741915
-0.06518169 -0.08657812 -0.05151252 -0.00923446 0.0056514135 0.05727438 0.026645627 -0.09281709
0.013810524 -0.08962743 -0.13934185 0.013611104 0.05779252 -0.06993654 0.03209758 0.07699764
0.06866287 -0.0047226814 0.043916237 -0.11768496 -0.0859318 -0.058414184 0.11276618 0.102795675
0.0271935 0.011834784 0.04986873 0.08940787 0.0019763524 -0.06397812 -0.070474416 0.08731324
0.053011652 -0.045457907 0.062436804 0.06565744 -0.015558918 0.09346673 -0.0010573149 -0.021811059
-0.117937654 -0.04208537 0.010096902 0.0003409087 0.040243555 -0.11367783 0.05869232 0.049408417
-0.017984899 -0.04866518 0.060367346 -0.10053559 -0.032063767 0.096949846 -0.11573427 -0.028317776
0.06783356 0.015236944 0.012073201 0.010290861 -0.022250883 0.027732395 0.066505104 -0.080347195
0.014569938 0.06393757 0.017237118 0.043233477 0.08352049 -0.0020761394 -0.10863168 -0.10499152
00000000: c47c 23bc f0fd 5639 b16f 67bd a700 22bd
00000010: 39d3 8ebd 15fd 25bd c7af dfbc 67e0 03bd
00000020: d2d1 1f3d ccb0 3dbd 6e7f b33d 231b 98bd
00000030: 7565 7fbc 6f1d a4bd 1bb9 bdbd f6aa 713d
00000040: 3f68 a2bd 3847 a8bd ea7b d1bd 6a04 9f3d
00000050: 5858 03bd 1719 b9bd 4e27 8fbc 7a80 bcbc
00000060: dc88 f33d 7a47 5cbd 5656 a6bd 53a9 e3bb
00000070: 3295 c2bd a97d 2d3c 502c 303d 20db ea3d
00000080: d8ec 91bd 7c7d a9bc fe79 d03d 9439 d8bd
00000090: 99cd adbd c828 7b3d 574e 09bd 67ec b53d
000000a0: 16b7 563d 0987 a33d d503 dbbd f88e c03d
000000b0: fc50 263c 4b93 1fbd 9ad7 60bd 82df 88bd
000000c0: 8b9f c1bd 079d 2f3d 6ad6 d4bc db7e be3c
000000d0: 8050 65bd fc2b 44bd a152 3abc a565 01bd
000000e0: 3ede 703c a158 9fbb b760 803d 7135 81bd
000000f0: bdb0 6abd a22d 91bd 56fd 793d 4c40 03be
00000100: 8816 9cbc be61 2fbd c8d6 bd3d d53f 29bd
00000110: 1bc4 1ebc 2028 51bd a7d8 edbd 8550 8d3d
00000120: 19e0 4cbd 25c5 64bd 4a04 eabd 6faa cf3c
00000130: 5a34 b73d cb17 443b 008c 34bd 04e6 93bd
00000140: 60f5 99bd b2cf 973d b637 e23c 996f 533d
00000150: e8f8 b1bd 2692 6ebd 3caf ccbd 2e6c eebd
00000160: 6aa7 77bd ae5c c6bd 7316 b1bd 682d 34bd
00000170: 7655 54bd c771 0a3d c124 dfbd 862d c73d
00000180: f157 97bb 198c be3d 9119 40bd a339 243d
00000190: 0bfe 0b3b 6c72 9cbc 4377 8e3d 1fc1 a3bd
000001a0: 2ca6 843d 7e09 95bd 170c 06be e69f 07be
000001b0: b9c3 c3bd d47a 8c3d b95e e6bd 2323 ce3d
000001c0: b576 9c3d e12e 87bd 4aaf b73d e755 5d37
000001d0: 6332 63bd 952d a83d 7a41 b43c 93c0 8d3d
000001e0: 5d0d 813d 6b4d fcbb 6743 e33a 97dc a03d
000001f0: 75b2 803b b71e 833d f1f1 763d a457 363d
00000200: 6bb4 a4bd 5064 d2bc b710 ab3c c566 133d
00000210: eecf 3abd 4e5b 573d 3b78 7c3d 28e9 8abc
00000220: 484c ccbd 5bec f5bc 04bd 5cbd f104 d43d
00000230: 08af 6ebd 50ea babd 2f1c dcbd 91de d53d
00000240: 47cb b9bd a19b a0bd de57 eebb 2a32 fd3c
00000250: 1a49 a4bd f52e 0bbc 9a27 63bd 2e29 d8bd
00000260: 399c 24bd d7cc 013d c71f e63d 66e0 4dbd
00000270: f1ad a63c cf06 a63d 1788 04bd 1c87 bfbd
00000280: e572 0d3d cd79 a1bc 7ea4 29bb 2ca5 60bd
00000290: 6838 08bd 5dcd 8bbd 837f cf3d cd7a f93c
000002a0: 1198 fbbc 69ea 57bd 2c94 a6bd ead4 a9bd
000002b0: 1f03 863d d56d 4b3d 49dd f6bd a8ab cdbd
000002c0: 8b08 93bd 9fdb 81bd dfcd c93d 5c57 0ebd
000002d0: 3f9d debb 3d6f e03d 0ef6 1b3c 77c3 50bc
000002e0: fa7d 85bd df4f b1bd cbfe 52bd 224c 17bc
000002f0: 7e2f b93b 8a98 6a3d ee47 da3c e316 bebd
00000300: 8945 623c 968e b7bd a1af 0ebe 1c01 5f3c
00000310: d9b7 6c3d e43a 8fbd c178 033d f0b0 9d3d
00000320: 1e9f 8c3d b9c0 9abb 83e1 333d d004 f1bd
00000330: 03fd afbd b643 6fbd f4f1 e63d 8a86 d23d
00000340: e7c4 de3c afe6 413c 2743 4c3d 791b b73d
00000350: b185 013b f606 83bd e454 90bd 49d1 b23d
00000360: bf22 593d 1232 3abd bcbd 7f3d 6877 863d
00000370: d5ea 7ebc 7c6b bf3d 9a95 8aba 1bad b2bc
00000380: 4c89 f1bd b561 2cbd 7a6d 253c febb b239
00000390: 6dd6 243d eccf e8bd 5c67 703d 7b60 4a3d
000003a0: 1155 93bc 2455 47bd c043 773d 9ae5 cdbd
000003b0: 4c55 03bd a48d c63d 1706 edbd aefa e7bc
000003c0: 52ec 8a3d 60a4 793c adce 453c 009b 283c
000003d0: 7c47 b6bc 0c2f e33c d433 883d 128d a4bd
000003e0: c0b6 6e3c b3f1 823d db34 8d3c 9615 313d
000003f0: ca0c ab3d d70f 08bb 497a debd cb05 d7bd

conv1.1.weight f4 [8]
1.0181732 0.99593925 0.9958556 1.0067583 1.007998 0.9758447 1.0001745 0.9911369
00000000: 8053 823f e0f5 7e3f 65f0 7e3f 75dd 803f
00000010: 1406 813f f5d0 793f b805 803f 26bb 7d3f

conv1.1.bias f4 [8]
0.024014492 -0.01296969 0.007483424 0.013465285 0.010399549 -0.022920944 0.013506256 -0.027917223
00000000: 0aba c43c d37e 54bc 8337 f53b 809d 5c3c
00000010: df62 2a3c b4c4 bbbc 5849 5d3c a9b2 e4bc

conv1.1.running_mean f4 [8]
0.00032197498 0.00012255271 -1.0349395e-05 9.46292e-05 0.00020484014 0.00035338246 -0.00032047814 4.8356505e-05
00000000: c0ce a839 7e81 0039 50a2 2db7 aa73 c638
00000010: 5bca 5639 3146 b939 d905 a8b9 67d2 4a38

conv1.1.running_var f4 [8]
0.30611524 0.6300956 0.24909104 0.24543989 0.5314244 0.60887593 0.24285646 0.35511214
00000000: 23bb 9c3e f24d 213f b911 7f3e 9854 7b3e
00000010: 6e0b 083f 4bdf 1b3f 5daf 783e 42d1 b53e

conv2.0.weight f4 [16, 8, 1]
-0.13505094 0.17312142 0.29713127 -0.3163171 -0.30499926 -0.030194754 0.28491807 -0.29458386
0.33220354 -0.0013574458 0.19454049 0.15241079 0.17254569 0.17875938 -0.07478653 -0.28085223
0.28348932 -0.20312066 0.1536216 0.35787657 0.042682525 -0.26728567 0.14252082 -0.007771285
-0.06448841 -0.05866819 -0.0073004276 0.3295532 -0.31332064 0.24177906 -0.34105262 -0.15703937
-0.077264905 -0.047544114 -0.3477705 -0.22433065 0.10455894 -0.037651654 0.14698496 0.19041064
-0.16971877 0.117691875 -0.11401983 -0.25617906 0.25144184 0.09567665 -0.022790924 0.21232411
0.03221129 0.23452869 -0.18691798 -0.05710166 0.19494474 -0.31893936 0.289501 -0.030625232
-0.15828146 -0.114526086 0.1406674 -0.24556322 -0.11621879 -0.2026811 -0.07483801 -0.21327361
-0.021109384 -0.24397129 -0.35739934 -0.31245142 -0.12148811 -0.075380005 -0.2353496 0.3151053
-0.13473198 -0.21246842 -0.21885501 -0.32750472 0.11677161 -0.005044427 -0.26852557 0.2603477
0.04521636 -0.17875233 -0.13744709 -0.058736663 -0.33077422 0.08186852 0.3040333 -0.07365971
-0.28117034 0.25746742 0.1492855 0.017877826 -0.27459612 0.05515037 0.23594908 0.2590651
0.33697644 -0.042880908 0.35803273 -0.099645905 -0.3215984 0.08138384 -0.008182483 0.19211179
0.12533778 -0.29615927 -0.09451853 -0.12921129 0.3449172 -0.27180368 0.21593378 0.23211655
-0.12345779 -0.32299042 0.31125253 -0.25167492 0.13581073 0.24723427 0.23332909 0.08679535
0.31314525 -0.2642092 0.1853643 0.14208952 -0.12889771 -0.30663028 0.3289543 -0.19095893
00000000: cb4a 0abe be46 313e 9721 983e 51f4 a1be
00000010: dd28 9cbe fd5a f7bc c8e0 913e b2d3 96be
00000020: 9516 aa3e 53ec b1ba 9f35 473e 9311 1c3e
00000030: d1af 303e b30c 373e ae29 99bd ddcb 8fbe
00000040: 8325 913e ddfe 4fbe fb4e 1d3e 993b b73e
00000050: dfd3 2e3d abd9 88be faf0 113e 43a6 febb
00000060: 8012 84bd 0e4e 70bd 6d38 efbb 32bb a83e
00000070: 906b a0be ee94 773e 739e aebe eece 20be
00000080: 103d 9ebd 9ebd 42bd fa0e b2be efb6 65be
00000090: ff22 d63d 9f38 1abd 3a83 163e 02fb 423e
000000a0: c2ca 2dbe 7008 f13d 3b83 e9bd e729 83be
000000b0: fcbc 803e 1ff2 c33d 08b4 babc 7e6b 593e
000000c0: fcef 033d 4a28 703e 6d67 3fbe 6ee3 69bd
000000d0: 989f 473e 054c a3be 7a39 943e c4e1 fabc
000000e0: 8914 22be a78c eabd 1d0b 103e ed74 7bbe
000000f0: 1e04 eebd a28b 4fbe ac44 99bd 6664 5abe
00000100: 96ed acbc 9cd3 79be 0cfd b6be a2f9 9fbe
00000110: c2ce f8bd d560 9abd 7cff 70be 7b55 a13e
00000120: 2ef7 09be 5291 59be 871b 60be b3ae a7be
00000130: f425 ef3d b84b a5bb 2f7c 89be 4b4c 853e
00000140: ca34 393d da0a 37be eebe 0cbe db95 70bd
00000150: 3d5b a9be afaa a73d 41aa 9b3e e7da 96bd
00000160: 8ff5 8fbe c5d2 833e 4cde 183e 8574 923c
00000170: dd97 8cbe 5be5 613d a39c 713e 2ea4 843e
00000180: 2d88 ac3e e4a3 2fbd 1150 b73e 2713 ccbd
00000190: 8ca8 a4be 92ac a63d d20f 06bc f4b8 443e
000001a0: 8c58 003e 30a2 97be ee92 c1bd f74f 04be
000001b0: fd98 b03e da29 8bbe bf1d 5d3e f6af 6d3e
000001c0: 70d7 fcbd 005f a5be 7e5c 9f3e 89db 80be
000001d0: f811 0b3e fb2a 7d3e d2ed 6e3e c3c1 b13d
000001e0: 9354 a03e 6e46 87be 24d0 3d3e ea7f 113e
000001f0: c3fd 03be a5fe 9cbe b36c a83e bd8a 43be

conv2.1.weight f4 [16]
1.0223452 0.99889666 0.99357647 0.98169607 0.9963882 1.0008644 1.0195028 0.966944
1.0408916 1.0106014 1.0235792 0.99337727 0.98957103 0.99488467 1.002299 1.0037712
00000000: 35dc 823f b1b7 7f3f 075b 7e3f 6f50 7b3f
00000010: 4c13 7f3f 531c 803f 117f 823f a489 773f
00000020: f03b 853f 635b 813f a504 833f f94d 7e3f
00000030: 8754 7d3f c3b0 7e3f 554b 803f 937b 803f

conv2.1.bias f4 [16]
-0.010480297 -0.022946117 -0.016176524 -0.019596802 0.0117926765 -0.010567256 -0.006800216 -0.02226956
-0.02215809 -0.017473929 -0.010089649 0.001090591 0.0077851317 -0.0034286566 -0.0034351929 -0.020239543
00000000: 8db5 2bbc 7ff9 bbbc a184 84bc 7989 a0bc
00000010: 1236 413c 4922 2dbc 59d4 debb a76e b6bc
00000020: e284 b5bc 7c25 8fbc 0e4f 25bc 29f2 8e3a
00000030: 6b1a ff3b 50b3 60bb f920 61bb 66cd a5bc

conv2.1.running_mean f4 [16]
-0.045957424 0.11329525 0.09110173 -0.061743364 -0.04874572 0.005992647 0.03500623 -0.14829977
-0.1686597 -0.13127851 -0.048724186 0.051474474 0.07374605 0.030007225 0.040519595 0.032546747
00000000: da3d 3cbd 5707 e83d 8b93 ba3d 9ce6 7cbd
00000010: 98a9 47bd f75d c43b b162 0f3d e5db 17be
00000020: 21b5 2cbe e06d 06be 0393 47bd e6d6 523d
00000030: 2b08 973d b6d1 f53c e0f7 253d bd4f 053d

conv2.1.running_var f4 [16]
0.24737376 0.34013778 0.23591627 0.24068296 0.18367265 0.15853989 0.20645155 0.15041956
0.24767123 0.23816691 0.13192587 0.3772721 0.2488266 0.25011134 0.39936534 0.24671611
00000000: 8c4f 7d3e 8a26 ae3e 0994 713e 9875 763e
00000010: af14 3c3e 4858 223e 0968 533e 9607 1a3e
00000020: 879d 7d3e 07e2 733e 9317 073e cf29 c13e
00000030: 66cc 7e3e 980e 803e 9d79 cc3e 26a3 7c3e

conv3.0.weight f4 [32, 16, 15]
0.0021274523 0.015382581 0.038231663 0.014307396 0.005722383 0.028092302 0.06529408 0.05673056
0.035395067 -0.038430713 0.042000055 -0.026846377 0.023069084 0.024256915 -0.020591522 -0.0478748
0.0033348294 -0.022848185 0.0007371114 0.052844178 -0.058984432 0.032272123 -0.022382429 0.06636566
-0.04615227 0.04031483 -0.0043627033 0.021827586 0.047442794 -0.04376632 -0.031589437 0.029749047
-0.028950084 -0.053605873 -0.038168825 -0.02957796 0.016904157 -0.027054038 0.04770034 -0.021586727
-0.04716457 -0.0011842481 -4.370344e-05 -0.06909018 0.009015561 -0.03168671 -0.0016774095 -0.005453086
-0.046198748 -0.014649157 0.0031595167 -0.043686394 -0.022528948 -0.07066698 0.021449167 0.022478415
-0.08055333 -0.012350706 -0.040640496 0.0059175915 0.015941992 -0.056800414 0.017235307 -0.063571215
-0.03789156 0.017216697 -0.045767855 -0.04323046 0.069598645 0.03940423 -0.00049663347 0.038561497
-0.028507661 -0.040859018 -0.00065151084 -0.056681436 0.0059865573 0.012627541 -0.0047440766 0.036927953
0.033291604 -0.06532825 -0.03697937 -0.06563712 0.023910122 -0.04885653 -0.06069889 0.05131618
-0.0696146 -0.030658528 0.030690717 0.020412302 -0.040475573 -0.028363822 -0.029847104 -0.028458284
0.05281858 0.04459779 0.047170665 0.029275676 0.07785866 -0.016982842 -0.006738529 -0.00078384415
0.014954364 -0.019631462 0.06481135 -0.0048052226 0.04618476 -0.015744349 0.023168648 0.004378894
0.07074152 -0.031622 -0.0019191405 0.02643724 -0.025399117 0.02827245 0.0110676605 0.031432815
-0.03574692 -0.010429842 0.028598579 -0.089548215 -0.038212094 0.029479615 0.019935522 -0.059546616
-0.03956255 -0.014404671 -0.054030325 -0.052402336 0.03813663 -0.065309145 -0.054947756 -0.014605543
-0.066316314 -0.045306902 -0.067234784 -0.011027446 -0.024566894 -0.03478777 -0.025126524 0.038791597
0.028305676 0.056485422 -0.045187652 0.03132918 -0.039315954 0.039864935 0.06747557 0.054931443
-0.0029387628 0.033249334 0.053156495 0.07326058 0.056959834 -0.045599967 0.025303809 0.028540662
-0.012406564 -0.028051654 -0.013615784 0.078896865 -0.011948438 -0.0022950517 -0.06844512 -0.017269734
0.004583854 0.008937627 0.051714238 0.030282203 -0.036507107 -0.03815947 0.046429966 -0.06708356
0.0039650016 0.0487669 -0.04196583 0.013251654 -0.013774538 0.005826652 -0.0059623914 0.04411266
-0.033135843 -0.04833431 -0.011378341 -0.03631323 -0.032599386 0.03311801 -0.07238301 -0.014583632
0.017038 0.044622216 -0.0052375835 0.04898045 0.063355885 -0.019149233 0.048682585 -0.008920545
0.013690816 0.015740791 -0.03417442 0.026306337 -0.034490306 0.021221332 -0.029609201 0.031482518
0.03173353 -0.03040106 0.002947829 -0.05228229 -0.04345072 0.039208557 -0.04952554 0.035232887
-0.011963608 0.036161352 0.038711123 -0.037894554 0.016816564 0.015454411 0.013820599 0.007669564
0.029389072 0.068524495 -0.018251382 0.02867134 0.057913773 -0.03924729 -0.0061319256 -0.027180163
0.048522677 0.036777146 -0.021919645 0.045982286 0.051759776 0.03608859 0.050498895 -0.038724035
-0.025571095 -0.029845694 -0.069444224 -0.009721946 -0.0057536177 -0.009388113 -0.021865802 -0.076143354
-0.06790379 0.060825635 0.016772907 0.02043191 -0.018808538 -0.02595845 -0.028410027 -0.027118396
00000000: ba6c 0b3b 3907 7c3c ce98 1c3d 9169 6a3c
00000010: d482 bb3b d421 e63c e7b8 853d 4e5e 683d
00000020: 6bfa 103d 8669 1dbd 4008 2c3d efec dbbc
00000030: 60fb bc3c 70b6 c63c 8daf a8bc 5e18 44bd
00000040: 278d 5a3b 1e2c bbbc b53a 413a 2373 583d
00000050: a999 71bd c62f 043d 5b5b b7bc b8ea 873d
00000060: 2a0a 3dbd 2a21 253d 02f5 8ebb c4cf b23c
00000070: 6053 423d 5044 33bd ed63 01bd 46b4 f33c
00000080: ba28 edbc d591 5bbd ea56 1cbd 7a4d f2bc
00000090: 967a 8a3c 6ea0 ddbc 6f61 433d a6d6 b0bc
000000a0: a32f 41bd c638 9bba 364e 37b8 277f 8dbd
000000b0: 01b6 133c ecc9 01bd 86dc dbba cdaf b2bb
000000c0: e63a 3dbd 0503 70bc e50f 4f3b 81f0 32bd
000000d0: a18e b8bc dab9 90bd 2ab6 af3c a724 b83c
000000e0: 25f9 a4bd 9e5a 4abc a676 26bd 5be8 c13b
000000f0: c898 823c 8da7 68bd 0f31 8d3c a031 82bd
00000100: 2e34 1bbd 080a 8d3c 1377 3bbd 6c12 31bd
00000110: bc89 8e3d 5466 213d 8230 02ba a9f2 1d3d
00000120: e688 e9bc c95b 27bd 27ca 2aba cb2a 68bd
00000130: e22a c43b bfe3 4e3c 3374 9bbb c441 173d
00000140: c75c 083d d1ca 85bd ae77 17bd c16c 86bd
00000150: 29df c33c c91d 48bd 669f 78bd ea30 523d
00000160: 1992 8ebd 9827 fbbc 196b fb3c b337 a73c
00000170: b7c9 25bd 3f5b e8bc ea81 f4bc 5921 e9bc
00000180: 4c58 583d 2cac 363d 0736 413d 8bd3 ef3c
00000190: 5c74 9f3d 9a1f 8bbc e1ce dcbb e47a 4dba
000001a0: 2603 753c 29d2 a0bc d0bb 843d 2175 9dbb
000001b0: 3b2c 3d3d 4bfa 80bc 2dcc bd3c d37c 8f3b
000001c0: eee0 903d 1286 01bd ab8b fbba e992 d83c
000001d0: cf11 d0bc a09b e73c 2255 353c b2bf 003d
000001e0: 5d6b 12bd eee1 2abc 9147 ea3c 0e65 b7bd
000001f0: 4984 1cbd 3c7f f13c d24f a33c 27e7 73bd
00000200: 570c 22bd 9201 6cbc e74e 5dbd d5a3 56bd
00000210: 2835 1c3d cdc0 85bd e610 61bd 164c 6fbc
00000220: d9d0 87bd bb93 39bd 64b2 89bd 76ac 34bc
00000230: 8340 c9bc 9f7d 0ebd 24d6 cdbc f0e3 1e3d
00000240: 4ee1 e73c 425d 673d b016 39bd 0753 003d
00000250: c409 21bd 6a49 233d a230 8a3d cbff 603d
00000260: 4298 40bb 7430 083d a0ba 593d a509 963d
00000270: b74e 693d 08c7 3abd ef49 cf3c 1bce e93c
00000280: e744 4bbc 95cc e5bc bd14 5fbc ae94 a13d
00000290: 62c3 43bc 9468 16bb f42c 8cbd 4279 8dbc
000002a0: 2834 963b 206f 123c 4fd2 533d 6212 f83c
000002b0: 7a88 15bd 1b4d 1cbd 592d 3e3d 1b63 89bd
000002c0: d8ec 813b cdbf 473d 5de4 2bbd 771d 593c
000002d0: 9aae 61bc 80ed be3b 2a60 c3bb 7aaf 343d
000002e0: 73b9 07bd 33fa 45bd 396c 3abc 2ebd 14bd
000002f0: ef86 05bd c0a6 073d 8b3d 94bd 30f0 6ebc
00000300: 4793 8b3c c9c5 363d 09a0 abbb b99f 483d
00000310: bbc0 813d dade 9cbc 6467 473d 7a27 12bc
00000320: 724f 603c d5f2 803c 7afa 0bbd 6380 d73c
00000330: b545 0dbd 5cd8 ad3c ff8e f2bc d0f3 003d
00000340: 05fb 013d a50b f9bc 5d30 413b f425 56bd
00000350: 62f9 31bd 2799 203d 4bdb 4abd 5c50 103d
00000360: 0203 44bc ed1d 143d 8e8f 1e3d 5237 1bbd
00000370: e4c2 893c 7f34 7d3c cb6f 623c f750 fb3b
00000380: 5ac1 f03c 9256 8c3d ec83 95bc 28e0 ea3c
00000390: fe36 6d3d c4c1 20bd 52ee c8bb efa8 debc
000003a0: b7bf 463d a2a3 163d d490 b3bc ec57 3c3d
000003b0: 0f02 543d a1d1 133d eed7 4e3d 189d 1ebd
000003c0: 797a d1bc f57e f4bc c638 8ebd cc48 1fbc
000003d0: d888 bcbb 9ad0 19bc e91f b3bc 0cf1 9bbd
000003e0: 2411 8bbd 4d24 793d 5667 893c d260 a73c
000003f0: 5d14 9abc d1a6 d4bc 25bc e8bc 6627 debc

conv3.1.weight f4 [32]
1.0009241 1.0016302 0.9934133 0.9947903 0.9985135 1.0046486 0.9940596 1.0066749
1.0031303 1.0019897 1.0003966 1.0041052 1.0018228 1.0004157 1.0000781 1.0017675
1.0001513 0.9981823 1.0005921 1.0069604 1.003069 1.0033318 0.99783725 1.0016654
1.0029511 1.0065374 1.0098877 1.0043703 1.0038047 1.0025026 1.0024278 1.0003544
00000000: 481e 803f 6b35 803f 5650 7e3f 94aa 7e3f
00000010: 959e 7f3f 5398 803f b17a 7e3f b9da 803f
00000020: 9366 803f 3341 803f ff0c 803f 8586 803f
00000030: bb3b 803f 9f0d 803f 8f02 803f eb39 803f
00000040: f504 803f e088 7f3f 6713 803f 14e4 803f
00000050: 9164 803f 2d6d 803f 4372 7f3f 9236 803f
00000060: b460 803f 38d6 803f 0044 813f 358f 803f
00000070: ac7c 803f 0152 803f 8e4f 803f 9d0b 803f

conv3.1.bias f4 [32]
-0.0015614784 -0.0012402568 -0.0067746174 -0.0039057021 -0.005955839 -0.00012555192 -0.009695276 0.0010999712
-0.001156033 -0.0022260402 -0.0039968933 -0.0014108643 -0.0029589373 -0.00027742467 0.00038645137 -0.005695763
-0.0027445802 -0.0012159066 -0.0055525624 0.0025834613 -0.00079606957 0.00194778 -0.0035379117 -0.004171533
-0.0010566963 0.002084136 0.00088889553 -0.00041576964 0.0002882966 -0.0022953283 -0.0024287084 -0.0037435535
00000000: 85aa ccba 1d90 a2ba 9cfd ddbb cff6 7fbb
00000010: 3329 c3bb 96a6 03b9 efd8 1ebc e92c 903a
00000020: 0886 97ba c2e2 11bb 5ff8 82bb c0ec b8ba
00000030: bbea 41bb 4f73 91b9 a09c ca39 86a3 babb
00000040: 6ade 33bb 0e5f 9fba 45f2 b5bb 4a4f 293b
00000050: 53af 50ba a74c ff3a 4fdc 67bb 5bb1 88bb
00000060: d880 8aba 0096 083b c504 693a a8fb d9b9
00000070: 8426 9739 386d 16bb f72a 1fbb 6856 75bb

conv3.1.running_mean f4 [32]
-0.011515719 -0.014976952 -0.10641337 0.15809166 0.19296446 0.18255852 -0.07375812 0.0073742904
0.060830045 -0.10341414 0.14379868 0.18547954 0.052149616 0.25497195 0.10203817 0.15512457
0.068555266 -0.28349963 0.201588 -0.043574393 -0.042410582 -0.1775924 0.19575955 0.23674801
-0.01457315 0.14244047 0.11113734 -0.063886225 -0.09322968 0.021585964 0.17528787 -0.04486038
00000000: 6dac 3cbc e461 75bc 41ef d9bd c8e2 213e
00000010: 7a98 453e 9ff0 3a3e 7f0e 97bd 08a4 f13b
00000020: ed28 793d cbca d3bd f63f 133e 59ee 3d3e
00000030: d69a 553d af8b 823e 63f9 d03d fad8 1e3e
00000040: b466 8c3d dd26 91be 166d 4e3e 107b 32bd
00000050: b8b6 2dbd c8da 35be 3175 483e 126e 723e
00000060: 39c4 6ebc eadb 113e f99b e33d c8d6 82bd
00000070: 34ef bebd 0cd5 b03c aa7e 333e 85bf 37bd

conv3.1.running_var f4 [32]
0.4284968 0.29351932 0.28940523 0.34220725 0.39953738 0.20947589 0.32336956 0.28351173
0.23636657 0.27516922 0.5779507 0.293501 0.31732574 0.20514071 0.3580117 0.51834816
0.4059665 0.38716665 0.18498825 0.2558559 0.34193242 0.2691679 0.2345917 0.22247082
0.4068217 0.18943027 0.28368485 0.20267667 0.53007466 0.28154942 0.45476493 0.3630499
00000000: ef63 db3e 2a48 963e ec2c 943e ca35 af3e
00000010: 2a90 cc3e d980 563e b290 a53e 7328 913e
00000020: 140a 723e fbe2 8c3e 94f4 133f c345 963e
00000030: 8578 a23e 6810 523e 4f4d b73e 77b2 043f
00000040: d7da cf3e b53a c63e 8f6d 3d3e 8bff 823e
00000050: c411 af3e 60d0 893e ce38 703e 64cf 633e
00000060: ef4a d03e 02fa 413e 243f 913e 798a 4f3e
00000070: f9b2 073f 3f27 903e f3d6 e83e ade1 b93e

transformer_layers.0.attention.W_q.weight f4 [32, 32]
-0.09492857 -0.014224728 -0.06422141 -0.013368373 -0.15444395 0.09144437 0.058608204 -0.15781131
-0.05614382 -0.07907083 -0.03144989 0.11283193 0.036073655 -0.07151635 0.16886649 -0.018301984
-0.07769311 -0.12754464 0.13839538 -0.06379273 0.0077842246 -0.09638336 0.11994014 -0.02358929
0.10632709 -0.088990584 0.005914765 -0.1212641 0.068819955 -0.13539131 -0.038474005 0.120304205
0.003478782 -0.0074625006 0.16103217 0.0020300846 -0.15348576 0.17541453 0.13543071 -0.023889551
-0.08856108 -0.1821084 -0.11899718 -0.10728736 -0.082622334 0.023098195 0.05726958 -0.16009732
-0.01496861 0.043814465 0.01241217 -0.03562215 -0.020271625 0.002960979 0.042897176 -0.08965443
0.027082946 0.030600615 0.1283359 0.02813887 -0.17549579 -0.073458225 0.11896432 0.15333979
-0.1796717 -0.020407315 -0.1624515 0.0033027974 0.05207016 0.10347361 0.08553626 0.05768535
0.12481738 -0.12708214 0.13204251 -0.0421484 -0.066605434 0.087785944 -0.009415369 -0.11907457
0.002590969 -0.079970956 -0.12621461 0.09938232 -0.09869528 0.049903933 -0.04050206 0.060609058
-0.1682361 -0.080759145 0.13477439 0.09216661 0.02198043 -0.12235773 -0.17645112 0.150666
0.103853 -0.0148466285 -0.10197084 0.13051182 -0.13065352 0.016753638 -0.077109 -0.1068919
0.14709245 0.188399 -0.15470332 -0.06277957 -0.12821414 0.08211379 0.12252915 -0.10360391
-0.14041841 0.07818693 0.17771159 -0.050508123 -0.065206714 -0.015906386 0.17850842 0.015434022
0.13790703 -0.0313865 0.14624499 0.100850075 0.024935035 0.08986521 0.09215145 -0.0017740072
0.041278325 0.04591354 -0.16630463 -0.094607316 -0.07338776 0.14719878 0.038451713 0.13497156
-0.08730451 -0.09111439 0.09946385 0.06153241 -0.12693506 -0.02025559 -0.036250632 0.017220702
0.07638326 -0.13114256 0.10843691 -0.003145071 0.14044629 -0.020131635 -0.17359444 -0.16944261
0.14730151 -0.054770257 0.11071121 0.14575514 -0.12452732 -0.070889905 0.07074536 0.17026721
0.09273677 0.16242065 -0.037881535 -0.032507032 -0.003640881 -0.15935935 0.003633107 -0.10904801
-0.044124525 0.015746234 0.044553988 -0.15396473 0.1587094 -0.14208393 -0.14518358 -0.02697423
0.17668477 0.12926918 0.13734022 -0.12218678 -0.18116099 0.09205961 -0.0961152 -0.16408674
-0.0073545743 0.15279724 -0.10141344 -0.09094986 -0.085260674 -0.015163793 0.12237518 -0.03845825
-0.012783428 -0.006361855 -0.10708511 0.054774884 -0.066134766 0.107811935 0.006897126 -0.09179984
-0.091640845 0.00082703354 0.119189076 -0.15170313 -0.025829395 -0.14259247 0.022866322 -0.066762984
0.1553963 -0.05951369 0.073569134 0.025429657 -0.004108587 -0.16471365 0.010194326 0.0012586081
0.15723005 -0.15262532 0.021502243 0.08942577 0.115498014 -0.04896416 0.150868 0.12559913
-0.029485926 0.114831805 0.11317725 -0.1018064 -0.11511577 0.089345306 0.080894805 0.17048463
-0.07731588 0.094961606 0.06582972 -0.030615378 -0.111182086 -0.08522249 0.05029546 -0.15433593
-0.07171865 -0.092063785 -0.09229261 -0.060779907 -0.09743374 -0.15778832 -0.1251288 -0.033122674
-0.08400355 0.07784575 -0.0734042 0.13336013 -0.09365599 -0.11603648 -0.15158442 0.025786266
00000000: e969 c2bd d50e 69bc 8486 83bd 0507 5bbc
00000010: 8e26 1ebe 3047 bb3d 280f 703d 4a99 21be
00000020: 10f7 65bd e3ef a1bd 9ad1 00bd 6d14 e73d
00000030: f8c1 133d 2a77 92bd 56eb 2c3e 0bee 95bc
00000040: 911d 9fbd 109b 02be 85b7 0d3e c3a5 82bd
00000050: cf12 ff3b a464 c5bd 2da3 f53d 543e c1bc
00000060: 04c2 d93d b240 b6bd a5d0 c13b 5059 f8bd
00000070: 7af1 8c3d 05a4 0abe eb96 1dbd 0d62 f63d
00000080: 47fc 633b fe87 f4bb 9ee5 243e 2b0b 053b
00000090: 5f2b 1dbe de9f 333e 59ae 0a3e 05b4 c3bc
000000a0: 835f b5bd a07a 3abe cbb4 f3bd 7ab9 dbbd
000000b0: e635 a9bd 6d38 bd3c 8293 6a3d 8df0 23be
000000c0: e73e 75bc cc76 333d 6a5c 4b3c 88e8 11bd
000000d0: ae10 a6bc fc0c 423b f3b4 2f3d be9c b7bd
000000e0: 0edd dd3c 24ae fa3c 7c6a 033e 7d83 e63c
000000f0: 2bb5 33be 4471 96bd 91a3 f33d 1b05 1d3e
00000100: dcfb 37be 3e2d a7bc b059 26be bf73 583b
00000110: 8547 553d f9e9 d33d a22d af3d 7947 6c3d
00000120: 41a0 ff3d d221 02be 2736 073e cda3 2cbd
00000130: 6e68 88bd 1ec9 b33d eb42 1abc 5edd f3bd
00000140: 3fcd 293b d0c7 a3bd 673e 01be f588 cb3d
00000150: c020 cabd 1168 4c3d 7de5 25bd 3441 783d
00000160: 1646 2cbe 0d65 a5bd 4c02 0a3e d9c1 bc3d
00000170: 4e10 b43c b196 fabd 9aaf 34be 3048 1a3e
00000180: e2b0 d43d 463f 73bc 16d6 d0bd e4a4 053e
00000190: 09ca 05be ed3e 893c 53eb 9dbd 24ea dabd
000001a0: 679f 163e abeb 403e 8c6a 1ebe 9392 80bd
000001b0: 914a 03be 462b a83d 90f0 fa3d 492e d4bd
000001c0: d8c9 0fbe 7820 a03d 07fa 353e 9be1 4ebd
000001d0: 198b 85bd 1c4e 82bc e9ca 363e fbde 7c3c
000001e0: 8037 0d3e 218f 00bd 3fc1 153e 7c8a ce3d
000001f0: 8f44 cc3c 400b b83d e6b9 bc3d ce85 e8ba
00000200: 7613 293d d60f 3c3d c34b 2abe 7bc1 c1bd
00000210: 524c 96bd 47bb 163e 8b7f 1d3d fc35 0a3e
00000220: b5cc b2bd 2e9a babd b4b3 cb3d 6909 7c3d
00000230: 44fb 01be 0def a5bc 8b7b 14bd 6e12 8d3c
00000240: d46e 9c3d 3c4a 06be 2c14 de3d 891d 4ebb
00000250: 27d1 0f3e 19eb a4bc bec2 31be 5d82 2dbe
00000260: 35d6 163e c756 60bd 8fbc e23d d640 153e
00000270: 2e08 ffbd ba2e 91bd f1e2 903d 875a 2e3e
00000280: c7ec bd3d 9951 263e ab29 1bbd 1826 05bd
00000290: d99b 6ebb 192f 23be 6c19 6e3b 9054 dfbd
000002a0: ebbb 34bd 3ffe 803c 3e7e 363d eea8 1dbe
000002b0: b884 223e 737e 11be 01ab 14be 0ff9 dcbc
000002c0: daec 343e 245f 043e eaa2 0c3e 103d fabd
000002d0: 4482 39be c089 bc3d 0cd8 c4bd 5b06 28be
000002e0: a4fe f0bb e176 1c3e dab1 cfbd ec43 babd
000002f0: 269d aebd 8f71 78bc d79f fa3d 6686 1dbd
00000300: 9571 51bc 1c77 d0bb 704f dbbd a15b 603d
00000310: aa71 87bd 81cc dc3d 4901 e23b 8e01 bcbd
00000320: 32ae bbbd 48cd 583a 6719 f43d 1158 1bbe
00000330: 2b98 d3bc c303 12be 2752 bb3c 08bb 88bd
00000340: 3520 1f3e a1c4 73bd 6aab 963d db51 d03c
00000350: 53a1 86bb b2aa 28be 1a06 273c e1f7 a43a
00000360: ea00 213e d049 1cbe 7925 b03c dc24 b73d
00000370: 398a ec3d a58e 48bd 247d 1a3e 0f9d 003e
00000380: 788c f1bc f02c eb3d 79c9 e73d e07f d0bd
00000390: d1c1 ebbd acfa b63d 2dac a53d 8693 2e3e
000003a0: ca57 9ebd 3b7b c23d bbd1 863d 1acd fabc
000003b0: 6fb3 e3bd 2189 aebd 9d02 4e3d 3d0a 1ebe
000003c0: 3ae1 92bd f08b bcbd e803 bdbd 5af4 78bd
000003d0: 578b c7bd 4393 21be c421 00be a4ab 07bd
000003e0: 0e0a acbd 986d 9f3d f154 96bd 8f8f 083e
000003f0: b6ce bfbd 89a4 edbd f238 1bbe b83d d33c

transformer_layers.0.attention.W_k.weight f4 [32, 32]
-0.11355629 -0.052214388 0.09224297 -0.10813969 0.18530762 0.0618997 0.056489933 -0.019778458
-0.13078894 -0.09244618 0.0787309 0.06519367 -0.0912108 -0.12963547 -0.0007493104 0.112157516
-0.12566033 -0.020939587 0.078271694 0.1641122 0.04377245 -0.0019415647 -0.0021618607 -0.07754837
0.019985273 -0.09526854 -0.12484885 -0.17781441 0.07597021 -0.059166018 -0.11632373 0.10267763
-0.029707687 0.089280695 0.09471436 -0.12947874 -0.12209029 0.0107893925 -0.013599895 -0.022754533
0.17527647 -0.1439512 -0.13292891 0.055810433 -0.09798922 0.096873194 -0.17997226 -0.12554254
0.09822284 0.050367728 -0.17218752 0.10025808 0.06572213 -0.12796128 -0.12851082 0.04875159
-0.16651987 0.094683595 -0.11863798 -0.06343515 -0.13972892 0.0861525 -0.100680605 0.04873734
0.0025939196 -0.05555576 0.134204 -0.07071459 0.040515628 -0.113831826 -0.119761266 0.07149985
0.020292712 -0.18047048 -0.011202772 0.17905502 0.108139046 -0.12469382 0.039382458 0.10404007
-0.17838202 -0.1474585 -0.10066714 0.046216216 -0.105607875 0.10895495 0.004239496 0.050892152
-0.13495246 -0.062964976 -0.026813427 -0.015275745 0.032883894 0.0006499573 0.07839257 -0.038181096
-0.037517752 0.1514677 -0.06358445 -0.14683826 0.05369894 0.035079572 -0.112850666 0.19660142
0.023272032 0.079515755 0.12439696 -0.01461904 -0.12661982 0.033703297 0.043889217 0.06424616
0.18864086 0.0073889727 -0.094762854 0.08489225 -0.09998932 0.15742792 -0.14157933 0.08887312
0.10079862 -0.00508131 0.13384852 0.14247341 -0.112783834 0.021657687 0.061433192 -0.052521724
-0.1411072 -0.1610984 0.15717657 0.15687332 0.1795533 -0.1197741 0.12698995 -0.16351168
0.07249295 0.12834942 0.100674406 -0.13631469 -0.10691916 -0.15373324 -0.13971461 -0.17889093
0.14100565 0.046385273 0.04235601 0.057324164 -0.088061534 0.15700361 -0.071116455 -0.144574
0.11202015 0.03303114 -0.12006497 0.13675958 0.15455106 -0.15580216 -0.004447122 0.002149124
0.20596348 0.16352366 -0.1415771 -0.004661732 0.024528956 -0.08572005 -0.054624308 -0.03723886
-0.10595862 0.07886573 0.10492195 -0.07350028 -0.08403185 0.1082004 -0.077103056 -0.10967001
0.13473226 0.12207503 0.005297889 -0.1929051 0.023808511 -0.0693606 -0.16430493 0.038247846
0.14411274 0.036878332 -0.1523208 -0.06532571 -0.008539893 0.027891241 0.1640505 -0.17527367
-0.06338916 -0.12260742 -0.018157959 -0.16194735 -0.16994116 0.10627287 -0.060281027 0.14722705
0.018647008 0.17919193 0.16351297 -0.16860437 0.12017415 -0.012528552 0.06486211 -0.05689999
-0.14243074 0.063402645 -0.12950148 0.04807839 -0.16580787 0.054591093 -0.1582121 0.121637434
0.13103786 -0.16964611 0.06503389 0.07946903 -0.15675126 0.045839787 0.033447724 -0.11168781
-0.027618641 0.16111393 -0.13531034 -0.09304347 0.17982478 -0.045329325 0.0066672964 -0.053605158
0.037452746 -0.0838528 -0.15363088 0.08658995 0.16546102 0.045717485 0.12515067 -0.0590415
-0.04445899 0.14256571 -0.15645427 -0.1812462 -0.05637803 -0.071367115 -0.18564248 -0.008181919
-0.1094154 0.12549137 -0.0340292 -0.12934369 -0.035267618 -0.046311256 -0.044180714 0.059788015
00000000: 3390 e8bd c1de 55bd e2e9 bc3d 5778 ddbd
00000010: 48c1 3d3e 8a8a 7d3d fd61 673d 6f06 a2bc
00000020: 89ed 05be 6c54 bdbd ab3d a13d 4284 853d
00000030: bacc babd 29bf 04be 5f6d 44ba d7b2 e53d
00000040: 1aad 00be 7f89 abbc e94c a03d 070d 283e
00000050: be4a 333d 1a7c feba 01ae 0dbb aed1 9ebd
00000060: 28b8 a33c 271c c3bd c1b0 ffbd fb14 36be
00000070: 4596 9b3d 1158 72bd 233b eebd a648 d23d
00000080: 895d f3bc ccd8 b63d 9af9 c13d 1396 04be
00000090: 790a fabd fec5 303c 18d2 5ebc b767 babc
000000a0: ad7b 333e f267 13be 841e 08be 7b99 643d
000000b0: 92ae c8bd 7465 c63d a64a 38be 398e 00be
000000c0: 0e29 c93d 644e 4e3d ed51 30be 1c54 cd3d
000000d0: 5399 863d 4808 03be 5798 03be bfaf 473d
000000e0: 2f84 2abe 79e9 c13d 78f8 f2bd 4aea 81bd
000000f0: 1915 0fbe b970 b03d a231 cebd cea0 473d
00000100: c0fe 293b 708e 63bd c66c 093e d0d2 90bd
00000110: b7f3 253d a920 e9bd 6545 f5bd 836e 923d
00000120: e73c a63c 41cd 38be d58b 37bc 335a 373e
00000130: 0178 dd3d 795f ffbd 804f 213d f612 d53d
00000140: c7a9 36be 5cff 16be 932a cebd 374d 3d3d
00000150: f148 d8bd c623 df3d 78eb 8a3b 4a74 503d
00000160: fa30 0abe c8f3 80bd d5a7 dbbc 1e47 7abc
00000170: 43b1 063d e561 2a3a 498c a03d c863 1cbd
00000180: 37ac 19bd 591a 1b3e 9038 82bd c55c 16be
00000190: 6bf3 5b3d 99af 0f3d 401e e7bd e251 493e
000001a0: fda4 be3c 28d9 a23d d5c3 fe3d b384 6fbc
000001b0: a0a8 01be 780c 0a3d 2ec5 333d 7e93 833d
000001c0: 122b 413e 321f f23b 0713 c2bd fddb ad3d
000001d0: 33c7 ccbd c934 213e 2cfa 10be 1c03 b63d
000001e0: 826f ce3d 1e81 a6bb 960f 093e 8de4 113e
000001f0: 36fb e6bd 766b b13c 5fa1 7b3d 0521 57bd
00000200: 687e 10be fbf6 24be e5f2 203e 66a3 203e
00000210: d2dc 373e 204c f5bd a709 023e 9b6f 27be
00000220: 2f77 943d 086e 033e 622e ce3d 1496 0bbe
00000230: 6ff8 dabd 3f6c 1dbe 5911 0fbe 2f2f 37be
00000240: c963 103e 7cfe 3d3d 7f7d 2d3d becc 6a3d
00000250: 9b59 b4bd 8ec5 203e 81a5 91bd 350b 14be
00000260: d26a e53d a94b 073d 9fe4 f5bd b40a 0c3e
00000270: a242 1e3e 9a8a 1fbe 2ab9 91bb 51d8 0c3b
00000280: 17e8 523e bf72 273e 96f9 10be 71c1 98bb
00000290: f3f0 c83c fe8d afbd bdbd 5fbd c687 18bd
000002a0: d500 d9bd 5b84 a13d 52e1 d63d 5187 96bd
000002b0: e418 acbd 2c98 dd3d 35e8 9dbd ac9a e0bd
000002c0: 41f7 093e 7902 fa3d ea99 ad3b ea88 45be
000002d0: 110a c33c ee0c 8ebd 8d3f 28be c6a9 1c3d
000002e0: 4a92 133e bc0d 173d fcf9 1bbe 7cc9 85bd
000002f0: e8ea 0bbc 2c7c e43c dbfc 273e f17a 33be
00000300: 2dd2 81bd 9919 fbbd 00c0 94bc 87d5 25be
00000310: 0e05 2ebe 97a5 d93d 3de9 76bd b0c2 163e
00000320: 9cc1 983c 177e 373e f26f 273e a0a6 2cbe
00000330: dd1d f63d 8e44 4dbc 6dd6 843d f70f 69bd
00000340: 5dd9 11be 3fd9 813d 099c 04be d9ed 443d
00000350: 8ac9 29be e99a 5f3d 5a02 22be 0c1d f93d
00000360: ca2e 063e b6b7 2dbe 7d30 853d a9c0 a23d
00000370: 6783 20be 80c2 3b3d 7b00 093d 94bc e4bd
00000380: 7d40 e2bc 0dfb 243e cb8e 0abe 938d bebd
00000390: fd23 383e 3eab 39bd 5679 da3b 1591 5bbd
000003a0: 0d68 193d 04bb abbd 6a51 1dbe 1256 b13d
000003b0: 9d6e 293e 4242 3b3d 7f27 003e 80d5 71bd
000003c0: a11a 36bd bffc 113e 8c35 20be 9b98 39be
000003d0: a6ec 66bd ec28 92bd 1019 3ebe 750d 06bc
000003e0: 2e15 e0bd cf80 003e 3462 0bbd ac72 04be
000003f0: c774 10bd dfb0 3dbd d6f6 34bd 47e4 743d

transformer_layers.0.attention.W_v.weight f4 [32, 32]
-0.14794067 -0.13751309 -0.023061031 0.123546675 -0.08564189 0.17089924 -0.005348169 0.16720319
-0.017155154 0.08599063 0.106809184 0.0939418 0.042475995 0.025415322 -0.101183906 0.059235297
0.13969064 0.15228851 0.014629967 0.0061288797 0.04952809 0.16239141 0.12958533 0.009662027
-0.007969577 -0.0006102708 0.052694988 -0.16418822 -0.07187083 0.16593207 0.17418009 0.11378828
0.05275344 0.10603929 -0.027633658 0.08710645 0.070261955 0.029912036 0.14102896 0.040339693
0.029272065 0.17485823 -0.03980371 -0.019990673 0.02296576 -0.14467582 -0.019528138 -0.048535194
0.1519368 -0.008261564 0.06516629 -0.16576669 0.13510956 0.00019523498 -0.044626586 0.15797026
0.008342407 -0.12628296 -0.10672916 0.13296026 -0.02170153 0.06060658 0.03280886 -0.11472126
-0.055497814 -0.16059847 0.07297317 0.14086768 0.12926467 0.06054231 0.1594573 -0.06257789
-0.060615845 0.085639834 0.176534 -0.17530946 0.1423862 -0.15437159 -0.08257994 0.16185503
0.16702597 0.1098252 -0.112593025 -0.16434413 -0.020186363 0.019286307 0.104999185 -0.056139134
-0.123773575 -0.04091732 -0.025481373 -0.11693457 -0.13011627 0.025946159 0.081016175 0.050350673
-0.0017706589 -0.10132541 0.158119 0.12664503 -0.14210662 -0.012999761 -0.025523806 0.090935804
-0.049308613 0.069918714 0.1756492 0.0073006796 -0.08210813 0.1638035 0.16444214 0.12192134
0.07767493 -0.06450324 -0.021471322 0.07959095 0.0987236 0.1425724 -0.03668691 0.029228397
0.1340095 -0.08999537 -0.13747372 0.05822659 -0.070342846 0.056490295 0.16656955 -0.11750952
-0.1427059 0.12593438 -0.11317145 -0.060073704 -0.14363624 0.101282485 0.14570267 0.068428986
0.1475538 -0.094005525 0.04765537 0.102708586 -0.026146628 0.13560292 -0.10017207 -0.06348025
0.08329671 0.06574276 0.1666962 0.032507893 -0.1658559 -0.1772747 0.027268918 0.17281981
0.01506465 0.025721734 0.10201408 0.007017356 0.017232256 0.17961289 0.06144113 0.14150828
0.08742892 0.045648295 -0.05227975 -0.17275517 0.1667441 -0.03324565 0.13107964 0.08790185
0.088871166 0.081242114 0.09918681 -0.022600697 0.07736785 0.03654754 0.13513456 -0.028476726
-0.123306006 0.09574092 0.021021653 -0.054017678 0.06278858 -0.03119657 -0.09421228 0.03368568
0.07209449 0.035204988 -0.101354614 -0.12056923 -0.14727688 -0.05955275 0.03859762 -0.10617797
0.07729344 0.14856464 -0.080711156 0.12062169 -0.10610091 0.05973715 -0.011865195 0.09317404
-0.10347992 -0.08490645 0.071008965 0.0827574 0.14571436 0.051299598 0.005155097 0.04412721
0.123301804 -0.10379429 -0.13156828 0.07523829 -0.007113673 0.014291547 -0.008295909 -0.15689266
-0.031137627 0.08573479 -0.07856352 -0.08812297 -0.10850627 0.026462553 -0.057865962 0.16735782
-0.032861415 -0.11631309 0.08753873 0.038378984 -0.036174163 -0.076674044 0.04777778 -0.02683937
-0.08298737 0.029773345 0.16381955 -0.1172914 0.17905693 -0.019950263 0.11726114 0.008435657
0.16363049 -0.09522204 -0.0072721746 0.05859511 0.14182682 -0.13618843 -0.049227696 -0.0767594
0.06442516 -0.1812898 -0.032656476 -0.101084694 -0.012948824 0.07270401 0.0034780959 0.10630675
00000000: c27d 17be 3bd0 0cbe 7dea bcbc 0a06 fd3d
00000010: 0465 afbd 3600 2f3e b13f afbb 5037 2b3e
00000020: f788 8cbc db1b b03d c6be da3d 8f64 c03d
00000030: 4ffb 2d3d cb33 d03c 8239 cfbd b6a0 723d
00000040: 100b 0f3e 85f1 1b3e 87b2 6f3c c5d4 c83b
00000050: f7dd 4a3d ef49 263e 04b2 043e 7a4d 1e3c
00000060: d492 02bc 95fa 1fba b3d6 573d f520 28be
00000070: 0431 93bd 19ea 293e 445c 323e d409 e93d
00000080: fe13 583d 212b d93d fb5f e2bc de64 b23d
00000090: 80e5 8f3d 160a f53c e569 103e 3c3b 253d
000000a0: f8cb ef3c 090e 333e 3709 23bd 7bc3 a3bc
000000b0: b122 bc3c e625 14be 79f9 9fbc d7cc 46bd
000000c0: 5295 1b3e 835b 07bc e775 853d bebe 29be
000000d0: 295a 0a3e feb7 4c39 5eca 36bd f5c2 213e
000000e0: 97ae 083c 5250 01be d194 dabd bc26 083e
000000f0: 68c7 b1bc 9b3e 783d 9562 063d fbf2 eabd
00000100: ad51 63bd ed73 24be f572 953d 9e3f 103e
00000110: f55d 043e 37fb 773d c648 233e d628 80bd
00000120: 5248 78bd f063 af3d 54c5 343e 5384 33be
00000130: b0cd 113e 9613 1ebe ac1f a9bd 53bd 253e
00000140: db08 2b3e 09ec e03d 2c97 e6bd d449 28be
00000150: df5d a5bc 51fe 9d3c d009 d73d 26f2 65bd
00000160: 007d fdbd eb98 27bd 50be d0bc 647b efbd
00000170: 333d 05be 0a8d d43c cfeb a53d 823c 4e3d
00000180: 7415 e8ba b283 cfbd f2e9 213e 3caf 013e
00000190: 6684 11be f3fc 54bc 4d17 d1bc 8d3c ba3d
000001a0: d4f7 49bd 8b31 8f3d 62dd 333e 8a3a ef3b
000001b0: 4f28 a8bd 1bbc 273e 8563 283e e5b1 f93d
000001c0: 0914 9f3d 461a 84bd a0e4 afbc 9400 a33d
000001d0: 992f ca3d 80fe 113e 0345 16bd 6470 ef3c
000001e0: c939 093e 7e4f b8bd e9c5 0cbe 017f 6e3d
000001f0: e90f 90bd 5e62 673d 3591 2a3e d5a8 f0bd
00000200: 7f21 12be f1f4 003e 6fc6 e7bd d80f 76bd
00000210: 6115 13be 316d cf3d 1533 153e 7f24 8c3d
00000220: 5818 173e f885 c0bd 4732 433d e158 d23d
00000230: 7431 d6bc 7edb 0a3e 0427 cdbd ef01 82bd
00000240: 7797 aa3d 24a4 863d 69b2 2a3e ff26 053d
00000250: 21d6 29be 8087 35be 1163 df3c adf7 303e
00000260: b9d1 763c 63b6 d23c c2ec d03d d9f1 e53b
00000270: a92a 8d3c 71ec 373e b2a9 7b3d 8ce7 103e
00000280: ef0d b33d b5f9 3a3d 4b23 56bd bbe6 30be
00000290: f7be 2a3e 972c 08bd be39 063e e305 b43d
000002a0: 1602 b63d 4462 a63d 7422 cb3d 1925 b9bc
000002b0: 0973 9e3d e0b2 153d b760 0a3e 0648 e9bc
000002c0: dc87 fcbd d113 c43d 9a35 ac3c a441 5dbd
000002d0: 4d97 803d f38f ffbc 5ef2 c0bd fff9 093d
000002e0: 47a6 933d 1b33 103d 0293 cfbd 00ed f6bd
000002f0: c0cf 16be 96ed 73bd 8a18 1e3d d673 d9bd
00000300: 064c 9e3d 5421 183e e44b a5bd 8108 f73d
00000310: 6f4b d9bd f1ae 743d 3c66 42bc 08d2 be3d
00000320: 48ed d3bd 6fe3 adbd 266d 913d b67c a93d
00000330: 2536 153e 871f 523d 17ec a83b bcbe 343d
00000340: a885 fc3d 1a92 d4bd d6b9 06be 8816 9a3d
00000350: d019 e9bb 1827 6a3c 90eb 07bc 78a8 20be
00000360: 5614 ffbc b995 af3d e9e5 a0bd d179 b4bd
00000370: 8938 debd ffc7 d83c dc04 6dbd d95f 2b3e
00000380: b199 06bd 8f35 eebd 8147 b33d 4833 1d3d
00000390: 5c2b 14bd 4807 9dbd a2b2 433d 3dde dbbc
000003a0: 48f5 a9bd 3be7 f33c 50c0 273e 7936 f0bd
000003b0: b35a 373e bc6e a3bc 9c26 f03d b635 0a3c
000003c0: c08e 273e c603 c3bd 6c4b eebb 6d01 703d
000003d0: 0d3b 113e fb74 0bbe fba2 49bd 0834 9dbd
000003e0: 57f1 833d 09a4 39be ccc2 05bd 7e05 cfbd
000003f0: 4e27 54bc d7e5 943d c4f0 633b 5ab7 d93d
