app/resources/models/B02/best_model.pth (torch, 12776 bytes, 18 tensors)

conv_temporal.weight f4 [8, 1, 1, 64]
000000 e5 88 85 3d 8c d3 1b 3b dd 31 72 3c ac 8b d8 bd
       0.06520251 0.0023777215 0.014782396 -0.10573515
000010 d9 b9 2b be 68 db db ba 52 dd d4 bd 34 1f ea 3c
       -0.16770114 -0.0016773762 -0.10393776 0.028579332
000020 19 cb a1 bd aa a0 4f bc f8 da ac bd ac 1d 77 bd
       -0.07900066 -0.012672583 -0.084402025 -0.06033103
000030 53 04 39 bc 69 ab a9 bd c3 4c ca 3d 10 41 01 3d
       -0.011292535 -0.08284647 0.098779224 0.03155619
000040 6a 93 cd 3d 2f f8 20 3d 71 dc 5b ba eb 23 a3 bd
       0.100378826 0.039299186 -0.00083870353 -0.07965835
000050 15 7e d0 3c 70 04 a0 bb a3 c2 d8 3c a6 07 a4 bd
       0.025450746 -0.0048833415 0.026459998 -0.08009271
000060 24 7f b8 3d 71 8d 97 bb e0 9e d8 3d 48 d6 68 3d
       0.09008625 -0.0046250154 0.10577178 0.05684498
000070 ec 57 9b bd f4 4c c9 bc 4f 7b b0 bc f4 f4 68 bd
       -0.07585129 -0.024572827 -0.021543173 -0.05687423
000080 32 05 76 3d a8 0b 08 3d 33 f3 0e 3e 2d e4 cb 3c
       0.06006355 0.03321424 0.1395996 0.024889076
000090 31 23 a8 3d cc 88 93 3d a6 07 68 3d 23 3d a5 bd
       0.08209837 0.07203826 0.05664792 -0.080683015
0000a0 c0 49 e3 3d b3 d6 5b 3d a6 45 7c 3d c3 74 b2 bc
       0.11098051 0.05367155 0.06158986 -0.021784192
0000b0 97 f6 9d bc fe f7 00 3e e4 0c c9 3d 80 d2 db 3d
       -0.019282622 0.12594602 0.09816912 0.10733509
0000c0 55 3c 76 bd 32 2a c2 bb c8 22 09 bd 74 5d 1d bd
       -0.06011613 -0.00592544 -0.033480436 -0.038419202
0000d0 aa 89 bf 3d 6d 8a e4 3c 64 35 e1 bc 4f c3 0b bb
       0.09352429 0.027898038 -0.027491279 -0.002132613
0000e0 6a 35 4e bd 21 be 81 bc 58 2c fd bd 2a 7c 0b 3b
       -0.05034391 -0.01583773 -0.123619735 0.0021283724
0000f0 01 6a 90 3d 44 39 a8 3d 64 92 46 3d 4e c0 a9 bd
       0.07051469 0.082140476 0.048479453 -0.08288632
000100 cb 9a 0d be 4a ed 9e 3d 20 e1 a7 3c b5 6c 81 3d
       -0.1382858 0.07760103 0.02049309 0.06319562
000110 4e 03 06 3e 1a c4 6e 3d ad 35 aa bd d2 00 db 3d
       0.13087198 0.058292486 -0.08311019 0.10693516
000120 f5 9c 09 bd 34 26 8b bc 00 22 cb 3d 15 01 99 3b
       -0.03359695 -0.01698599 0.09918594 0.0046693184
000130 87 46 aa 3c 73 74 0c 3d b0 56 95 3d c4 32 e5 bb
       0.020785583 0.034290742 0.07291925 -0.006994577
000140 e2 fc f0 3d c6 be c3 bc 2a 2f 00 3b f5 cc bf 3c
       0.117669836 -0.023894679 0.0019559362 0.02341316
000150 67 06 d0 bc b0 ee 20 3b 2b bb 10 3c 2e 9d 56 bc
       -0.025393678 0.0024556331 0.008833687 -0.013098998
000160 fb a8 14 3e 21 e0 a8 3c 15 b2 0f 3e 0d dc 09 3e
       0.14517586 0.020614685 0.14032777 0.13462849
000170 cb 93 3c 3d df 54 a8 3d 7a 51 9f bd 33 b9 71 3c
       0.046039384 0.08219313 -0.07779212 0.014753628
000180 0a 90 01 3e 6d 80 9b bc eb b2 bc bd 12 ef f4 bc
       0.12652603 -0.018982137 -0.092138134 -0.029899154
000190 87 da a0 bd 75 08 ef bd 26 68 ec 3c a6 70 d2 3a
       -0.07854181 -0.11671535 0.028858256 0.00160553
0001a0 5d fb f9 3b c0 af 04 be 89 0b 83 bc e4 a5 d9 3d
       0.007628842 -0.12957668 -0.015996711 0.10627344
0001b0 ca 61 f6 3b fb 65 db 3d 3d dc 30 bd ae dc 64 ba
       0.0075189816 0.107128106 -0.043178786 -0.00087303936
0001c0 3b 99 4f 3d c6 b0 38 bc 64 e0 42 3d 65 69 9f 3d
       0.05068324 -0.011272615 0.047577277 0.07783774
0001d0 0a 05 1c 3d fe 28 0f 3c d7 b7 42 3d 61 3a 8f 3d
       0.038090743 0.008737801 0.047538605 0.06993557
0001e0 c9 98 08 be f3 71 8d 3d 70 34 85 3d e2 b4 43 3d
       -0.13339533 0.069065 0.06504142 0.047779925
0001f0 f0 d9 ac bd 90 ae be 3d b1 62 03 3d d1 19 40 3d
       -0.08440006 0.09310639 0.03207654 0.04689962
000200 56 fc 05 be 08 86 c1 3d e2 37 f6 bd ad 3d 0e 3d
       -0.1308454 0.094493926 -0.120223776 0.034726787
000210 9e 80 dd 3d ca e4 84 3d 38 6e a3 bc aa 54 d9 39
       0.108155474 0.064889506 -0.019950017 0.00041452545
000220 0e 9b 22 bd 53 98 4f bc 74 77 32 3b 3f ca fb 3d
       -0.039698653 -0.012670594 0.0027231844 0.12294435
000230 c6 5c df 3d 3f 6f 8d bc a4 d8 44 3d 3f 67 0f 3d
       0.10906367 -0.01726496 0.048058167 0.035010573
000240 3f 19 93 bb ed a4 03 3e 8c a2 1f bd f8 d3 71 3d
       -0.0044890936 0.12855883 -0.038973376 0.05904004
000250 7e 44 2e 3d 1b 77 c0 bb 1c 3f ab 3c ef 88 b2 3d
       0.042545788 -0.0058735735 0.020904116 0.08717524
000260 78 82 86 3d c7 23 38 3c f8 b3 8e 3d 74 d5 a9 3d
       0.06567854 0.011238999 0.0696792 0.08292666
000270 ad 3e ac bc 6c fd 72 bd c4 66 cf 3d b8 f2 ba 3c
       -0.02102598 -0.059323713 0.10127023 0.022820815
000280 4f 07 e5 3d fe c1 0e 3d 9c 3a 36 3c 29 16 51 3d
       0.11183035 0.034852974 0.011122372 0.051046524
000290 12 99 ec 3d fd 40 9c 3b e0 4b ed 3d c0 14 0c 3d
       0.11552633 0.0047684894 0.11586738 0.034199476
0002a0 52 b2 c0 3d 2b bf cd bd 2d b5 c1 3d f4 72 34 3d
       0.09409012 -0.10046228 0.09458385 0.04405494
0002b0 30 08 92 3d aa e4 c5 3d 40 0f cf bc 29 47 85 3c
       0.07130468 0.09662755 -0.025275826 0.016269283
0002c0 99 46 0c bd 44 1b 3d 3d fd 40 1c 3d 5d 0e 36 3c
       -0.034247015 0.04616858 0.038147915 0.011111823
0002d0 fe c7 a5 bc e1 27 fd 3d 2d 28 f3 3d 07 4b 8c bd
       -0.020236965 0.12361122 0.11872897 -0.06850248
0002e0 75 89 84 bd c1 f9 70 bc 26 90 07 3d a4 94 94 3c
       -0.0647153 -0.0147079835 0.033096455 0.018137284
0002f0 77 a8 f9 3d 3b 26 ad bc 7b da 77 bd 85 01 ee 3c
       0.12190335 -0.021136394 -0.060511094 0.029053459
000300 06 77 8f bd 61 04 5d 3d 81 35 54 bd 60 95 84 bd
       -0.07005124 0.053959254 -0.051808838 -0.064738035
000310 d1 12 85 bb b8 47 db bd 6e 3e bb 3d 0a b8 32 3c
       -0.004061081 -0.10707039 0.09142767 0.010908136
000320 bc 95 ad 3d 1c fc d3 3d 31 05 ba 3b 98 b0 37 3c
       0.08475825 0.103508204 0.0056768884 0.011211537
000330 c8 64 af 3c 26 f6 e6 bc f5 4c cc 3d 9b 81 66 bd
       0.021410361 -0.028193545 0.09975616 -0.056275945
000340 49 92 ed 3d 7b cc 4e 3d 59 0c f7 bc 00 b1 14 3d
       0.11600167 0.050487977 -0.030157255 0.036301613
000350 48 9f dc bc 3e 12 4f 3d d4 93 e9 bd 95 4a 02 be
       -0.02693142 0.050554506 -0.11405149 -0.12723763
000360 51 f8 9c bd dd eb 83 3d 60 ae 90 3d d1 13 b6 bc
       -0.0766455 0.06441472 0.070645094 -0.022226246
000370 63 0b 38 3c 8f ae fc 3d 26 49 69 bd 5d 12 ee 3d
       0.011233184 0.12337982 -0.056954525 0.11624596
000380 67 67 8e 3d bc 05 a3 3d 0f 52 a3 bd 5b 92 13 3d
       0.06953316 0.07960078 -0.07974636 0.036028247
000390 1d 5f 00 3d c4 6b c0 3d 84 32 b2 3d 47 a7 05 bd
       0.031340707 0.09395555 0.08701041 -0.03263023
0003a0 00 06 b3 3d 1e 3f 11 be 10 79 26 bd 02 ad 34 bd
       0.08741379 -0.14184234 -0.040642798 -0.044110306
0003b0 fa 99 1a be f4 f9 94 3c a8 5c a6 3d 42 a2 52 bd
       -0.150978 0.018185593 0.081231415 -0.051424272
0003c0 b0 48 8e bd 28 25 42 3d 72 cb 0e 3e f4 8a f8 bc
       -0.06947458 0.047398716 0.13944796 -0.030339696
0003d0 98 b5 1f bd 83 a0 55 3d d8 6a c9 3d db 82 cf 3d
       -0.03899154 0.05215503 0.09834832 0.101323806
0003e0 61 bb c0 3d de a4 94 3d 22 a1 6c 3d 4b 1a f6 bd
       0.0941074 0.072580084 0.057770856 -0.12016734
0003f0 31 c0 f0 3d 86 ef 1f bd c6 4d eb bd fe 5b d9 bd
       0.117554076 -0.039046787 -0.114894435 -0.10613249

bn1.weight f4 [8]
000000 d4 87 48 3f f8 86 48 3f a5 89 48 3f b5 89 48 3f
       0.7833226 0.78330946 0.7833503 0.78335124
000010 3d 7d 48 3f 7c 84 48 3f b3 86 48 3f 94 89 48 3f
       0.783161 0.78327155 0.78330535 0.7833493

bn1.bias f4 [8]
000000 50 37 4a 37 18 7a b8 b7 c2 be 87 b6 93 e6 23 b9
       1.2053017e-05 -2.1991364e-05 -4.0455207e-06 -0.00015630787
000010 87 47 51 b9 3b cc d1 36 87 a8 1a b9 96 39 aa b7
       -0.00019958439 6.252461e-06 -0.00014749366 -2.0292395e-05

bn1.running_mean f4 [8]
000000 3f 68 19 b8 24 40 8f b9 7e ba 58 b9 7e f7 bd 36
       -3.657513e-05 -0.00027322874 -0.00020668839 5.661451e-06
000010 10 22 2f 39 c6 c4 a6 b9 35 3c 61 39 1d 68 b7 b7
       0.0001670199 -0.00031808595 0.00021480101 -2.1863782e-05

bn1.running_var f4 [8]
000000 53 85 03 3f d0 96 e0 3e bd b6 2f 3e ff d7 fc 3e
       0.5137531 0.4386506 0.17159553 0.49383542
000010 0a 3b 54 3f b7 69 12 3f 52 96 c0 3e a5 25 07 3e
       0.82902586 0.5719256 0.37614685 0.13197954

conv_spatial.weight f4 [16, 1, 3, 1]
000000 7d f0 97 3c 1e 0b b8 3e ea 27 30 3e 63 b9 36 be
       0.018547291 0.35945982 0.17202726 -0.17844157
000010 eb 8c d7 bc d5 d9 db be 22 5f 90 be f7 53 09 3f
       -0.026312312 -0.4293963 -0.2819758 0.53643745
000020 17 af fc 3e a9 57 e6 be c4 13 7b be d0 f3 89 3e
       0.49352333 -0.44988754 -0.24519259 0.26943827
000030 3a ab 06 bf 06 c4 39 bd 38 f7 dd be a5 87 a0 be
       -0.5260502 -0.04535296 -0.43352675 -0.3135349
000040 fc cf 71 be b9 2f 11 bd b9 fa 32 be 38 6f ad be
       -0.23614496 -0.035445902 -0.17478456 -0.33873916
000050 9f 58 8a 3e 7c 08 1b be 31 e5 16 bf 25 e8 92 3e
       0.27020738 -0.15139955 -0.5894347 0.28692737
000060 4e 41 9e 3e 84 e4 35 be 98 d5 27 3d a8 36 a8 3d
       0.309092 -0.17762953 0.040975183 0.0821355
000070 68 2b c0 bd 77 ab a9 bd 16 a2 d9 be ef 4f 92 3e
       -0.09383279 -0.082846574 -0.42506474 0.2857661
000080 d9 62 88 ba 40 e7 a4 3e 78 e1 44 3c 7d fb 53 be
       -0.0010405435 0.3220768 0.012016647 -0.20701404
000090 c0 d9 93 be a8 d9 e0 3d 57 58 8b 3e 1b 89 10 3f
       -0.28877068 0.10979015 0.27215835 0.56459206
0000a0 3b 14 d7 3e 71 29 e7 3e dc c9 e5 be 79 57 d3 3d
       0.42007622 0.45148805 -0.4488057 0.103194185
0000b0 55 db 01 3f fb ca 54 3e 2d 91 9d 3e 9d fb 0c 3f
       0.507253 0.20780556 0.30774823 0.5507143

bn2.weight f4 [16]
000000 71 c9 78 3f ef a1 6c 3f e9 fb 67 3f c6 ae 65 3f
       0.97182375 0.9243459 0.9061876 0.8971981
000010 20 f7 88 3f f3 fc 7b 3f 9f 32 69 3f 0b e8 86 3f
       1.0700417 0.98432845 0.91092867 1.0539564
000020 23 2f 83 3f 0d 84 63 3f 94 b8 72 3f 4a 0a 66 3f
       1.024876 0.8887337 0.94812894 0.8985945
000030 3f 8e 74 3f 7d 23 83 3f 14 02 86 3f 9e 76 71 3f
       0.9552955 1.0245205 1.0469384 0.9432162

bn2.bias f4 [16]
000000 77 04 f6 bc 0b 6d 12 3b 89 4e 15 bd 0c 60 34 bd
       -0.030031426 0.0022342827 -0.03645185 -0.04403691
000010 d9 a7 e4 bc 0c 4e 40 bd 90 90 9f bc ae 77 ba bd
       -0.027912067 -0.04694943 -0.019478112 -0.09104858
000020 8b d2 8d bd fa 11 42 bd 99 49 98 bd b1 8f cd bc
       -0.069249235 -0.047380425 -0.07435913 -0.025092931
000030 ab c9 23 bd 96 cb 7e bd 45 93 71 bc 9e b0 fe bc
       -0.039987247 -0.062205873 -0.014744584 -0.031090077

bn2.running_mean f4 [16]
000000 55 47 72 37 50 6d 3b b8 94 90 44 37 5a 80 2a b8
       1.4440932e-05 -4.468608e-05 1.1716173e-05 -4.0650695e-05
000010 85 31 a8 38 55 3f 09 38 d1 fb 77 38 e4 64 a8 38
       8.020088e-05 3.2722328e-05 5.912391e-05 8.0296566e-05
000020 2d c2 0c 38 bb 06 10 36 19 8e 33 38 98 8f d2 37
       3.355944e-05 2.146159e-06 4.2809264e-05 2.5100817e-05
000030 a7 a5 f6 b7 0c 8f b0 37 5d 5a f4 b8 4b 9a 89 b8
       -2.9402623e-05 2.1047446e-05 -0.00011651658 -6.5614084e-05

bn2.running_var f4 [16]
000000 a3 5c 22 3e a0 ce 64 3e a4 c6 9a 3e 45 20 1e 3e
       0.1585565 0.22344446 0.30229676 0.15441997
000010 38 f7 0c 3f 24 0e 46 3e bc ee 9d 3d a3 63 49 3e
       0.55064726 0.19341332 0.077115506 0.19666915
000020 c2 39 12 3d c4 3d a3 3b d2 35 44 3d 08 25 07 3d
       0.035699613 0.0049817283 0.04790289 0.0329943
000030 15 fa a8 3c 69 dd 8e 3f f9 71 aa 3d 08 14 15 3f
       0.02062706 1.1161319 0.0832252 0.5823369

conv_separable_depth.weight f4 [16, 1, 1, 16]
000000 88 b0 37 bd b9 63 1c 3e 61 a9 26 3e 1a bc a8 3c
       -0.044846088 0.15272416 0.1627555 0.020597506
000010 62 18 0a be 2e 30 6f 3d 9f 4a 4c 3e e9 e2 27 3d
       -0.13485864 0.058395557 0.1995034 0.040987883
000020 aa 45 af 3d 42 bb 69 3d de 72 26 3e 23 3e f7 3d
       0.08558209 0.05706335 0.16254756 0.120723985
000030 a9 4d 8e bd 25 05 1e 3c 8f 4e f6 bd de 7e bc 3c
       -0.06948406 0.009644781 -0.120267026 0.023009714
000040 d9 2d 4a be 10 0f b2 3d 05 98 13 3e 41 05 5a be
       -0.19744052 0.08694279 0.1441346 -0.21291067
000050 a0 59 55 3a d1 a4 d3 bd 5c 4b 07 be d2 db a6 3d
       0.00081386603 -0.103341706 -0.13212341 0.08147396
000060 69 f9 f1 3c 27 a4 d1 bd 27 6b 21 3e 12 77 96 3d
       0.029537873 -0.10236388 0.15763532 0.073469296
000070 ab be 08 be fa e1 0d bd ff ca 11 be ad 6b 46 be
       -0.13353984 -0.034639336 -0.14237593 -0.19377013
000080 d3 2c 83 3e 4f 9d 45 bb 23 22 f8 bb fc 7d 14 bc
       0.25620136 -0.0030153578 -0.007572429 -0.00906324
000090 84 1f a1 bc cb 24 35 be c0 1a 46 3c 94 6e 85 bd
       -0.019668348 -0.17689817 0.012091339 -0.06515232
0000a0 f0 f5 fa 3d c2 37 97 3c ab e3 5b be fc 24 01 be
       0.1225394 0.018459205 -0.21473567 -0.12611765
0000b0 da f8 26 be b5 be 73 3c 3a 77 0e 3e 28 14 c7 3d
       -0.16305867 0.014877011 0.13912669 0.097206414
0000c0 65 1d 44 3d 10 64 14 3e 9b 4c ab bb ec 75 70 3e
       0.047879595 0.14491296 -0.005227638 0.23482484
0000d0 ac 57 22 be a8 64 45 bd 15 e3 62 bc 1a 07 2d be
       -0.15853757 -0.048191696 -0.013848086 -0.1689724
0000e0 ec 99 3b 3d 5c 21 00 3e 60 1e 01 3d 09 69 01 bb
       0.04580109 0.12512726 0.03152311 -0.0019746444
0000f0 56 fd 35 3e 6a e0 b4 bd 3a c7 67 bd 16 86 26 3d
       0.17772421 -0.08831866 -0.05658648 0.040655218
000100 0c 97 a8 bd 91 48 00 be 81 b6 08 3d 8c e5 76 3e
       -0.08231935 -0.12527682 0.033377174 0.24111003
000110 35 74 25 bd 80 89 2a 3e 88 64 af 3d fa 59 a4 3e
       -0.040394027 0.16654015 0.08564097 0.32099897
000120 9e b3 5c 3e a9 2c 45 bd a3 17 1f be 09 7a 52 3e
       0.21552894 -0.048138294 -0.1553636 0.20554365
000130 46 15 1e be 9f 1d a6 bd 0e 5c 9b 3e 85 2a 11 3e
       -0.15437803 -0.081111185 0.3034367 0.14176376
000140 a7 54 2b bc 2f 76 3e be 55 b1 98 bd 56 f2 fb bb
       -0.010457194 -0.18599771 -0.074556984 -0.007688801
000150 09 d1 dd 3d b6 8e 02 be f4 a8 89 bd 2b 11 41 3c
       0.10830886 -0.12749752 -0.067216784 0.011783878
000160 5f ac 81 be a6 d6 c0 bd a1 42 74 be 90 c2 da bd
       -0.2532682 -0.09415941 -0.23853542 -0.10681641
000170 7a 66 0d be f9 a7 c5 3d 6c 05 24 be e3 1f 6a be
       -0.13808623 0.09651179 -0.16017693 -0.22863726
000180 bd 9d 40 bd 19 c6 d9 bd c5 a4 ec bd 3b ce 4f bd
       -0.04702543 -0.10633487 -0.11554865 -0.050733786
000190 50 db 92 3d ff 9a 52 be 23 d1 43 be f4 50 57 bc
       0.07170737 -0.20566939 -0.19122748 -0.013141859
0001a0 20 e5 ac 3d 3b 29 81 3c b0 3a 5a 3e 67 4d aa 3d
       0.084421396 0.01576673 0.2131145 0.083155446
0001b0 65 52 33 be 74 ff db 3d 2a f0 e0 bd ca b5 1e 3e
       -0.175119 0.10742083 -0.10983308 0.15499035
0001c0 05 07 09 be da 24 fc 3d 10 7f df bd ad 2f e1 bd
       -0.13381584 0.123117164 -0.10912907 -0.109954216
0001d0 60 5c 78 be 17 4d 16 3e 60 98 50 be 2c f4 23 be
       -0.24253988 0.14677845 -0.20370626 -0.16011113
0001e0 67 56 45 be b9 bd 94 be cf 52 3f be 75 76 df 3d
       -0.19271241 -0.29050997 -0.18683933 0.10911266
0001f0 bf f8 a8 3d 92 f0 b1 bb 6c 72 1a be a5 63 6d bd
       0.082505696 -0.0054302895 -0.15082711 -0.057956357
000200 d9 6d a5 bc f3 53 27 be ca a3 41 3e 0e 86 14 3e
       -0.020193981 -0.16340618 0.18910137 0.14504263
000210 5f 86 60 3e 58 32 43 be a6 2c 92 3d 69 7b 2a 3e
       0.21926259 -0.19062173 0.07137422 0.1664864
000220 0a b4 b5 3c e2 02 19 3e 1c cd 1f 3e 3d 1f b8 bd
       0.022180576 0.14942506 0.15605587 -0.08990333
000230 a3 8f 44 3e 82 56 9f 3d 26 6c a9 ba 22 35 02 3e
       0.19195418 0.07780172 -0.0012925908 0.12715581
000240 37 13 31 3e 8d b2 0f 3d cb 88 dd 3d 52 f1 1b be
       0.17292486 0.03508239 0.10817107 -0.15228775
000250 c3 93 da bd 1e 87 3c bd a3 04 f0 3d 96 4d cd 3d
       -0.106727146 -0.046027295 0.117196344 0.10024564
000260 bf 7e bf bd c7 f9 3c bd 9c ce 21 bd c7 dd f9 bd
       -0.09350347 -0.046136644 -0.03950368 -0.12200504
000270 2e 6b 2c 3e 25 96 c1 3d 43 30 f2 3d 74 28 dc bd
       0.16837761 0.09452466 0.118256114 -0.10749903
000280 20 71 ea bc 54 a4 35 be 6c 2d 4e 3e c7 a3 28 bd
       -0.028618395 -0.17738467 0.20134515 -0.041171815
000290 c3 e7 b9 3c 64 38 b7 bd 41 42 d9 3d da 6d 2e 3e
       0.02269352 -0.089463025 0.1060834 0.17034093
0002a0 4e 2c 60 be 82 87 31 3e 4c 65 e5 3c 2d 4f db 3d
       -0.21891901 0.17336848 0.028002404 0.10708461
0002b0 4d 82 3f be 0f 11 a3 3d ea 03 84 3e 50 38 3c 3e
       -0.1870205 0.07962238 0.25784236 0.18380857
0002c0 b8 49 cf bd 9b b2 c8 3c de f1 23 be a9 a4 cd 3d
       -0.101214826 0.024499228 -0.16010234 0.10041172
0002d0 ca b1 e5 3d 49 55 e2 3d f8 05 49 be 6b 7c fb 3d
       0.11215551 0.11051423 -0.19631183 0.1227959
0002e0 a2 be 12 3b b0 b9 21 be a6 cc 92 bd f0 04 57 3e
       0.0022391458 -0.1579349 -0.0716794 0.20997977
0002f0 a8 ed 18 be de b6 2e 3e af d8 76 3e ab 11 38 be
       -0.14934409 0.17061946 0.24106096 -0.1797549
000300 32 29 6a be 1c de 55 be bd 3b 06 bd 1a d6 63 be
       -0.22867277 -0.20885509 -0.032771815 -0.22249642
000310 de 45 31 3e e3 d8 3b 3e df c8 a7 bc 87 3f 14 3e
       0.17311808 0.18344454 -0.020481525 0.14477359
000320 de 3e 56 3e 51 8c c9 3d a6 e2 dd bd 47 7d 8a bc
       0.2092242 0.09841216 -0.108342454 -0.01690544
000330 19 a8 42 3e e8 b6 d8 bc b3 1a 57 3d 14 d5 d4 39
       0.19009437 -0.026454404 0.052515697 0.00040594547
000340 15 74 8a bd df 36 5f bd 4f 52 19 be cc af f2 bd
       -0.06760422 -0.05449569 -0.14972804 -0.11849937
000350 6e bc 34 3e 44 d7 d0 bd b5 aa 88 bd 3e 2d 26 3e
       0.17650005 -0.10197309 -0.06673185 0.16228196
000360 60 75 4a 3d 35 1e 4d be 01 63 f8 bd c9 f9 0c be
       0.049428344 -0.20031054 -0.121282585 -0.1376716
000370 0c ce 30 be 4e bd 6d be a3 e6 be 3d 26 2c 31 3e
       -0.172661 -0.23216745 0.09321334 0.17301998
000380 69 5a 18 be e7 43 8c 3e d7 06 35 3e 03 2d 81 3e
       -0.14878239 0.27395555 0.1767839 0.25229654
000390 c1 94 0b be bc 58 06 3e 08 af 5a 3e 50 89 30 3e
       -0.13630964 0.13119787 0.21355832 0.1723988
0003a0 08 ce e0 bc f4 60 47 3e 20 c0 24 3e f3 8f bb bd
       -0.027441993 0.19470578 0.16088915 -0.091583155
0003b0 17 07 30 3e 40 24 9b bd 6e 48 55 3e a2 2b 76 bd
       0.17190205 -0.075752735 0.20828411 -0.060100205
0003c0 d9 b6 0a be 03 ec f4 3d 12 3a e6 bd a2 9d 7f bd
       -0.13546313 0.11959078 -0.11241545 -0.06240619
0003d0 c2 10 1b 3e 69 28 51 3e 48 f1 8b 3d af 97 40 3e
       0.15143111 0.20425572 0.0683313 0.18807863
0003e0 39 88 9d 3d b0 96 75 bd 23 9e c4 bd c9 88 5d bd
       0.07691998 -0.05995816 -0.09600475 -0.054085527
0003f0 53 ab f4 3c 98 20 5f 3b 1d f5 9c 3d bd c2 da 3d
       0.02986685 0.0034046527 0.07663939 0.10681675

conv_separable_point.weight f4 [16, 16, 1, 1]
000000 4c 88 05 be f4 96 28 be 1a f0 38 3e b5 df cb bd
       -0.13040274 -0.16463834 0.18060341 -0.09954778
000010 68 fc 34 3e fd 93 26 3e 30 73 2b be cb e2 99 3d
       0.1767441 0.1626739 -0.1674316 0.075139605
000020 24 56 82 3c 5b ba 09 be 75 88 7d bd 64 98 f4 bd
       0.015910216 -0.13449995 -0.061897714 -0.11943129
000030 24 47 83 be 64 07 f1 bd f9 dc 91 3e 8b 21 66 3e
       -0.25640213 -0.11768988 0.284889 0.22473733
000040 3c bb 46 be 2c 92 4e bc ac 7f f7 bd 79 4c 1f 3e
       -0.19407362 -0.012608092 -0.12084898 0.15556516
000050 ab c3 2f be 58 a4 58 bc 5c bc 45 bd f6 34 37 be
       -0.17164485 -0.013222776 -0.048275337 -0.17891297
000060 f1 03 5e 3e e6 3d 2e be 45 b2 00 be 52 c9 1e be
       0.21681191 -0.170158 -0.12568004 -0.15506485
000070 42 c8 b4 bd 6c f2 0f 3e 05 92 14 bc cc 2d db bc
       -0.08827259 0.1405732 -0.009068017 -0.026755236
000080 96 1b 5e 3e 4b 2c e1 3d c6 b9 7b 3d 3a de 60 3c
       0.2169021 0.10994776 0.061456464 0.013724858
000090 4f 38 2f bd 5d 57 96 be 69 79 81 3d 9a 9d 32 3e
       -0.04277831 -0.29363528 0.06321985 0.17442933
0000a0 c8 e5 e3 3d d6 ca 9d bc 20 9a 06 bd f7 1f 51 3e
       0.11127812 -0.019261759 -0.03286183 0.2042235
0000b0 28 af 81 be c0 9f 0e 3e af b6 96 3e 2f b7 19 3e
       -0.25328946 0.13928127 0.29436252 0.15011285
0000c0 ad c6 0e 3d 12 8d 89 3d fe 06 da 3d 73 da d9 bd
       0.03485744 0.0671636 0.10645865 -0.10637369
0000d0 6e c5 83 bd 67 1b ca bd 3b 59 3e 3d e2 05 13 be
       -0.06434141 -0.09868508 0.046471816 -0.14357713
0000e0 81 50 65 3e aa b9 25 3d f2 f8 2d 3e fb 35 3a be
       0.22393991 0.040460266 0.16989496 -0.18184654
0000f0 f7 06 e3 bc 51 ce 56 3e 7c da 2e 3d a4 e0 7b be
       -0.027713282 0.20977141 0.04268883 -0.24597412
000100 99 31 a9 bd 08 bb 0d 3e 7c 60 08 3e a9 46 9f 3d
       -0.08261413 0.13840878 0.13318056 0.07777149
000110 e2 b1 7f bd 16 e5 48 3e 37 b8 90 3d 0a 3a 36 bd
       -0.0624255 0.1961864 0.07066386 -0.044488944
000120 e4 26 fe 3d 4a 64 f4 bd 75 84 0b be ae 69 13 3e
       0.124097615 -0.11933191 -0.13624747 0.14395782
000130 bf 0d db bd 95 45 fc bd d2 35 58 be be 24 3a 3e
       -0.10695981 -0.12317959 -0.21114281 0.18178079
000140 f5 a2 b9 3d 11 1f 9e 3d 9f fb 2c 3e 24 b5 58 be
       0.09064285 0.07720769 0.16892861 -0.2116285
000150 f0 01 56 be dc 87 0c 3d 22 c8 51 3e 63 28 24 3e
       -0.20899177 0.034309253 0.20486501 0.16031031
000160 90 39 c6 bc 04 97 78 3e 86 6b e0 bd 8f be 29 3e
       -0.02419737 0.24276358 -0.109580085 0.16576599
000170 b8 b6 75 3e 55 54 28 be 38 b9 44 3d ac e4 5e 3e
       0.23995483 -0.1643842 0.0480282 0.21766919
000180 2b d2 68 3e 5c 79 b6 bd a8 5d 31 3e 3d 63 25 be
       0.22736423 -0.08909866 0.17320883 -0.16151138
000190 a6 fc 26 3d fc 7b 7f bc c9 3a 9e 3d 7e d2 01 3e
       0.040768288 -0.015593525 0.07726056 0.12677953
0001a0 8a 82 e4 3b 25 d5 0f 3e 99 63 f3 3d 56 24 e0 3d
       0.0069735693 0.14046152 0.11884231 0.109444305
0001b0 9c 13 40 3e 39 55 72 3e 13 ae 7c 3e 6a 9d 4c 3d
       0.1875748 0.23665322 0.24675779 0.04995481
0001c0 86 e1 37 be df dd f7 3d 75 3a 9b bc 88 e2 4c 3e
       -0.17957124 0.121028654 -0.018948773 0.2000829
0001d0 27 a1 b5 bd f2 40 50 3d e4 ee 68 be c9 4b 2c be
       -0.08868628 0.050843187 -0.2274738 -0.16825785
0001e0 39 58 57 3e 7f d9 e9 bd ec a9 be bd 4a 5b 9a 3c
       0.21029748 -0.11418437 -0.09309754 0.018842358
0001f0 52 61 b2 bc 08 63 15 3e 93 b3 0e be d7 3a 32 3d
       -0.021774922 0.14588559 -0.1393569 0.043513145
000200 42 7e 09 be e6 1b ab 3d 72 d6 d9 3d f8 62 95 bd
       -0.1342707 0.083549306 0.10636605 -0.072942674
000210 d5 f8 8e 3e d0 ff 23 3e 89 36 0c be 5a 40 12 be
       0.2792422 0.16015553 -0.13692679 -0.1428236
000220 c7 5a aa 3d 61 e6 68 be ef 14 0b 3d 21 24 fa 3c
       0.08318096 -0.22744133 0.03395551 0.030534806
000230 5f 9e e6 3d 8c 1d ea 3d d1 d4 e9 bd b3 00 99 3b
       0.11260676 0.11431417 -0.11417545 0.004669273
000240 f1 4a 0d be 20 33 04 3e 37 f8 22 3d 68 d8 2e 3e
       -0.13798119 0.12910128 0.039787497 0.1707474
000250 65 84 81 3e 8a 73 14 3d 0e d5 d6 3d ba d9 8d 3d
       0.25296322 0.036243 0.10489856 0.06926294
000260 ca e3 44 be fc e2 ad bd 84 82 b9 bd df a9 bf bd
       -0.1922752 -0.084905595 -0.09058097 -0.09358572
000270 f4 98 06 be f7 8b 9d be ea 38 bd 3d 01 51 e6 bd
       -0.13144284 -0.30770847 0.09239371 -0.11245919
000280 c0 53 4c be f3 6b 52 ba 5c e8 5b be 7b ce 59 3d
       -0.19953823 -0.000802695 -0.21475357 0.05317543
000290 e2 88 9c 3d 2f dc 76 3d b7 54 3f 3e 04 6c 09 3e
       0.07643296 0.060268577 0.1868466 0.13420111
0002a0 34 9e 4e be 37 bc b1 bc 4f ec a2 3d 19 ca 28 be
       -0.20177537 -0.021696193 0.079552285 -0.16483344
0002b0 e4 ca 5f be 26 a5 95 be 21 ae 1d be 48 42 1d 3e
       -0.2185474 -0.2922756 -0.15398456 0.15357316
0002c0 c5 0f 83 bd 48 87 f5 3d c2 15 b6 bd 7e c8 5c bd
       -0.06399492 0.119886935 -0.08890869 -0.05390214
0002d0 58 df 81 bd 3f d3 80 3e b1 e9 44 3b 77 51 78 be
       -0.063414276 0.25161168 0.0030046517 -0.24249826
0002e0 85 6e 5a 3e 46 b8 a9 bb d1 41 49 3e a9 4f 03 bc
       0.21331222 -0.005179438 0.19654013 -0.008014598
0002f0 4f 92 21 be 7b 70 8c 3d 49 40 0a be 11 c5 22 be
       -0.15778469 0.068573914 -0.13501085 -0.15895487
000300 3b 93 69 3b ee 7a c3 3d e9 04 fa bd 26 b0 85 bd
       0.0035640735 0.09544931 -0.12207968 -0.06527738
000310 3e 1d e1 bd 14 0b 62 3e 2e 3c 9a 3d bb 55 14 be
       -0.10991906 0.22074538 0.075310096 -0.14485829
000320 0f f3 32 bd 38 57 c1 bd e0 d1 62 3b 45 2a 75 3d
       -0.04368883 -0.09440464 0.0034609959 0.059854764
000330 10 a9 aa bd b4 b1 5b bd c4 e8 1d be 3e c2 37 3e
       -0.08333027 -0.053636268 -0.15420824 0.17945191
000340 92 cf 07 be 65 a1 85 3e 93 5a 07 bd 79 b9 67 bd
       -0.13262776 0.26099697 -0.033045363 -0.056573365
000350 07 11 f1 bd ba d1 63 3d 24 41 6b bd 45 5f 03 3d
       -0.11770826 0.055619933 -0.05743517 0.032073278
000360 70 70 89 bd 5a 81 2c 3e ea 00 93 3d 46 bd 88 bd
       -0.06710899 0.16846219 0.07177909 -0.06676726
000370 4f 40 f1 bd 7a 00 c8 3d 5c 9c 45 bd e2 5d 43 bd
       -0.11779844 0.09765716 -0.04824482 -0.047696956
000380 70 13 6e be 89 05 10 3e 82 51 c4 3c 06 14 08 3e
       -0.23249602 0.14064611 0.023964647 0.13288888
000390 db 01 10 be b3 bb 2c 3e 6a 80 27 3e eb 06 2a 3c
       -0.14063208 0.16868477 0.1635758 0.010377626
0003a0 94 60 5f 3e 7a cd 48 be ab 19 3c 3e 5e 6a 9f bd
       0.21814185 -0.19609633 0.18369167 -0.0778396
0003b0 b1 18 91 3c bc 4c 25 3e 89 0d 6c bc a8 49 a8 3b
       0.01771197 0.16142553 -0.014407524 0.0051357336
0003c0 df 25 cb 3d 4c 7a 6b 3e d0 1c 2f be 19 55 46 3e
       0.09919333 0.22995871 -0.17100835 0.193684
0003d0 df 0e 7a 3d 84 26 69 3d 67 75 a4 3c fd 94 b0 3b
       0.06104934 0.056921497 0.020075513 0.0053888545
0003e0 9a b4 91 bd 08 e7 3d bd e0 73 29 be c5 38 de 3d
       -0.07114525 -0.046362907 -0.16548109 0.10850672
0003f0 02 27 14 3e 13 62 7d be fd ee 41 3e 7b 3c 0f be
       0.14468005 -0.24744444 0.18938823 -0.13987915

bn3.weight f4 [16]
000000 d4 3b 80 3f 04 37 7b 3f 4f 43 81 3f 29 b3 80 3f
       1.0018258 0.9813082 1.0098666 1.0054675
000010 3a f9 7f 3f 08 c6 7d 3f 0e fa 80 3f d5 1a 83 3f
       0.99989665 0.99130297 1.0076311 1.0242563
000020 0b d0 79 3f ec a8 81 3f 2a 51 7b 3f fd 75 83 3f
       0.97583073 1.0129676 0.9817072 1.0270382
000030 91 10 81 3f 36 3a 81 3f 6d 15 83 3f c2 01 79 3f
       1.0083181 1.009589 1.0240914 0.9726831

bn3.bias f4 [16]
000000 28 86 16 bc 25 50 1f 3c 51 6f 33 bc 7b c8 0c 3c
       -0.009187259 0.009723698 -0.010951833 0.00859272
000010 96 ee cb 3b dd 2c 36 bc 39 bd ee bb 60 e2 bc 3b
       0.00622351 -0.011119095 -0.0072857407 0.0057642907
000020 0f 43 5f bc f8 82 4f bc 85 c5 88 bc bf 98 6d 3c
       -0.013626828 -0.012665503 -0.016695747 0.01450175
000030 7f 1f 51 3c 47 9b d7 3b 35 6e 1f 3c a1 c1 24 bc
       0.012763857 0.00657979 0.009730865 -0.01005593

bn3.running_mean f4 [16]
000000 f3 22 7b 3d f2 45 28 bc 3e 39 b8 3d 02 ee e1 3c
       0.061312627 -0.0102705825 0.08995293 0.027579311
000010 b5 59 9b bd ff a5 03 bd 10 e2 6c 3d 98 21 09 bd
       -0.0758547 -0.032140728 0.057832778 -0.033479303
000020 1e 5c 2c bc 7c b7 56 3b a8 c2 84 bd da 91 48 bd
       -0.010520009 0.0032763174 -0.0648244 -0.04896722
000030 89 92 8d bd 84 8e b9 bd 10 e4 94 bd d6 8b 0e 3d
       -0.06912715 -0.09060386 -0.07270062 0.034801327

bn3.running_var f4 [16]
000000 73 aa 08 3e ef c1 99 3d fd f4 f3 3d eb d8 98 3d
       0.13346271 0.07507693 0.11911962 0.07463249
000010 6f a9 9b 3d 9a 5a dc 3d 42 f0 dd 3d f9 9a 86 3d
       0.07600676 0.107594684 0.10836841 0.065725274
000020 e8 c3 bc 3d 33 cd d3 3d 81 8d f9 3d cd a3 d4 3d
       0.09217054 0.10341873 0.12185193 0.10382805
000030 bf 94 68 3d 16 59 86 3d 5e 71 9f 3d 16 46 b7 3d
       0.05678248 0.065599605 0.07785295 0.08948915

classifier.weight f4 [2, 16]
000000 1b a7 f4 bd 62 4e 79 3e 65 d8 48 bd b6 32 34 3e
       -0.11945935 0.24346307 -0.049034495 0.1759747
000010 28 a8 27 3e 0f 32 44 3c a0 74 87 be ed 92 61 3e
       0.1637274 0.0119748255 -0.26456165 0.22028704
000020 b0 b9 97 bd 7c c6 3f be a7 d7 a4 bd fa 1c 7d 3e
       -0.07408464 -0.1872806 -0.08048945 0.24718085
000030 2d 0d 2a bd 59 e6 04 3e 44 d1 8a 3d 22 aa f9 bd
       -0.04151647 0.12978496 0.067781955 -0.121906534
000040 f2 66 58 3d 09 46 2b 3e a8 c2 6b 3e 1b 61 8e bc
       0.05283255 0.16725935 0.23023474 -0.017380288
000050 f5 1b 56 3b 59 ff 24 3e 32 3e 87 bd 4d 1d bf bd
       0.0032670472 0.16113032 -0.0660366 -0.093317606
000060 cc 30 cc 3d df 24 4c 3e 84 a1 f6 3c 71 47 91 bd
       0.09970245 0.1993594 0.030106314 -0.070937045
000070 d6 4f 76 be be df 32 bd 12 64 53 be fc 4f 3d bd
       -0.24053892 -0.04367041 -0.20643643 -0.046218857

classifier.bias f4 [2]
000000 af c8 8c 3b 13 9e b2 3d
       0.0042963843 0.087215565
